D3QN_AAAI_LOSS/checkpoint_d3qn_lunar.pth (torch, 127081 bytes, 19 tensors)

fc1.weight f4 [128, 8]
0	0x3f073a42	0.5282327
1	0xbe352ad7	-0.17692123
2	0x3db81fff	0.08990478
3	0xbf11fa22	-0.570223
4	0xc013a285	-2.3067944
5	0xbf83ecaa	-1.0306599
6	0x3c258a66	0.010103798
7	0xbf84aac5	-1.0364615
8	0xbf9dbf04	-1.2323918
9	0x3e9e832b	0.30959448
10	0x3f994599	1.1974365
11	0x3f8344c3	1.025536
12	0x3fc2e093	1.5224785
13	0x3f7289d2	0.9474155
14	0x3e0e8ef0	0.13921714
15	0xbeae32ca	-0.34023124
16	0x3dc6d72f	0.09709012
17	0x3e05599d	0.13022466
18	0x3e0fde5f	0.14049672
19	0x3d51a9b0	0.051187217
20	0x3d8174bd	0.06321094
21	0x3e07cfcd	0.13262863
22	0xbef6b30b	-0.48183474
23	0xbee28086	-0.4423868
24	0x3e60ad7a	0.21941176
25	0xbea1b106	-0.3158037
26	0x3f00d1d7	0.5032019
27	0xbf2ea618	-0.6822219
28	0xbf0f44ad	-0.55964166
29	0xbfcf133e	-1.6177747
30	0xc00b795c	-2.1792822
31	0xbf13012d	-0.5742367
32	0xbf125571	-0.57161623
33	0x3f7d2d55	0.98897296
34	0x3f109c43	0.56488436
35	0xbf6ea555	-0.93221027
36	0x3f9e7f79	1.2382652
37	0x3f178e2c	0.5920131
38	0xbdc3de60	-0.09563899
39	0xbfb9770d	-1.4489456
40	0x3ecbd207	0.39808676
41	0xbbd0b723	-0.006369488
42	0xbdc8b7d4	-0.098006874
43	0x3d4fa478	0.05069396
44	0xbea00cf6	-0.31259888
45	0xc00241d4	-2.0352678
46	0xbfd508fc	-1.6643367
47	0xbe0954a2	-0.13411191
48	0xbed87657	-0.42277786
49	0xbebbe08d	-0.36694756
50	0xbe280ed4	-0.16411906
51	0xbf89a0f3	-1.0752243
52	0xbeaca387	-0.3371851
53	0xbeb43c16	-0.35202092
54	0xbfa4d22d	-1.287664
55	0xbf3d2628	-0.73886347
56	0x3f544e17	0.82931656
57	0x3e13d826	0.14437923
58	0xbfcbff06	-1.5937202
59	0xbfa318fe	-1.2742002
60	0xbf68f084	-0.90992
61	0xbf1d5266	-0.61453855
62	0xc036a8f6	-2.8540626
63	0x3f4a3fa4	0.7900336
64	0x3fab4da1	1.3383065
65	0x3f745f7c	0.954582
66	0x3f07ba27	0.5301842
67	0x3f08031b	0.5312974
68	0xbf5e2ac7	-0.86784023
69	0x3f24bd03	0.6435091
70	0xbf33ba38	-0.7020602
71	0xbea0c8cf	-0.31403205
72	0x3f1f3bb4	0.62200475
73	0x3ec555bb	0.3854197
74	0x3d2d9f3c	0.042388186
75	0xbf0b1229	-0.54324585
76	0xbfb92477	-1.4464253
77	0xbf6cf127	-0.9255547
78	0xbfd878a3	-1.6911815
79	0x3fbcaadb	1.4739641
80	0xbf96a306	-1.1768501
81	0xbef6eb67	-0.48226473
82	0x3ee705f3	0.45121726
83	0x3fd7d19e	1.6860845
84	0x4014877c	2.3207693
85	0xbe022a2b	-0.12711398
86	0x3f7f16f7	0.99644417
87	0x3f293029	0.6608911
88	0xbf566e03	-0.83761615
89	0x3f340033	0.70312804
90	0xbfb4f976	-1.413863
91	0xbf00cee9	-0.5031572
92	0x3f0e6f47	0.55638546
93	0xbf686517	-0.9077925
94	0xc0402f0b	-3.0028713
95	0x3eebe947	0.46076414
96	0x3fafc32f	1.373144
97	0x3c51f7c4	0.01281542
98	0x3df81807	0.12113958
99	0x3fd931ee	1.6968362
100	0x3f1e251e	0.61775386
101	0x3f9a964a	1.2077115
102	0xbe75b24f	-0.239938
103	0xbdfe57f9	-0.12419123
104	0x3fc857b0	1.565176
105	0xbe906acc	-0.2820648
106	0xbeb9d836	-0.36297768
107	0x3efa8ca5	0.48935428
108	0xbfb13887	-1.3845376
109	0xbf008c86	-0.5021442
110	0xbe8fcb7b	-0.2808493
111	0xbf4bb7f8	-0.7957759
112	0xbf969182	-1.1763155
113	0xbd9a80de	-0.07544111
114	0xbd7c00cc	-0.061524197
115	0x3eded15e	0.4351911
116	0x3dcf871a	0.101331905
117	0xbf214ee7	-0.6301102
118	0xbe95b877	-0.29242298
119	0xbf8fa478	-1.1222067
120	0xbf15a05e	-0.58447826
121	0xbfb98d35	-1.4496218
122	0xbe4c6dad	-0.19963713
123	0x3ff38c1d	1.9027134
124	0x3f55cb57	0.83513397
125	0x3ea89a77	0.32930347
126	0x3f436cca	0.76337874
127	0x3f38b11a	0.72145236
128	0xbfc58dbe	-1.5433881
129	0xbfc07c98	-1.5038023
130	0xbfee7416	-1.8629177
131	0xbf1182d5	-0.5684026
132	0x3ec9b7e9	0.39398125
133	0x3e0de418	0.13856542
134	0x3e987b9e	0.29781812
135	0xbf35dbf8	-0.7103877
136	0x3f2294a6	0.6350807
137	0xbe9237e1	-0.28558257
138	0x3eaf73f7	0.34268162
139	0xbec7615e	-0.38941473
140	0x3f6dbc82	0.92865765
141	0xbe829c95	-0.25510088
142	0xbfe06408	-1.7530527
143	0xbfe38765	-1.7775694
144	0xbf663411	-0.899232
145	0xbfaed484	-1.3658605
146	0x3f3c79d5	0.736234
147	0x400b0011	2.171879
148	0x3e0b0b25	0.1357847
149	0x3fad74e7	1.3551301
150	0x3f698bc1	0.9122887
151	0xbe8aca79	-0.271076
152	0xbf83ec4e	-1.030649
153	0x3f1877d1	0.59557825
154	0x3db0ff88	0.08642489
155	0xbf8bb184	-1.0913548
156	0x3f2888d4	0.65833783
157	0x3f5d2f27	0.86400074
158	0x3f062774	0.5240395
159	0xbf65e5ec	-0.8980396
160	0xbefff288	-0.49989724
161	0xbdd1a383	-0.102362655
162	0xbf87d291	-1.0611135
163	0x3f6076bc	0.87681174
164	0xbf872e9e	-1.0561101
165	0xbfc14d7e	-1.5101774
166	0xbf21f6ca	-0.63267195
167	0xbf48f2ef	-0.7849569
168	0xbf3bb942	-0.73329556
169	0xbf8725a8	-1.0558367
170	0x3e9b1db0	0.30296087
171	0xbf8df7b5	-1.1091219
172	0xbd9023c4	-0.07038072
173	0xbe770175	-0.2412165
174	0xbfab6325	-1.3389632
175	0xbef8f1b1	-0.48621896
176	0xbed3a1d7	-0.41334412
177	0xbe009514	-0.12556869
178	0xbac3e8e5	-0.0014946727
179	0xbdaf84fb	-0.08570286
180	0x3e45a28f	0.19300292
181	0x40131d10	2.2986488
182	0x3e331dd0	0.17491841
183	0xbf9b6bdd	-1.2142292
184	0x3e8da68f	0.27666137
185	0xbebce55c	-0.36893737
186	0x3ded7004	0.11593631
187	0xbe1a1af1	-0.1504934
188	0xbf0e49d3	-0.55581397
189	0x3f970fb0	1.1801662
190	0xbfd7d1a4	-1.6860852
191	0xbf36649c	-0.7124727
192	0xbd7698fd	-0.060204495
193	0x3dd40fe2	0.10354592
194	0xbfcdb563	-1.607098
195	0x3f0068b2	0.5015975
196	0x3e5a3a51	0.21311308
197	0xbea20de1	-0.31651214
198	0x3f3433a2	0.70391285
199	0xbeab5399	-0.33462217
200	0x3fcfb641	1.6227494
201	0xbf430b4e	-0.76189125
202	0x3f5ea1e3	0.8696577
203	0x3e3ede7d	0.1863956
204	0xbf7015d8	-0.9378333
205	0xbe52d126	-0.20587596
206	0xbdc62e7b	-0.09676834
207	0xbf548d2d	-0.8302792
208	0x3f697241	0.9118996
209	0xbf2a465a	-0.665136
210	0x3ef89bde	0.48556417
211	0xbf02b4a2	-0.51056874
212	0xc000ee68	-2.0145512
213	0xbf96bdcc	-1.1776671
214	0xbf4e2b59	-0.80534893
215	0x3f2ac9e5	0.66714317
216	0xc006bc3d	-2.1052392
217	0xbef2b460	-0.4740324
218	0xbf1e3627	-0.6180138
219	0x3fa8e97c	1.3196254
220	0xbf7538b3	-0.9578964
221	0xbf2a633b	-0.66557664
222	0x3ef3fdf3	0.47654685
223	0x3f03964d	0.51401216
224	0x40367515	2.8508961
225	0x3b467ee6	0.003028804
226	0x3f5257f0	0.8216543
227	0xbee31383	-0.44350824
228	0xbfb6feb5	-1.429648
229	0xbe979e3c	-0.2961291
230	0x3e76a39f	0.24085854
231	0x3e126006	0.14294443
232	0xbf819113	-1.0122398
233	0xbfab28ae	-1.337179
234	0x3e805166	0.25062102
235	0x3ffcde91	1.9755422
236	0x3f4adabf	0.7924003
237	0xbf8a5146	-1.0806053
238	0x3f2294c7	0.63508266
239	0x3f2c21ef	0.6723928
240	0x3f8a0cc6	1.0785148
241	0x3e91cfd2	0.28478867
242	0xbcbb6284	-0.022874124
243	0xbf8c7dd9	-1.0975906
244	0x3e29ec47	0.16594039
245	0x3fad2a25	1.3528486
246	0x3f11edf5	0.5700372
247	0xc010f3e3	-2.2648857
248	0xbdc87226	-0.09787397
249	0xbf552ca0	-0.8327122
250	0x3eb6232b	0.35573706
251	0xbe83f8a2	-0.2577563
252	0x3d64cd94	0.055860117
253	0x3d86a9c5	0.0657535
254	0x3e6381dc	0.22217506
255	0x3e2ba85e	0.16763446

fc1.bias f4 [128]
0	0xbef0435b	-0.46926388
1	0xbf5daa1f	-0.8658771
2	0xbf4de2d2	-0.80424225
3	0xbf21bf12	-0.63182175
4	0xbe17d6a0	-0.14827967
5	0x3dbaae17	0.09115236
6	0x3e67a163	0.22620158
7	0xbe86e4b1	-0.26346353
8	0xbf8c89d7	-1.0979565
9	0xbf025915	-0.5091718
10	0xbf46e525	-0.77693397
11	0x3e98a7c1	0.29815486
12	0xbf2ce14c	-0.67531276
13	0xbf1eab9d	-0.6198061
14	0xbfe0cc8d	-1.7562424
15	0xbee66466	-0.44998473
16	0xbf500fe0	-0.81274223
17	0x3e7cea5d	0.24698777
18	0x3da37de6	0.079829976
19	0xbf7ec162	-0.9951383
20	0xbf34f5a4	-0.7068732
21	0x3e875989	0.26435497
22	0x3c9737c0	0.0184592
23	0x3f5eb0c4	0.8698847
24	0xbfeff7d5	-1.8747507
25	0x3e8b31db	0.27186474
26	0xbcee4eb4	-0.029090263
27	0xbe858246	-0.26075953
28	0xbbceadee	-0.006307355
29	0xbf39600f	-0.724122
30	0xbf8e0dbe	-1.1097944
31	0xbf947843	-1.1599201
32	0xbf173a29	-0.5907312
33	0x3f89669c	1.0734439
34	0xbf33a477	-0.7017283
35	0xbebf32d6	-0.37343472
36	0xbf3bd3a4	-0.7336981
37	0x3eea4f23	0.45763502
38	0x3d9c280f	0.07624828
39	0x3efc94e8	0.49332356
40	0xbf03578f	-0.5130548
41	0xbf731fa7	-0.9497017
42	0xbebb8487	-0.36624548
43	0xbe20dd96	-0.15709528
44	0xbe7dfdd4	-0.24803859
45	0xbe9acf81	-0.30236438
46	0xbf4f9548	-0.8108716
47	0xbed5120a	-0.41615325
48	0xbe4ebb9d	-0.20188756
49	0x3ef71514	0.4825827
50	0xbbe2e3a2	-0.0069241086
51	0xbe769a21	-0.24082233
52	0x3ea89a42	0.3293019
53	0x3eb437cd	0.35198823
54	0xbf4369be	-0.76333225
55	0xbea9797c	-0.33100498
56	0xbef9f42c	-0.488191
57	0xbf9886ed	-1.1916176
58	0xbf274f9e	-0.6535586
59	0xbed2408a	-0.41064864
60	0xbf11a865	-0.56897575
61	0x3ea3d35b	0.3199719
62	0xbf3255c5	-0.69662124
63	0xbfa69c5f	-1.3016471
64	0xbedf2d4e	-0.43589252
65	0xbf752577	-0.9576029
66	0xbf496574	-0.7867043
67	0x3e8344da	0.25638467
68	0xbf313c51	-0.6923266
69	0xbe0a0c5e	-0.1348128
70	0x3e8e327c	0.27772892
71	0x3f1a48d4	0.60267377
72	0xbf77e409	-0.9683233
73	0xbf1a3e45	-0.60251266
74	0xbf63596f	-0.8880834
75	0xbf0c8d0b	-0.54902714
76	0xbdfa6fb0	-0.12228334
77	0xbebe2f79	-0.37145594
78	0xbe28fbb0	-0.16502261
79	0xbf807530	-1.0035763
80	0xbd42ba4c	-0.047540948
81	0x3f326831	0.69690233
82	0xbf293048	-0.66089296
83	0xbf57d953	-0.84315985
84	0x3ed942f1	0.42433885
85	0xbf15658d	-0.5835808
86	0xbf05b5e7	-0.52230686
87	0xbf08ef9c	-0.53490615
88	0x3f3bafec	0.7331531
89	0xbe6fc3d7	-0.2341455
90	0xbec2556f	-0.37955806
91	0xbee0a552	-0.4387613
92	0xbf136f5a	-0.57591784
93	0xbf6ed3b3	-0.9329178
94	0xbf799d62	-0.9750577
95	0xbd932be9	-0.071861096
96	0xbfbb555c	-1.4635425
97	0xbf968676	-1.1759784
98	0xbea1bb42	-0.3158818
99	0x3f41feaf	0.7577924
100	0xbeaacbc7	-0.33358595
101	0xbf7d19dc	-0.98867583
102	0x3e453ff7	0.19262682
103	0xbf069a48	-0.52579165
104	0x3f399265	0.72489005
105	0xbe4bca1a	-0.19901314
106	0xbfd74ec9	-1.6820918
107	0x3c92f674	0.017939784
108	0xbf387bee	-0.720641
109	0xbf752ee0	-0.9577465
110	0x3f25dca8	0.6478982
111	0xbed5d408	-0.4176333
112	0xbf622b3d	-0.88347226
113	0xbf739fca	-0.95165694
114	0xbf170876	-0.58997285
115	0xbdf241b1	-0.11828936
116	0xbf8e698e	-1.1125963
117	0xbc223e90	-0.009902611
118	0xbf08aea1	-0.5339146
119	0xbcc97f09	-0.024596708
120	0xbf9112c5	-1.1333853
121	0xbebced01	-0.3689957
122	0xbfb02bd9	-1.3763381
123	0x3e77e3ad	0.24207945
124	0xbd8038fd	-0.0626087
125	0xbea0a78b	-0.31377825
126	0x3e4ba720	0.19887972
127	0xbf85f805	-1.0466315

fc2.weight f4 [64, 128]
0	0x3ebdadbb	0.37046608
1	0x3de42ee6	0.11141758
2	0xbe5be438	-0.21473777
3	0xc09f4bab	-4.977987
4	0x3d22a9e3	0.039712798
5	0xbf9c2e48	-1.2201624
6	0x3e2571f9	0.16156758
7	0x3edacc15	0.42733827
8	0x3eae79bb	0.34077248
9	0xbf9b35a6	-1.2125747
10	0xbe9f3600	-0.31095886
11	0x3f82fa22	1.0232584
12	0x3f288f83	0.6584398
13	0xbfa1370f	-1.2594928
14	0x3df97c3f	0.12181901
15	0xbf51300d	-0.81713945
16	0xbf3f1ce9	-0.7465349
17	0x3f48f86e	0.78504074
18	0xbdf8870b	-0.121351324
19	0xbf790fa3	-0.97289485
20	0x3eda784b	0.426699
21	0xbe2dcc1b	-0.16972391
22	0xbd163811	-0.036674563
23	0x3dec0813	0.115249775
24	0x3ed08b32	0.40731198
25	0xbf4de9bd	-0.8043478
26	0xbf917459	-1.1363631
27	0x3e1199d0	0.14218831
28	0x3e169eaf	0.1470897
29	0xbea8b062	-0.3294707
30	0xbf1297fd	-0.57263166
31	0x3f81c57e	1.0138395
32	0xbd2ed6de	-0.042685382
33	0x3e83b6c0	0.25725365
34	0xbfc87362	-1.5660212
35	0x3e0f4170	0.13989806
36	0x3e80ffb5	0.2519509
37	0x3e97710c	0.29578435
38	0x3efc3d20	0.49265385
39	0x3ef8364c	0.48478925
40	0x3f04b9e3	0.5184614
41	0xbf21346a	-0.629706
42	0x3ead6040	0.33862495
43	0xbf6f86c0	-0.9356499
44	0x3f5c7bf0	0.86126614
45	0x3edf1333	0.43569335
46	0x3f854953	1.0413002
47	0x3f85dad9	1.0457412
48	0x3fc7ade7	1.5599946
49	0x3e010f12	0.12603405
50	0xbf3884b3	-0.7207748
51	0xbf69b218	-0.91287374
52	0xbf895ea1	-1.0732003
53	0xbf50d2dd	-0.8157175
54	0xbeb08575	-0.3447682
55	0x3e9915be	0.298994
56	0x3f2598a6	0.6468605
57	0xc03d9a49	-2.9625418
58	0xbe7c9ebb	-0.24669926
59	0xbf62578d	-0.8841484
60	0x3dd1ef9f	0.10250782
61	0x3e47bc57	0.1950544
62	0x3fd13dcb	1.6346983
63	0xbebb5e86	-0.36595553
64	0x3f479b24	0.779711
65	0xbeeb7952	-0.45990998
66	0xc0cb1ce5	-6.347277
67	0x3d02f2bb	0.031969767
68	0x3f3d5741	0.73961264
69	0xbff6b2e6	-1.9273345
70	0xbe610c3b	-0.21977322
71	0xbf8a0425	-1.0782515
72	0xc05b4977	-3.426359
73	0x3d483d43	0.04888655
74	0x3f31fc14	0.69525266
75	0x3f5f69b5	0.8727067
76	0x3e1e8bba	0.15482989
77	0x3fb7ea27	1.4368333
78	0x3e6f9e5c	0.23400253
79	0xc001bd6c	-2.0271864
80	0x3feeb708	1.8649607
81	0x3e8f8aa4	0.28035462
82	0xbcb00ad3	-0.021489536
83	0x3d50a650	0.050939858
84	0xbfc9dda4	-1.5770764
85	0xbee8f6f2	-0.45500904
86	0xbf967d35	-1.175696
87	0xbd96a927	-0.07356482
88	0x3f248456	0.6426443
89	0x3f5e76fd	0.8690031
90	0x3d9f4963	0.07777669
91	0xbc998cef	-0.01874396
92	0xbf6b5463	-0.9192564
93	0xbde655ca	-0.11246832
94	0x3f85f27d	1.0464627
95	0x3f510c4a	0.81659377
96	0xbf4e75e6	-0.8064865
97	0xbf80f47f	-1.0074614
98	0xbe08e98c	-0.13370341
99	0x3bd15dc4	0.0063893516
100	0xbf8b5044	-1.088387
101	0x3f226380	0.63433075
102	0x3e941f4a	0.28930122
103	0xbe610357	-0.2197393
104	0x3fa2198c	1.2664046
105	0xc038cdf9	-2.8875716
106	0x3ef4f207	0.47840902
107	0xbe4d21ad	-0.20032378
108	0xc0261bcb	-2.5954463
109	0xbeb7ee7c	-0.35924137
110	0x3ed6c93a	0.419504
111	0xbf707e4f	-0.9394273
112	0x3cb0617d	0.021530861
113	0xbe8fc5e4	-0.28080666
114	0xbef10de2	-0.47080904
115	0xbf5e563d	-0.8685034
116	0xbfd2ca8f	-1.6468066
117	0xbf6b23b4	-0.91851354
118	0x3dc3612f	0.09540021
119	0xbf74bf24	-0.9560416
120	0xbfa4a396	-1.2862422
121	0xbfa6dc4b	-1.3035978
122	0x3e474442	0.19459632
123	0xbe3ec01b	-0.1862797
124	0x3f73739f	0.950983
125	0xbf36e9dd	-0.714506
126	0xbf035957	-0.51308197
127	0x3f5ccf07	0.862534
128	0xbf28c2c7	-0.65922207
129	0xbf88c44c	-1.0684905
130	0xbecded5a	-0.40220147
131	0xbfeffb79	-1.8748618
132	0x3d0194ae	0.031635933
133	0xbf15b251	-0.58475214
134	0x3f283e96	0.657205
135	0x3f195e02	0.5990907
136	0xc01450ed	-2.3174393
137	0x3f2d3459	0.67658
138	0xbf75d43a	-0.9602696
139	0xbfe0192b	-1.7507681
140	0x3e2358ff	0.15951918
141	0xbf996505	-1.1983954
142	0x3e41f61e	0.18941543
143	0xbe95877e	-0.29204935
144	0xbd507a7a	-0.050898053
145	0x3f3446fc	0.70420814
146	0xc01681b5	-2.3516667
147	0x3f048a66	0.5177368
148	0xbef58211	-0.47950795
149	0x3e1bdbd2	0.15220574
150	0xbf84aa06	-1.0364387
151	0xbe7adaf9	-0.24497594
152	0xbfc501ac	-1.5391135
153	0xc01f12a6	-2.4855132
154	0x3e6232fc	0.22089761
155	0xbff66099	-1.9248229
156	0x3e77fc07	0.24217235
157	0xbfea0f6d	-1.8285958
158	0xbfe27885	-1.769303
159	0xbc5befce	-0.013423873
160	0x3ea55b02	0.32295996
161	0x3eb9316a	0.36170512
162	0xbf2c5f5e	-0.6733302
163	0x3ddc4e1b	0.10757085
164	0x3f80d533	1.0065063
165	0xbf95affb	-1.169433
166	0x3f827120	1.0190773
167	0x3f5eb9db	0.8700234
168	0xbf749243	-0.9553568
169	0xbf3f9edf	-0.74851793
170	0x3ea402cf	0.32033393
171	0xbfb08cfe	-1.3793027
172	0x3f8bb467	1.091443
173	0x3fabc806	1.3420417
174	0xbfe5adae	-1.7943628
175	0xbeca89c2	-0.39558226
176	0xbfb11654	-1.3834939
177	0xbf653667	-0.89536136
178	0xbf1d0d8d	-0.613488
179	0xbe6e5cdd	-0.23277612
180	0xbeb54b9b	-0.35409245
181	0xbfa3f690	-1.280962
182	0xbbd483c4	-0.0064854342
183	0xc019397b	-2.3941333
184	0x3f1213da	0.5706154
185	0xbf7f1139	-0.99635655
186	0x3f115bf4	0.56780934
187	0xbf338b29	-0.70134217
188	0xbcdeef23	-0.027213639
189	0xbed85859	-0.42254904
190	0x3f99c623	1.2013592
191	0xbfd80f07	-1.6879586
192	0x3f978895	1.1838557
193	0x3f267061	0.65015227
194	0xbfe244e6	-1.7677276
195	0xbe8a112b	-0.26966223
196	0x3e73b694	0.23800117
197	0x3f8d47d0	1.103754
198	0x3ec5c19a	0.3862427
199	0xbfde1bc4	-1.7352223
200	0xbeb6657c	-0.356243
201	0x3d9ea2cf	0.07745897
202	0xbf12e74d	-0.57384187
203	0xbcf8e199	-0.03038101
204	0xbeaafcf2	-0.33396107
205	0x3f53a2e1	0.8267041
206	0x3e288275	0.16456015
207	0xbff6b372	-1.9273512
208	0x3f0acaee	0.54215896
209	0x3f881a7c	1.0633082
210	0xbe45a689	-0.1930181
211	0xbeca1750	-0.3947091
212	0x3f25b72d	0.6473263
213	0x3e98a63c	0.29814327
214	0xbce561b4	-0.02800069
215	0xbd60b9c5	-0.054864664
216	0xbf48a9b3	-0.7838394
217	0x3f426009	0.7592779
218	0x3dcc7897	0.09983938
219	0x3db4c91e	0.088274226
220	0xbeacf3e6	-0.3377983
221	0xbd60e259	-0.054903362
222	0xbeb85616	-0.36003178
223	0x3f5d3599	0.8640991
224	0xbf193596	-0.5984739
225	0xbeada096	-0.3391158
226	0x3ef38cde	0.4756841
227	0xbf0ced53	-0.5504963
228	0xbfb2fa13	-1.3982567
229	0x3fba0607	1.4533089
230	0xbef89b0a	-0.48555785
231	0x3e078d8c	0.1323759
232	0xbcc8c4de	-0.024507936
233	0xbf996cdd	-1.1986347
234	0xbeec86b4	-0.4619652
235	0xbf507c02	-0.8143922
236	0x3e0d0011	0.13769557
237	0xbea1a4e9	-0.3157113
238	0xbfc9ace3	-1.5755886
239	0xbf81f02c	-1.015142
240	0xbfb6ebca	-1.4290707
241	0x4000de97	2.0135858
242	0x3d1f01a0	0.03881991
243	0xc0339d67	-2.806482
244	0xbf961264	-1.1724362
245	0xbf2b24f2	-0.6685325
246	0xbe816f83	-0.2528039
247	0x3f9104cc	1.1329589
248	0xc033c75f	-2.8090436
249	0xbc8856a1	-0.01664287
250	0xbf8a020f	-1.0781878
251	0x3eac4733	0.3364807
252	0xbf3f9376	-0.7483438
253	0xc01b5a90	-2.4274025
254	0x3ebb894a	0.3662818
255	0xc05fa54e	-3.4944644

fc2.bias f4 [64]
0	0x3fb0f06b	1.382337
1	0x3e6688ca	0.22513118
2	0xbdbb944c	-0.09159145
3	0xbe0489f2	-0.12943247
4	0xbd0a0eea	-0.03370563
5	0xbe89fa4b	-0.2694877
6	0x3d61c301	0.05511761
7	0xbdf21422	-0.11820246
8	0xbd87d230	-0.06631887
9	0x3f27bd73	0.6552345
10	0x3f5dcb9b	0.866388
11	0xbd8ee194	-0.06976619
12	0x3ee33dcb	0.44383082
13	0x3d4e65f9	0.050390217
14	0xbd963bf1	-0.07335652
15	0xbcea09a6	-0.028569054
16	0xbe379f0d	-0.17931767
17	0xbdde9860	-0.10868907
18	0xbd4f8211	-0.05066115
19	0x3d07bb3a	0.033137538
20	0xbca5c3f8	-0.020235047
21	0xbd517de5	-0.051145453
22	0x3f5e16f8	0.867538
23	0xbe0623ea	-0.13099638
24	0xbd875b82	-0.066092506
25	0xbe66b7d9	-0.2253107
26	0x3e6f8c64	0.23393399
27	0xbe802ba4	-0.25033295
28	0x3e61c812	0.22048977
29	0x3f0236db	0.5086495
30	0xbc99a33c	-0.018754594
31	0xbf4bf6f1	-0.7967368
32	0xbe22dc40	-0.15904331
33	0x3f9ac5fd	1.2091671
34	0xbd748a07	-0.059701946
35	0xbe522aec	-0.20524186
36	0xbef57f8f	-0.47948882
37	0xbe4ca12d	-0.19983359
38	0x3dc5b17c	0.09652993
39	0xbf0fe2fe	-0.5620574
40	0xbee81d0a	-0.45334655
41	0xbe0c6a4d	-0.13712426
42	0xbe30ed27	-0.17277966
43	0xbfab513c	-1.3384166
44	0xbe0872fa	-0.1332511
45	0xbdd46501	-0.103708275
46	0xbd5da509	-0.054112468
47	0x3df9fb91	0.122061856
48	0xbf104f06	-0.5637058
49	0xbdde566c	-0.108563274
50	0xbed8d7d2	-0.42352158
51	0xbddfb148	-0.109224856
52	0xbe1e4ccb	-0.15458982
53	0xbd879a70	-0.066212535
54	0xbecd5ecc	-0.40111387
55	0xbedc42b0	-0.4301963
56	0xbd7dc43e	-0.06195473
57	0xbe419b36	-0.18906865
58	0xbdf7cd7f	-0.12099742
59	0xbe87a1a9	-0.26490524
60	0xbdf1e8b2	-0.11811961
61	0xbf445131	-0.7668639
62	0xbdf2a541	-0.11847926
63	0xbd464600	-0.0484066

fc3.weight f4 [64, 64]
0	0xc0126444	-2.2873697
1	0x3f190984	0.59780145
2	0xbdbc49a9	-0.09193737
3	0xbf160fca	-0.5861784
4	0xbdd6e10c	-0.10492143
5	0xbddf2273	-0.108952425
6	0x3f0fcbed	0.5617054
7	0xbdbc71a4	-0.09201363
8	0x3e12649a	0.14296189
9	0x3f82f4d4	1.0230966
10	0xbf30c6bd	-0.6905325
11	0xbd2f26c8	-0.042761594
12	0x3e8843ba	0.2661417
13	0xbe81507c	-0.25256717
14	0x3d794ec4	0.060866132
15	0xbdf79c32	-0.12090339
16	0x3e160f99	0.14654388
17	0x3d131e37	0.035917487
18	0x3e202530	0.15639186
19	0xbe8d1f3d	-0.27562895
20	0xbd80d621	-0.06290842
21	0xbd108af9	-0.035288785
22	0xbeefd680	-0.46843338
23	0xbd14eb5b	-0.036357265
24	0xbece8c57	-0.40341446
25	0x3e7f7d76	0.24950203
26	0xbf32a7a4	-0.6978705
27	0xc007f870	-2.1245384
28	0x3f5ed7ce	0.8704804
29	0xbec8901c	-0.39172447
30	0xbee978aa	-0.45599872
31	0x3f0502f8	0.51957655
32	0xbca238f8	-0.019802555
33	0x3f8afd83	1.0858616
34	0xbdb7ac9f	-0.08968472
35	0x3ef5f805	0.48040786
36	0xbe922f16	-0.2855155
37	0xbd1a0fe0	-0.037612796
38	0xbf210e28	-0.62912226
39	0x3eb1ddb9	0.34739473
40	0xbf9d84be	-1.2306135
41	0x3de56ef5	0.11202804
42	0xbd6c508f	-0.057694014
43	0x3ed8e28e	0.42360348
44	0xbd9358f9	-0.071947046
45	0x3cf1ffbf	0.029540895
46	0x3c4e650e	0.0125973355
47	0x3f6a3538	0.91487455
48	0xbeece6cb	-0.4626983
49	0x3df84819	0.121231265
50	0xbf59da6e	-0.8509892
51	0xbd1cf247	-0.03831699
52	0xbd9f073a	-0.0776505
53	0xbec9cf51	-0.39415982
54	0x3dc63e4b	0.0967985
55	0x3e069c74	0.1314562
56	0xbd79035a	-0.060794212
57	0xbc319975	-0.01083981
58	0x3ae00b53	0.0017093219
59	0xbe7807a9	-0.24221672
60	0xbe822fe6	-0.2542717
61	0xbfe6298c	-1.7981429
62	0x3dec5f03	0.115415595
63	0xbd810b7a	-0.06301017
64	0xbf8b0eb1	-1.0863858
65	0x3fcb3c15	1.587771
66	0xbc359aa2	-0.011084231
67	0xbea8f852	-0.33001953
68	0xbdaf224f	-0.08551466
69	0x3d3152cd	0.043291856
70	0xbcf06f39	-0.02934991
71	0xbd8019cf	-0.062549226
72	0xbd8d42a8	-0.06897479
73	0xbf9bd0e6	-1.2173126
74	0xbe697b1c	-0.22800869
75	0x3d56aff9	0.052413914
76	0xbf2601e6	-0.64846647
77	0x3e6c99aa	0.23105493
78	0xbd826bc7	-0.06368213
79	0x3db85292	0.09000124
80	0x3df1baf0	0.118032336
81	0x3ac3418c	0.0014896854
82	0x3c928a83	0.017888313
83	0xbe3ea6ab	-0.18618266
84	0xbc14ddaa	-0.009086052
85	0x3de40647	0.1113401
86	0x3f4d8bbe	0.80291355
87	0xbd3e0a01	-0.04639626
88	0x3ef51ba1	0.47872642
89	0x3e1c1675	0.15242942
90	0x3f6e2644	0.9302714
91	0xbf195900	-0.5990143
92	0xbde4315d	-0.11142228
93	0xbf2aef60	-0.6677151
94	0x3da73361	0.081640966
95	0x3f110184	0.5664294
96	0x3c007ce6	0.007842278
97	0xbe98ee6b	-0.29869398
98	0x3e512f82	0.20428279
99	0x3eb727db	0.35772595
100	0x3dfc4024	0.12316921
101	0x3d9c8116	0.07641809
102	0xbf1415ed	-0.57845956
103	0xbf8ec943	-1.115517
104	0xbe1f68a7	-0.15567265
105	0xbc1284bc	-0.008942779
106	0x3d909f38	0.070616186
107	0x3ed6dd6f	0.41965815
108	0xbb133fba	-0.0022468404
109	0x3c3f3f9c	0.0116728805
110	0xbdbd1df7	-0.09234231
111	0x3ea20b61	0.31649306
112	0x3d297be1	0.041377906
113	0xbca264b3	-0.019823408
114	0xbf4ab3b4	-0.79180455
115	0xbb9a50b5	-0.004709328
116	0xbc86d5ee	-0.016459431
117	0xbe9044c2	-0.28177458
118	0xbf227fcc	-0.6347625
119	0x3e614a27	0.22000943
120	0x3df39f34	0.118956
121	0xbf412191	-0.75441843
122	0x3e72c3cc	0.23707503
123	0x3f2f6839	0.68518406
124	0x3c798256	0.015228828
125	0xbf0eaa51	-0.5572863
126	0x3dc2acf8	0.095056474
127	0xbd3619e8	-0.0444583
128	0xbf1b18d9	-0.6058479
129	0x3e6ec880	0.23318672
130	0xbd09da62	-0.03365553
131	0xbeb9e023	-0.36303815
132	0xbdd8bb8e	-0.10582648
133	0xbe2c3722	-0.16817906
134	0x3f747dcb	0.95504445
135	0x3d3c4c37	0.04597112
136	0xbdaed488	-0.08536631
137	0xbf719542	-0.94368374
138	0xbe7f1b7f	-0.24912833
139	0xbddc07bc	-0.10743663
140	0xbe35d5fe	-0.17757413
141	0x3f04af7b	0.5183026
142	0xbcd52588	-0.026018873
143	0x3d89b543	0.06724026
144	0x3dbf6c94	0.093468815
145	0x3d6ec132	0.058289714
146	0x3e03fc2a	0.12889162
147	0x3f26eceb	0.6520526
148	0x3d9ea09f	0.0774548
149	0xbd1f9c99	-0.038967703
150	0x3eceb9ab	0.40376028
151	0x3df4ce6e	0.11953436
152	0x3f33c6f8	0.7022548
153	0x3eac6d85	0.33677307
154	0x3d76a84c	0.060219094
155	0x3e57a31d	0.21058317
156	0xbebc4733	-0.3677307
157	0xbf154f66	-0.5832428
158	0xbe69a491	-0.22816683
159	0x3f3755dc	0.71615386
160	0x3b97649d	0.0046201483
161	0xbf5a3c35	-0.8524812
162	0xbe328e9e	-0.17437217
163	0x3f095647	0.53647274
164	0xbeaab33b	-0.33339867
165	0xbdb98460	-0.09058452
166	0xbf2b3a89	-0.6688619
167	0x3e12ae5a	0.14324322
168	0x3e9c38ba	0.3051203
169	0x3cfbda98	0.030743882
170	0x3dd0e77f	0.102004044
171	0x3ebf034e	0.3730721
172	0xbd3b1132	-0.045670696
173	0x3d59bb73	0.05315728
174	0x3d92eabb	0.071736775
175	0xbf58477f	-0.84484094
176	0x3fdb9a8a	1.7156537
177	0x3cf1e32a	0.029527266
178	0x3e1938cd	0.14963074
179	0xbd0a653a	-0.033787943
180	0xbd8db033	-0.06918373
181	0x3ef88dc3	0.48545656
182	0x3e91b0b2	0.2845512
183	0x3e29d249	0.16584124
184	0x3c7cc2f8	0.015427344
185	0xbe79f7e9	-0.24410976
186	0xbdcb9bbf	-0.099418156
187	0x3d34b8d2	0.04412157
188	0xbdc053a0	-0.0939095
189	0xbf5c1174	-0.8596413
190	0x3d1e2afd	0.038615216
191	0x3d38dd0d	0.045132685
192	0xbc137f92	-0.009002583
193	0x3ce9571b	0.028483918
194	0x3c4790fc	0.012180563
195	0x3f3b3a59	0.73135906
196	0xbc8ed0c3	-0.01743353
197	0xbedbc00c	-0.42919958
198	0xbfec5660	-1.846386
199	0xbde61e59	-0.11236257
200	0xbd9e9b1b	-0.07744428
201	0xbfb8c735	-1.4435793
202	0x3db64165	0.08899192
203	0xbe25cde8	-0.16191828
204	0xbe518d82	-0.20464137
205	0xbf20f740	-0.62877274
206	0x3a48b734	0.0007656694
207	0xbd4b1d17	-0.04958829
208	0xbe9411ca	-0.28919822
209	0xbd9fe4b7	-0.07807296
210	0xba8565b4	-0.0010177405
211	0xbe09fba8	-0.13474905
212	0xbd8587c6	-0.06520037
213	0x3d90b748	0.07066208
214	0xbe41ce7c	-0.18926424
215	0xbd2bb462	-0.041920073
216	0xbf0e661c	-0.55624557
217	0xbe9795e1	-0.29606536
218	0x3e365d22	0.17808965
219	0xbd9d7231	-0.07687796
220	0x3ee885bc	0.4541453
221	0xbf8bfbb8	-1.0936193
222	0xbe0f1f5e	-0.1397681
223	0xbed65341	-0.41860393
224	0xbc9ac90f	-0.0188947
225	0x3eacebcc	0.3377365
226	0x3e777f7c	0.24169725
227	0x3e07b537	0.13252722
228	0x3cbd3429	0.023096161
229	0xbdac0a6b	-0.084004246
230	0xbb12f9f7	-0.0022426823
231	0xbd9511e9	-0.07278807
232	0xbf63a0c2	-0.8891717
233	0xbcdf8235	-0.027283767
234	0x3c99dedc	0.018783025
235	0xbf4e1758	-0.8050437
236	0x3daa578a	0.08317478
237	0x3d20ef89	0.03929094
238	0x3ccdb02b	0.025108417
239	0x3eaf37f4	0.34222376
240	0x3f268a22	0.65054524
241	0xbd6b4ebe	-0.05744814
242	0x3f66e9d1	0.90200526
243	0xbdbb6b87	-0.091513686
244	0x3e05c1de	0.13062236
245	0x3ed5b0ff	0.417366
246	0x3e971007	0.29504415
247	0xbf6e8d51	-0.9318438
248	0xbe3afa99	-0.18259658
249	0xbedb3bcb	-0.42819056
250	0x3dcd5966	0.10026817
251	0xbe286016	-0.16442904
252	0x3f1e21fe	0.6177062
253	0xbeffcb08	-0.49959588
254	0xbd6b0d81	-0.057385925
255	0x3d1b623c	0.03793548

fc3.bias f4 [64]
0	0xbf312ec0	-0.6921196
1	0xbf8b98d0	-1.090601
2	0xbe01454e	-0.12624094
3	0x3e45f2bc	0.19330877
4	0xbf179d45	-0.5922435
5	0xbe5187c1	-0.20461942
6	0xbcc65818	-0.024211928
7	0xbea5b150	-0.3236184
8	0xbe95ecc9	-0.29282215
9	0xbda6c80b	-0.08143624
10	0xbe164ffc	-0.14678949
11	0xbfb35ffb	-1.4013666
12	0xbec1f124	-0.37879288
13	0x3f107d04	0.5644076
14	0xbe805c96	-0.25070637
15	0xbee62f37	-0.44957897
16	0x3f9c95b3	1.2233185
17	0x3f0c3d66	0.54781187
18	0x3e2ebe62	0.17064813
19	0xbe0bae2c	-0.1364066
20	0xbd70b0b9	-0.058762286
21	0xbd2c0c1d	-0.04200374
22	0xbf3c31e6	-0.7351364
23	0xbe944f24	-0.2896663
24	0xbec2faa6	-0.38081855
25	0x3f0dc6eb	0.5538165
26	0xbf8fa6e3	-1.1222805
27	0xbf35921b	-0.70926064
28	0xbfa3a4e8	-1.27847
29	0x3f10449e	0.563547
30	0xbfadadc5	-1.3568655
31	0x3de777e7	0.113021664
32	0xbeb8a54c	-0.36063612
33	0x3e25b5b8	0.16182601
34	0x3f98f22a	1.1948903
35	0xbf22743e	-0.6345862
36	0xbf48a5a2	-0.78377736
37	0xbfa04f6f	-1.2524241
38	0xbd0d6607	-0.03452113
39	0x3f362170	0.7114477
40	0xbe13724f	-0.14399074
41	0xbee803b6	-0.4531533
42	0xbf5ae2be	-0.8550223
43	0xbe1006a2	-0.1406503
44	0x3fb35d24	1.4012799
45	0x3e017b26	0.12644634
46	0x3dd2b7c0	0.10288954
47	0xbf3ec537	-0.74519676
48	0xbf481f51	-0.78172785
49	0xbe839809	-0.2570193
50	0xbee7b68a	-0.45256454
51	0x3ea80b64	0.3282119
52	0xbeff4a46	-0.49861354
53	0xbfda43c3	-1.7051929
54	0xbf186be0	-0.59539604
55	0xbf081ce7	-0.531691
56	0x3f17a56f	0.59236807
57	0xbe8c5b67	-0.27413484
58	0xbf9396cc	-1.1530395
59	0xbf7b51d6	-0.98171747
60	0xbe6f22b3	-0.2335308
61	0xbf19c8fc	-0.600723
62	0x3f25270a	0.64512694
63	0xc01851cd	-2.3799927

fc4.weight f4 [64, 64]
0	0xbd103f1a	-0.03521643
1	0x3f17febc	0.5937307
2	0xbe805488	-0.25064492
3	0xbd042232	-0.032259174
4	0xbea6a54a	-0.3254798
5	0x3e8a7691	0.27043584
6	0x3e608f08	0.21929562
7	0xbd9412d6	-0.07230155
8	0xbe3d8405	-0.18507393
9	0xbcc2f39d	-0.023797804
10	0xbd032f0f	-0.0320273
11	0xbe4f131f	-0.20222138
12	0xbe1f9b6d	-0.15586634
13	0xbf33ef65	-0.7028716
14	0x3e44742d	0.19184943
15	0xbd7a4306	-0.061099075
16	0xbef75e8d	-0.48314324
17	0xbea00fd5	-0.3126208
18	0xbee84206	-0.45362872
19	0x3bb5d053	0.005548516
20	0xbe8b8d4f	-0.27256247
21	0xb9eb9cb1	-0.00044939437
22	0xbf340b97	-0.70330185
23	0xbe9ff044	-0.31237996
24	0xbea7a200	-0.32740784
25	0xbe3e1c2e	-0.18565437
26	0xbf8696a6	-1.0514724
27	0x3d19681f	0.037452813
28	0x3e19e2cd	0.15027924
29	0xbe4a7268	-0.19770205
30	0xbfa7257e	-1.3058317
31	0xbf09bcbd	-0.53803617
32	0xbe05c057	-0.13061653
33	0x3f05f5d4	0.5232823
34	0xbf4baedb	-0.79563683
35	0xbe8c6f9d	-0.27428904
36	0xbf179b3e	-0.59221256
37	0xbf68f201	-0.9099427
38	0xbee5de02	-0.4489594
39	0x3eb6becd	0.35692444
40	0x3e642abf	0.22281931
41	0xbdb431fe	-0.08798598
42	0xbe06ec78	-0.13176143
43	0xbe9f1bf2	-0.31076008
44	0xbf8f8da5	-1.1215101
45	0xbd126557	-0.035741176
46	0xbee444af	-0.4458365
47	0x3e17b596	0.14815363
48	0xbf1259d5	-0.5716832
49	0x3db9b7d6	0.09068267
50	0xbecb54cc	-0.39713132
51	0x3e20d1ac	0.15704983
52	0xbe9194c2	-0.28433806
53	0x3d838cb5	0.06423322
54	0xbc3c71f2	-0.011501776
55	0xbda9d8af	-0.08293282
56	0xbded78a0	-0.11595273
57	0x3d2e3251	0.042528454
58	0xbf0b0753	-0.5430805
59	0xbf0781eb	-0.52932614
60	0xbec951eb	-0.3932031
61	0x3e741048	0.23834336
62	0xbf49a41c	-0.78766036
63	0xbe91b5c4	-0.2845899
64	0x3e0176c6	0.12642965
65	0x3eac38a1	0.33636954
66	0x3f8468b4	1.0344453
67	0xbfabb2fa	-1.3413994
68	0xbfc4f298	-1.5386534
69	0xbf140b11	-0.57829386
70	0xbe83714a	-0.2567237
71	0x3ee740cd	0.45166627
72	0x3ebb5c63	0.36593923
73	0x3d0a665a	0.033789016
74	0x3d896f76	0.067107126
75	0x3e477ff5	0.19482405
76	0xbf912fc1	-1.1342698
77	0xbf3245ce	-0.69637764
78	0xbef356a2	-0.47527033
79	0xbf4648d9	-0.77454907
80	0xbf1cc523	-0.61238307
81	0xbf3669c7	-0.71255153
82	0xbed08651	-0.40727475
83	0xbf0706f7	-0.52745
84	0x3ec853f1	0.39126542
85	0x3f140100	0.57814026
86	0x3fadf1d2	1.3589423
87	0xbea4953b	-0.32145104
88	0x3d2d9761	0.042380694
89	0x3f89163e	1.0709913
90	0x3d6dca49	0.058054242
91	0x3f6970fb	0.9118802
92	0xbf1c3157	-0.61012787
93	0xbf3a55e1	-0.7278729
94	0x3f839d55	1.0282389
95	0x3f6aaeed	0.91673166
96	0xbe5f8afc	-0.21830362
97	0xbf651d58	-0.894979
98	0x3e25a97a	0.16177931
99	0xbdc3c96e	-0.09559904
100	0xbf1138eb	-0.56727475
101	0x3de66587	0.112498336
102	0xbedd2746	-0.43194026
103	0xbf7bc785	-0.9835132
104	0xbf0059d1	-0.5013705
105	0xbd2c65e7	-0.04208937
106	0x3f4e575f	0.8060207
107	0x3ee3d479	0.4449804
108	0xbe7cfebf	-0.24706553
109	0x3e904065	0.2817413
110	0xbf5ac115	-0.8545087
111	0xbf9da0fe	-1.2314756
112	0x3e72e8f5	0.23721679
113	0xbe35b0db	-0.17743246
114	0xbe177a4b	-0.14792745
115	0xbeda25ba	-0.42606908
116	0xbe1df95d	-0.15427156
117	0x3f135c26	0.5756248
118	0x3f0b05d7	0.54305786
119	0xbdd91f25	-0.106016435
120	0xbcf231c2	-0.029564742
121	0xbe88430b	-0.2661365
122	0x3fa5b41c	1.294559
123	0xbf7945a9	-0.9737192
124	0xbececce2	-0.40390688
125	0xbf830109	-1.0234691
126	0xbf1b8284	-0.60746026
127	0x3f56bd2b	0.838824
128	0xbda46067	-0.080262
129	0xbeb327dd	-0.3499135
130	0xbe6e02ba	-0.23243228
131	0xbd821389	-0.06351382
132	0xbeadf95e	-0.33979315
133	0xbef15d00	-0.47141266
134	0xbe87e4b0	-0.26541662
135	0xbe8d00df	-0.27539727
136	0xbf011e1a	-0.50436556
137	0x3d8e921c	0.06961462
138	0x3d24850b	0.040165942
139	0xbeb8da0d	-0.3610386
140	0xbdcebd75	-0.1009473
141	0x3c82ab46	0.01595081
142	0x3dce5b3c	0.10075995
143	0x3d6fe2e3	0.058565985
144	0xbf2cf65f	-0.6756343
145	0xbdd9a18f	-0.10626518
146	0x3d1f1b83	0.038844597
147	0xbe210ae1	-0.15726806
148	0x3e710d82	0.23540309
149	0x3e42688a	0.18985191
150	0xbf5d17b7	-0.8636431
151	0xbe02fe90	-0.1279242
152	0xbe8c71f8	-0.274307
153	0xbf0a856c	-0.54109836
154	0xbeeb8f81	-0.46007922
155	0x3ce46562	0.027880374
156	0x3cbb1fbb	0.022842279
157	0x3d43b822	0.047783025
158	0xbef265f2	-0.47343403
159	0xbf1aea0e	-0.6051339
160	0x3e598350	0.21241498
161	0xbf3393e3	-0.7014753
162	0xbe792485	-0.24330337
163	0xbe82520d	-0.25453225
164	0xbedf681b	-0.43634114
165	0xbf3bb91c	-0.7332933
166	0xbf243176	-0.6413797
167	0xbe7981a4	-0.2436586
168	0xbf179d91	-0.592248
169	0x3d9d7f3c	0.07690284
170	0xbec1c3f2	-0.37844807
171	0x3d901744	0.070356876
172	0xbeb0270f	-0.344048
173	0xbeff8158	-0.4990337
174	0xbd7276eb	-0.05919544
175	0xbec57d71	-0.38572267
176	0xbe5d3a0d	-0.21604176
177	0xbf195764	-0.5989897
178	0xbe984fca	-0.29748374
179	0xbecd3113	-0.40076503
180	0x3d7a3805	0.06108858
181	0x3de31085	0.11087135
182	0xbe715f03	-0.235714
183	0xbe6431f5	-0.22284682
184	0xbd862e44	-0.06551793
185	0x3c59f58b	0.013303171
186	0xbe9b6189	-0.3034785
187	0x3beb8f45	0.00718871
188	0xbd9af661	-0.07566524
189	0x3d83228a	0.06403072
190	0xbef4f21d	-0.47840968
191	0xbea92f6d	-0.33043995
192	0xbb5bacec	-0.0033519818
193	0xbe833f25	-0.25634113
194	0xbe58fec8	-0.21190941
195	0xbe3e59e8	-0.18588984
196	0xbd555bd3	-0.052089524
197	0x3dc57cd3	0.09642949
198	0x3dd2d341	0.102942
199	0xbe1aa149	-0.15100588
200	0xbd47db1f	-0.048792955
201	0xbd4b75f7	-0.049673047
202	0xbdc419b2	-0.095752135
203	0xbde895df	-0.11356711
204	0x3da0091d	0.07814238
205	0xbd2f225d	-0.04275738
206	0x3c6ff080	0.014644742
207	0xbcdeba0b	-0.027188322
208	0xbe862d23	-0.26206312
209	0xbd86e31c	-0.065862864
210	0x3c8d11fe	0.017220493
211	0x3d1b0625	0.037847657
212	0x3db9ce5e	0.090725645
213	0xbd496868	-0.049171835
214	0xbce6b16f	-0.028160779
215	0x3d5a7288	0.05333188
216	0xbe0046fb	-0.12527077
217	0xbdbe0949	-0.09279115
218	0xbe36c508	-0.17848599
219	0xbdd2d49f	-0.102944605
220	0x3db44a92	0.08803286
221	0xbe5252ea	-0.20539442
222	0xbeafd12d	-0.34339276
223	0xbd150132	-0.036378093
224	0x3d8eb3d5	0.06967894
225	0x3ccede9b	0.025252631
226	0xb77a140b	-1.4905828e-05
227	0xbdb3b5e3	-0.087749265
228	0xbd9d36c1	-0.07676459
229	0xbd6bbc50	-0.057552636
230	0xbbffcada	-0.007806164
231	0xbe69453a	-0.22780314
232	0xbe6d1001	-0.23150636
233	0xbe20e49b	-0.15712206
234	0xbe7d2096	-0.24719462
235	0xbd6e275f	-0.058143016
236	0xbeb06d9e	-0.3445863
237	0xbe2bcb9d	-0.16776891
238	0xbe7ab472	-0.24482897
239	0xbd2a5d81	-0.04159308
240	0xbe10dfdf	-0.141479
241	0xbe0f3891	-0.13986422
242	0xbe47be6e	-0.19506237
243	0x3cda9f97	0.026687426
244	0xbe080e22	-0.13286641
245	0xbd81f84d	-0.06346188
246	0xbd8901b5	-0.06689779
247	0xbdffcacb	-0.124898516
248	0x3da80ba5	0.08205346
249	0xbccc31e7	-0.024926139
250	0xbd2e2506	-0.042515777
251	0xbd80b17c	-0.062838525
252	0xbe3770da	-0.17914143
253	0x3c63b9e9	0.013899305
254	0xbd9d7ade	-0.07689451
255	0xbd9ee6ee	-0.0775889

fc4.bias f4 [64]
0	0xbe453422	-0.19258168
1	0xc014cc7a	-2.3249803
2	0xbe8e6f2c	-0.27819192
3	0xbe90dd79	-0.2829397
4	0xbe82b807	-0.25531027
5	0xbe3d05e1	-0.18459274
6	0x3f8d2651	1.1027318
7	0xbf091a48	-0.53555727
8	0xbf405db7	-0.75143
9	0xbe05cb57	-0.13065849
10	0x3f9b885f	1.2150992
11	0xbe7fefae	-0.24993774
12	0xbe8c50e8	-0.27405477
13	0x3d5f6b32	0.05454559
14	0xbef482a5	-0.47755924
15	0x3fa83e13	1.3143944
16	0xbedf1fa8	-0.4357884
17	0xbe051b15	-0.12998612
18	0x3f6c1909	0.922257
19	0xbf4010b5	-0.7502549
20	0xbc64e312	-0.013970153
21	0xbf60425c	-0.87601256
22	0x3f0fa7f1	0.56115633
23	0xbf2081f9	-0.6269832
24	0xbe5e9e67	-0.21740113
25	0x3e8772b1	0.2645469
26	0x3f39b2cf	0.72538465
27	0xbf02af6d	-0.5104893
28	0x40360fbe	2.8447108
29	0x40057de3	2.0858085
30	0xbf202bdf	-0.6256694
31	0xbe0a646c	-0.1351487
32	0x3f82b553	1.0211586
33	0x3d987548	0.074442446
34	0xbe3e803e	-0.18603608
35	0x3e8b1193	0.27161846
36	0xbf3186ce	-0.6934632
37	0xbde2e1e5	-0.11078242
38	0xbeb3e79d	-0.35137644
39	0xbe95a689	-0.2922862
40	0x40446ed0	3.0692635
41	0x3f00a52f	0.5025205
42	0x3f1efb97	0.62102646
43	0x3ee3c204	0.4448396
44	0xbf5615e2	-0.8362714
45	0x3f74a08f	0.9555749
46	0x3e30beca	0.1726028
47	0x3ddae9cf	0.10689127
48	0xbd53e32f	-0.05173033
49	0xbee93c57	-0.45553848
50	0x3d30a76d	0.04312842
51	0xbe97875e	-0.29595464
52	0xbf77ec26	-0.9684471
53	0xbef44b57	-0.4771373
54	0xbd5bd963	-0.053674113
55	0xbe92b328	-0.2865231
56	0xbda36eec	-0.07980141
57	0xbd1cc53d	-0.03827404
58	0x3f6432d4	0.8914006
59	0x3f90263c	1.1261668
60	0xbf1b0952	-0.60561097
61	0x3f057648	0.5213361
62	0xbf4dd91b	-0.804094
63	0x3fcb39da	1.587703

valuefc.weight f4 [64, 64]
0	0xbddf64e1	-0.10907913
1	0xbf03e434	-0.51520085
2	0xbdc70b22	-0.0971892
3	0x3e435c32	0.19078138
4	0xbd48445a	-0.04889331
5	0xbf07a517	-0.5298628
6	0x3e368267	0.17823182
7	0x3f509789	0.81481224
8	0x3e64c66e	0.2234132
9	0xbf603719	-0.8758407
10	0xbecb0a0e	-0.3965611
11	0xbd8c2e91	-0.06844819
12	0x3edef06f	0.4354281
13	0x400bf7ae	2.1869922
14	0x3cd383c2	0.025819663
15	0x3fc985e4	1.5743985
16	0x3f7a691e	0.97816646
17	0x3e1f2e7b	0.15545075
18	0x3f02cd27	0.5109429
19	0x3f721f3b	0.94578904
20	0xbf9e5e65	-1.2372557
21	0xbe203d43	-0.1564837
22	0xbf155452	-0.5833179
23	0xbf09d80b	-0.5384528
24	0xbe73b6b2	-0.23800161
25	0x3ea63731	0.32463983
26	0x3d7498ac	0.05971591
27	0x3e88369f	0.26604173
28	0x3e3eaeae	0.18621323
29	0xbecf76af	-0.40520236
30	0xbf535ddf	-0.8256511
31	0x3fbea93b	1.4895395
32	0xbfa4efec	-1.2885718
33	0x3d8cdece	0.06878434
34	0xbdb11f24	-0.08648518
35	0xbefa8f8d	-0.48937646
36	0x3f0f1c24	0.55902314
37	0x3db9e90b	0.090776525
38	0xbdcc6a1d	-0.09981177
39	0x3d83dd9c	0.06438753
40	0xbf3cc0df	-0.737318
41	0x3f1eadc8	0.6198392
42	0x3f3e2c69	0.74286515
43	0x3f62bbec	0.88567996
44	0x3eac39e4	0.33637917
45	0xc006df72	-2.107388
46	0x3e182bc7	0.1486045
47	0xbf689185	-0.90847045
48	0xbf3b813f	-0.7324409
49	0x3ecc9a3c	0.3996142
50	0xbe32d51e	-0.1746411
51	0xbf49165f	-0.7854976
52	0x3ebd745f	0.37002847
53	0x3ee01f20	0.43773746
54	0xbfc1eae1	-1.5149804
55	0x3db5e1b6	0.088809416
56	0x3f82be74	1.0214372
57	0x3f8cab24	1.0989728
58	0xbe98d4ad	-0.2984976
59	0x3dcf4c24	0.101219445
60	0x3dce3ed9	0.10070581
61	0x3ede004e	0.43359607
62	0x3d2e5c7b	0.042568665
63	0x3ff16db6	1.8861606
64	0xbecf26d8	-0.40459323
65	0xbf12a611	-0.5728465
66	0xba6dc3c3	-0.0009070003
67	0xbd4a69ab	-0.04941718
68	0x3ce02aa2	0.027364079
69	0xbcc27cbe	-0.023741122
70	0xbe4f5f59	-0.20251216
71	0xbd1afd0a	-0.037838973
72	0x3ef39584	0.4757501
73	0x3e79462c	0.24343175
74	0x3ef11047	0.4708273
75	0x3eeafe33	0.45897064
76	0xbe8c7525	-0.27433124
77	0x3eb2685d	0.34845248
78	0x3e699f29	0.22814621
79	0x3e95f07f	0.29285046
80	0x3ea463ce	0.32107395
81	0xbf291773	-0.66051406
82	0xbe82a30e	-0.25515026
83	0xbe094dd4	-0.13408595
84	0xbdc7506a	-0.09732135
85	0xbe1582cc	-0.14600676
86	0xbe1c0633	-0.1523674
87	0x3e3ebe90	0.18627381
88	0x3ddd6b50	0.10811484
89	0x3df937b7	0.1216883
90	0x3eedfaa7	0.46480295
91	0xbf17b252	-0.5925647
92	0x3f8f159e	1.1178472
93	0x3e36d422	0.1785436
94	0xbe44cf5a	-0.19219723
95	0x3db0da4e	0.08635388
96	0x3e9cd114	0.30628264
97	0xbeee8d75	-0.46592298
98	0xbd05f943	-0.032708418
99	0x3c25bdb2	0.010116028
100	0x3e18a669	0.1490723
101	0xbd6d3428	-0.05791107
102	0x3decd1db	0.11563464
103	0x3c347bb0	0.0110158175
104	0x3f31d4e5	0.69465476
105	0x3ed5fd1e	0.41794676
106	0x3f569c1e	0.83831966
107	0x3f02616e	0.50929916
108	0xbf3a4164	-0.7275603
109	0x3ecf118e	0.4044308
110	0x3f0eb113	0.55738944
111	0x3dfaa1c5	0.12237886
112	0x3f17d004	0.5930178
113	0xbe1d9b5e	-0.15391299
114	0x3e98bfca	0.29833823
115	0x3eb7d3d9	0.35903814
116	0xbec4a962	-0.3841048
117	0x3dd3b6fa	0.103376344
118	0x3e0c3582	0.13692287
119	0xbedd7a6e	-0.4325747
120	0x3f2d6dd9	0.6774574
121	0x3cd55ebb	0.026046148
122	0x3c9d3e61	0.019194784
123	0xbbcb7c40	-0.00620988
124	0xbf33e92e	-0.7027768
125	0x3f39159d	0.72298604
126	0xbf18065b	-0.593847
127	0x3ee48b18	0.4463737
128	0x3c5f694a	0.013635943
129	0xbdf95a5e	-0.12175439
130	0xbd5650be	-0.052323096
131	0xbd76e550	-0.060277283
132	0x3de4f0d0	0.11178744
133	0x3e0c95e3	0.13729052
134	0xbecf4de3	-0.4048911
135	0xbdb12768	-0.08650094
136	0x3c9bcb4a	0.019017834
137	0x3cb3ab25	0.021932194
138	0xbd69cfa3	-0.057082783
139	0xbd53bee2	-0.051695712
140	0xbdf13032	-0.11776771
141	0xbe531829	-0.20614685
142	0xbc57771d	-0.013150957
143	0xbd387405	-0.04503252
144	0x3dfa528c	0.12222776
145	0x3e13f65a	0.14449444
146	0xbb5723b7	-0.0032827684
147	0xbd7891e0	-0.060685992
148	0x3d94e31e	0.07269882
149	0x3cc715cb	0.024302384
150	0xbe1bb153	-0.15204363
151	0xbe885a4c	-0.2663139
152	0xbd29f675	-0.041494805
153	0x3d4c6e09	0.049909625
154	0x3da60966	0.08107261
155	0xbe58d3ac	-0.21174496
156	0xbb6dad08	-0.0036266465
157	0xbe389153	-0.18024187
158	0xbdc62e91	-0.096768506
159	0xbee73922	-0.45160776
160	0xbe9d8850	-0.3076806
161	0xbd395df3	-0.045255613
162	0xbdd64498	-0.10462302
163	0xbe25d2d1	-0.16193701
164	0x3d3983a3	0.045291554
165	0x3def853e	0.11695336
166	0xbe3b3085	-0.18280227
167	0x3de16d94	0.110072285
168	0x3cc83482	0.0244391
169	0xbe6b014f	-0.22949718
170	0x3c3f6a32	0.011683034
171	0xbd6d8351	-0.05798656
172	0x3ccba4c5	0.024858842
173	0x39f700d7	0.00047112137
174	0x3d8d8e2d	0.069118835
175	0xbeaa1310	-0.3321767
176	0xbe846644	-0.25859272
177	0xbd99ad4a	-0.075037554
178	0xbde724b2	-0.11286296
179	0xbe39a301	-0.18128587
180	0x3cadd638	0.021220312
181	0xbcbd4828	-0.023105696
182	0xbcd35170	-0.025795668
183	0xbd8bb990	-0.068225026
184	0xbd7fa00c	-0.062408492
185	0xbe52ba4f	-0.20578884
186	0xbe28be48	-0.16478837
187	0x3c199981	0.009374977
188	0xbd0303c8	-0.031986028
189	0xbd75aef9	-0.05998132
190	0xbda1ec59	-0.07906408
191	0xbe510d95	-0.20415337
192	0xbd45d456	-0.048298202
193	0x3ed6b165	0.41932216
194	0x3d46db1c	0.048548803
195	0xbd784004	-0.060607925
196	0xbd5e8cd0	-0.054333508
197	0xbf66c7d8	-0.9014869
198	0x3e4f773f	0.20260333
199	0xbebcefac	-0.36901605
200	0x3f171dfb	0.5903012
201	0x3f3a6eb4	0.7282517
202	0xbe237d2c	-0.15965718
203	0x3a324bed	0.0006801475
204	0xbe044aa2	-0.12919095
205	0xbfb054ee	-1.3775918
206	0xbd23908a	-0.039932765
207	0x3f2acb70	0.6671667
208	0xbee3d0bf	-0.44495198
209	0x3ba88eb5	0.005143965
210	0xbf1197ea	-0.5687243
211	0x3f487aaa	0.7831217
212	0x3f7a1b71	0.9769812
213	0x3e7631fa	0.24042502
214	0xbf0b4328	-0.5439935
215	0x3e42681e	0.1898503
216	0x3efd4b3f	0.4947147
217	0x3f31afe4	0.6940901
218	0xbe3e2331	-0.18568112
219	0xbf5a4f26	-0.8527702
220	0xbf5a0a5e	-0.8517207
221	0xbf502fef	-0.8132314
222	0xbf11e971	-0.5699683
223	0xbfc85dde	-1.5653646
224	0xbe2e93f0	-0.17048621
225	0xbf04192c	-0.5160091
226	0x3e0430c6	0.1290923
227	0x3e7f543b	0.24934475
228	0x3f0bb92b	0.5457942
229	0xbdb12ce0	-0.08651137
230	0xbe2245f9	-0.15847005
231	0x3d845f92	0.06463541
232	0x3ef4469c	0.4771012
233	0x3e67bf33	0.2263153
234	0xbfc8473d	-1.564674
235	0x3ebb260f	0.36552474
236	0x3f9e742f	1.2379206
237	0x3e34e9db	0.17667334
238	0x3e9ed301	0.31020358
239	0x3efd94de	0.4952764
240	0xbf45c9d6	-0.772611
241	0x3eb73b3e	0.35787386
242	0x3ccb4e71	0.024817677
243	0x3e8f7dd8	0.280257
244	0x3dcf3922	0.10118319
245	0xbe6b591f	-0.22983216
246	0x3daf1ce3	0.085504316
247	0xbd5c07b8	-0.0537183
248	0xbe523eea	-0.20531812
249	0xbf539cdd	-0.8266123
250	0xbd290fd9	-0.04127488
251	0xbe054213	-0.13013487
252	0x3e78575f	0.2425208
253	0xbe5c64d4	-0.21522838
254	0xbe58878a	-0.21145454
255	0x3f3ee831	0.74573046

valuefc.bias f4 [64]
0	0x3fe715d5	1.8053538
1	0x404f0669	3.2347662
2	0xbeac003b	-0.33593926
3	0x3f961b5e	1.1727102
4	0xbf6e9171	-0.93190676
5	0x3f8615e3	1.0475429
6	0xbe95f1fd	-0.29286185
7	0xbe4b76ba	-0.1986951
8	0x3f7f6b47	0.9977307
9	0x3e67825f	0.22608326
10	0x3f2963e2	0.66168034
11	0xbe1009ce	-0.1406624
12	0x3f5ab889	0.8543783
13	0xbfba2b13	-1.4544395
14	0xbeb10ade	-0.34578604
15	0x4073ecb3	3.811322
16	0x3e387e3f	0.18016909
17	0x3e0ae8e6	0.13565406
18	0x3e32ef8c	0.17474192
19	0xbea88517	-0.3291404
20	0x403a97b0	2.9155083
21	0xbee7c08f	-0.45264098
22	0xbed2c55e	-0.41166204
23	0xbf2f9858	-0.68591833
24	0x404a3e77	3.1600626
25	0x3ea56a67	0.3230774
26	0xbeaa9fb5	-0.33324972
27	0x40400508	3.000307
28	0x3ede7c87	0.43454382
29	0xbf338dab	-0.70138043
30	0x3d16774e	0.03673487
31	0xbf1bd58b	-0.60872716
32	0x400e50bb	2.2236774
33	0xbdd94b5f	-0.10610079
34	0xbe651798	-0.22372282
35	0xbf8404df	-1.0313987
36	0xbe3cbd20	-0.1843152
37	0x400994d0	2.1497078
38	0xbe1162ad	-0.14197798
39	0xbf08f7a7	-0.5350289
40	0xbf052fa5	-0.52025825
41	0x403d9cfe	2.962707
42	0x3fb06279	1.3780051
43	0xbe9b3a81	-0.30318072
44	0xbeec1146	-0.4610693
45	0x3ff7dd2f	1.9364375
46	0x3fe1e41c	1.7647738
47	0xbf55676f	-0.8336095
48	0x3fcc29da	1.5950272
49	0x3d33d980	0.043908596
50	0xbebccfd2	-0.36877304
51	0xbee44fe8	-0.44592214
52	0x3f830ec7	1.0238885
53	0xbec5e647	-0.3865225
54	0xbecafc6a	-0.39645702
55	0xbe915f55	-0.28393045
56	0x404bdd8a	3.1853967
57	0xbe5bc654	-0.21462375
58	0x401e016e	2.4688373
59	0x404f9a90	3.2438087
60	0x40084bef	2.1296346
61	0x4029c65d	2.6527321
62	0xbf26ccd1	-0.65156275
63	0xbe40c9c6	-0.1882697

valuefc2.weight f4 [32, 64]
0	0x3f39abc8	0.7252774
1	0xbe87f460	-0.2655363
2	0x3d7abe20	0.061216474
3	0xbe1fd00d	-0.15606709
4	0x3e76a244	0.24085337
5	0xbe7cab89	-0.2467481
6	0x3decb40f	0.11557781
7	0xbc9388dc	-0.018009596
8	0x3e831551	0.256022
9	0x3f0ca2ac	0.5493572
10	0x3dc65bcc	0.096854776
11	0x3d8d83e4	0.06909922
12	0x3f05619b	0.5210206
13	0xbf4d11d2	-0.80105317
14	0xbe1a215f	-0.15051793
15	0xbecfc214	-0.40577757
16	0xbe1501f8	-0.14551532
17	0x3f9fa24c	1.2471404
18	0xbf3974a2	-0.7244359
19	0x3f90cc1e	1.1312292
20	0xbf142a4c	-0.5787704
21	0xbf9d73a7	-1.2300919
22	0xbd9e7589	-0.07737262
23	0xbe3514c1	-0.17683698
24	0x3ef65db9	0.4811838
25	0x3e464a59	0.19364299
26	0xbd7c513a	-0.0616009
27	0xbe0d0436	-0.13771138
28	0x3f292259	0.66068035
29	0xbea7ef5a	-0.32799798
30	0xbf3429d5	-0.7037633
31	0x3eec2645	0.46122947
32	0x3db87db4	0.09008351
33	0xbd3195cd	-0.04335575
34	0x3e465e87	0.19371997
35	0xbd04f3d8	-0.03245911
36	0xbe25e639	-0.16201104
37	0xbef2cda1	-0.47422507
38	0x3f02cb85	0.51091796
39	0xbf746251	-0.9546252
40	0xbcc27f7f	-0.023742436
41	0xbedbb566	-0.42911834
42	0xbeb69bdb	-0.35665783
43	0x3cddecac	0.027090393
44	0xbca2be96	-0.01986627
45	0x3e9d7e9b	0.30760655
46	0xbfb2a329	-1.3956043
47	0x3d76ab9b	0.06022225
48	0x3e8dc49e	0.2768907
49	0x3d8c6556	0.06855266
50	0xbdf51054	-0.11966005
51	0x3df1683e	0.11787461
52	0x3d9f986b	0.07792743
53	0xbb75a3fa	-0.003748177
54	0xbed82524	-0.42215836
55	0xbcb682e0	-0.022279203
56	0x3f32e8a2	0.6988622
57	0xbd1a9adb	-0.037745338
58	0x3e396e39	0.18108453
59	0xbd41fee6	-0.04736223
60	0xbe9df957	-0.30854294
61	0xbf6845f0	-0.90731716
62	0xbf19b6e8	-0.6004472
63	0x3c4dc757	0.012559733
64	0x3eb233d6	0.34805173
65	0x3ef30edc	0.47472274
66	0x3cad1608	0.02112867
67	0xbe46bada	-0.19407216
68	0x3e0350fb	0.1282386
69	0x3d86981e	0.06571983
70	0xbd30b487	-0.043140914
71	0xbc31eba4	-0.010859404
72	0x3f362ff1	0.711669
73	0x3f404961	0.7511197
74	0x3f180154	0.59377027
75	0xbdecf76f	-0.11570632
76	0x3f1cc343	0.61235446
77	0xbf2283d3	-0.634824
78	0xbe298e98	-0.16558301
79	0x3f2b4ea6	0.66916883
80	0x3e20e0fa	0.15710822
81	0xbf2314bc	-0.63703513
82	0xbed0267f	-0.4065437
83	0xbf01fd3b	-0.50777024
84	0x3f251718	0.64488363
85	0xbf862e84	-1.0482945
86	0xbc0308ee	-0.0079977345
87	0xbe8779ae	-0.26460022
88	0x3f9ba50e	1.2159746
89	0x3f101a24	0.5628989
90	0x3db33126	0.08749609
91	0x3ead3fae	0.33837646
92	0x3ebf2b5c	0.37337768
93	0xbe58457c	-0.21120256
94	0xbf0b03af	-0.54302496
95	0x3de0594d	0.10954533
96	0x3f5e4d4e	0.8683671
97	0xbd8fc9af	-0.0702089
98	0xbd415c6f	-0.047207292
99	0x3de1145c	0.10990211
100	0xbc82e200	-0.015976906
101	0x3dd28b70	0.10280502
102	0x3f7a98bc	0.97889304
103	0xbf421569	-0.7581392
104	0x3e67a83d	0.22622772
105	0x3f5461f8	0.8296199
106	0x3e6b0a7c	0.22953218
107	0xbc8ab9f0	-0.016934365
108	0xbe5350cf	-0.20636295
109	0x3e62be96	0.22143015
110	0xbf482f2b	-0.7819697
111	0x3da93b33	0.082632445
112	0x3f115d8e	0.5678338
113	0x3e33e20e	0.17566702
114	0x3d746a76	0.05967184
115	0xbdfa2889	-0.12214763
116	0x3d6cf5a8	0.057851464
117	0x3d8e044d	0.06934414
118	0xbf8e33d5	-1.1109568
119	0xbd813f77	-0.06310933
120	0x3f054abe	0.5206717
121	0x3e01ba81	0.12668802
122	0x3fa9b763	1.325909
123	0x3f750457	0.9570975
124	0x3ef28430	0.47366476
125	0x3eee3081	0.4652138
126	0xbf5fcc9b	-0.8742158
127	0xbd4044c1	-0.04694057
128	0x3de6a005	0.1126099
129	0xbdf58776	-0.11988728
130	0xbc523d84	-0.012832049
131	0xbf87e38d	-1.0616318
132	0xbf130ee2	-0.57444584
133	0x3ebe05e2	0.37113863
134	0xbcb52263	-0.022111123
135	0xbbe78f2d	-0.0070666284
136	0xbec41da5	-0.38303867
137	0xbdf107b8	-0.1176905
138	0xbe6c612c	-0.23083943
139	0xbc4a1fcc	-0.0123366825
140	0x3e89fc49	0.2695029
141	0xbf91e71a	-1.1398652
142	0x3d9741d3	0.07385602
143	0xbf9757c5	-1.182366
144	0x3e444802	0.19168094
145	0x3e5456e9	0.20736279
146	0xbf3579f5	-0.70889217
147	0xbe39779a	-0.1811203
148	0x3e56cf79	0.20977582
149	0xbf42577e	-0.7591475
150	0xbd43d13e	-0.04780697
151	0xbedac103	-0.4272538
152	0x3cdaaa08	0.026692405
153	0xbe3bf07c	-0.18353456
154	0xbe5135a5	-0.2043062
155	0xbf123122	-0.5710622
156	0xbef0b656	-0.4701411
157	0xbcabfc31	-0.020994278
158	0xbf113fb7	-0.56737846
159	0x3d0a8ac2	0.033823736
160	0x3ee6a1a4	0.45045197
161	0x3d95c4ac	0.07312903
162	0x3e1e3f25	0.15453775
163	0xbf261e48	-0.64889956
164	0x3da9e4a6	0.08295564
165	0x3ef8a0a0	0.48560047
166	0xbe95a5ee	-0.29228157
167	0x3b93a0f8	0.004505273
168	0x3ea43a23	0.32075605
169	0xbf84a4fc	-1.0362849
170	0x3f03b994	0.51455045
171	0x3dca78c2	0.09886314
172	0xbd6b33f3	-0.05742259
173	0x3eae2032	0.34008938
174	0x3e56baa3	0.20969634
175	0xbd2d6642	-0.04233385
176	0xbe23db53	-0.16001634
177	0xbe665018	-0.22491491
178	0x3deb7367	0.114966206
179	0x3e4f5eae	0.20250961
180	0xbf0a95e0	-0.5413494
181	0x3da93b48	0.0826326
182	0xbe8eaacc	-0.27864683
183	0x3d6a0dbe	0.05714201
184	0xbea703d5	-0.3262011
185	0x3e973fd8	0.29540896
186	0x3f4e54aa	0.8059794
187	0xbe055162	-0.13019326
188	0x3f2b6bec	0.6696155
189	0x3ea3597e	0.31904215
190	0x3da4b65b	0.08042594
191	0xbda317a1	-0.07963491
192	0x3e70bb6d	0.23508997
193	0xbe9bdc42	-0.3044148
194	0xbc0e66f0	-0.008691534
195	0xbf9234e7	-1.1422395
196	0xbf31df25	-0.69481117
197	0xbe2a253a	-0.16615763
198	0x3da7378c	0.081648916
199	0x3d8884ee	0.06665979
200	0xbf2fa944	-0.68617654
201	0xbeb0f191	-0.345593
202	0xbe16c5ac	-0.14723843
203	0xbd51c3c8	-0.051212102
204	0x3ec3998d	0.38203087
205	0xbf595cc0	-0.8490715
206	0x3c675698	0.014119767
207	0xbf4572ae	-0.7712811
208	0x3f238084	0.63867974
209	0xbcc8b8e6	-0.024502229
210	0xbf53f416	-0.8279432
211	0x3e106a96	0.1410316
212	0xbf0af184	-0.54274774
213	0x3e21eb5c	0.15812439
214	0x3dcbaf09	0.09945495
215	0xbe7956a3	-0.24349456
216	0xbeb6e43c	-0.35721004
217	0xbf1465ea	-0.5796801
218	0xbe76b46f	-0.24092267
219	0xbf36b888	-0.7137532
220	0xbe988dce	-0.29795688
221	0xbcf0a030	-0.029373258
222	0xbc059ae0	-0.008154601
223	0xbdf9c14d	-0.12195072
224	0xbf2e4f5c	-0.6808984
225	0xbdd8502e	-0.10562168
226	0xbdc1a050	-0.09454405
227	0x3dbb786e	0.091538295
228	0x3cc283a9	0.023744421
229	0xbf4d7f7b	-0.80272645
230	0x3ebaea17	0.3650672
231	0x3e00921e	0.1255574
232	0xbd0dee03	-0.034650814
233	0xbf0435e6	-0.5164474
234	0x3dbebd2d	0.09313426
235	0xbd16112a	-0.036637463
236	0x3e550fc2	0.20806792
237	0xbe4f7483	-0.2025929
238	0xbe062593	-0.13100271
239	0xbdd732ea	-0.10507758
240	0xbf506e3e	-0.81418216
241	0xbd826538	-0.06366962
242	0x3d2c08f8	0.04200074
243	0x3d9b4204	0.07580951
244	0xbd94cdb1	-0.07265795
245	0x3dd80703	0.105482124
246	0xbf345e14	-0.7045605
247	0xbdd46542	-0.10370876
248	0x3dc3d0d5	0.09561316
249	0xbc8c77c0	-0.017146945
250	0xbf35ce5a	-0.7101799
251	0xbdc16771	-0.09443558
252	0x3de6b5cf	0.11265146
253	0xbea9ca75	-0.33162275
254	0xbf6e3be7	-0.93060154
255	0xbd8ef7b3	-0.069808386
