D3QN_AAAI_LOSS/checkpoint_d3qn_mount.pth (torch, 123881 bytes, 19 tensors)

fc1.weight f4 [128, 2]
0	0xbbad7922	-0.005293981
1	0x3ec2369c	0.3793229
2	0xbda85fe7	-0.08221417
3	0xbfa7bfab	-1.3105367
4	0xbe8b70d6	-0.27234524
5	0x3e422aab	0.18961589
6	0xbc658a57	-0.014010034
7	0x3f0f8740	0.5606575
8	0xbd8083de	-0.06275152
9	0x3e3f9997	0.18710934
10	0x3e2b5a7b	0.16733734
11	0xbf53ff54	-0.82811475
12	0xbdc08645	-0.0940061
13	0xbfbd4d01	-1.4789125
14	0x3e8926c7	0.26787397
15	0xbe4a74e3	-0.19771151
16	0xbf646b22	-0.8922597
17	0x40e4c6f7	7.1492877
18	0xbeb1ca0c	-0.34724462
19	0xc02dc9a3	-2.715432
20	0x3e837fa7	0.25683329
21	0x3f1650f7	0.5871729
22	0xbf303257	-0.6882681
23	0xc103a3b7	-8.227469
24	0x3ec62bed	0.38705388
25	0xbf8ca0c4	-1.0986562
26	0x3f9996bc	1.1999125
27	0x4153fb81	13.248902
28	0xbeaa760b	-0.33293185
29	0xbe7e4873	-0.24832325
30	0xbe8d1f66	-0.27563018
31	0x3f1c669e	0.6109408
32	0xbeeaaa85	-0.4583322
33	0xbea6a886	-0.32550448
34	0xbe01d1a0	-0.12677622
35	0xbf4d836b	-0.8027865
36	0xbed6ca0a	-0.4195102
37	0xbf33ea48	-0.7027936
38	0x3ea18c5e	0.31552404
39	0x3eaf785f	0.34271523
40	0x3f98efd5	1.1948191
41	0x40d1e055	6.5586343
42	0x3df5016e	0.11963163
43	0xbf29044d	-0.6602219
44	0x3f3ecc5c	0.7453058
45	0xc10f3bae	-8.95207
46	0x40157691	2.3353617
47	0x41524a24	13.143101
48	0xbdda6b6c	-0.1066502
49	0xbe685baf	-0.22691225
50	0x3ee78bb3	0.4522377
51	0x3f33f512	0.7029582
52	0x3e8fafcb	0.28063807
53	0x3dc3a2a6	0.09552507
54	0x3e87cc7a	0.2652319
55	0x414e5a2b	12.897014
56	0xbfb3e4bd	-1.405418
57	0x4132142b	11.129924
58	0x3e8cc249	0.27491978
59	0xc02dd8c4	-2.7163553
60	0x3ea3d010	0.31994677
61	0x3e9198fd	0.28437033
62	0xbd745f88	-0.05966142
63	0xbf213d2e	-0.6298398
64	0x3eb798bf	0.35858724
65	0xbdef6e45	-0.11690954
66	0x3cdd2bcf	0.026998429
67	0x3e27c5aa	0.16383997
68	0x3ee099ae	0.43867248
69	0x3f2dd04e	0.6789597
70	0xbdccf5ff	-0.100078575
71	0xbf85a60d	-1.04413
72	0xbf738c5f	-0.95136064
73	0x410487fe	8.283201
74	0x402ffa7c	2.7496634
75	0x4147a06c	12.4766655
76	0x3e101a17	0.14072452
77	0xbf1d6949	-0.6148878
78	0x3d853828	0.065048516
79	0xbee27e4b	-0.4423698
80	0xbce36879	-0.027759777
81	0xbf189bfb	-0.5961301
82	0x3f09a3cb	0.53765553
83	0xbf349264	-0.70535874
84	0x4061e1cd	3.5294068
85	0x41220dab	10.128337
86	0xbdee4f5c	-0.1163623
87	0xbea5b9c7	-0.323683
88	0x3e8b3965	0.27192226
89	0xbed66fd0	-0.4188218
90	0x3eda3178	0.42615867
91	0x4102dc23	8.178744
92	0x3f01962b	0.50619763
93	0x3e875ecb	0.2643951
94	0xbe69d678	-0.2283572
95	0xbfeae775	-1.8351885
96	0x3ff7370a	1.9313672
97	0x41478023	12.468783
98	0xbef789e2	-0.48347384
99	0xbeb69c32	-0.35666043
100	0x4013dd40	2.310379
101	0x4154bda5	13.2963
102	0x3cff82bb	0.031190267
103	0xbf9ef80e	-1.241945
104	0xbe10f63b	-0.1415643
105	0xc132c096	-11.172018
106	0x3f47cf5d	0.78050786
107	0xc112c044	-9.17194
108	0xbd1f95e4	-0.038961306
109	0x3dd96eea	0.10616858
110	0xbe820c9b	-0.25400242
111	0x3f6abc0c	0.91693187
112	0xbd57bbc5	-0.052669305
113	0xbe76b24f	-0.24091457
114	0x3ef81ae5	0.4845802
115	0xbf18a688	-0.59629107
116	0x3dd6be68	0.10485536
117	0xbe4708ae	-0.19436905
118	0x3f94d3c4	1.1627126
119	0x40e6e894	7.215891
120	0x3e8e12ff	0.27748868
121	0x3d2d7d4a	0.042355813
122	0xbde439cb	-0.11143836
123	0x3e810c30	0.2520461
124	0xbe04313e	-0.1290941
125	0xbfb2e865	-1.3977171
126	0xbcb7b102	-0.022423271
127	0xbf174d50	-0.59102345
128	0x406b078c	3.6723356
129	0x40e3846b	7.1099143
130	0x3cce7931	0.025204273
131	0x3d8db090	0.06918442
132	0xbeebdb16	-0.46065587
133	0xbd14a302	-0.03628827
134	0x3f7bdd5b	0.98384637
135	0x40f75364	7.7289295
136	0x3fcf17db	1.6179155
137	0xc058f9fc	-3.3902578
138	0x3f079e2a	0.52975714
139	0xbfb8d163	-1.44389
140	0xbdebc3ef	-0.11511981
141	0x416ca48d	14.790174
142	0x3f0129b5	0.50454265
143	0xbe846630	-0.25859213
144	0xbdcac69b	-0.09901162
145	0xbfda414e	-1.705118
146	0x3ef68397	0.4814727
147	0xbb9633c2	-0.0045838067
148	0xbeb3f333	-0.35146484
149	0xbf0ab79d	-0.5418642
150	0x3e013570	0.12618041
151	0xc15af50b	-13.684825
152	0x405705a1	3.3597186
153	0x413beb11	11.744889
154	0x3fc4c0fd	1.5371395
155	0x415bcc9f	13.737456
156	0x3ee1d54e	0.4410805
157	0xbf0da63b	-0.5533177
158	0x3e12b520	0.14326906
159	0xbf801f9f	-1.000965
160	0x3f8a1852	1.0788672
161	0xc0a716b2	-5.2215204
162	0xbf2c062d	-0.67196923
163	0xc08b186d	-4.3467317
164	0x4047a553	3.1194656
165	0x402cbc85	2.6990063
166	0x3ece5952	0.4030252
167	0xbf21281d	-0.62951833
168	0xbed2be5b	-0.41160855
169	0xbfd028a3	-1.6262401
170	0x3fa298c2	1.2702868
171	0x40f36138	7.6056175
172	0x3f5009b9	0.81264836
173	0x40d032ab	6.506185
174	0xbd8b402b	-0.067993484
175	0xbf2c5bc4	-0.67327523
176	0xbda71bea	-0.08159621
177	0xbea19dd5	-0.3156573
178	0x40562db3	3.3465393
179	0x413f8c66	11.971777
180	0x3f9b408d	1.2129074
181	0x40bec2a9	5.961262
182	0x3f48ab8d	0.78386766
183	0x4174736b	15.278178
184	0x3eadf626	0.3397686
185	0x3e7fb6e2	0.24972108
186	0x3ea2f48a	0.31827193
187	0xbfbf33a3	-1.4937633
188	0xbe2ad898	-0.16684186
189	0xc181ca77	-16.22386
190	0x3ed7d9e4	0.42158425
191	0x416c75e8	14.778786
192	0xbea8c189	-0.32960156
193	0xbf7704e2	-0.96491826
194	0xbd78d377	-0.060748544
195	0xbfcbacfa	-1.5912163
196	0xbdd36bab	-0.103232704
197	0x3e30cc57	0.1726545
198	0x3b33a6c1	0.0027412625
199	0xbf740a65	-0.9532836
200	0x3cf3af42	0.029746655
201	0x3ee960e3	0.4558173
202	0xbccde425	-0.025133202
203	0xbfaa0fe2	-1.3286097
204	0xbed238d0	-0.4105897
205	0x3efd6728	0.49492764
206	0xbc93094e	-0.017948773
207	0xbe2ca461	-0.1685958
208	0x3e82ea79	0.25569513
209	0x3db75fc2	0.08953811
210	0xbbac7b48	-0.0052637197
211	0xbe0f2301	-0.13978197
212	0x3db5b1d6	0.0887181
213	0xbe2556d6	-0.16146407
214	0x40377ce2	2.8669972
215	0x41411de6	12.069799
216	0xbcc75f4a	-0.02433743
217	0xbfaf4752	-1.369364
218	0xbeb256fa	-0.34831983
219	0x41769a0b	15.412608
220	0x3f9bb4b4	1.2164521
221	0x40d63b7b	6.694761
222	0x3e82c823	0.25543317
223	0x3ca401b4	0.020020343
224	0xbe60fbf7	-0.21971117
225	0xc127df45	-10.492009
226	0xbea9578d	-0.33074608
227	0xc01fa4b5	-2.494428
228	0xbe72f095	-0.23724587
229	0xbdd67414	-0.10471359
230	0x40760cf0	3.8445396
231	0x3fa476b8	1.284873
232	0x3db4c933	0.08827438
233	0x3f222341	0.63335043
234	0x3edd76ac	0.43254602
235	0xbee4e2ca	-0.44704276
236	0x3ea26036	0.31714028
237	0xbeffec78	-0.499851
238	0xbe9970eb	-0.29968962
239	0x3e54f7b3	0.20797615
240	0xbfb8d73e	-1.4440687
241	0x412be5d3	10.743609
242	0x3e7dac37	0.24772726
243	0xbf9d3734	-1.2282472
244	0x4047bc8b	3.1208827
245	0x413057da	11.021448
246	0x3fd8a467	1.6925172
247	0x414b6f27	12.714637
248	0x40a02f71	5.005791
249	0x408dfd26	4.437152
250	0xbea2edb4	-0.31821978
251	0x3f480753	0.78136176
252	0x3eecb189	0.462292
253	0x41752380	15.321167
254	0x3e69b720	0.22823763
255	0xbfad3012	-1.3530295

fc1.bias f4 [128]
0	0xbf336ac1	-0.7008477
1	0xbe27a249	-0.163705
2	0xbeaddfc1	-0.33959773
3	0xbef19a5d	-0.47188082
4	0xbed0922c	-0.4073652
5	0xbdb3760e	-0.087627515
6	0xbe2f3fab	-0.17114131
7	0xbe250ec3	-0.16118912
8	0xbef88048	-0.4853537
9	0xbf0302bc	-0.5117605
10	0xbe4a5792	-0.19759968
11	0xbcb596c4	-0.022166617
12	0xbe3e39ca	-0.18576732
13	0x3e0b4049	0.13598742
14	0xbee3c842	-0.44488722
15	0xbeaa2faa	-0.3323949
16	0xbf2b25ef	-0.6685476
17	0xbe4731fb	-0.1945266
18	0xbf1793f9	-0.59210163
19	0xbf216478	-0.6304393
20	0x3d3ccbc3	0.04609276
21	0xbeeb1caa	-0.45920306
22	0xbeda0580	-0.4258232
23	0x3f338969	0.70131546
24	0xbe16ee68	-0.14739382
25	0xbef39bf5	-0.47579923
26	0xbf125265	-0.57156974
27	0x3f81338e	1.0093858
28	0x3ec90f6e	0.39269584
29	0x3ea96f51	0.3309274
30	0xbe72bd79	-0.2370509
31	0xbe038b0e	-0.12846014
32	0xbe42335d	-0.18964906
33	0xbd00cd5c	-0.031445846
34	0xbedc7f5f	-0.43065926
35	0xbe53511b	-0.20636408
36	0x3eb16bc6	0.34652537
37	0x3f0fd2e5	0.56181175
38	0xbe22d8b8	-0.15902984
39	0xbedf2be2	-0.43588167
40	0xbd7bbd92	-0.061460085
41	0xbf06c152	-0.52638733
42	0xbd55813a	-0.052125193
43	0xbe73793b	-0.23776715
44	0xbeaeac0d	-0.3411564
45	0xbd62bb0e	-0.05535417
46	0xbebc1042	-0.36731154
47	0xbeb0fb52	-0.34566742
48	0x3e69c015	0.2282718
49	0xbf17118f	-0.5901117
50	0x3e6a2cf9	0.22868718
51	0xbc6d3e19	-0.014480137
52	0x3c9f021c	0.019410186
53	0xbeeafbce	-0.45895237
54	0xbf1465bd	-0.5796774
55	0xbea33f81	-0.31884387
56	0xbdd7b3f1	-0.10532368
57	0xbe841981	-0.25800708
58	0xbdbc9ba9	-0.09209377
59	0xbd04b636	-0.032400332
60	0xbebd0a00	-0.36921692
61	0xbe2f16a0	-0.17098475
62	0xbe5ab565	-0.21358259
63	0xbd7de732	-0.061988063
64	0xbf050a41	-0.5196877
65	0xbd1db52f	-0.03850287
66	0xbf0e4ed5	-0.5558904
67	0xbca7b9c3	-0.02047432
68	0x3f752b87	0.9576954
69	0xbe967ec4	-0.2939359
70	0x3dafda9e	0.0858662
71	0xbe89ef1a	-0.26940233
72	0xbe4738db	-0.19455282
73	0xbeb01fdb	-0.34399304
74	0xbf160235	-0.5859712
75	0xbd984269	-0.07434542
76	0x3f1033c2	0.56328976
77	0x3e96e8d2	0.29474503
78	0xbefa40db	-0.48877606
79	0xbd87f3b7	-0.06638282
80	0x3f904f39	1.1274177
81	0x3fe1e219	1.7647125
82	0x40361040	2.8447418
83	0xbe6b4d8f	-0.22978805
84	0xbf175b7d	-0.59123975
85	0xbbd3348c	-0.006445473
86	0x40390644	2.8910074
87	0xbdebc6db	-0.11512538
88	0xbed9de05	-0.425522
89	0x3d9d01d4	0.07666364
90	0xbdf1bc1d	-0.11803458
91	0xbdacf083	-0.084443115
92	0xbee2ead2	-0.4431978
93	0xbe477860	-0.19479513
94	0xb9f902bf	-0.00047495027
95	0x3da7e0f3	0.081972025
96	0xbeea6dfe	-0.45787042
97	0xbe4bd506	-0.1990548
98	0xbe0bfaf2	-0.13669947
99	0xbdb610d4	-0.088899285
100	0xbe760fb9	-0.24029435
101	0xbdf2caa6	-0.11855058
102	0xbefcdf9d	-0.49389353
103	0xbd422d9a	-0.04740677
104	0xbef4f3d2	-0.4784227
105	0xbf329516	-0.6975874
106	0xbf115e5e	-0.5678462
107	0x3e3db9b2	0.18527868
108	0xbdecff97	-0.115721874
109	0x3e3201c8	0.17383492
110	0xbd877a4c	-0.06615123
111	0xbf21a893	-0.6314785
112	0xbf2ed323	-0.6829092
113	0xbf0196bd	-0.50620633
114	0xbeeb1e9e	-0.45921797
115	0x40233475	2.5500767
116	0xbf08da1e	-0.5345782
117	0xbeb0a3a2	-0.34499842
118	0xbf2ee198	-0.6831298
119	0xbecd8bbd	-0.40145674
120	0xbeb1da87	-0.34737036
121	0xbe22b8d6	-0.15890822
122	0xbe4cfffd	-0.20019527
123	0x3e86a319	0.2629631
124	0x40604c2f	3.5046499
125	0xbed64769	-0.41851357
126	0xbd9b4501	-0.07581521
127	0xbdf98931	-0.1218437

fc2.weight f4 [64, 128]
0	0x3cef89d3	0.029240524
1	0x3d8588b2	0.06520213
2	0x3d3bc6aa	0.045843758
3	0x3d610f8c	0.054946467
4	0xbcfd6be0	-0.030935228
5	0xbc0675b4	-0.008206774
6	0xbc491424	-0.012272868
7	0xbbfbf1a7	-0.0076887193
8	0xbfd7edbd	-1.6869427
9	0xbe251e2e	-0.16124794
10	0xbd8b4a79	-0.06801314
11	0x40b25849	5.573277
12	0x3c7218ac	0.01477639
13	0x3e0a58a8	0.13510382
14	0xbd982258	-0.074284256
15	0x3d8be92c	0.068315834
16	0x3d67850c	0.056523368
17	0xbca8601c	-0.020553641
18	0xbd2aee65	-0.041731257
19	0x3da65d8d	0.08123312
20	0x3cb06116	0.02153067
21	0xbd896b84	-0.0670996
22	0xbb692d0e	-0.0035579833
23	0x3e0a1868	0.13485873
24	0xbd7f1421	-0.062275056
25	0x3d4b858d	0.04968791
26	0xbd4db4d6	-0.050221287
27	0xc0f52544	-7.660799
28	0x3fea4f9e	1.8305547
29	0x401725f5	2.3616917
30	0xbd800529	-0.06250984
31	0xbd585392	-0.052814074
32	0xbcc48c1b	-0.023992589
33	0xbc8bb203	-0.017052656
34	0x3c0a96dc	0.008458819
35	0x3d697937	0.057000365
36	0x40550ffc	3.3291006
37	0xbe043b22	-0.12913182
38	0x3b9472bf	0.0045302804
39	0x3d2d97c8	0.042381078
40	0x3cbf9ee0	0.023391187
41	0xbda570c7	-0.08078151
42	0xbd93fbb5	-0.07225744
43	0xbd868606	-0.06568532
44	0xbd1a7a07	-0.03771403
45	0xbc0052d8	-0.0078322515
46	0xbd808c1c	-0.06276724
47	0x3bddb8a2	0.0067663947
48	0xbe2463f6	-0.16053757
49	0x3bbdf6d3	0.005797246
50	0xbdc9bda4	-0.09850624
51	0x41854976	16.66087
52	0x4090f157	4.5294604
53	0x3bb7ff6e	0.0056151664
54	0x3d33dd53	0.043912243
55	0xbe2d845e	-0.16945025
56	0xbddb111a	-0.10696621
57	0xbdafe3ad	-0.085883476
58	0xbd1d7e5f	-0.038450595
59	0x3d3b5647	0.045736577
60	0xbdab54bc	-0.08365771
61	0x3d2cc37b	0.042178612
62	0xbd70e5b2	-0.058812805
63	0xbb4b38fb	-0.0031009305
64	0xbec3030d	-0.38088265
65	0xbddbc223	-0.10730388
66	0x3d961fe5	0.07330302
67	0x3d42eff6	0.047592126
68	0xc0b1ab89	-5.5521894
69	0x3dc3df02	0.0956402
70	0xc087ad6c	-4.2399197
71	0x3d971367	0.073767476
72	0xbc948f2b	-0.018134674
73	0x3d2baf48	0.041915208
74	0xbd912586	-0.07087235
75	0x40880b3b	4.251371
76	0xbed7508a	-0.42053634
77	0xbadb36c5	-0.0016724697
78	0x3c9c34be	0.019068118
79	0xbdb7380d	-0.08946238
80	0x3f9e4e85	1.2367712
81	0x3f0cc0a8	0.5498147
82	0xbfeaf56a	-1.8356144
83	0xbddf63ce	-0.10907708
84	0xbde7283f	-0.11286973
85	0xbcdf63d0	-0.027269274
86	0xbeaa3922	-0.33246714
87	0x3d8668a8	0.0656293
88	0x3d502ec8	0.050825864
89	0xbe41493c	-0.18875593
90	0x3c811032	0.015754793
91	0x3f2398a4	0.63904786
92	0xbd9a9bdd	-0.0754926
93	0xbc4f36fc	-0.012647387
94	0x403826ba	2.8773637
95	0xc0430f47	-3.0478075
96	0xbdd4587f	-0.10368442
97	0xbd88f3e6	-0.06687145
98	0xbdcb5d4b	-0.099299036
99	0x3cc68902	0.024235252
100	0xbc138f53	-0.009006339
101	0x3d3aac5f	0.045574542
102	0x3d600e3f	0.054701086
103	0x3cd736c4	0.026271231
104	0x3b3a44a1	0.0028422254
105	0xbcdfde68	-0.027327731
106	0xbc9d6ff5	-0.019218424
107	0xbe2c7dda	-0.16844884
108	0x3cb3a9cf	0.021931557
109	0xc0aef9d4	-5.4679966
110	0x3d71cdca	0.059034146
111	0xbc1d753d	-0.009610471
112	0x408d9066	4.423877
113	0xbe05fe94	-0.13085395
114	0x3da02b4b	0.078207575
115	0xc066309f	-3.5967176
116	0xbda7acae	-0.08187233
117	0x3d7f5863	0.06234015
118	0x3d357063	0.044296633
119	0x3d564c21	0.052318696
120	0x3fc85054	1.5649514
121	0xbdc63e3a	-0.096798375
122	0xbdec9556	-0.11551921
123	0xbecd3b06	-0.40084094
124	0xc05218a4	-3.282754
125	0xbd884954	-0.06654611
126	0x3f310e20	0.6916218
127	0x3b86ebf4	0.0041174833
128	0xbcc8e60a	-0.024523754
129	0x3c9b1698	0.018931672
130	0x3cb64928	0.02225168
131	0x3d0069ae	0.031350784
132	0xbd30e1bf	-0.04318404
133	0x3c49d7b9	0.012319499
134	0x3d12992e	0.035790615
135	0xbd523e52	-0.051328965
136	0xbf13f9f7	-0.5780329
137	0xbef45e6b	-0.47728285
138	0x3cfdc9f1	0.030980082
139	0xc01a6972	-2.4126859
140	0x3b633072	0.0034666327
141	0xbf0cf7e8	-0.55065775
142	0x3dbfc7ae	0.09364258
143	0xbcc2d673	-0.023783898
144	0xb97d0e4b	-0.00024133285
145	0xbb8876ee	-0.004164568
146	0x3d27d33b	0.04097293
147	0x3db0cbd2	0.08632626
148	0x3d56a02d	0.05239885
149	0xbd92bf36	-0.07165377
150	0xbfa543cb	-1.2911314
151	0xbf7718d4	-0.9652226
152	0x3c88e971	0.016712876
153	0xbd6cf889	-0.05785421
154	0xbd01da6a	-0.031702437
155	0xbf030c94	-0.5119107
156	0xbe89ee35	-0.2693955
157	0x3cecb938	0.028896913
158	0xbca60add	-0.020268852
159	0xbcfbb268	-0.03072472
160	0x3c46f497	0.012143276
161	0x3d94d83a	0.072678044
162	0xbd74c44f	-0.059757527
163	0x3d1ec360	0.038760543
164	0xc008ff49	-2.1405814
165	0xbed6c66f	-0.41948268
166	0xbdabbe97	-0.083859615
167	0xbdad8945	-0.08473448
168	0x3d478a83	0.04871608
169	0xbd650ee8	-0.05592242
170	0xbf20b1f9	-0.62771565
171	0xbbf9f81a	-0.007628453
172	0xbc98882e	-0.018619623
173	0x3cae9f11	0.021316083
174	0x3d660dd7	0.056165542
175	0x3e25f49c	0.16206592
176	0xbf9d78d6	-1.2302501
177	0xbca74991	-0.020420821
178	0x3dd50bbc	0.10402629
179	0x3d1537ae	0.036430053
180	0x3c93f85b	0.018062761
181	0xbfbfae8d	-1.4975144
182	0xbca145f4	-0.019686677
183	0xbf185cd0	-0.5951662
184	0x3dda6caa	0.10665257
185	0x3d35f6a3	0.044424664
186	0x3d142c01	0.036174778
187	0x3ce0ffff	0.027465818
188	0xbcdba6d5	-0.02681295
189	0xbccf7171	-0.025322648
190	0xbd1821cc	-0.037141606
191	0x3dc7d574	0.0975751
192	0xbfb09df8	-1.3798208
193	0xbdbce837	-0.09223979
194	0x3d1468f2	0.036232896
195	0x3db03797	0.08604353
196	0xbd91ac0c	-0.071128935
197	0x3cc27875	0.023739079
198	0xbef32095	-0.47485796
199	0x3d25a220	0.040437818
200	0x3c697603	0.014249328
201	0xbd36d32d	-0.044634987
202	0x3c925bee	0.017866101
203	0xbf96d9c7	-1.178521
204	0xbd167910	-0.036736548
205	0xbeaaff1a	-0.33397752
206	0xbc58c3e2	-0.013230296
207	0xbdd94e16	-0.10610597
208	0x3df4d031	0.11953772
209	0x3de31a8b	0.11089047
210	0xbf28bd3f	-0.65913767
211	0xbca08469	-0.019594388
212	0xbe915725	-0.28386799
213	0x3da7a073	0.081849
214	0xbec22398	-0.3791778
215	0x3d9d003b	0.076660596
216	0xbd98b488	-0.074563086
217	0xbd3924e9	-0.045201216
218	0xbda0cdc8	-0.0785175
219	0x3eb0be4d	0.34520188
220	0xbd1b8f8f	-0.037978705
221	0xbedfd245	-0.4371511
222	0xbf94b739	-1.1618415
223	0xbf06f756	-0.52721155
224	0xbe2e105e	-0.16998431
225	0x3e263a2f	0.16233133
226	0x3cdcc02c	0.026947103
227	0xbd74c025	-0.059753556
228	0x3d96e8f9	0.07368655
229	0xbc203875	-0.009779085
230	0x3d006ba6	0.03135266
231	0x3da9ea0c	0.08296594
232	0x3d369502	0.0445757
233	0x3c4d0790	0.01251401
234	0x3d9a0586	0.07520585
235	0xbf920641	-1.1408159
236	0xbd19ccf1	-0.037548963
237	0xbe1fafbe	-0.15594384
238	0x3d09def3	0.033659887
239	0xbdb09dfa	-0.08623882
240	0xbfc12451	-1.5089208
241	0xbf3a1009	-0.7268072
242	0x3d9eb591	0.07749475
243	0xbf07acd0	-0.52998066
244	0xbda500ee	-0.08056818
245	0xbbb6125b	-0.0055563874
246	0x3d635d6d	0.05550902
247	0x3cbc1d98	0.02296333
248	0xbf64eefc	-0.8942716
249	0xbd88c4a8	-0.06678134
250	0xbef63bdf	-0.48092553
251	0xbf148d45	-0.5802806
252	0xbd0da543	-0.034581434
253	0xbf1bfb14	-0.6092999
254	0xbf24a844	-0.6431925
255	0x3d84c596	0.06482999

fc2.bias f4 [64]
0	0xbe1894c1	-0.14900495
1	0x3e96f9c4	0.2948743
2	0xbd347d5d	-0.04406487
3	0xbd287ba4	-0.041133538
4	0xbdc07dd6	-0.09399001
5	0xbc9048bd	-0.01761281
6	0x3f8879ee	1.066221
7	0x3f68d6ed	0.9095295
8	0xbdb85182	-0.089999214
9	0xbc1b527c	-0.009480115
10	0xbdc5c694	-0.096570164
11	0xbd95c20b	-0.073124014
12	0xbd40ae20	-0.04704106
13	0xbd4cbdbf	-0.049985643
14	0xbbbb4b9c	-0.0057158004
15	0xbdb3b945	-0.08775572
16	0xbc6bd58a	-0.014394173
17	0xbdcf4784	-0.101210624
18	0xbce8b315	-0.028405705
19	0xbd789ef6	-0.060698472
20	0x3f92246d	1.1417366
21	0x3c67677f	0.0141237965
22	0x3f6cbf47	0.92479366
23	0xbd13395e	-0.03594338
24	0x3f803382	1.0015719
25	0xbd20d47a	-0.039265133
26	0xbcd8aff3	-0.026451087
27	0xbd53b794	-0.051688746
28	0xbc1212eb	-0.008915643
29	0xbd94c2cb	-0.07263716
30	0xbd13f47c	-0.03612183
31	0xbdab84fb	-0.083749734
32	0xbd7a67ed	-0.061134268
33	0xbda10ea6	-0.07864122
34	0x404bbe1c	3.1834784
35	0xbe147003	-0.14495854
36	0x3bcc50b4	0.0062352065
37	0x401252a8	2.286295
38	0xbb9f8131	-0.0048676957
39	0xbdd0816d	-0.10180936
40	0xbd339a1c	-0.043848142
41	0x3be4e3d8	0.006985169
42	0x3cac6110	0.021042377
43	0x4023a0fc	2.5567007
44	0xbdcb687d	-0.09932039
45	0x3f9420ab	1.157247
46	0x3b8dc45c	0.0043263864
47	0xbc335b07	-0.010946996
48	0x3e2beb99	0.16789092
49	0xbd3c4bb5	-0.045970637
50	0x402dbbe7	2.7145936
51	0xbd9754ee	-0.07389246
52	0xbd0b7d4e	-0.034055047
53	0xbb135189	-0.0022479019
54	0xbdca02ec	-0.098638386
55	0xbd769a2e	-0.06020563
56	0xbd70c272	-0.058779188
57	0xbcc88ded	-0.024481738
58	0xbea1b402	-0.31582648
59	0xbda94cbd	-0.0826659
60	0x3d3b9dac	0.045804664
61	0xbeec4892	-0.46149117
62	0x3f31b968	0.6942353
63	0xbe342cb7	-0.17595182

fc3.weight f4 [64, 64]
0	0xc26cfcea	-59.246986
1	0x3cd5f236	0.026116472
2	0x3d440a18	0.04786119
3	0xbd842278	-0.06451887
4	0x3c14c05b	0.009079064
5	0xbd49eff4	-0.049301103
6	0x409d8614	4.922617
7	0x40b5457e	5.664733
8	0xbd0cfbd8	-0.034419864
9	0x3da40a45	0.08009771
10	0x3d35778a	0.044303454
11	0xbdc22f20	-0.09481645
12	0x3c9e5b49	0.019330638
13	0x3c37a920	0.011209756
14	0xbd41bf02	-0.0473013
15	0x3c915978	0.017742857
16	0xbd8f6668	-0.07001954
17	0xbc58b410	-0.013226524
18	0x3dce0b18	0.1006071
19	0x3db4140e	0.08792888
20	0x40b5b821	5.6787267
21	0xbc8fb0b0	-0.017540306
22	0x40c02580	6.0045776
23	0x3da82db3	0.082118414
24	0x40b4ea89	5.65363
25	0x3d9a8e7d	0.07546709
26	0x3d81b622	0.06333567
27	0x3db15585	0.0865889
28	0x3d70dcec	0.058804438
29	0xbd9f0ae4	-0.07765749
30	0xbde0ffe6	-0.10986309
31	0xbdf038b1	-0.11729563
32	0x3dd66cf3	0.10469999
33	0xbd8e6618	-0.069530666
34	0xc1e045f4	-28.034157
35	0x3c82eac0	0.015981078
36	0xbda2699f	-0.07930302
37	0xc1d294a2	-26.322575
38	0xbd011fb8	-0.03152439
39	0x3dc6593e	0.0968499
40	0xbe00e49a	-0.12587205
41	0xbdd28042	-0.102783695
42	0x3d618275	0.055056054
43	0xc1e06a87	-28.052015
44	0x3c0b887a	0.008516425
45	0x40ba70ea	5.8262835
46	0xbd13ff29	-0.03613201
47	0xbda1b3d0	-0.07895625
48	0xbd1bd0ce	-0.03804093
49	0xbda79baa	-0.081839874
50	0xc1deb80a	-27.839863
51	0x3cd2ae49	0.025717871
52	0x3d160a9d	0.036631215
53	0x3dc2c4a6	0.09510164
54	0x3d59f168	0.05320874
55	0xbc1becec	-0.009516936
56	0x3d905ec2	0.070493236
57	0xbda3354c	-0.0796915
58	0xbc985866	-0.01859684
59	0xbd72ca5e	-0.059275024
60	0x3d2f212a	0.042756237
61	0xbc091d80	-0.00836885
62	0x41463d1e	12.389921
63	0x3d945881	0.07243443
64	0xc21a2204	-38.53322
65	0xbf83470b	-1.0256056
66	0x3c59a661	0.013284297
67	0xbe5423aa	-0.2071673
68	0xbd15619b	-0.036470037
69	0xbd0a7d73	-0.033811044
70	0x40832fc1	4.0995793
71	0x40a87a82	5.2649546
72	0x3c335191	0.01094474
73	0xbe04cbec	-0.12968415
74	0x3dbefa6b	0.09325107
75	0x3c5128e8	0.0127661005
76	0x3e0010d3	0.12506418
77	0xbd5c128c	-0.053728625
78	0xbda9f92b	-0.08299478
79	0x3d3666d1	0.044531647
80	0x3df6991d	0.12040923
81	0xbdd63cfd	-0.10460851
82	0xbda8432a	-0.082159355
83	0xbca09edb	-0.019606998
84	0x40a23526	5.068988
85	0xbbee02bd	-0.00726351
86	0x40baefcf	5.8417735
87	0xbd88211d	-0.06646941
88	0x40a217b1	5.065392
89	0x3d6be356	0.05758985
90	0xbdbb3efc	-0.09142873
91	0x3e0f1345	0.13972194
92	0x3cc7bc84	0.024381883
93	0x3c654ec3	0.013995829
94	0x39b6e46e	0.00034883938
95	0x3d76517f	0.060136314
96	0xbda0b7b3	-0.07847538
97	0xbdb45876	-0.08805935
98	0xc1ee990a	-29.824726
99	0xbbe1ed0b	-0.006894713
100	0xbf69865a	-0.9122063
101	0xc1d57717	-26.68315
102	0xbda30287	-0.079594664
103	0xbe29937e	-0.1656017
104	0xbc69a6fe	-0.014261005
105	0xbd10002d	-0.035156418
106	0xbe53a8cc	-0.2066986
107	0xc1e463e3	-28.548773
108	0xbcc7bef3	-0.024383044
109	0x40afb2d9	5.490582
110	0x3c3c77bc	0.011503156
111	0xbcab5596	-0.020914834
112	0xbf0996b6	-0.5374559
113	0xbdaac612	-0.0833856
114	0xc1e43d2a	-28.529865
115	0x3d469c86	0.048489116
116	0x3d5dc8f7	0.054146733
117	0xbe0d36e3	-0.13790469
118	0xbceb5444	-0.028726704
119	0x3c80d156	0.01572482
120	0x3d0fa0f6	0.035065614
121	0x3d988958	0.07448071
122	0x3d92afd2	0.07162441
123	0xbdf841e4	-0.12121943
124	0xbf3fde8b	-0.7494895
125	0x3ec11dc5	0.37718025
126	0x41436ef6	12.21459
127	0xbd1708d6	-0.03687366
128	0xc299caae	-76.89586
129	0xbd0238e6	-0.031792544
130	0x3de72ec6	0.11288218
131	0xbd80e4d8	-0.062936485
132	0xbb2dca7b	-0.0026518393
133	0xbdbe3dc0	-0.09289122
134	0x40a7fc83	5.249574
135	0x40bdca38	5.930935
136	0x3dcfc926	0.10145788
137	0xbdbc6116	-0.09198205
138	0x3d92bea8	0.07165271
139	0xbd95d77c	-0.07316491
140	0x3dca6f5e	0.09884523
141	0xbdab66de	-0.0836923
142	0xbdbc4f27	-0.091947846
143	0xbd8aeb4a	-0.06783159
144	0xbdcdd10e	-0.1004964
145	0x3df35546	0.11881499
146	0x3d3d4ce8	0.04621592
147	0xbd8b0b56	-0.067892715
148	0x40bb63f8	5.855953
149	0xbd293b54	-0.041316345
150	0x40cc0321	6.375382
151	0xbd668a78	-0.056284398
152	0x40c12d26	6.0367613
153	0xbd7b5e7c	-0.061369404
154	0x3d188f24	0.037245885
155	0x3df95fa0	0.12176442
156	0xbdb58052	-0.08862366
157	0xbdc7e082	-0.09759618
158	0xbdf4d82e	-0.119552955
159	0x3cc0b198	0.023522183
160	0x3dc8fc76	0.09813778
161	0xbda352b8	-0.07974762
162	0xc1d11cdb	-26.13909
163	0x3da041c2	0.07825042
164	0x3db01a2c	0.08598742
165	0xc1c3fe28	-24.4991
166	0x3d23f920	0.040032506
167	0x3cb1b758	0.02169387
168	0x3b8129c7	0.003941748
169	0x3ddf7eba	0.10912843
170	0xbbd762f6	-0.0065730764
171	0xc1d3143c	-26.38488
172	0xbca4a75a	-0.02009933
173	0x40c72ef6	6.2244825
174	0xbe09ea50	-0.1346829
175	0xbd22d584	-0.039754406
176	0xbe277166	-0.16351852
177	0x3cf079f8	0.029355034
178	0xc1c1c3ea	-24.220661
179	0xbdd263d6	-0.102729484
180	0xbdda5312	-0.10660376
181	0x3d120a68	0.035654455
182	0x3dc039c8	0.09386021
183	0x3dc3820d	0.095462896
184	0x3dafb012	0.085785046
185	0xbdceacfe	-0.100915894
186	0xbd00261e	-0.03128635
187	0x3ddd68b9	0.1081099
188	0xbcef9252	-0.029244576
189	0xbdf5c5fe	-0.12000655
190	0x41596530	13.587204
191	0xbdb7f105	-0.08981518
192	0xbceebd2d	-0.02914294
193	0xbe1c876d	-0.15286036
194	0x3d970eb4	0.07375851
195	0xbe24cfba	-0.16094866
196	0xbd6ec96f	-0.05829757
197	0x3d03c10e	0.032166533
198	0xbdb98130	-0.09057844
199	0xbee5a9be	-0.44856066
200	0x3d34e2de	0.04416167
201	0xbc8830b1	-0.01662478
202	0x3d5e4b0a	0.05427078
203	0x3b03ffd7	0.0020141506
204	0x3da217b9	0.07914681
205	0xbdd25588	-0.1027022
206	0xbd432874	-0.047646
207	0x3dbb220c	0.09137353
208	0xbe2e26d4	-0.17006999
209	0x3d79d6d4	0.06099589
210	0xbbaf33f5	-0.00534677
211	0x3d22eefe	0.039778702
212	0xbe683f63	-0.2268043
213	0xbcaa7586	-0.020807993
214	0xbdb9555e	-0.090494856
215	0xbd3eb71b	-0.04656134
216	0xbe6be503	-0.2303658
217	0xbce9a39f	-0.028520403
218	0xbd5bf5d4	-0.053701237
219	0x3e360f40	0.17779255
220	0x3d83f684	0.064435035
221	0x3e13c207	0.14429484
222	0x3d9ba6bb	0.07600161
223	0xbdcbf51e	-0.09958862
224	0xbca790ee	-0.02045485
225	0xbd5a91e6	-0.053361796
226	0xbe2392ae	-0.15973923
227	0xbd93bde6	-0.07213955
228	0xbdfcbe89	-0.12341029
229	0xbd69b137	-0.05705377
230	0x3e0c7f4a	0.13720432
231	0xbda71468	-0.08158189
232	0xbd75c2fd	-0.06000041
233	0xbcd2935d	-0.025705034
234	0xbd367981	-0.04454947
235	0xbe187a0b	-0.14890306
236	0x3df1e651	0.118115075
237	0xbd5e5557	-0.054280605
238	0x3c7cb7c2	0.015424671
239	0xbd0265ae	-0.03183525
240	0xbdddc0bf	-0.10827779
241	0x3df8cc3c	0.121483296
242	0xbe9d7ce5	-0.3075935
243	0x3d3836b4	0.044974044
244	0x3c817fb0	0.015807956
245	0x3e0659e6	0.13120231
246	0xbc434be8	-0.011919953
247	0xbbe98974	-0.0071269814
248	0xbcd3e594	-0.025866307
249	0xbd358d23	-0.04432405
250	0xbdc7da04	-0.0975838
251	0x3cb10ad1	0.021611603
252	0xbe309bef	-0.17246984
253	0xbecf192f	-0.404489
254	0x3e0345d5	0.12819608
255	0xbe52650c	-0.20546359

fc3.bias f4 [64]
0	0x435836c2	216.2139
1	0x43468df9	198.55458
2	0x43640d05	228.05086
3	0xba858bed	-0.0010188796
4	0x436e6dc8	238.42883
5	0x436d4696	237.27573
6	0xbd4c317b	-0.049851876
7	0xbd0a7e52	-0.033811875
8	0x436e9009	238.56264
9	0xbdd6f027	-0.10495024
10	0xbe514060	-0.20434713
11	0x433803f6	184.01547
12	0xbe14a1ce	-0.14514849
13	0xbd870e23	-0.06594493
14	0xbe0fb686	-0.14034471
15	0x4162809c	14.156399
16	0x43534902	211.28519
17	0x436b61d5	235.38216
18	0xbd8cbfea	-0.06872542
19	0xbe024d4a	-0.12724796
20	0x3f4269be	0.759426
21	0x43582ebb	216.18254
22	0xbe1f45d2	-0.15553978
23	0xbddc9875	-0.10771266
24	0xbdfaf85c	-0.12254402
25	0xbdef892d	-0.11696086
26	0xbdc1c33c	-0.09461066
27	0x436a88db	234.53459
28	0xbdb368d4	-0.08760229
29	0x415d8ce2	13.846895
30	0x43716a35	241.41487
31	0xbd859e4f	-0.065243356
32	0xbd378be0	-0.04481113
33	0xbdf69a86	-0.12041192
34	0x432ce0cb	172.8781
35	0x4354e771	212.90407
36	0x43563181	214.19337
37	0x4335c2e2	181.76126
38	0x3da517a3	0.08061149
39	0xbd92cba4	-0.071677476
40	0x43614401	225.26564
41	0x435ab85b	218.72014
42	0x435a55f2	218.33572
43	0xbe104ee6	-0.14092597
44	0xbdad8268	-0.08472139
45	0xbd87c55f	-0.066294424
46	0xbdd39ff7	-0.10333245
47	0xbe138442	-0.14405921
48	0x4350e0dd	208.87837
49	0x41635894	14.2091255
50	0xbdb36edf	-0.08761381
51	0xbe805634	-0.25065768
52	0xbdd34677	-0.103161745
53	0xbddfe826	-0.10932951
54	0x43725d67	242.36485
55	0xbdee296e	-0.11628996
56	0x43649bb1	228.60817
57	0x43648989	228.53725
58	0xbdf83268	-0.12118989
59	0x43612beb	225.17155
60	0xbe3fd1b5	-0.1873234
61	0xbd926bfa	-0.07149501
62	0x436821da	232.13223
63	0xbde15b64	-0.110037595

fc4.weight f4 [64, 64]
0	0xbc4bebd0	-0.012446359
1	0xbda42775	-0.08015338
2	0x3deed670	0.116619945
3	0xbe0591a8	-0.13043845
4	0x3e0a2316	0.13489947
5	0x3c637cc0	0.013884723
6	0xbdc341c8	-0.09534031
7	0xbe02ef6f	-0.12786649
8	0xbc92b3a7	-0.01790793
9	0x3df4b910	0.1194936
10	0x3de7013c	0.11279532
11	0x3d28ae8f	0.041182097
12	0x3dee69fa	0.11641307
13	0x3d9a503c	0.07534835
14	0x3d13f4c0	0.036122084
15	0x3d45e9ce	0.048318677
16	0x3d602f07	0.05473235
17	0x3ca9c000	0.020721436
18	0x3d38cdac	0.04511802
19	0x3c0f3900	0.008741617
20	0xbdaf5fd1	-0.085631974
21	0x3d6c8554	0.05774434
22	0x3d73b714	0.05950077
23	0x3d9b94d4	0.07596746
24	0x3db5a11c	0.0886862
25	0x3de7d996	0.11320798
26	0x3d11b9b0	0.035577476
27	0xbd6fdaf9	-0.058558438
28	0x3d28a01c	0.041168317
29	0x3b500248	0.003173964
30	0xbdd61e7c	-0.10455033
31	0xbd98fe70	-0.07470405
32	0xbded5b43	-0.115896724
33	0xbd8b56b2	-0.06803645
34	0x3d818dc9	0.063258715
35	0x3d3b31d4	0.045701817
36	0xbce3647e	-0.02775788
37	0xbde23fa1	-0.110472925
38	0x3d127728	0.035758168
39	0x3cb74a30	0.022374243
40	0x3ad13380	0.0015960783
41	0xbda6caae	-0.08144127
42	0x3dd47c8e	0.103753194
43	0x3c891a78	0.016736254
44	0xbdc42b62	-0.09578587
45	0x3d9282e4	0.07153872
46	0xbcb2b898	-0.021816537
47	0xbdb05014	-0.08609024
48	0xbde40d8f	-0.111353986
49	0xbd965fe8	-0.073425114
50	0xbd8788a6	-0.066178605
51	0xbdabd948	-0.083910525
52	0x3cccd3c6	0.025003325
53	0xbbc052e0	-0.0058692545
54	0xbda209a4	-0.07911995
55	0x3bbb9ac0	0.0057252347
56	0xbdfa14a6	-0.122109696
57	0x3dcafc36	0.09911387
58	0xbde954a6	-0.113930985
59	0xbd93fb6e	-0.07225691
60	0xbccef738	-0.025264367
61	0xbdf37ede	-0.11889432
62	0xbddd218c	-0.10797414
63	0xbdc51db6	-0.096248075
64	0xbe18ad03	-0.14909749
65	0xbbf4acf9	-0.007466909
66	0x3c813110	0.015770465
67	0xbdf0e1d7	-0.117618255
68	0x39daa594	0.00041703566
69	0xbd64aa3c	-0.05582641
70	0x3d755e37	0.059904303
71	0xbd7f5985	-0.06234123
72	0xbb95acbe	-0.0045677116
73	0x3d070600	0.032964706
74	0xbd2d9940	-0.04238248
75	0xbc8b02b7	-0.016969068
76	0x3d74dfd4	0.05978377
77	0x3da38e52	0.0798613
78	0x3ce1fcf8	0.027586445
79	0xbc748af7	-0.01492571
80	0xbd38e570	-0.045140684
81	0x3d3ebf5e	0.04656922
82	0xbdafcedc	-0.08584377
83	0xbd5cd284	-0.0539117
84	0xbe431f5c	-0.19054931
85	0x3cb00127	0.021484924
86	0xbdfb6174	-0.12274447
87	0x3d6371d0	0.055528462
88	0x3df4dedc	0.119565696
89	0x3da56da8	0.08077556
90	0x3de23444	0.11045125
91	0xbdd5fab4	-0.104482085
92	0x3c59ece0	0.013301104
93	0x3d057eba	0.03259156
94	0xbe113901	-0.14181902
95	0xbd681b99	-0.056666944
96	0xbdb25cab	-0.08709081
97	0x3dc19eac	0.094540924
98	0x3d5da1fc	0.05410956
99	0xbe4a1443	-0.19734292
100	0x3b9fcb38	0.0048765205
101	0x3d1a511d	0.037675012
102	0xbbd93120	-0.0066281706
103	0x3debaa5a	0.11507101
104	0xbe4cdd54	-0.20006305
105	0xbd6b9c37	-0.057522025
106	0xbd97bfec	-0.07409653
107	0x3cfb0c50	0.03064552
108	0x3d76cb60	0.060252547
109	0x3d2d2d28	0.042279392
110	0x3defb756	0.117048904
111	0xbd8fac2e	-0.070152625
112	0xbc2c2e6e	-0.010509117
113	0xbcb0c3b2	-0.02157769
114	0xbdcaab28	-0.09895927
115	0xbd4492e0	-0.047991633
116	0xbe05bb30	-0.13059688
117	0xbd3d4b40	-0.046214342
118	0xbe2ee761	-0.17080452
119	0x3dc3564e	0.09537946
120	0xbdeaae2a	-0.114590004
121	0xbc9749db	-0.018467834
122	0xbd6105c8	-0.054937154
123	0x3cb098b2	0.021557186
124	0xbd04ffb6	-0.032470427
125	0xbdadd4c2	-0.08487846
126	0xbd298a08	-0.041391402
127	0xbde1f3e2	-0.11032845
128	0x3d27fd00	0.041012764
129	0x3ddfb116	0.10922448
130	0x3d250fdc	0.040298328
131	0x3d03a494	0.032139376
132	0xbdc91300	-0.09818077
133	0x3c49e770	0.012323245
134	0x3d66edb0	0.05637902
135	0x3bb82440	0.0056195557
136	0xbdfaa10a	-0.12237747
137	0xbda137dc	-0.078719825
138	0xbdf5e9c0	-0.12007475
139	0x3caa0d30	0.020758241
140	0x3d235e7c	0.03988503
141	0x3d828b16	0.06374185
142	0x3d9eb6fa	0.07749744
143	0xbdab6714	-0.0836927
144	0x3d1cf35c	0.038318023
145	0x3df8a9a4	0.121417314
146	0xbd5a2194	-0.05325468
147	0xbdff89be	-0.12477444
148	0xbd1103dc	-0.03540407
149	0xbd5c21ec	-0.053743288
150	0x3dbf1588	0.09330279
151	0x3dc2dbfc	0.09514615
152	0x3deeed06	0.116663024
153	0x3daec8da	0.08534403
154	0x3bfab960	0.007651493
155	0xbd8693e8	-0.0657118
156	0x3cb5ba48	0.022183552
157	0xbcc11ba8	-0.023572758
158	0xbd62c1cc	-0.0553606
159	0xbdd7e812	-0.10542311
160	0x3dda21fe	0.10651015
161	0xbdeaf8b6	-0.11473219
162	0xbd0bf46c	-0.034168646
163	0x3d0c49d0	0.03425008
164	0xbd9646d8	-0.07337731
165	0xbd047b34	-0.03234406
166	0xbdd6166e	-0.10453497
167	0x3ce8bd28	0.02841051
168	0x3de993ca	0.11405142
169	0x3d274be8	0.040843874
170	0xbc840f38	-0.016120538
171	0x3db6e45a	0.08930273
172	0x3dcf2606	0.10114674
173	0x3dd74426	0.10511045
174	0xbd39d1c8	-0.04536608
175	0x3d3492cc	0.04408531
176	0x3cfc2bb0	0.03078255
177	0x3ce57ac8	0.028012648
178	0x3dbbbb04	0.0916653
179	0xbd52bed8	-0.051451534
180	0xbdb21394	-0.086951405
181	0x3d52661c	0.05136691
182	0x3ce71620	0.028208792
183	0xbd7e1de8	-0.06204024
184	0x3da35888	0.0797587
185	0xbc585d80	-0.013205886
186	0x3de670c0	0.11251974
187	0xbdcd76d0	-0.10032427
188	0xbd5b61c4	-0.053560033
189	0x3d6abfe0	0.057311893
190	0xbd8cf79c	-0.06883165
191	0xbb581a80	-0.003297478
192	0xbdc17a3b	-0.09447142
193	0x3b53313c	0.003222539
194	0xbe2a0f22	-0.16607335
195	0xbe0f4929	-0.13992752
196	0xbded906b	-0.11599811
197	0xbc6ba862	-0.014383407
198	0xbcd027b9	-0.025409566
199	0xbddbee41	-0.10738803
200	0xbdcb6e50	-0.0993315
201	0x3d758da3	0.05994953
202	0xbdaafd00	-0.08349037
203	0xbe2527dc	-0.16128486
204	0xbc942418	-0.018083617
205	0xbe04efd8	-0.12982118
206	0xbd23dd60	-0.04000604
207	0xbe0c15b6	-0.13680157
208	0xbc7020ca	-0.014656255
209	0xbc5c34eb	-0.013440351
210	0x3df2bc12	0.11852278
211	0xbcbc0720	-0.022952616
212	0xba0d4923	-0.00053896214
213	0xbe191e14	-0.1495288
214	0xbc813110	-0.015770465
215	0x3d9c2ae2	0.07625367
216	0x3dabc9a0	0.08388066
217	0xbc4c1f10	-0.012458578
218	0xbd97f241	-0.07419253
219	0xbd7fc6a7	-0.06244531
220	0xbde38439	-0.11109204
221	0xbdb917d5	-0.09037749
222	0x3d882ac9	0.066487856
223	0xbced09c0	-0.028935313
224	0xbdfceeeb	-0.123502575
225	0x3dfe49c0	0.124164104
226	0xbdff4379	-0.12464041
227	0xbdd9448f	-0.1060878
228	0xbe2be864	-0.16787869
229	0x3c77cfb3	0.015125203
230	0x3cab0ea8	0.020881012
231	0xbdfe9b4e	-0.12431966
232	0x3d585b0f	0.052821215
233	0x3cbedd8f	0.023299007
234	0xbcee3213	-0.029076612
235	0x3dfd28fe	0.12361334
236	0x3cd8c540	0.026461244
237	0xbd931c1d	-0.071830966
238	0xbd734363	-0.059390437
239	0x3d83ac0c	0.064293
240	0xbdf78c25	-0.12087277
241	0xbd8f59bc	-0.06999537
242	0xbd8f0e36	-0.069851324
243	0x3dd16906	0.1022511
244	0xbd7e6535	-0.062108237
245	0x3da53566	0.080668256
246	0xbdf3aa63	-0.11897733
247	0x3ce5d807	0.028057111
248	0x3cd615e8	0.026133493
249	0xbd081822	-0.03322614
250	0xbc849e18	-0.016188666
251	0xbe0a5d37	-0.13512121
252	0xbd866fde	-0.06564306
253	0x3d2d5257	0.042314854
254	0x3d071316	0.032977186
255	0xbda3f681	-0.08006001

fc4.bias f4 [64]
0	0xbde18d74	-0.11013308
1	0xbe1b5cc1	-0.15172102
2	0xbdd295d2	-0.10282482
3	0xbe0ec769	-0.13943256
4	0xbdd8d7ce	-0.105880365
5	0x436668ae	230.4089
6	0x43666dcf	230.42894
7	0x40e10616	7.031993
8	0xbda3f21e	-0.080051646
9	0x3daa751c	0.08323118
10	0x3e5b297e	0.21402547
11	0x432430af	164.19017
12	0x4366485c	230.28265
13	0xbd848a92	-0.06471743
14	0x4363eaad	227.9167
15	0x40ecb952	7.397622
16	0x4367e89a	231.9086
17	0xbc48ac46	-0.012248104
18	0xbdd84bc3	-0.105613254
19	0x3e5dc02b	0.21655338
20	0x4368a97e	232.66208
21	0x3d8d48ec	0.06898674
22	0x43678155	231.5052
23	0xbe28b052	-0.16473511
24	0xbdeed461	-0.11661602
25	0x4323f8e2	163.9722
26	0x3e8e7fc7	0.2783186
27	0x4323ea16	163.9144
28	0xbe87f703	-0.26555642
29	0x43674a37	231.2899
30	0x3c9fbc85	0.019499073
31	0x43655e2a	229.36783
32	0xbcb29cd4	-0.021803297
33	0x4323d31d	163.82466
34	0xbc7c4fc0	-0.015399873
35	0x43675e4b	231.36833
36	0x3d76b473	0.060230684
37	0x436860aa	232.3776
38	0x4366b9d7	230.72594
39	0xbd279799	-0.04091606
40	0x3cd20c2a	0.025640566
41	0x3ea735cf	0.3265824
42	0xbd923fd2	-0.07141079
43	0x4366f144	230.94244
44	0x43659786	229.59189
45	0x43658469	229.51723
46	0x3dd1624a	0.10223825
47	0x4323cc9a	163.79922
48	0xbce9341f	-0.028467236
49	0xbdd0aeb6	-0.101895735
50	0x4364f879	228.9706
51	0x43679a4d	231.60274
52	0x3e091eb9	0.13390626
53	0xbe49d028	-0.19708312
54	0xbd8c9c04	-0.06865695
55	0x4323f931	163.9734
56	0xbc4fa4fc	-0.012673613
57	0x430bd2ca	139.8234
58	0x432418df	164.09715
59	0xbe0a7eb2	-0.13524893
60	0x43675b32	231.35623
61	0xbdb17fc8	-0.086669505
62	0xbe703281	-0.23456766
63	0x3c9e998d	0.019360328

valuefc.weight f4 [64, 64]
0	0x3d88a626	0.06672315
1	0x3dcddb34	0.10051575
2	0x3d33f210	0.04393202
3	0xbd095efc	-0.03353785
4	0x3cd828c8	0.026386634
5	0x3d1ea060	0.038727164
6	0xbe1edb4c	-0.15513343
7	0xbcea75eb	-0.02862068
8	0x3cffd520	0.031229556
9	0x3d9632e8	0.07333928
10	0x3d421b1d	0.04738914
11	0xbdb55b89	-0.088553496
12	0xbd858257	-0.06519001
13	0x3da31050	0.07962096
14	0x3ce44830	0.027866453
15	0xbd832000	-0.06402588
16	0x3dfdc918	0.12391871
17	0xbcaf47f8	-0.021396622
18	0xbd648740	-0.055793047
19	0xbce9de16	-0.028548282
20	0x3d8fa263	0.07013395
21	0xbdcb3871	-0.09922875
22	0x3b8f1960	0.0043670386
23	0xbd935706	-0.07194333
24	0xbb4d1640	-0.003129378
25	0x3d0959fe	0.03353309
26	0xbdb7bf28	-0.08972007
27	0xbdd329ff	-0.103107445
28	0x3b4da2f9	0.0031377657
29	0x3ce706cb	0.028201481
30	0xbc1ce800	-0.0095767975
31	0xbdb4c05a	-0.08825751
32	0xbc01adc0	-0.00791496
33	0x3a86a199	0.0010271549
34	0x3de3ea00	0.11128616
35	0xbcd2e21b	-0.025742581
36	0xbbf7e36d	-0.007564953
37	0x3d29fd60	0.041501403
38	0x3c1d6354	0.009606201
39	0xbbc13d20	-0.0058971792
40	0xbdac1156	-0.08401744
41	0xbdb215ce	-0.08695565
42	0x3d3372b4	0.04381056
43	0x3d33c240	0.043886423
44	0xbd823848	-0.06358391
45	0xbdcd880f	-0.10035717
46	0x3d2e7c7a	0.04259918
47	0xbd9a01ab	-0.075198494
48	0x3d9bec18	0.07613391
49	0x3d083c08	0.033260375
50	0xbd7a5ad2	-0.06112177
51	0xbc681cf0	-0.0141670555
52	0xbda86c2d	-0.08223758
53	0x3d0180fc	0.03161715
54	0xbda07e10	-0.078365445
55	0xbdda2d74	-0.10653201
56	0xbdb87abc	-0.09007785
57	0xb827b000	-3.9979815e-05
58	0xbde901f0	-0.11377323
59	0xbd3cd724	-0.04610361
60	0xbd259160	-0.040421844
61	0x3d61814c	0.055054948
62	0x3d8dd64c	0.069256395
63	0x3d680636	0.05664655
64	0xbc631460	-0.013859838
65	0x3df33670	0.118756175
66	0xbd8090b8	-0.06277603
67	0x3c8751f8	0.016518578
68	0x3d07c15c	0.033143386
69	0xbdea0450	-0.11426604
70	0x3c6c128a	0.014408717
71	0x3db40ffc	0.08792111
72	0x3dbf874e	0.09351979
73	0x3db11492	0.086465016
74	0x3d1f450c	0.038884208
75	0xbe0eb93c	-0.13937849
76	0x3d6ea36f	0.05826133
77	0xbd4082b8	-0.046999663
78	0xbced854e	-0.028994229
79	0xbde8e19e	-0.11371158
80	0xbc6aac60	-0.014323324
81	0xbd6b227c	-0.057405934
82	0xbd782e24	-0.060590878
83	0xbdbeb224	-0.093113214
84	0xbc340af0	-0.010988936
85	0xbd9eb548	-0.077494204
86	0xbda01786	-0.07816987
87	0xbded34e6	-0.11582355
88	0x3da8d59a	0.08243866
89	0x3d718515	0.058964808
90	0xbc9c5ef0	-0.019088238
91	0x3d1aa2df	0.037752982
92	0xbd0fa43a	-0.035068728
93	0xbd9c23be	-0.07624005
94	0xbc96e410	-0.018419296
95	0xbc1812d8	-0.009281836
96	0x3a3ab800	0.0007122755
97	0xbd1c663e	-0.038183443
98	0xbc99d878	-0.018779978
99	0x3cc9cbf1	0.02463338
100	0xbdb81d16	-0.08989923
101	0x3c23feb0	0.010009453
102	0xbde49640	-0.111614704
103	0x3d95bde0	0.073116064
104	0xbc2b4510	-0.0104534775
105	0xbdd80736	-0.105482504
106	0xbda97398	-0.08274001
107	0xbc3c6960	-0.011499733
108	0x3c13c640	0.009019434
109	0x3c478bc0	0.012179315
110	0xbcce45d0	-0.025179774
111	0xbe03c4c7	-0.12868033
112	0xbdf7d260	-0.12100673
113	0xbbab6c60	-0.005231425
114	0x3d2728ce	0.0408104
115	0xbdedb2e4	-0.11606386
116	0xbccdf368	-0.02514048
117	0x3dc7efb8	0.097625196
118	0x3de10adc	0.109883994
119	0xbe1553e5	-0.14582784
120	0xbddf1dba	-0.10894342
121	0x3dfe0746	0.12403731
122	0xbdbbd0f5	-0.09170715
123	0x3d0c46fc	0.034247383
124	0xbdfe0006	-0.12402348
125	0x3d6aa024	0.05728163
126	0xba685b00	-0.0008863658
127	0xbcc21d18	-0.023695514
128	0xbd7ec034	-0.062195018
129	0x3d5ead08	0.054364234
130	0xbd4ca038	-0.049957484
131	0xbd635ec8	-0.055510312
132	0xbda1cef2	-0.079008
133	0x3dd10e02	0.1020775
134	0xbd6a1034	-0.05714436
135	0xbca27898	-0.019832894
136	0x3cc9c650	0.024630696
137	0x3dad4352	0.08460106
138	0xbe0a7036	-0.13519368
139	0x3d3bb8ea	0.045830645
140	0xbb020216	-0.001983767
141	0x3d8a08b8	0.06739944
142	0xbd9a82b5	-0.07544462
143	0xbd98c236	-0.07458918
144	0xbc068960	-0.008211464
145	0x3df7ae8c	0.12093839
146	0xbd97e228	-0.07416183
147	0xbdd4d068	-0.10391313
148	0xbcff4c60	-0.031164348
149	0x3d509f18	0.050932974
150	0xbdcb7b22	-0.09935595
151	0xbc298b50	-0.010348156
152	0x3cc4a8b0	0.024006218
153	0xbd8543cc	-0.06507072
154	0xbdd797d4	-0.10527006
155	0xbd9caeec	-0.07650551
156	0xbd0fba78	-0.03508994
157	0x3c92200b	0.017837545
158	0xbdff7606	-0.12473683
159	0xbd0db520	-0.034596562
160	0xbc779680	-0.015111566
161	0x3d499d30	0.04922217
162	0xbd856c9a	-0.06514855
163	0x3c32e449	0.010918685
164	0xbb3394c0	-0.0027401894
165	0x3d206ca4	0.039166108
166	0xbe3be59f	-0.18349312
167	0xbc8a81b0	-0.016907543
168	0xbda041f2	-0.07825078
169	0x3d190735	0.03736039
170	0xbde33bb6	-0.11095373
171	0x3dbed3a4	0.09317711
172	0xbddb1456	-0.10697238
173	0x3c9f0b88	0.019414678
174	0xbd35abe4	-0.04435338
175	0xbe12ba85	-0.14328964
176	0x3c039a00	0.008032322
177	0xbdda4d06	-0.10659222
178	0xbca14579	-0.019686447
179	0x3db6ad03	0.08919718
180	0xbc4368e0	-0.01192686
181	0xbd95022a	-0.072758034
182	0x3dc00aca	0.09377058
183	0xbcba89d3	-0.022770798
184	0x3bf8cfc0	0.007593125
185	0x3d81f13a	0.063448384
186	0xbe1ef2fc	-0.15522379
187	0xbd75e6f0	-0.060034692
188	0x3c3b4886	0.011430865
189	0x3bd710e0	0.006563291
190	0xbd48aab8	-0.048990935
191	0xbdbb4528	-0.0914405
192	0x3da34cff	0.0797367
193	0xbd301981	-0.042993072
194	0xbc111930	-0.008856103
195	0x3d826cd6	0.06368415
196	0xbae11380	-0.0017171949
197	0xbed58ab3	-0.41707382
198	0xbf72e2e5	-0.94877464
199	0xbd4da889	-0.050209556
200	0x3d5644bb	0.05231164
201	0x3d99aa0a	0.075031355
202	0x3ddcd21a	0.10782261
203	0x3dedb875	0.11607448
204	0xbf5129c5	-0.8170436
205	0xbae41a8c	-0.0017402931
206	0xbfb92152	-1.4463294
207	0xbc195798	-0.009359263
208	0xbf6a6380	-0.91558075
209	0xbd4777f3	-0.048698377
210	0x3d1f1d61	0.038846377
211	0x3d26dc93	0.0407377
212	0xbde9353a	-0.11387105
213	0x3d82c99c	0.0638611
214	0xbf098110	-0.5371256
215	0xbda607b2	-0.081069365
216	0xbd34920f	-0.044084605
217	0xbe0b7f5e	-0.13622805
218	0x3c2adfbf	0.010429322
219	0xbd9d9fa5	-0.076964654
220	0xbd8896d8	-0.06669396
221	0xbf624440	-0.8838539
222	0x3b8e7539	0.00434747
223	0xbf6c32da	-0.92265093
224	0xbdd0f5c2	-0.102031246
225	0xbd553d7a	-0.05206058
226	0x3d8ccd44	0.06875089
227	0xbf28407b	-0.6572339
228	0x3d23f140	0.040024996
229	0x3dae60fe	0.085145935
230	0xbf617443	-0.88068026
231	0xbdc74900	-0.097307205
232	0xbda156f6	-0.078779146
233	0x3db2dc70	0.08733451
234	0x3d227c76	0.039669476
235	0xbed379f1	-0.4130397
236	0xbcee07fb	-0.02905654
237	0xbf41346b	-0.7547061
238	0x3dfbc050	0.1229254
239	0x3b795770	0.0038046502
240	0xbcb27e2c	-0.021788679
241	0xbd045c64	-0.032314673
242	0xbfcd282a	-1.6027882
243	0xbf829197	-1.020068
244	0x3d71b0a8	0.059006363
245	0x3e070558	0.13185632
246	0xbd5f2ad4	-0.054484203
247	0xbd7f506c	-0.062332556
248	0xbd1a4141	-0.037659887
249	0xbe366c42	-0.17814735
250	0xbca7ed90	-0.02049902
251	0x3ca571b9	0.020195829
252	0xbf68c07c	-0.9091871
253	0x3c1297c0	0.008947313
254	0x3d50f143	0.051011335
255	0xbda8352b	-0.08213266

valuefc.bias f4 [64]
0	0xbe39eb18	-0.18156087
1	0xbe0b7c43	-0.13621621
2	0xbe10cd33	-0.14140777
3	0x3f38a714	0.7212994
4	0xbdb99b66	-0.09062843
5	0x3f27f79a	0.65612185
6	0xbd34968e	-0.044088893
7	0x3e87a9c1	0.264967
8	0xbd37f531	-0.044911567
9	0xbdfb1d9e	-0.122615084
10	0x3ecd66c6	0.40117472
11	0x43637a83	227.47856
12	0x3f5f00ad	0.87110406
13	0x3eecd881	0.4625893
14	0xbdbd41c3	-0.09241059
15	0xbdd35002	-0.10317995
16	0x436ac626	234.77402
17	0xbcd01567	-0.02540083
18	0xbd44c09c	-0.04803525
19	0xbd5ef3e8	-0.054431826
20	0x3e9fc904	0.3120805
21	0xbe3de7c9	-0.1854545
22	0xbda7cc0b	-0.08193215
23	0x3c8c38c9	0.017116921
24	0xbd1a38f4	-0.03765197
25	0x3eb25fc0	0.34838676
26	0x3f1d05b4	0.6133683
27	0x436a3072	234.18924
28	0x3f685eb8	0.9076953
29	0x3ea4a61d	0.32157984
30	0xbd799117	-0.060929384
31	0x436c3a9b	236.22893
32	0xbe02ba60	-0.12766409
33	0xbd39ad25	-0.04533114
34	0x3d0e084f	0.034675892
35	0x3eb2140a	0.34780914
36	0x3ea6b9c9	0.32563618
37	0xbc9eba17	-0.019375844
38	0x3cbdfb8d	0.023191238
39	0x436ccc38	236.79773
40	0xbded4bac	-0.11586699
41	0xbd952b79	-0.072836824
42	0x3e787329	0.2426268
43	0x436d3f63	237.2476
44	0x3d9b4aca	0.07582624
45	0x3e1de652	0.15419891
46	0x3c647c6b	0.013945679
47	0xbe86d376	-0.26333207
48	0x3e2ee2d8	0.17078722
49	0xbd13d71c	-0.036093816
50	0x3e6423c0	0.22279263
51	0xbd8eb842	-0.06968738
52	0xbda66a1f	-0.0812571
53	0x3f7c04dc	0.98444915
54	0xbda79d92	-0.08184351
55	0xbda54980	-0.0807066
56	0xbd942900	-0.07234383
57	0xbe127b1b	-0.14304774
58	0xbcf68165	-0.030090997
59	0x436d5872	237.34549
60	0xbd7bdad8	-0.061488003
61	0xbe318ae3	-0.17338137
62	0x3e88e2a4	0.26735413
63	0x3f16d5d3	0.5892002
