D2QN_AAAI_REWARD/checkpoint_d2qn_-50_1000_cheetah_0.pth (torch, 45655 bytes, 6 tensors)

fc1.weight f4 [128, 17]
00000000: a986 9d3f c219 303f 4618 24c0 367a 94bf
00000010: b29d 28c0 cd40 f6bf cfa2 43bf 077d debe
00000020: 01af 8a3e 8fa7 9fbe d531 a5bf ccc3 b8bd
00000030: 47cd 1dbe 8633 04be 30f5 d5bd fd24 213e
00000040: 9f52 83be 73c6 d7bf f6f5 aec0 6c3e 013e
00000050: f0f7 4abf 82b1 3e3c 0454 0ebe 0754 913f
00000060: 855e 123e 0111 11be 4cc4 af3e 20fe 443d
00000070: 4cd8 9cbd 08ec 7fbe d8df e23d f4cf 353e
00000080: 8fc9 e93d 719e 493d 0cfb 6fc0 b691 43bf
00000090: f871 e5bf 68d6 b3bf 7e19 a5be fa01 b9be
000000a0: a82b c9be 4410 86be c189 2f3f e4b2 c1be
000000b0: 091c 67bd f7d0 d13d 57be a03d 74c4 a93d
000000c0: 390b 0fbf fedc 81be 8f2d 35bc 9408 b3be
000000d0: 89e6 0e3d 61e5 b0bf 129d c8bf 09ce c2bf
000000e0: 2a65 7c3d c129 d9be d75e b2bd a3b0 81bf
000000f0: dc56 02bf 1cdb 59be 12e9 f73d b139 fdbd
00000100: 17e4 a63e 3357 4ebe d6bd a9be 77ab 41bd
00000110: 4575 99c0 4273 99bf 147a 5ebf 90bb b9bf
00000120: ffe1 05bf bbd0 153f 3b6f 7b3f f3b8 063f
00000130: 42a0 6e3e dcea afbe 46ba dc3d cf9e 6d3d
00000140: 07a1 f9bc 3d6b 3dbc 1bc0 8abd 575e 2a3c
00000150: a4f9 27bd e9f7 16bf 2af9 c2bf d234 bebf
00000160: 3d3e 97bf ebdd a1bf 9dbd 72bf 3373 bebe
00000170: c326 b8bf 9869 87be 1ab3 64bf f483 10bf
00000180: 57db cebd b46c 2dbe 8264 493e 473f e43c
00000190: 8419 78be 2a21 453e bd92 d43f 5ee0 d3bf
000001a0: 4cb7 4fc0 0458 60c0 0b8e dabf 3e10 93bd
000001b0: 410b d43d 84c4 1e3f 4baa 9b3e b21d 6d3f
000001c0: 214f 653e e0ea de3e a520 f83d f985 0bbe
000001d0: 4ba2 8bba 13c8 813b 9cce 28bd d3a3 0c40
000001e0: 6f52 fd3f 243d f53f 6870 3d3f 913b 543f
000001f0: c93d 9dbf b2cf aebe 1f95 eebe 8cae bfbd
00000200: 076f 92bf 7afa 32bf 8f99 59be 7c00 b13d
00000210: acba 3fbe 4f17 933d 5d3b 06bd 9502 0bbe
00000220: d99a 8abf b7d3 a03f 0617 db3e 06a2 e8be
00000230: 65ab e7be 8a47 2c3f 3588 3d3e ae27 39c0
00000240: da90 b4bf c0ed 0f3f 6a85 f23e 523c 793c
00000250: a191 62bd 01fd 0f3e 7b38 6c3b 6f02 2f3e
00000260: 186a 46be b254 1140 2df7 39bf be6a a2bf
00000270: 5772 6ebf 51f2 9ebf d056 3fbf 4954 5fbf
00000280: 61fb f9be b186 a73e 63d8 d03d c36d 47bb
00000290: 038d 973e 5980 32bd cc56 61bc 4476 c0be
000002a0: 4807 18be 17fc 09bc ec79 963f fcf6 f13d
000002b0: 86d7 af3f 1faa 153f c607 6cbd d8ec 5ebf
000002c0: 4bd2 d5bf 1047 64bf af8d a8be 6590 243f
000002d0: a274 973f 8062 883e 83fb 6b3e fc96 babb
000002e0: 898b a8bc e881 b43d d0ed 13be b787 cf3e
000002f0: 0015 703f 2fcf e03f a3cf 3b3f 9f9c 083f
00000300: e56b c4bf f202 1fbf 1f41 9bbf b779 23be
00000310: edad b9bf 7fe0 48bf e9fc 60be 155c 023e
00000320: f426 79bd 8344 f3bd c8b6 7e3c 78fb 84bd
00000330: ca34 3cc0 cf65 5140 d86c 23bf 3781 763f
00000340: 63ee 423f 1ecd e7be 5e75 f63e 614d 28bf
00000350: fd84 88bd 6267 b93e 78b3 42be 6978 1b3c
00000360: 9d49 683b b559 2fbc 8ffc 81bb 6efc 83bc
00000370: 6e77 eabd bc99 ca40 6ada d2bf 01e3 86be
00000380: d254 20be f3b6 d7bf 316e 0b3e 2172 c3bf
00000390: 6fc7 3fbf 871e 82be 0fcf 943e 74ce 1aba
000003a0: 6722 9b3d c755 883c e42c 16bd 717e d4bd
000003b0: ff36 7ebd 39cd a43d e9bf 49c0 6b42 f53f
000003c0: 96bd 413e 5f98 cc3e cc97 08ba e83c edbe
000003d0: 052f 9f3f 753b 50be a911 6f3b e050 dfbe
000003e0: ef06 113e ea6f d6bc f390 8bbc 20bf 993c
000003f0: c857 51bd 096c b63d 5f7e fb3b 87d5 273e
1.230672 0.68789303 -2.5639815 -1.1599796 -2.634625 -1.9238526 -0.764203 -0.43454763
0.27086642 -0.31182525 -1.2905833 -0.0902172 -0.15410338 -0.1291028 -0.104471564 0.15736766
-0.25648972 -1.6857437 -5.4675245 0.12621468 -0.7928457 0.011639001 -0.13899237 1.1353768
0.14293869 -0.14166643 0.3432945 0.048093915 -0.07658443 -0.24992383 0.11077851 0.17755109
0.114153974 0.049223367 -3.7496977 -0.7639421 -1.7925406 -1.4049807 -0.32246011 -0.3613432
-0.3929112 -0.26184285 0.6856957 -0.37831795 -0.05642322 0.10244935 0.078488044 0.082894236
-0.558765 -0.25363916 -0.011058225 -0.34967482 0.034887824 -1.3820001 -1.5672934 -1.5219127
0.061619915 -0.42414668 -0.087094955 -1.013203 -0.50913787 -0.2127499 0.121050015 -0.123645194
0.32595894 -0.20150451 -0.33152646 -0.047282662 -4.795565 -1.1988299 -0.86905026 -1.4510365
-0.5229797 0.5852162 0.982166 0.5262596 0.23303321 -0.3435887 0.10777716 0.05801278
-0.030472292 -0.011561212 -0.067749225 0.010398469 -0.04100956 -0.5897203 -1.5232289 -1.485987
-1.1815869 -1.2645849 -0.94820577 -0.37197265 -1.4386829 -0.2644775 -0.8933579 -0.56451344
-0.101004295 -0.16935998 0.19667247 0.027862204 -0.24228483 0.19250932 1.6607281 -1.6552846
-3.2455626 -3.505372 -1.7074598 -0.07180832 0.10353709 0.6201861 0.3040336 0.92623436
0.22393467 0.4353857 0.121156015 -0.13625325 -0.0010653225 0.0039606183 -0.041212663 2.197499
1.9790782 1.9159284 0.73999643 0.8290339 -1.228448 -0.34142834 -0.46598145 -0.09359464
-1.1440133 -0.69913447 -0.21249984 0.086426705 -0.18723553 0.0718218 -0.032771457 -0.13575204
-1.0828506 1.256461 0.42791003 -0.45436114 -0.4524795 0.6729666 0.1850899 -2.8930469
-1.4106705 0.5622215 0.47367412 0.015212135 -0.055314664 0.14061357 0.0036044407 0.17090772
-0.19376409 2.2707944 -0.72642785 -1.2688825 -0.9314322 -1.2417699 -0.7474184 -0.87237984
-0.488246 0.3271995 0.101975225 -0.0030430413 0.2959977 -0.043579433 -0.013753604 -0.3759023
-0.14846528 -0.008421919 1.1755958 0.11814687 1.3737648 0.5846271 -0.0576246 -0.87080145
-1.6704801 -0.8917093 -0.32920596 0.6428283 1.1832469 0.2663765 0.23045163 -0.0056942683
-0.020574348 0.0881384 -0.14446187 0.4053323 0.93782043 1.7563227 0.73363703 0.53363985
-1.5345427 -0.6211387 -1.2129248 -0.159644 -1.4506203 -0.78467554 -0.21971478 0.12730439
-0.060828164 -0.11878302 0.015546508 -0.06493276 -2.940722 3.271839 -0.6383796 0.96290916
0.76145 -0.4527368 0.4813642 -0.6574307 -0.066659905 0.36211687 -0.19013774 0.009489157
0.0035444268 -0.01070254 -0.003966875 -0.016111579 -0.11448561 6.3312664 -1.6472905 -0.26345065
-0.15657356 -1.6852707 0.13616253 -1.5269204 -0.74913687 -0.25413916 0.29064223 -0.00059053977
0.07574921 0.016642464 -0.036663905 -0.10375679 -0.062064167 0.080469556 -3.1523383 1.9160894
0.18919978 0.3996 -0.0005210608 -0.4633553 1.2436224 -0.20335181 0.0036479032 -0.4361639
0.14162801 -0.026176412 -0.01703689 0.018767893 -0.051109105 0.08907325 0.0076749767 0.16390048

fc1.bias f4 [128]
00000000: e001 64bf e9b0 b7bf 51d2 d4bf 24fd 1cbf
00000010: ce4f c5bf f4e8 debf bb64 843e c56f 07c0
00000020: 4341 8fbf a9ff 34be 3e82 06bf f89d e8bf
00000030: c0eb 16c0 8107 0e3f 24e3 15c0 9431 7bbe
00000040: 1af3 d8bf 9dbd 65bf 4fd3 4fbf 1f60 63bf
00000050: 5bbc 03c0 25c1 9b3f 9e16 a8bf 52f6 cabf
00000060: f89b 353f df72 64be 86d3 083e 3642 62be
00000070: d6ea aabf a3f0 61bf 1744 b3bf d917 94bf
00000080: f148 f3bf bc3c 84bf f324 00bf 40a9 86bf
00000090: 1b79 acbf a052 fdbf 5a80 26bf b4e2 903d
000000a0: 7ef1 abbe 597b 63be 44dc a2bf ff24 80bf
000000b0: 666e e63f 269b 95bf 3b2e 1d3f 38cb 47be
000000c0: f713 e0bf 0e2b abbe f3aa d13f cd81 dfbf
000000d0: ce04 2940 7c19 4fbe 9a79 96bf c195 063f
000000e0: d82d a1bf a96c ebbf 1be1 10c0 291b e8bf
000000f0: c7b6 3b40 6893 a43e f67e 913f c575 a43f
00000100: 4355 db3e 1e64 b0bf 7dc4 70bf 5ffa afbf
00000110: 7202 d5bf 6c43 09c0 9b08 9fbf c6e5 3c3f
00000120: 2685 f5bf aced 4bbf 366f e43e 631f 2640
00000130: 77cf 0740 732b 8fbe 8c26 21bf 44b6 2740
00000140: c5dd 933e ea5d e6be 41e1 813f 4c34 6a3f
00000150: 1b10 b2bf 54b9 afbf 4c05 20bf 9271 afbf
00000160: 9850 67bc b4c9 cabf ac38 13be 354c ee3f
00000170: f400 f13f ee4f 53bd dcd2 463f 00f1 1f3f
00000180: 5160 2c40 8046 00c0 25b5 1fc0 cc60 5c3f
00000190: 4791 b93e e73b 783e 48a6 d63f 64ce da3f
000001a0: f710 83be f1ba 86bf 5f14 c0bf 9b31 84bf
000001b0: 608b 1a3e db3a fbbf 6a4b c6bf 56c2 b83e
000001c0: eef3 00c0 e6d4 15c0 70a2 ed3f 3d4e 99bf
000001d0: eeb2 6fbf cad0 1c40 b856 1d40 be8c fbbf
000001e0: 81e8 12c0 f37e df3e b690 853f 9201 02c0
000001f0: 8a11 16c0 c079 09c0 fd3f 2fbd 603e 3b40
-0.8906536 -1.4350864 -1.6626683 -0.6132376 -1.541498 -1.7414842 0.258581 -2.1161969
-1.1191791 -0.17675652 -0.52542484 -1.8173208 -2.358139 0.554802 -2.3419886 -0.24530631
-1.6949189 -0.8974245 -0.81181806 -0.88818544 -2.0583713 1.2168318 -1.3131902 -1.5856421
0.70941114 -0.22309445 0.1336194 -0.2209557 -1.3352916 -0.8825781 -1.4005154 -1.1569778
-1.9006635 -1.0331035 -0.5005638 -1.0520401 -1.3474458 -1.979084 -0.650396 0.0707449
-0.3358268 -0.22215022 -1.272347 -1.001129 1.8002441 -1.1687973 0.6139867 -0.19511116
-1.7506093 -0.33431286 1.6380295 -1.7461487 2.6409183 -0.20224565 -1.175586 0.52572256
-1.2592115 -1.8392535 -2.2637393 -1.8133289 2.9330308 0.32143712 1.136687 1.284844
0.42838487 -1.3780553 -0.9404982 -1.3748282 -1.6641371 -2.14474 -1.2424501 0.73788106
-1.9181259 -0.79659534 0.44616097 2.5956657 2.1220376 -0.27962837 -0.6294944 2.6204996
0.28880134 -0.44993526 1.0146867 0.9148605 -1.3911165 -1.3728433 -0.6250808 -1.3706534
-0.014118336 -1.5842805 -0.14377087 1.8617007 1.8828416 -0.0515899 0.77665496 0.6247711
2.6933787 -2.004303 -2.4954312 0.860852 0.3624365 0.24241601 1.6769495 1.7094235
-0.2559888 -1.05258 -1.5006217 -1.0327638 0.1509223 -1.9627336 -1.5491765 0.36085767
-2.0148883 -2.3411193 1.8565197 -1.1977001 -0.936324 2.4502435 2.458418 -1.9652326
-2.295441 0.43651542 1.0434787 -2.0313458 -2.3448205 -2.148056 -0.042785633 2.925682

fc2.weight f4 [64, 128]
00000000: 25ab edbc 11f4 42bf 23a1 533f 1022 14be
00000010: 130e 1a3f a3e5 733f 4d13 eabd 5b3f 7abe
00000020: 9b70 0dbf 2bee 1f3f 7c7b 59bf 7e47 2ebf
00000030: 9f7f a33f 9f81 d8be 751d f73e 3b1d 89bf
00000040: e5c1 883e 2743 4cbf 41ed 3dbf 5674 46be
00000050: 9410 f5be 0434 f93e 7c76 52be 5eaa 9d3d
00000060: 3b71 253d 8dd4 5ebc 5fe5 c43e e8fb 1fbf
00000070: e6d0 13be 308d 37be 0eec 9fbc c8a0 843e
00000080: 0475 3e3d cb1e 9f3e e2b8 27bf 8cff 94bf
00000090: 1bf7 18bf f475 2a3f df25 0cbf f91b 8a3e
000000a0: c6b7 53bf 38a9 7f3f d926 fbbf 72e1 62be
000000b0: f16b 9e3d 67ca a13e 0d01 323e 58e8 20bf
000000c0: 09ea 69be 5daf 0c3f cf11 813f e8b1 dabe
000000d0: 65bd a2be 3094 903f 6a79 0cbf 912a 063f
000000e0: 90c4 15be 4e64 5ebf 7db4 883e 7d02 063e
000000f0: 59e0 853d 285e 64be 9ba6 18bf 6e5b 46bf
00000100: 751d 6fbf a1be a3be b075 dc3e b5d5 e0be
00000110: f224 bdbf c7ca 36bf e5fd 103f f9b9 7ebf
00000120: 4eb9 95bd dc19 b6be e6fe 08be 91e6 0fbd
00000130: d0c4 7a3d e366 1b3f 1110 6c3e ed3e 63be
00000140: 8472 b6be b33c 083f 42ea efbf 50c3 acbe
00000150: 8ba8 ccbb e574 b53e 10cb 16be f28d 4a3e
00000160: 4512 c3be c7e1 773e 9715 82be 90a3 8abc
00000170: f508 f93e e6f8 14c0 a603 9f3e 9238 02be
00000180: d857 a63e bc25 d13c 150d 7cbf 827d 3ebf
00000190: e8a6 053e 7856 d9bf acec c43f 2bcd 813e
000001a0: ee03 6a3f 1f03 d33e 613c 1abf 298b 3b3f
000001b0: 1609 f03e 5889 ae3e 6eac c4bf 0c17 623e
000001c0: 16de 933f 2ae7 433f a848 0a3f d3ca 00bf
000001d0: f95c 8abe e381 9fbe 60b5 e5be 5093 ce3f
000001e0: e0ab 923d 67c4 1b3f 83ed b8bd 0eef 7f3f
000001f0: 8f98 3c3e 012f 2abd 389f 77be 6f28 7d3d
00000200: cc04 81be 9855 18be 8dc8 903f 6894 1f3e
00000210: baec 3a3e 3595 c13d 1f1c 2b3f 3c6b b03c
00000220: 3514 1bbf cccf 1c3e 782b bf3e ff43 cebe
00000230: 258e 83bc d988 5ebe 7626 d9be f88f 4b3f
00000240: 560e 3a3f 1164 db3e 7566 5a3e 7fb7 923f
00000250: 0d72 093e f079 a2be c817 20bf 71ee a23e
00000260: 4602 8bbd 7db2 89be 5f5c 7fbe 96d2 f93e
00000270: e7b1 b5bc 3a1f 19bd b470 da3d 3c7c b53e
00000280: 0923 77bf 20be 5ebf a858 30c0 07f3 5b3e
00000290: bf6b 25bf 17ad d53e 8d09 ebbe a658 283e
000002a0: ea7e 1abd 4582 18bd 2ce4 873f 54f5 b7be
000002b0: 6b5a 133f 2cb3 95bf 9d82 913e 0d04 ec3e
000002c0: c7dd b83e d915 aebe 2735 df3e 5ca8 c1bf
000002d0: a330 5f3e c46a 10be 264a 403f f676 a63d
000002e0: 0cc1 90bd 66af 523f 4edb e63d 9b7b 50bd
000002f0: 296e fabd ec23 f1bc 1858 c43e e98d c53e
00000300: 6289 9dbe aa0a 873d b917 b0bc 097c c2be
00000310: baf2 093d 820a 12bf 84b9 c0be 0c82 e3be
00000320: a5e7 e4bf 22dd fb3f ac59 8abe 7161 443d
00000330: c361 453e 147c 7f3e c49c 55bf 9dde 453c
00000340: a467 983f dff2 99bd 8736 c4bf 87ad fcbe
00000350: f853 cabe 16ac c83d a675 a13e 2b20 e93e
00000360: cf81 663e f187 ec3e f517 9abe 0760 ea3e
00000370: 27d4 3bbe 3050 363e e572 c13d bc57 34c0
00000380: cccd aebd 12cf 093f 2d68 ad3e 8515 b83e
00000390: b060 f9be 0d4f cf3e 9940 df3f 36ab 86be
000003a0: de0b a6bd 9a6f 87bf 14d7 8dbf a338 f93d
000003b0: 8e11 88be df67 d13c f4ce 20be a2f4 c3be
000003c0: d199 49be f266 05bf d763 96bd 9515 c4be
000003d0: 7849 503e 0e0d 183f c58d 5b3e 18ad 523f
000003e0: a5d5 8fc0 b9ba bcbe ebb1 8d3e 7d55 2a3f
000003f0: 6173 bcbf 7157 86be 2969 27bf eb26 913c
-0.029012272 -0.76153666 0.8266775 -0.14466119 0.60177726 0.9527227 -0.114294626 -0.2443823
-0.5524995 0.6247279 -0.8495405 -0.6807784 1.2773322 -0.42286393 0.4826466 -1.0712045
0.2671043 -0.79789966 -0.74190146 -0.19380316 -0.4786421 0.48672497 -0.2055301 0.076985106
0.040391188 -0.013600481 0.38456246 -0.62493753 -0.14435157 -0.17924953 -0.01952174 0.25903916
0.046498314 0.3107818 -0.65516484 -1.1640487 -0.59752053 0.6658623 -0.54745287 0.26974466
-0.8270229 0.9986758 -1.962123 -0.22156313 0.07735432 0.31599733 0.17383213 -0.6285453
-0.22843184 0.54955083 1.008356 -0.42713857 -0.31785122 1.1295223 -0.54872763 0.524087
-0.14625764 -0.868718 0.26700202 0.13086887 0.065369315 -0.22301543 -0.5962922 -0.7748326
-0.9340432 -0.31981376 0.43058538 -0.43913046 -1.47769 -0.71403164 0.5663741 -0.9950252
-0.07310735 -0.35566604 -0.13378486 -0.035131995 0.06122285 0.6070387 0.23053004 -0.22191973
-0.35634243 0.5321762 -1.8743365 -0.33742762 -0.006245678 0.35440746 -0.147259 0.1978071
-0.38099876 0.24207221 -0.25407097 -0.016923696 0.48639646 -2.3276916 0.3105747 -0.12716892
0.32488894 0.025530688 -0.9845746 -0.7441026 0.13051951 -1.6979513 1.5384727 0.25351843
0.91412246 0.4121332 -0.6024838 0.73259217 0.46881932 0.3408916 -1.5365121 0.22079104
1.155215 0.76524603 0.54017115 -0.50309485 -0.27024058 -0.31153783 -0.4486494 1.6138706
0.07161689 0.6084656 -0.09029677 0.99974144 0.18417571 -0.041548733 -0.24181831 0.06180614
-0.25198972 -0.14876401 1.1311203 0.15583956 0.18254367 0.09452287 0.66839784 0.021535508
-0.6057771 0.15313643 0.37337852 -0.40286252 -0.01605899 -0.2173189 -0.42412156 0.79516554
0.72678125 0.42849782 0.21328147 1.1462249 0.13422413 -0.31733656 -0.6253629 0.3182254
-0.06787543 -0.26893988 -0.2493758 0.48793477 -0.022179557 -0.037383296 0.10666028 0.35446346
-0.96537834 -0.8700886 -2.7554111 0.21479426 -0.6461753 0.4173362 -0.45905724 0.16440067
-0.03771869 -0.03723361 1.0616508 -0.35929358 0.5755984 -1.1695304 0.28419963 0.4609684
0.36106703 -0.34001043 0.4359524 -1.5129504 0.21795897 -0.14103228 0.7511314 0.08128159
-0.07068071 0.82298887 0.11272298 -0.05089913 -0.12228043 -0.029436074 0.3834846 0.3858483
-0.30768877 0.06593831 -0.021495687 -0.37985256 0.033678748 -0.57047284 -0.37641537 -0.44435155
-1.7883192 1.9676859 -0.2702154 0.04794449 0.19275574 0.24949676 -0.8344233 0.012077001
1.1906629 -0.07517027 -1.532914 -0.4935114 -0.39517188 0.09798448 0.3153507 0.45532355
0.22510456 0.46197465 -0.30096403 0.45776388 -0.18342648 0.17804027 0.094457425 -2.817855
-0.085353464 0.5383159 0.33868542 0.35953918 -0.4870658 0.40489998 1.7441589 -0.263025
-0.08107732 -1.0580933 -1.1081262 0.12169006 -0.26575893 0.025562225 -0.15703946 -0.38272578
-0.19687583 -0.5211021 -0.07343262 -0.38297716 0.20340526 0.5939492 0.214408 0.8229537
-4.4948297 -0.36861208 0.27674803 0.66536695 -1.4722711 -0.26238587 -0.65394837 0.017718753

fc2.bias f4 [64]
00000000: cdac b93f 2c74 9abf 6a62 4340 165b b7bf
00000010: 7958 2ebe c2a0 3e40 7638 d9bc dce9 3540
00000020: 4c93 e23f ae3c abbd f500 4140 e173 bfbe
00000030: 99dd 503f 76ee e53f 3c33 a3bf 0f06 4abe
00000040: 9da5 0640 d22d 953f 21cf 1abf 9812 bc3f
00000050: 9716 5abd 2bf4 1cbf e9e3 fdbe bfb6 58bf
00000060: 298f 94be 37e7 1540 11ef b4bf ec06 4140
00000070: 5275 4540 9ad1 1340 2b65 8dbf c040 63bf
00000080: 3645 9fbd 0f19 2240 9240 a93f 0e1c 5b40
00000090: f929 d2bf 05ea 1940 deba c1be 3659 e4bf
000000a0: ca30 95be d6a3 cfbe fe6a 3f40 eff6 3fbf
000000b0: 8066 6ebe 796a 2240 e994 0cbf c23a 92be
000000c0: 869e 71be 6c21 4840 f7f5 2840 3312 41bf
000000d0: a1db 2fbd 47cf 86be c385 f9bd 9c1a 0040
000000e0: e3e8 f43f 737b c6bf 4c58 21be b23e 58bd
000000f0: f982 713d ec01 2c40 23fa 763f acf0 f73f
1.450586 -1.2066703 3.0528817 -1.4324672 -0.17025937 2.9785619 -0.02651618 2.8423986
1.7701201 -0.08361183 3.0156834 -0.37393096 0.8158813 1.7963398 -1.275001 -0.19728874
2.1038582 1.1654608 -0.60472304 1.4693174 -0.0532442 -0.6131007 -0.49587944 -0.8465385
-0.29015473 2.3422372 -1.4135457 3.0160475 3.0852857 2.309668 -1.1046499 -0.88770676
-0.07776873 2.5327795 1.322283 3.4235873 -1.6419059 2.4049084 -0.3783788 -1.7839725
-0.29138786 -0.40554684 2.9909053 -0.74986166 -0.23281288 2.5377486 -0.5491472 -0.28560454
-0.23595628 3.12704 2.6400125 -0.75418395 -0.042934064 -0.26330015 -0.12183716 2.001624
1.9133571 -1.5506424 -0.15756339 -0.052794166 0.058962796 2.6876173 0.9647543 1.9370322

final.weight f4 [6, 64]
00000000: cd44 973d f015 2ebe 6a50 ba3e f987 60be
00000010: a0bf 12bf 1ae2 f33e 92f5 223e 830b d83e
00000020: 0c06 3a3e 5012 63bd 5575 e93e 78f0 20be
00000030: 46dc 303e 21d2 f73d da6b dabd dc5b 87bd
00000040: 23b9 1d3e 9e66 883d fdff 4bbe 93d6 df3d
00000050: 9ee5 fb3d 997b 54be 0744 45be 389b 8abe
00000060: 61c5 0d3e b9a3 673e 1b19 a1be c7e7 e83e
00000070: 67ec e53e fc8b 413e 3270 73be 2f7a 1abe
00000080: f2f4 bcbd 3f6c 3cbd 1b7d 00be 6bfe 323f
00000090: e72a 49be 9ffe 8c3e 64d1 46be a343 24be
000000a0: 973a 433d ecd0 f9bd f870 083f 04a1 1fbf
000000b0: e178 57be 3d54 453e 863b d83d 0937 4d3e
000000c0: 9207 0e3f c359 0d3f 562e 6d3e 915b 543e
000000d0: 06b6 9b3d 95fa 1fbe 10b6 d8b9 160f 3e3e
000000e0: fdcf 0e3e dac2 bfbe 2827 3abd 524d 34bd
000000f0: d056 a53d 6e7b 7a3e 8701 203d cfc6 1d3e
00000100: 599b 1a3e 5eee f3bd 8e98 133f 6c17 22be
00000110: 4057 353e a06d df3e 2ae6 7bbe 844e 413e
00000120: 7c09 af3d 5e5a e13d 669b 023f 6252 bbbe
00000130: 2309 25bd 5816 893e e12c 743c 8e7c 1f3f
00000140: ab00 223e 5649 07be b573 903e c412 933d
00000150: e0d9 d6bb 385c 243c 42c9 20be aa05 f5bd
00000160: 06cc ddbd c11f 1a3e 38b6 29be 7315 e03e
00000170: b48f eb3e 8fcb 833e 76af 8bbd 2f0f 6bbe
00000180: 8056 e3bd bfaf 0f3e d49b ec3d a6cf 353f
00000190: 6bb7 6ebe dbc8 103e 048f 86be e752 71be
000001a0: bf5b 513d 609a e0bd 81b4 d83e 4201 01bf
000001b0: 5ae7 c73d ebe9 273e bdce e3bd 3d3f 73be
000001c0: 0c81 573d 069a 093f 26ef c93d 7e01 87be
000001d0: 536c eb3d 3968 e13d 0ace f23c a354 2e3e
000001e0: d305 083e f84e 35be 0741 4dbe a2ee acbc
000001f0: 68aa 813c 1a7f 623e da8d 93be 43c1 3a3e
00000200: b3b4 273e 8545 08be a0e5 183f d74b e2bd
00000210: 38cc 1d3e 5168 d63e 5d6c 78be 00ed 6d3e
00000220: 0d7a 413d c689 8b3d 7ae5 033f 831c c0be
00000230: 8875 5dbd 6f21 863e 5536 e0bb d557 2e3f
00000240: 9faa 2a3e c81d 44be 62af 8b3e 4b04 d83d
00000250: c215 693d cd0e 573d 6be9 3ebe 1ed7 cebd
00000260: db82 cebd 8de1 153e 537d 1dbe db74 d53e
00000270: 7fde fe3e 4e86 833e c35b 97bd 4a90 69be
00000280: 0c3c 05be 50dd 653e 2e88 cd3d a39d 313f
00000290: 5f3d 96be 278d 0a3e 5388 a9be fa00 71be
000002a0: 336a 0a3d 66d9 74bd 1d18 cc3e af51 71be
000002b0: c0d5 c23d 806c 343e ac28 70bd 8f1c cfbe
000002c0: a53e 803d c6e2 0e3f 2150 5d3d f42a 8dbe
000002d0: 6f61 babd 8412 843c 580c bf3d 511e 353e
000002e0: 630e 0d3e b2a9 1abe 5b70 54be e301 a3bd
000002f0: 4036 11bd 6d45 923e 6163 7cbe 8991 473e
00000300: dbd5 103e 7386 a7bd 4ff6 113f 9dee 7cbe
00000310: 72f4 1b3e 5aa7 cd3e dd68 94be 3ac6 7d3e
00000320: 67d4 dc3d d83e a73d 7517 023f 29e2 7cbd
00000330: 766a 7fbd 1f71 6f3e b9e7 973d 97cb b83e
00000340: ae2b 283e 9a64 25be 9006 7e3e 83c2 e23c
00000350: 5794 1fbd 7e4d 803d db7b a4bd 4daa 11be
00000360: 08f0 0cbe 85b3 243e d9fb 20be 86c3 ca3e
00000370: 3f16 003f 4341 9d3e b415 69bd 737b 66be
00000380: fc1e b03b 78a3 293e 4fb5 213e 40b2 363f
00000390: 67b2 79be 63f5 343e 6cef a0be c1d9 3cbe
000003a0: b7d9 d3bd 7ce5 dcbd d586 c33e 3282 9dbe
000003b0: f96f e63d e5ba 143e 7f89 cbbd d6f3 0abf
000003c0: e900 623d 38c4 113f 3a71 583d ed44 86be
000003d0: ea5d ec3b 4ee8 8b3c 44cc cd3a d8d3 413e
000003e0: a5e5 013e 525e 24be d463 7abe a91d cfbd
000003f0: de4e 76bd 559f 8b3e 57c4 71be cda9 183e
0.073861696 -0.17000556 0.36389476 -0.2192687 -0.57323647 0.4763344 0.1591399 0.42196283
0.18166369 -0.055437386 0.4559733 -0.15716732 0.17271528 0.12100626 -0.10665102 -0.06609318
0.15402655 0.06660198 -0.1992187 0.10929599 0.122996554 -0.20750274 -0.19264232 -0.27071548
0.13844825 0.22621049 -0.31464466 0.45489332 0.44906923 0.18901056 -0.23773268 -0.15085672
-0.09226407 -0.04600167 -0.12547724 0.6991946 -0.19645272 0.2753801 -0.19415814 -0.16041426
0.047663298 -0.12198052 0.53297377 -0.62355065 -0.21042205 0.19270416 0.10558228 0.20040525
0.554803 0.5521509 0.23162207 0.20738055 0.076030776 -0.15622933 -0.00041334378 0.18560442
0.13946529 -0.37453347 -0.0454475 -0.04401905 0.08073199 0.24461147 0.039063957 0.1540787
0.15098323 -0.11910699 0.57654655 -0.15829247 0.17709064 0.43638325 -0.2459952 0.18877608
0.08546731 0.11003564 0.5101837 -0.3658629 -0.040291917 0.2677486 0.014903278 0.6229943
0.15820567 -0.13211569 0.28213277 0.07181314 -0.0065567344 0.010031752 -0.15701774 -0.11963971
-0.1082993 0.15051176 -0.16573417 0.43766364 0.46008074 0.2574124 -0.06820576 -0.22955011
-0.11100483 0.14031886 0.11553159 0.7101997 -0.23312156 0.1413912 -0.26280987 -0.23566781
0.051112887 -0.10966945 0.42325214 -0.50392544 0.09760924 0.16397826 -0.111234166 -0.23754592
0.052613303 0.53750646 0.09860067 -0.26368326 0.114952706 0.11006207 0.029639263 0.17024474
0.13283472 -0.17705905 -0.20044337 -0.021109883 0.015828326 0.22118798 -0.28819162 0.18237786
0.16377525 -0.1330777 0.5972538 -0.110496216 0.15409935 0.41876462 -0.24260087 0.2323494
0.047235537 0.068133876 0.5152203 -0.37521753 -0.054067165 0.26197383 -0.0068424144 0.6810277
0.1666665 -0.19151986 0.27282244 0.10547694 0.056905515 0.05250435 -0.1864373 -0.10099624
-0.100835524 0.14636822 -0.15379839 0.41690716 0.49779126 0.25688404 -0.07390549 -0.22808948
-0.13011187 0.22447705 0.1003574 0.6938116 -0.29343697 0.13530408 -0.3311182 -0.23535529
0.033792686 -0.05977764 0.39862147 -0.23566316 0.09513426 0.17619514 -0.058632538 -0.40451476
0.062619485 0.5581478 0.054031495 -0.27571833 -0.09100615 0.01612211 0.09328526 0.17687346
0.1377502 -0.15103796 -0.20745985 -0.07959344 -0.035452127 0.28568593 -0.24647285 0.19489111
0.1414408 -0.08179941 0.5701646 -0.24700399 0.15229967 0.40166742 -0.28986254 0.24782649
0.107827 0.08166283 0.5081704 -0.06173912 -0.06235739 0.23382996 0.074172445 0.36092827
0.16422912 -0.16151658 0.24807191 0.027680641 -0.038959827 0.062647805 -0.08031436 -0.14225121
-0.1376344 0.16084106 -0.15721072 0.39602298 0.50033945 0.30713853 -0.056905463 -0.2250803
0.0053747874 0.16566265 0.1579182 0.7136574 -0.24384461 0.17671733 -0.31432664 -0.18442442
-0.1034426 -0.10785958 0.38188806 -0.30763394 0.11251826 0.1452442 -0.09938335 -0.54278314
0.05517665 0.5694003 0.052842356 -0.2622446 0.007213344 0.017078545 0.0015701135 0.18928468
0.12685259 -0.16051605 -0.24452144 -0.10113079 -0.060133807 0.27269998 -0.23610054 0.14908524

final.bias f4 [6]
00000000: 242a 2940 5022 2540 6bc3 d43f 6a93 b53f
00000010: abd0 943f 26fe 633f
2.643197 2.5802193 1.6622137 1.4185612 1.162618 0.89059675
