D2QN_AAAI_REWARD/checkpoint_d2qn_-30_1000_cheetah_0.pth (torch, 45655 bytes, 6 tensors)

fc1.weight f4 [128, 17]
0	0xbf68bb7e	-0.9091109
1	0x3eb2bfac	0.3491186
2	0xbf94399c	-1.1580081
3	0xbf4dec83	-0.80439013
4	0xbfd0bdf0	-1.6307964
5	0xbfce664c	-1.6124969
6	0xbfeb95b9	-1.8405067
7	0xc01f7be0	-2.4919357
8	0xbfe22448	-1.7667322
9	0xbf29a8c7	-0.6627316
10	0xbfa5e54d	-1.2960602
11	0x3cc5baeb	0.024136981
12	0xbe811987	-0.25214788
13	0x3cdfcd97	0.027319713
14	0x3e19b428	0.1501013
15	0xbc94a57d	-0.018145317
16	0xbf12c43f	-0.573307
17	0x3f0eb9f4	0.5575249
18	0xc013325f	-2.2999494
19	0x3ed122bd	0.40846816
20	0x3ee9eb02	0.4568711
21	0x3f1f0526	0.6211723
22	0xbf501a9b	-0.81290597
23	0x3ed17ee8	0.40917134
24	0xbf23f246	-0.64041555
25	0xbf9951a0	-1.1978035
26	0x3f71abae	0.9440259
27	0xbf0d4388	-0.5518117
28	0xbd7f859d	-0.062383283
29	0x3cf048bd	0.02933156
30	0x3dbe71eb	0.09299072
31	0xbd3198db	-0.043358665
32	0xbdc3fbaa	-0.095694855
33	0x3dbdc2d4	0.09265676
34	0xbff64565	-1.9239928
35	0xbfa4a529	-1.2862903
36	0xbf40f399	-0.753717
37	0xbf9efc5e	-1.2420766
38	0xbf8ea917	-1.1145352
39	0xbdc59c92	-0.09649004
40	0xbee8d265	-0.45473018
41	0xbfb90175	-1.445357
42	0xbf6568b6	-0.896129
43	0xbf9250c2	-1.1430895
44	0xbfb7c917	-1.4358243
45	0xbe817b73	-0.25289497
46	0xbe7c4a88	-0.24637806
47	0xbd8c744b	-0.068581186
48	0xbce1fdbd	-0.027586812
49	0x3e2bc57a	0.1677455
50	0x3e5c3352	0.21503952
51	0xbd0c7645	-0.034292478
52	0xbf0b5f4f	-0.54442304
53	0xbffa4263	-1.955151
54	0xc0283f3f	-2.6288602
55	0xbf8c1812	-1.0944846
56	0xbd1d7e5b	-0.03845058
57	0xbf012fe6	-0.5046371
58	0xbede4ab5	-0.43416372
59	0x3dbb51b2	0.091464415
60	0xbf0bef3a	-0.54661906
61	0x3e92dec6	0.28685588
62	0x3e856933	0.26056823
63	0x3e0432f1	0.12910058
64	0x3d7d09e3	0.061777007
65	0xbe8d5377	-0.2760274
66	0xbde05c13	-0.10955062
67	0xbc1e670f	-0.009668126
68	0xbfdec295	-1.7403132
69	0xbf76ab23	-0.96354884
70	0xbfe3abc1	-1.778679
71	0xbf9a6294	-1.2061334
72	0xc02650ef	-2.5986898
73	0xbe20d1d5	-0.15705045
74	0x3e3e49bb	0.18582813
75	0xbefee49d	-0.49783793
76	0x3ed55f18	0.41674113
77	0xbf96c8f5	-1.1780077
78	0xbe91eb45	-0.2849981
79	0xbe914ee2	-0.28380495
80	0xbe50db93	-0.20396261
81	0x3e8cecdf	0.27524468
82	0xbd139417	-0.0360299
83	0x3d3ce172	0.04611344
84	0xbd22e284	-0.039766803
85	0xc086d035	-4.212916
86	0xbfa96a8f	-1.3235644
87	0xbf88ae7c	-1.0678248
88	0xbf949100	-1.160675
89	0xbf0fd53e	-0.56184757
90	0x3efb3942	0.49067122
91	0x3fa7b727	1.3102769
92	0xbea6e166	-0.3259384
93	0xbe50756f	-0.20357297
94	0x3ea35a5d	0.3190488
95	0xbe347e62	-0.17626336
96	0x3d85d916	0.065355465
97	0x3df3f9d6	0.11912887
98	0x3bfbc16d	0.0076829703
99	0xbe5ff2df	-0.21869992
100	0xbe1e43c9	-0.15455545
101	0x3b5495cb	0.0032437916
102	0xbf5bd8e7	-0.8587784
103	0xbf252148	-0.6450391
104	0xc0311cdc	-2.7673864
105	0xbfda2703	-1.7043155
106	0xc01f901c	-2.4931707
107	0xbee2f5db	-0.44328198
108	0x3e477d40	0.19481373
109	0x3da9ac57	0.08284824
110	0x3cd8d49d	0.02646857
111	0xbf5bdaa1	-0.85880476
112	0x3ea12b95	0.31478563
113	0x3e40ec5b	0.18840162
114	0x3e100cd3	0.14067392
115	0xbeab6746	-0.3347723
116	0xbdec607e	-0.11541842
117	0x3e66c015	0.22534211
118	0xbabe089d	-0.0014498417
119	0x3fffa594	1.9972405
120	0x3f9a6a73	1.2063736
121	0x3fd9509f	1.6977729
122	0x3ec128bf	0.377264
123	0xbe4a848d	-0.19777127
124	0xbf32fe73	-0.6991951
125	0xbf38ab75	-0.7213662
126	0x3e5b66a2	0.2142587
127	0xbdd435b1	-0.10361803
128	0xbec0f8cf	-0.37689826
129	0xbf3de3ad	-0.7417553
130	0xbe1fe114	-0.15613204
131	0xbe8a6578	-0.2703054
132	0xbdc95f84	-0.09832671
133	0xbcbd1788	-0.02308251
134	0x3da37634	0.0798153
135	0x3c214dd2	0.009845214
136	0xc003cd31	-2.059399
137	0x3fd6604a	1.6748135
138	0xbd4f4d7c	-0.050611004
139	0xbee60c91	-0.44931462
140	0x3e97daca	0.2965911
141	0xbdbb79e5	-0.09154109
142	0x3f1f94d2	0.62336457
143	0xbf3eda35	-0.7455171
144	0xbf1899e2	-0.59609807
145	0x3f846076	1.0341938
146	0x3f5de0c4	0.8667109
147	0x3e9906ae	0.2988791
148	0x3db8959b	0.0901291
149	0x3d5fc67a	0.05463264
150	0xbe0e97fc	-0.13925165
151	0xbd4518b0	-0.048119247
152	0x3d2c6826	0.04209151
153	0x401907de	2.3911052
154	0xbf5770ad	-0.84156305
155	0xbfeaf3c6	-1.8355644
156	0xbf4e0d37	-0.80488914
157	0xbfb4ed19	-1.4134856
158	0xbfe495ff	-1.7858275
159	0xbfa4f576	-1.2887409
160	0xbeca5b30	-0.39522696
161	0xbee65b35	-0.4499146
162	0x3f28ffad	0.6601513
163	0xbedc61f5	-0.43043485
164	0xbe0429ed	-0.12906618
165	0xbda195c8	-0.07889897
166	0x3c58ce86	0.013232833
167	0x3e27f229	0.1640097
168	0x3e727407	0.23677073
169	0x3d920945	0.07130674
170	0x4075f713	3.8432052
171	0xbf0aaf90	-0.5417414
172	0x3dab1979	0.08354468
173	0xbf8736d0	-1.0563602
174	0xbf83b7d5	-1.0290476
175	0xbdb4dec8	-0.08831555
176	0xbf7a61b1	-0.97805315
177	0xbf6e0323	-0.92973536
178	0x3e312b74	0.17301732
179	0xbf186935	-0.59535533
180	0x3f828c30	1.0199032
181	0x3eb855ab	0.3600286
182	0xbd95f363	-0.07321813
183	0x3cc13b84	0.02358795
184	0xb9f4a1e0	-0.00046659913
185	0x3d461d6c	0.048367903
186	0xbda9a2c0	-0.08282995
187	0x3eb8290c	0.35968816
188	0xc0b39ab1	-5.612633
189	0xbe434397	-0.19068752
190	0xb8d86735	-0.000103189064
191	0xbe091492	-0.13386753
192	0xbeef7a28	-0.46772885
193	0xbfdd3feb	-1.7285131
194	0xbee671a3	-0.45008573
195	0xbf9ee478	-1.2413473
196	0x3e145932	0.1448715
197	0xbf13c205	-0.57717925
198	0x3df0ad28	0.11751777
199	0x3d1f1a63	0.038843524
200	0x3e90ac6c	0.28256547
201	0xbf0b24f6	-0.5435327
202	0xbcd2459f	-0.025667964
203	0xbdf016c3	-0.117230915
204	0xc0569814	-3.353032
205	0x402366ad	2.5531418
206	0xbdc90d60	-0.09817004
207	0x3f1b1e68	0.6059327
208	0x3e32efaf	0.17474245
209	0xbe6ff943	-0.2343493
210	0x3e9af6d5	0.30266443
211	0xbece1fb9	-0.40258577
212	0x3efe65d8	0.49687076
213	0x3e09c724	0.13454872
214	0xbe8f2638	-0.27958846
215	0xbc0ce54e	-0.008599592
216	0xbdcc3a20	-0.09972024
217	0x3d9fe0cb	0.07806548
218	0x3c437133	0.011928844
219	0xbe3c30f3	-0.18378048
220	0xbde9a1c4	-0.114078075
221	0x40d95246	6.791293
222	0x3f24c0d2	0.6435672
223	0x3e801d92	0.2502256
224	0x3e416b96	0.18888697
225	0x3eac51ef	0.3365626
226	0x3e998393	0.29983196
227	0x3f1eb8bf	0.6200065
228	0x3f659747	0.89683956
229	0xbdcb73f1	-0.099342234
230	0xbdac28ae	-0.084061965
231	0x3dde2294	0.10846439
232	0x3c0bcaf4	0.0085322745
233	0x3be5e0cd	0.0070153237
234	0x3cb0676c	0.02153369
235	0xbd914952	-0.07094063
236	0x3c952673	0.01820681
237	0xbc3e64a9	-0.011620679
238	0xc0561bf0	-3.3454552
239	0x3f231905	0.6371005
240	0xbf24afa4	-0.64330506
241	0xbe60a5d2	-0.21938255
242	0xbe3881ab	-0.18018214
243	0xbdf741f7	-0.12073129
244	0x3fa02f62	1.251446
245	0x3f227971	0.63466555
246	0x3eca1fa2	0.3947726
247	0xbe770374	-0.24122411
248	0xbce399ed	-0.027783358
249	0x3bab0a96	0.005219768
250	0xbc9d3999	-0.019192504
251	0xbd30a4f7	-0.043126073
252	0xbddd652a	-0.10810311
253	0xbd08a457	-0.03335985
254	0x3d3d8c54	0.046276405
255	0xbfa42222	-1.2822917

fc1.bias f4 [128]
0	0xbfe3171d	-1.7741429
1	0xbfa1c14c	-1.2637115
2	0xbfe973e6	-1.8238494
3	0xbf46f0fe	-0.77711475
4	0xbfee74d9	-1.8629409
5	0xbfc43654	-1.532908
6	0xbebc1b94	-0.3673979
7	0xbfc91fea	-1.5712864
8	0xc00f9e7e	-2.2440486
9	0xbf0de1d5	-0.5542272
10	0x3db9973e	0.0906205
11	0xbf7d5f66	-0.9897369
12	0xc0053c1e	-2.0817943
13	0x3f4be55f	0.7964687
14	0xbffc829b	-1.9727358
15	0xbf9e07cf	-1.2346133
16	0xbf5e58d8	-0.86854315
17	0xbf8c77ab	-1.097402
18	0xbf891e4e	-1.0712373
19	0xbf5d84dd	-0.8653086
20	0xbf79b88e	-0.97547233
21	0x3f8c175a	1.0944626
22	0xbf0051c7	-0.5012478
23	0xbfce78a6	-1.6130569
24	0xbfc15967	-1.5105408
25	0x3e4e798e	0.20163557
26	0x403329e1	2.799431
27	0xbffb23ac	-1.9620261
28	0xbfc65133	-1.549353
29	0xbf4fe80c	-0.8121345
30	0xbfb830ab	-1.4389852
31	0xbfbcf959	-1.4763595
32	0xc0223157	-2.5342615
33	0xbf03ddb3	-0.5151016
34	0x3e3a2334	0.18177491
35	0xbfc3c4bb	-1.5294412
36	0xbfdb8274	-1.7149186
37	0xc0032d02	-2.049622
38	0xbf27b892	-0.65516007
39	0xbfb59c56	-1.4188335
40	0x3d719e27	0.058988716
41	0xbf3e4349	-0.7432142
42	0xbf7c07e0	-0.98449516
43	0xbfcee446	-1.6163414
44	0x3fbae0af	1.4599818
45	0xbf627de2	-0.8847333
46	0x3ebdae2a	0.3704694
47	0xbf8cde8a	-1.1005414
48	0xbfc81044	-1.5629964
49	0xbf97395f	-1.1814383
50	0x3f3eec89	0.74579674
51	0xbfb7a5e1	-1.4347497
52	0x4029691a	2.64704
53	0x3f0e12d1	0.5549746
54	0xbf4e2e6b	-0.8053958
55	0x3e8930ab	0.26794943
56	0xbfa26947	-1.2688378
57	0xc0133033	-2.2998168
58	0xbffda1ee	-1.9815042
59	0xbf7b9f76	-0.98290193
60	0x401f0242	2.4845128
61	0x3db6832c	0.08911738
62	0x3f053da8	0.52047205
63	0x3fed0795	1.8517939
64	0xbf85143e	-1.0396802
65	0xbfa9b69c	-1.3258853
66	0xbf940c7d	-1.1566311
67	0xc00c6d02	-2.1941533
68	0xc001cd4d	-2.0281556
69	0xbfdd807d	-1.7304837
70	0xbfdeaca9	-1.7396442
71	0x3f73fdc1	0.9530907
72	0xbf7bbb0f	-0.98332304
73	0xbdafed70	-0.085902095
74	0x3dbff85e	0.09373544
75	0x4020e3b1	2.5138972
76	0x3f2a2664	0.6646483
77	0x3f050b0d	0.5196999
78	0xbf8f75be	-1.1207807
79	0x402d5da8	2.7088413
80	0xbe434923	-0.19070868
81	0x3de0ba19	0.10972995
82	0xbf61626b	-0.880408
83	0x3f240879	0.6407543
84	0xbfa8f033	-1.3198303
85	0xbf9e554b	-1.2369779
86	0x402e872c	2.7270002
87	0xbf9ad86a	-1.2097294
88	0x3cc7c897	0.02438764
89	0xbfd311d6	-1.6489818
90	0xbe57fb2d	-0.2109191
91	0x402ddb50	2.7165108
92	0x400323a4	2.0490503
93	0xbf319d1a	-0.6938034
94	0x3f123f14	0.571275
95	0x3f1441ab	0.579127
96	0x402955fc	2.645873
97	0xbf9c00dc	-1.2187762
98	0xbfb41382	-1.4068453
99	0x3fa259ad	1.2683617
100	0x3e147d3a	0.14500895
101	0xbf0210e1	-0.50807005
102	0x3eeaa425	0.45828357
103	0x4007aa47	2.119768
104	0xbe4ea2bf	-0.2017927
105	0xbf6e1797	-0.93004745
106	0xbf5ff3d1	-0.8748141
107	0xbf80fb57	-1.0076703
108	0xbf2a1b98	-0.66448355
109	0xbfd11cc8	-1.6336908
110	0xbfd21559	-1.6412765
111	0x3ec96404	0.39334118
112	0xbfd92519	-1.6964446
113	0xc003da3d	-2.0601952
114	0x3fd25eec	1.6435218
115	0xbe1f6d68	-0.15569079
116	0x3ffbada3	1.9662365
117	0x3f075886	0.5286945
118	0xbe462712	-0.19350842
119	0xbfd046cb	-1.6271604
120	0xbfd587d1	-1.6682073
121	0xbd490f5c	-0.049086913
122	0x3e1982da	0.14991322
123	0xbfab268b	-1.3371137
124	0xc0361257	-2.8448694
125	0xc0048a7c	-2.0709524
126	0xbfb522e6	-1.4151275
127	0x402f8fa6	2.7431426

fc2.weight f4 [64, 128]
0	0xbe44b3ef	-0.19209264
1	0xbf2588f6	-0.6466211
2	0xbf87d294	-1.0611138
3	0x3efbbbf5	0.49166837
4	0xbe930e01	-0.28721622
5	0xbf426e9f	-0.75950044
6	0xbf1610dc	-0.58619475
7	0xbd8eedb2	-0.069789305
8	0x3da92ff8	0.082611024
9	0xbe24c13c	-0.16089338
10	0x3e8e645f	0.27810952
11	0x3f901e29	1.1259204
12	0x3e9f8970	0.31159544
13	0xbe441d53	-0.19151811
14	0x3ebd15e9	0.3693078
15	0xbebf867f	-0.374073
16	0xbf3c894d	-0.73647004
17	0xbe52833e	-0.20557877
18	0x3fa00021	1.2500039
19	0x3ddddca8	0.108331025
20	0xbf11fe0b	-0.57028264
21	0x3d0350de	0.032059543
22	0x3e07d52d	0.13264914
23	0x3f249150	0.6428423
24	0x3ee2dfac	0.44311273
25	0x3e14024a	0.14453998
26	0xbe358b6d	-0.17728968
27	0xc009d667	-2.153711
28	0xbebdb15d	-0.3704938
29	0x3f0bcb17	0.54606766
30	0x3e28ca63	0.16483454
31	0xbd07fb46	-0.033198617
32	0xbea04478	-0.31302238
33	0xbf675939	-0.9037052
34	0xbef3a150	-0.4758401
35	0x3f641ef7	0.8910975
36	0xbeac02ba	-0.3359583
37	0x3f2d90b4	0.67798924
38	0x3e3f30b0	0.18670917
39	0x3f15de9e	0.5854281
40	0xbe322215	-0.17395814
41	0x3e7ab62c	0.24483556
42	0x3f290928	0.66029596
43	0xc02394f2	-2.555966
44	0x3be024de	0.0068403324
45	0x3c1607b5	0.009157111
46	0xbe0df24b	-0.13861959
47	0xbe6cd279	-0.23127164
48	0x3eb363ea	0.35037166
49	0x3f0af2e3	0.54276866
50	0x3f1184d7	0.5684332
51	0x3eb74336	0.35793465
52	0xbda47e38	-0.08031887
53	0xbee45070	-0.4459262
54	0xbef1b419	-0.47207716
55	0xbf58d0fe	-0.84693897
56	0x3d23ca04	0.03998758
57	0x3ed11bbb	0.4084147
58	0x3f4cfb38	0.8007083
59	0xbe9171f3	-0.2840725
60	0xbf80c195	-1.0059077
61	0x3f171d22	0.5902883
62	0x3f55f34b	0.8357436
63	0x3eafb8b6	0.3432061
64	0x3f009270	0.50223446
65	0xbe782eb7	-0.2423657
66	0xbf030349	-0.5117689
67	0xbfcf27c9	-1.6184016
68	0xbf75fa74	-0.96085286
69	0xbee33ae9	-0.44380882
70	0xc07ed808	-3.9819355
71	0x3d3de71d	0.046362985
72	0xbe4024c6	-0.18764028
73	0xbe3b03ec	-0.18263215
74	0xbf34a0f3	-0.7055809
75	0xbea57a15	-0.32319704
76	0x3d8d92e7	0.06912785
77	0x3ddfbddf	0.10924887
78	0xbe7b8844	-0.245637
79	0xbe2547d8	-0.16140687
80	0xbe4d7675	-0.20064719
81	0xbe93194e	-0.28730243
82	0x3e16c302	0.14722827
83	0x3eb00582	0.34379202
84	0x3dd3fb56	0.10350673
85	0x3f4f20e4	0.8090956
86	0xbf14d71a	-0.5814072
87	0x3e0f4975	0.13992865
88	0x3f316e72	0.6930915
89	0x3f295bf9	0.66155964
90	0x3e24e50f	0.16103004
91	0xbe3f47b0	-0.1867969
92	0x3f1bbe5a	0.6083733
93	0x3d6f482d	0.05841844
94	0xbe8a8414	-0.27053893
95	0x3cc4ece1	0.024038734
96	0x3e051915	0.1299785
97	0x3dca32a5	0.09872941
98	0x3e21f932	0.15817717
99	0x3f79b39b	0.9753968
100	0xbc3ba1b8	-0.011452131
101	0xbee29442	-0.44253737
102	0x3fb30995	1.3987299
103	0x3ed38088	0.41309
104	0xbe7a67ba	-0.24453631
105	0xbf40c512	-0.75300705
106	0x3ec5b73d	0.38616362
107	0xbcf29f8b	-0.029617092
108	0x3f0ef6e3	0.5584547
109	0x3e81d250	0.25355768
110	0xbe9a0db1	-0.3008857
111	0xbe2b7263	-0.16742854
112	0xbdbbb3dc	-0.09165165
113	0x3f252450	0.64508533
114	0xbeee7b0f	-0.4657826
115	0xbebf2a45	-0.37336937
116	0x3eb6b65c	0.35686004
117	0x3ef5a45c	0.4797696
118	0xbf113c75	-0.56732875
119	0x3d829383	0.06375792
120	0x3e1aedf3	0.15129833
121	0x3f0fbf84	0.56151605
122	0xbe035d15	-0.12828477
123	0xbe21105b	-0.15728895
124	0xbf6c6699	-0.9234405
125	0x3f412ad8	0.75456
126	0xbdfe3780	-0.124129295
127	0x3f036224	0.51321626
128	0x3f110503	0.5664827
129	0x3ea57568	0.32316136
130	0x3f1f4110	0.6220865
131	0x3e32d30c	0.1746332
132	0x3ecbe29e	0.39821333
133	0x3f900717	1.1252164
134	0x3ebe05c9	0.3711379
135	0xbd626002	-0.05526734
136	0xbf92dee7	-1.1474274
137	0xbe151f08	-0.14562619
138	0x3de86685	0.11347679
139	0x3ecedd06	0.40403003
140	0xbeef78a4	-0.4677173
141	0xbee28384	-0.44240963
142	0xbd2bd371	-0.041949693
143	0xbead4d0e	-0.3384785
144	0x3f965f6a	1.1747868
145	0xbe736bbc	-0.23771566
146	0x3f1e06c3	0.6172907
147	0xbf5fcf83	-0.8742601
148	0x3eef7b66	0.46773833
149	0xbed318bf	-0.41229817
150	0x3f2be4e8	0.6714616
151	0xbfb615e9	-1.4225436
152	0xbf57e7e5	-0.8433822
153	0xbd9b3276	-0.07577984
154	0x3c8ad1fc	0.016945831
155	0x3f5f3bbc	0.8720052
156	0xbd13c4c4	-0.036076322
157	0xbf37d8a6	-0.71814954
158	0xbe0b63fc	-0.1361236
159	0xbe55c5b3	-0.20876198
160	0xbf27dbdc	-0.65569854
161	0xbce6943f	-0.028146861
162	0xbe4f12ba	-0.20221987
163	0xbd89af52	-0.06722893
164	0xbe012bb8	-0.12614334
165	0x3dd92123	0.106020235
166	0xbe90c342	-0.2827397
167	0xbf4bed6c	-0.7965915
168	0x3e896b0d	0.26839486
169	0xc0788595	-3.8831532
170	0x3f25a582	0.6470567
171	0x3e0fe387	0.14051639
172	0x3fa5b996	1.2947261
173	0xbdcf6934	-0.10127488
174	0x3f106342	0.56401455
175	0xbe9cb496	-0.30606526
176	0xbd04cebc	-0.03242372
177	0xbebb51b8	-0.36585784
178	0xbf94892a	-1.1604359
179	0xbf8c715d	-1.0972096
180	0x3dee3a58	0.11632222
181	0x3f4f84cd	0.8106201
182	0x3f03c5e7	0.5147385
183	0xbefc9391	-0.49331334
184	0x3e326526	0.17421398
185	0xbf99635c	-1.1983447
186	0xbfb21fce	-1.3915956
187	0x3f0070a2	0.50171864
188	0x3d995ffa	0.07489009
189	0xbe8c206e	-0.27368492
190	0xbdfb2f93	-0.122649334
191	0x3e287cc6	0.16453847
192	0xbcf37b13	-0.029721772
193	0xbf361a39	-0.7113376
194	0x3e3cd42c	0.18440312
195	0x3dad6724	0.08466938
196	0xbfbabeb4	-1.4589448
197	0x3f17e1e0	0.5932903
198	0xc0259deb	-2.5877635
199	0xbfd0d292	-1.6314261
200	0x3dc0ae92	0.09408297
201	0x3f1b9d52	0.60786927
202	0xbec270c8	-0.3797667
203	0x3c90e79e	0.017688569
204	0x3eccf075	0.40027204
205	0x3e662fcb	0.22479169
206	0xbf98ca6b	-1.1936773
207	0xbea90019	-0.33007887
208	0x3f5accbc	0.8546865
209	0x3ebffda6	0.37498206
210	0xbf911bf3	-1.1336654
211	0xbdbb0ead	-0.091336586
212	0xbd3dd312	-0.04634387
213	0x3f59f9a5	0.8514655
214	0x3cf5ae6a	0.029990394
215	0x3ec5483b	0.3853167
216	0x3e5e4bf6	0.21708664
217	0xbdcb0111	-0.09912313
218	0xbeeee43e	-0.4665851
219	0x3e67243b	0.22572415
220	0x3d8f4707	0.06995969
221	0x3f02a7bf	0.5103721
222	0xbea4a90b	-0.3216022
223	0xbf008db7	-0.5021624
224	0x3e79eb7a	0.24406233
225	0xbf8862c1	-1.0655137
226	0xbf0927d6	-0.5357641
227	0x3fd5c6d9	1.6701308
228	0x3f5702e7	0.83988804
229	0x3f60a7d9	0.87756115
230	0xbe1d4932	-0.15359953
231	0xbd3906bd	-0.04517244
232	0xbf3b266d	-0.7310551
233	0x3e71c790	0.23611283
234	0xbefeba0b	-0.49751315
235	0x3f715eb5	0.94285136
236	0x3eafcee1	0.34337524
237	0xbe9da730	-0.30791616
238	0x3f19dd61	0.6010342
239	0xbf098a87	-0.53727
240	0xbe11f5ad	-0.14253874
241	0x3f39eb28	0.72624445
242	0x3eb2c69c	0.34917152
243	0x3fbeba10	1.4900532
244	0x3edaab52	0.42708832
245	0x3f9bf2e6	1.2183502
246	0x3ea107d2	0.3145128
247	0x3f298ed8	0.6623359
248	0x3fa766c0	1.3078232
249	0x3d38a80a	0.04508213
250	0x3f6920fa	0.91065943
251	0xbf7f0cda	-0.99628985
252	0xbf4b7b1f	-0.7948474
253	0xc0485b22	-3.1305623
254	0xbf04fe16	-0.51950204
255	0xbd1ebaf4	-0.03875251

fc2.bias f4 [64]
0	0x3fb12128	1.3838243
1	0xbf8be999	-1.0930663
2	0x4049e60e	3.1546664
3	0xbf4ca01c	-0.7993181
4	0xbda73196	-0.08163755
5	0x403afa3c	2.921523
6	0xbfb0bd78	-1.3807821
7	0x4033bd5a	2.808432
8	0x4001512a	2.0205789
9	0xbdc394f8	-0.09549898
10	0x404033fc	3.0031729
11	0xbf9289a9	-1.144826
12	0x3e9fd9b6	0.31220788
13	0x4024bbe6	2.5739684
14	0x3f60fd09	0.878861
15	0xbe9aaf61	-0.30211928
16	0x3ff93ada	1.9471085
17	0x3ffa4846	1.9553306
18	0x3f171dc4	0.59029794
19	0x4002758a	2.038424
20	0xbd5f4a7d	-0.054514397
21	0xbf2d6892	-0.67737687
22	0xbebe9113	-0.37220058
23	0xbf6675a9	-0.90023285
24	0xbf9472c8	-1.1597528
25	0x3fa3ce0d	1.2797257
26	0x3eaefab5	0.3417565
27	0x403f230c	2.986514
28	0x4043ed2e	3.0613513
29	0x40157740	2.3354034
30	0xbf4dcde1	-0.8039227
31	0xbe56d54d	-0.20979805
32	0xbd993b1d	-0.07481978
33	0x4028a2c5	2.6349347
34	0x401102cb	2.2657955
35	0x4011d154	2.2784014
36	0x3c4ff0d8	0.012691699
37	0x3fd6df34	1.6786866
38	0xbdc55762	-0.096358076
39	0xbfc0d7aa	-1.5065815
40	0xbea7bc6c	-0.32760942
41	0xbf7a3d81	-0.977501
42	0x4047bebd	3.1210167
43	0xbfaeed92	-1.3666251
44	0xbfab231a	-1.3370087
45	0x404c4727	3.1918428
46	0xbfb28d39	-1.3949348
47	0xbf04a943	-0.5182077
48	0x3f1fe21f	0.6245441
49	0x403f9a91	2.993809
50	0x40198197	2.3985345
51	0xbf1e5814	-0.61853147
52	0xbd1ead57	-0.03873953
53	0xbdee7e03	-0.116451286
54	0x3d30b7c1	0.04314399
55	0x3dd4b4fd	0.10386083
56	0x4004a816	2.0727592
57	0xbfd3de48	-1.655221
58	0x3f6d0771	0.9258948
59	0xbd2d6b28	-0.04233852
60	0x3d7182f9	0.058962796
61	0x404bfd21	3.1873248
62	0x3d350cae	0.044201545
63	0x402093fd	2.5090325

final.weight f4 [6, 64]
0	0x3e816505	0.25272384
1	0xbe731133	-0.2373703
2	0x3ee629b4	0.44953692
3	0xbc172cf1	-0.009227023
4	0xbe25322d	-0.16132422
5	0x3ee1f8b1	0.4413505
6	0x3db26edf	0.08712553
7	0x3eb20c91	0.34775212
8	0x3e4ab545	0.19795711
9	0xbd0ac136	-0.033875667
10	0x3edc8037	0.4306657
11	0xbe2507e9	-0.16116299
12	0x3e916a69	0.28401497
13	0x3de45dec	0.11150727
14	0x3e09370a	0.13399902
15	0xbc9ac794	-0.018893994
16	0x3e2df23b	0.16986935
17	0x3d72e43c	0.059299693
18	0x3ecc128c	0.398579
19	0x3ea12651	0.31474546
20	0x3e0db324	0.13837868
21	0xbe471905	-0.19443138
22	0x3de9a10a	0.11407669
23	0x3dd0b877	0.10191434
24	0xbe7bae45	-0.24578197
25	0x3e26f461	0.1630416
26	0xbe3b712e	-0.18304893
27	0x3eec1909	0.4611285
28	0x3ef9a190	0.48756075
29	0x3e9e2515	0.30887666
30	0xbe484c05	-0.19560249
31	0xbe8c2d24	-0.2737819
32	0xbdd2685c	-0.10273811
33	0xbe98b980	-0.29829025
34	0x3e06bf75	0.13158973
35	0x3e0e55e2	0.13899949
36	0xbbb98a70	-0.005662255
37	0x3d085188	0.03328088
38	0x3dcf9a35	0.101368345
39	0xbe28c862	-0.1648269
40	0xbe939304	-0.28823102
41	0xbed281a8	-0.41114545
42	0x3ef84cb8	0.48496032
43	0xbe634384	-0.22193724
44	0xbe5c3bd9	-0.21507205
45	0x3f195ffe	0.599121
46	0xbec537e1	-0.38519195
47	0x3d1a523c	0.03767608
48	0x3d4a408c	0.049377963
49	0x3ee01c3b	0.43771538
50	0x3de7531d	0.112951495
51	0xbcd74981	-0.026280167
52	0x3d2b2d32	0.04179115
53	0x3cc5735b	0.024102857
54	0xbe72ccff	-0.23711012
55	0xbdecaac2	-0.11556007
56	0x3bae943e	0.0053277304
57	0xbddec2f2	-0.108770266
58	0x3e8f0d55	0.2793986
59	0xbce740a8	-0.028229073
60	0x3da556d0	0.08073199
61	0x3efd22e6	0.49440688
62	0x3e343303	0.17597584
63	0x3e6e6830	0.23281932
64	0x3d931b1a	0.071829036
65	0xbe03b02c	-0.12860173
66	0x3f0ac5e0	0.54208183
67	0xbeb6a567	-0.35673067
68	0x3da7d130	0.08194196
69	0x3ec3a86f	0.38214442
70	0xbedfb85e	-0.43695349
71	0x3e3539d9	0.17697848
72	0x3debfdf8	0.1152305
73	0x3df7668f	0.120801084
74	0x3ee76b4c	0.4519905
75	0xbd9912a0	-0.074742556
76	0x3dfb3fa1	0.122679956
77	0x3df5d68c	0.12003812
78	0xbdd1791a	-0.102281764
79	0x3f1909d8	0.59780645
80	0xbd4664f9	-0.04843614
81	0x3e1e8e39	0.15483941
82	0x3e1f1ae5	0.15537603
83	0x3dd45826	0.103683755
84	0xbcb7c272	-0.022431586
85	0xbacbcc0a	-0.0015548479
86	0xbe127a13	-0.1430438
87	0xbe16bfec	-0.1472165
88	0x3d14b9c1	0.03630996
89	0x3e42cb55	0.19022878
90	0x3e12a5d2	0.14321068
91	0x3ec09fc1	0.37621883
92	0x3edd4f82	0.43224722
93	0x3e80719a	0.2508667
94	0xbe5e4c36	-0.2170876
95	0x3e329f63	0.17443614
96	0xbdcae6d0	-0.09907305
97	0x3de20f94	0.110381275
98	0x3de1aad7	0.11018913
99	0x3dad594a	0.08464296
100	0xbdf2803b	-0.11840864
101	0x3e362282	0.17786601
102	0xbd301b98	-0.042995065
103	0xbe742ccd	-0.23845215
104	0x3d17d058	0.037063926
105	0xbd98df88	-0.0746451
106	0x3efb658e	0.49100918
107	0xbdcef2dc	-0.101049155
108	0xbe2bf33b	-0.16792004
109	0x3f134f39	0.5754276
110	0xbdddcace	-0.108296975
111	0xbe0e8552	-0.13918045
112	0xbe58ca29	-0.21170868
113	0x3ef0e091	0.4704633
114	0xbde3be3a	-0.11120267
115	0xbe59888b	-0.21243493
116	0x3dcd70dc	0.10031292
117	0x3a601097	0.0008547394
118	0x3e0a6648	0.1351558
119	0x3e9ecff6	0.31018037
120	0xbc2f83d8	-0.010712586
121	0xbe2dec26	-0.16984615
122	0x3e35da4b	0.17759053
123	0xbce7de68	-0.028304294
124	0x3c81aa68	0.015828326
125	0x3f19bd47	0.6005444
126	0xbdd29fc8	-0.10284382
127	0x3e73e38b	0.2381727
128	0x3d91533b	0.07095953
129	0xbe01bc59	-0.12669505
130	0x3f124a88	0.57144976
131	0xbec84c2b	-0.39120612
132	0x3e0b8d6d	0.13628168
133	0x3ebf9629	0.3741925
134	0xbee4a224	-0.44654953
135	0x3e3f3a47	0.18674575
136	0x3ddc2ee0	0.10751128
137	0x3dc97d4a	0.0983835
138	0x3ef566e6	0.47930068
139	0xbe2c7edd	-0.1684527
140	0x3d3e0538	0.046391696
141	0x3de02f36	0.10946505
142	0xbdfcec9b	-0.123498164
143	0x3f12ab76	0.5729288
144	0xbcc55f95	-0.024093429
145	0x3e1eee22	0.15520528
146	0x3e10f454	0.14155704
147	0x3dd4ebb2	0.10396518
148	0x3d6915c2	0.056905515
149	0x3cc8d6d5	0.024516502
150	0xbd9efed4	-0.07763448
151	0xbe272ecf	-0.1632645
152	0xbc05b215	-0.008160134
153	0x3e234853	0.15945558
154	0x3e07f641	0.13277532
155	0x3edae5e5	0.4275352
156	0x3ed56b45	0.41683403
157	0x3e7fad10	0.24968362
158	0xbea45d5d	-0.3210248
159	0x3e45fe6a	0.19335333
160	0xbde3caac	-0.11122641
161	0x3e2c5587	0.16829501
162	0x3ddfce4f	0.10928022
163	0x3d9d925d	0.07693932
164	0xbe012ea7	-0.12615453
165	0x3e39147f	0.18074225
166	0x3ccbfa4a	0.02489962
167	0xbe3c50f6	-0.18390259
168	0xbdb085d6	-0.08619277
169	0xbda41eaa	-0.08013661
170	0x3ef1316b	0.47108015
171	0xbdc850dc	-0.09781048
172	0xbe10a147	-0.14124022
173	0x3f07e9c0	0.5309105
174	0xbdcee81b	-0.10102864
175	0xbe0f164d	-0.13973351
176	0xbe73aae3	-0.23795657
177	0x3f018c58	0.5060477
178	0xbc970683	-0.018435722
179	0xbe449b4a	-0.19199863
180	0xbda2af25	-0.079435624
181	0x3c9469b5	0.018116811
182	0x3e16da45	0.147317
183	0x3e9be5ac	0.30448663
184	0xbd584203	-0.05279733
185	0xbe3b13fd	-0.18269344
186	0x3e1b5035	0.15167315
187	0xbd5e4874	-0.054268315
188	0xbd113640	-0.035452127
189	0x3f15b247	0.58475155
190	0xbe5f1d5f	-0.21788548
191	0x3e85a23b	0.26100335
192	0x3da81b18	0.08208293
193	0xbe1beda1	-0.15227367
194	0x3f0e1548	0.5550122
195	0xbea330c1	-0.31873134
196	0xbd788df3	-0.06068225
197	0x3ecc3dfd	0.39891043
198	0xbef12e8a	-0.4710582
199	0x3e43db97	0.19126736
200	0x3df653a1	0.1202767
201	0x3dbe8587	0.09302812
202	0x3f0379a1	0.51357466
203	0xbd80da1e	-0.062916026
204	0x3c5b4cea	0.013385037
205	0x3cf8143d	0.030283088
206	0xbd2416c8	-0.04006079
207	0x3ee428ad	0.44562283
208	0xbd7f33f0	-0.06230539
209	0x3e00ecba	0.12590304
210	0x3e52ca60	0.20585012
211	0x3d92caf2	0.07167615
212	0xbd909e7d	-0.07061479
213	0xba60abd4	-0.0008570526
214	0xbd078265	-0.03308334
215	0xbe60522b	-0.21906345
216	0xbb0f513d	-0.002186849
217	0x3e40ff8f	0.18847488
218	0x3dd2674e	0.1027361
219	0x3ed4ed49	0.41587284
220	0x3ed8cb09	0.42342404
221	0x3e8d0b50	0.27547693
222	0xbbb32356	-0.005466859
223	0x3e7841dc	0.24243873
224	0x3c4f3e31	0.012649105
225	0x3e1351f4	0.14386731
226	0x3e0e0b2a	0.13871446
227	0x3d80b46c	0.06284413
228	0xbd64e719	-0.055884454
229	0x3e060101	0.1308632
230	0x3db7f6e5	0.08982638
231	0xbe478aef	-0.19486593
232	0xbde631b7	-0.11239951
233	0xbe680b07	-0.22660457
234	0x3ee9cfc1	0.45666316
235	0xbd443d94	-0.047910288
236	0xbe0f278e	-0.13979933
237	0x3f039343	0.5139658
238	0xbd9053ce	-0.070472345
239	0xbe1cc54d	-0.1530964
240	0xbe63e776	-0.22256264
241	0x3f100ffd	0.56274396
242	0xbca71516	-0.020395797
243	0xbe61f40e	-0.22065756
244	0x3c4170d7	0.011806688
245	0xbce51ec7	-0.027968777
246	0x3e17f303	0.14838795
247	0x3ea994af	0.3312125
248	0xbca3eafc	-0.02000951
249	0xbe1b658f	-0.1517546
250	0x3e288e9b	0.1646065
251	0xbdaeeeaf	-0.08541619
252	0xbd764ede	-0.060133807
253	0x3f0cfeee	0.5507649
254	0xbebf9371	-0.37417176
255	0x3e804ee3	0.25060186

final.bias f4 [6]
0	0x4026bd2a	2.6052957
1	0x4024c301	2.574402
2	0x3fdb50c2	1.713402
3	0x3fbf12c9	1.4927608
4	0x3f9864b1	1.1905729
5	0x3f68f0d4	0.90992475
