D2QN_AAAI_REWARD/checkpoint_d2qn_-50_1000_cheetah_50.pth (torch, 45655 bytes, 6 tensors)

fc1.weight f4 [128, 17]
0	0xbeb507c0	-0.35357475
1	0x3e41bf9b	0.18920748
2	0xbfa95678	-1.3229513
3	0x3f2a0777	0.6641764
4	0xbf3a5064	-0.72778916
5	0xc048ff4d	-3.1405823
6	0xbf35f341	-0.710743
7	0x3e95d7c4	0.2926618
8	0x3f319fa5	0.69384223
9	0xbf125491	-0.5716029
10	0xbf4edf36	-0.8080934
11	0xbe7274fc	-0.23677438
12	0xbdbe6d90	-0.09298241
13	0xbc844f54	-0.016151108
14	0xbe0e913c	-0.1392259
15	0x3b3c2f06	0.0028714552
16	0x3d59d176	0.053178273
17	0x3ebd53a6	0.3697788
18	0xc0131aec	-2.2985182
19	0x3e487d50	0.19579053
20	0x3edef096	0.43542928
21	0x3ef00691	0.4688001
22	0xbf44e68c	-0.76914287
23	0x3f1052d2	0.56376374
24	0xbf06f9d3	-0.5272495
25	0xbff8f2f6	-1.9449146
26	0x3e8ba62f	0.27275226
27	0xbfe69324	-1.8013654
28	0xbde11e2b	-0.10992082
29	0x3d0e7b08	0.0347853
30	0xbee858a6	-0.45380133
31	0xbd1b290d	-0.037880946
32	0x3d3f6f2e	0.04673689
33	0xbe2958f9	-0.16537847
34	0xc0a9d08c	-5.3067074
35	0xbf2ba3a4	-0.6704657
36	0xbf35b9b2	-0.70986474
37	0xbe2eaa25	-0.17057092
38	0xbeabac19	-0.33529738
39	0x3ef27685	0.47356048
40	0x3f8fce64	1.123486
41	0x3f0eba6d	0.55753213
42	0x3e507fc3	0.20361237
43	0xbf06a7cd	-0.52599794
44	0xbd718241	-0.05896211
45	0xbd1ed1ca	-0.03877429
46	0xbce11f7d	-0.027480835
47	0xbb0b42b3	-0.0021249473
48	0xbe04baa9	-0.1296183
49	0x3c540930	0.012941644
50	0x3d31b262	0.04338301
51	0x404875e2	3.132195
52	0x3f066221	0.5249348
53	0xbf0d555d	-0.5520838
54	0xc0040125	-2.0625699
55	0x3f6c66f2	0.9234458
56	0x3d9c3967	0.07628136
57	0xbf511c6e	-0.81684005
58	0x3cd62bf4	0.026144005
59	0xbf72554a	-0.9466139
60	0x3ff57737	1.9177006
61	0x3ef11ebc	0.4709376
62	0x3e118c98	0.14213789
63	0x3db42e81	0.087979324
64	0x3e9001b1	0.2812629
65	0x3e76dcbb	0.2410764
66	0x3ddade2e	0.10686909
67	0x3d6969f9	0.05698583
68	0xc03966cb	-2.896899
69	0x3f6c8251	0.9238635
70	0xbf91159f	-1.1334723
71	0xbf2927be	-0.66076267
72	0xbfa7564b	-1.307321
73	0xbebbb8a1	-0.36664298
74	0x3f3fe135	0.74953014
75	0x3f18f99c	0.59755874
76	0x3ee59fb2	0.448484
77	0xbf20bbb9	-0.6278644
78	0x3f35916c	0.7092502
79	0x3c8f2c20	0.017477095
80	0xbbb86cf5	-0.005628223
81	0x3c2c872c	0.010530274
82	0x3c7bb30f	0.015362515
83	0x3e494f71	0.1965921
84	0x3d9cbd7a	0.07653327
85	0xc0b9b24d	-5.803015
86	0xbf2f2119	-0.6840988
87	0xbf86e8bc	-1.0539775
88	0xbf55508a	-0.8332602
89	0xbf08d8e9	-0.5345598
90	0x3da8e820	0.08247399
91	0x3eaadd98	0.33372188
92	0x3e04be36	0.12963185
93	0xbdb6f12c	-0.08932719
94	0xbf0ff566	-0.56233823
95	0xbc1b42dd	-0.009476391
96	0x3d0fd504	0.035115257
97	0x3c28467b	0.01027071
98	0x3d0f4c10	0.03498465
99	0xbe07a3b0	-0.13246036
100	0xbdaf0553	-0.085459374
101	0xbd672287	-0.056429412
102	0x3fd022d0	1.6260624
103	0x3d7fd637	0.06246015
104	0xc00c65f9	-2.193724
105	0xc00f78ea	-2.241755
106	0xc016719a	-2.3506837
107	0xbe8b8d6a	-0.27256328
108	0xbdf650a7	-0.12027102
109	0x3dc9d939	0.09855885
110	0xbf23d816	-0.64001596
111	0x3fbb9022	1.4653361
112	0x3f5cb115	0.86207706
113	0x3e592621	0.21205951
114	0x3e16ff42	0.1474581
115	0x3dc98861	0.09840465
116	0x3e182dd4	0.14861232
117	0x3de245bf	0.11048459
118	0xbdda8f50	-0.10671866
119	0x3f41da2a	0.75723517
120	0x3f73f530	0.95296
121	0x3ffdbccb	1.982324
122	0x3f334332	0.70024407
123	0x3f3c7ffc	0.7363279
124	0xbfa5aaae	-1.2942712
125	0xbf6376ff	-0.8885345
126	0xbf00e9d7	-0.5035681
127	0x3e7c105e	0.24615619
128	0xbf825fee	-1.0185525
129	0xbf7344cb	-0.95026845
130	0xbe9ea02b	-0.30981573
131	0x3d5750c5	0.052567262
132	0xbde0e7e8	-0.109817326
133	0x3dc12f7c	0.09432885
134	0x3cfe1164	0.031014152
135	0xbe2d0d5a	-0.16899624
136	0xbf770507	-0.96492046
137	0x3f6fb4a5	0.93635017
138	0x3f9a16ed	1.2038246
139	0x3fc59172	1.5435011
140	0x3f86f2fb	1.0542902
141	0xbf1652f1	-0.5872031
142	0x3f0c02f4	0.54692006
143	0x3f0c1bf8	0.54730177
144	0xbf2fbb34	-0.68645024
145	0x3e816d12	0.25278527
146	0xbed2dc7b	-0.41183838
147	0xbdab2112	-0.08355917
148	0xbde0a122	-0.10968234
149	0x3e08f592	0.13374928
150	0x3d1966fb	0.037451725
151	0xbd9002d8	-0.070317924
152	0xbc553bf2	-0.01301478
153	0xbefcda9b	-0.49385533
154	0xbfc0cff0	-1.5063457
155	0xc011d466	-2.2785888
156	0xbfd23755	-1.6423136
157	0xbf8ca534	-1.0987916
158	0xbeefff6a	-0.46874553
159	0xbf119f3f	-0.56883615
160	0xbc12ed6c	-0.008967739
161	0x3e962bd7	0.29330322
162	0xbe5c59c0	-0.21518612
163	0x3d0635ae	0.032766037
164	0xbd3495a4	-0.04408802
165	0xbd275cae	-0.04085987
166	0xbdab9733	-0.08378448
167	0xbd872223	-0.06598308
168	0xbc6ef39f	-0.014584451
169	0x3d102d49	0.035199437
170	0x40d247df	6.5712733
171	0x3e920b01	0.2852402
172	0x3f4150be	0.7551383
173	0xbd598ae2	-0.053110965
174	0xbeba0d92	-0.36338478
175	0x3f74242d	0.953677
176	0x3f4d9c3f	0.8031654
177	0x3ec29598	0.38004756
178	0xbe10e0bf	-0.14148234
179	0xbf0890ea	-0.5334612
180	0x3e5762b6	0.21033749
181	0x3c910123	0.017700737
182	0xbcad1176	-0.02112649
183	0x3d290aa9	0.041269932
184	0xbc534962	-0.012895914
185	0xbc148e92	-0.009067195
186	0xbce019f8	-0.027356133
187	0xc0afe927	-5.497211
188	0xc08f4586	-4.4772367
189	0x3f066848	0.5250287
190	0x3f427666	0.7596191
191	0xbeee1945	-0.46503654
192	0xbfb1b8ae	-1.3884485
193	0xc01b44c9	-2.4260733
194	0xbf973cf3	-1.1815475
195	0x3eeae65d	0.45878878
196	0xbf9f5291	-1.2447072
197	0xbe4ffb5f	-0.20310734
198	0xbd76f888	-0.06029561
199	0xbb134091	-0.0022468904
200	0x3d9c19cf	0.0762211
201	0xbcf214f0	-0.029551
202	0xbd54b10e	-0.051926665
203	0xbb9b74cf	-0.0047441493
204	0xc077416c	-3.863368
205	0x40031a14	2.0484667
206	0xbf63bfad	-0.8896435
207	0x3e70cc0c	0.23515338
208	0x3c6e5750	0.014547184
209	0xbe559e10	-0.20861077
210	0x3f314c4a	0.6925703
211	0xbf0669f8	-0.52505445
212	0x3db6d049	0.08926446
213	0xbe9beaa6	-0.3045246
214	0xbe8f5293	-0.27992687
215	0xbb710abc	-0.003678008
216	0xbd45c184	-0.048280254
217	0xbd7a7c3a	-0.061153628
218	0x3c791ced	0.01520465
219	0xbaa4a0a3	-0.001256008
220	0xbd91c715	-0.0711805
221	0x4059e1a6	3.4043975
222	0x3e88046f	0.26565883
223	0xbf6dd001	-0.92895514
224	0xbf578897	-0.84192795
225	0xbf7431a8	-0.9538827
226	0xbf852727	-1.0402573
227	0xbd0f8f5b	-0.035048824
228	0x3d0d7c4e	0.034542374
229	0x3f8082b0	1.0039883
230	0x3ff79d81	1.9344941
231	0xbf07385a	-0.5282036
232	0xbd4b9a23	-0.049707543
233	0x3d2d21fb	0.042268734
234	0xbd0cb1b4	-0.03434916
235	0x3e3b59b0	0.18295932
236	0x3c5e9a6f	0.0135866245
237	0xbda718b1	-0.081590064
238	0xc0665ff9	-3.5996077
239	0x3fb70fef	1.4301738
240	0x3ed4fe0d	0.41600075
241	0xbe9ae3a5	-0.30251804
242	0xbe53c218	-0.2067951
243	0xbf0db15a	-0.5534874
244	0x3eb065df	0.3445272
245	0x3e29d128	0.16583693
246	0x3ef017db	0.468932
247	0xbf299b35	-0.6625245
248	0x3d53eaba	0.051737525
249	0xbcad587d	-0.021160359
250	0xbc8b95ea	-0.017039258
251	0x3c3e1a0a	0.011602888
252	0xbd5e35a8	-0.05425039
253	0xbaf5a8a4	-0.0018742275
254	0x3c72a26e	0.014809234
255	0xbf9205a1	-1.1407968

fc1.bias f4 [128]
0	0x3df6c0c5	0.120484866
1	0xbfb37ec4	-1.4023061
2	0xbff8c88e	-1.9436204
3	0xbf2e53b3	-0.68096465
4	0xc008a48a	-2.1350427
5	0xbfdcebcc	-1.725946
6	0xbf29e515	-0.66365176
7	0xbfe29dd6	-1.7704418
8	0xc0012e33	-2.0184448
9	0x3ffba368	1.9659243
10	0x3f083a33	0.53213805
11	0xbf87cea3	-1.0609936
12	0xbfe89f0d	-1.8173538
13	0xbe151239	-0.14557733
14	0xbff21381	-1.8912202
15	0xbf1e7135	-0.6189149
16	0xbfad4a08	-1.3538218
17	0xbfabb18b	-1.3413557
18	0xbeede35b	-0.4646252
19	0xbf3b82ad	-0.7324627
20	0xbfe88294	-1.8164849
21	0x3f17bca0	0.59272194
22	0x3ddfd034	0.109283835
23	0xbf2867ad	-0.65783197
24	0xbfc120ec	-1.5088172
25	0xbf77d257	-0.9680533
26	0x4037d866	2.872583
27	0x3eead7af	0.4586768
28	0xbf9c4387	-1.2208108
29	0x4032b757	2.7924402
30	0xbfdcddf3	-1.7255234
31	0xbff460a6	-1.9091995
32	0xc0075a6c	-2.114894
33	0xbf991782	-1.1960299
34	0xbef39ac3	-0.4757901
35	0xbf685a39	-0.9076267
36	0xc00aa436	-2.1662726
37	0xc00cf22f	-2.2022817
38	0xbf458313	-0.7715313
39	0xbfb005ad	-1.3751732
40	0x3fa7c8f1	1.3108197
41	0xbf83d180	-1.0298309
42	0xbfced7c7	-1.61596
43	0xc00ea95d	-2.229087
44	0x3fad42c6	1.3536003
45	0xc0037afb	-2.0543811
46	0xbf33e8d1	-0.70277125
47	0xbf3b33e2	-0.7312604
48	0xbfea4105	-1.8301092
49	0xbfb8ab40	-1.4427261
50	0x3f4e8de2	0.80685246
51	0xbff41700	-1.9069519
52	0x402f871a	2.742621
53	0xbfd23ed2	-1.6425421
54	0xbfc470a5	-1.5346876
55	0xbf36e12d	-0.7143734
56	0xc00074bf	-2.0071256
57	0xbff0068f	-1.8752002
58	0xbfddbffc	-1.7324214
59	0xbf30090d	-0.6876381
60	0x4013325a	2.2999482
61	0xbebe7700	-0.37200165
62	0xbefb1172	-0.49036747
63	0x3f9d1480	1.2271881
64	0xbe2ff91a	-0.17184868
65	0xbf98ee19	-1.1947662
66	0xbff546c5	-1.9162222
67	0xbfd613a3	-1.6724743
68	0xbfd4218b	-1.6572737
69	0xc018aa92	-2.3854108
70	0xc006ee75	-2.1083043
71	0x3fa77b93	1.3084587
72	0xbfae472e	-1.3615472
73	0xbfdbaa58	-1.716136
74	0xbec0d8e8	-0.37665486
75	0x402e6a57	2.7252405
76	0x3fb6b129	1.4272815
77	0x3ea67dea	0.3251794
78	0xbf94e66e	-1.1632822
79	0x4025aafc	2.588561
80	0x3e7250b1	0.23663594
81	0x3f7f4df3	0.99728316
82	0xbfaf0313	-1.3672813
83	0x3e90a174	0.2824818
84	0xbf3a58b8	-0.72791624
85	0xbfdc2eb7	-1.7201756
86	0x403aa7bf	2.9164884
87	0xbfdee0f0	-1.7412395
88	0xbe1e2a75	-0.15445884
89	0xc0048079	-2.0703413
90	0x401ecab6	2.4811225
91	0xbed62770	-0.41826963
92	0xbc1bbcd7	-0.009505472
93	0x3e7bbd8d	0.24584027
94	0x3ecb74e4	0.39737618
95	0x3f4cbebb	0.7997853
96	0x4023eb61	2.5612414
97	0xbfbc8411	-1.4727803
98	0xbfe9f7c4	-1.8278737
99	0x3fd852c4	1.6900258
100	0xbcffb70c	-0.031215213
101	0xbf4a555f	-0.79036516
102	0xbf036dc9	-0.51339394
103	0x40011caf	2.0173757
104	0xbea85b84	-0.3288232
105	0xbf32d8bf	-0.6986198
106	0xbf575c9e	-0.841257
107	0xbfb3b9a7	-1.4041032
108	0x3f5de93e	0.86684024
109	0xbff084de	-1.8790548
110	0xbfe919a2	-1.8210948
111	0x3e71fa46	0.23630628
112	0xbf0e6054	-0.55615735
113	0xbff9250e	-1.9464433
114	0x3fb78c57	1.4339703
115	0xbfa1546f	-1.2603892
116	0x3fb38378	1.4024496
117	0x3f482e5a	0.78195727
118	0x3da5cd74	0.08095828
119	0xbdead999	-0.11467285
120	0xbff5f9ec	-1.9216895
121	0xbf26d238	-0.6516452
122	0x402a9e19	2.6658995
123	0xbfd642b2	-1.6739104
124	0xbfd11e70	-1.6337414
125	0xc02cd137	-2.7002695
126	0x3f0d98cc	0.55311275
127	0x3ff993fb	1.9498285

fc2.weight f4 [64, 128]
0	0x3f969659	1.1764632
1	0x3fa0ae36	1.2553165
2	0xbf63ab96	-0.88933694
3	0xbed537ec	-0.41644228
4	0x3d13b46c	0.036060736
5	0xbf05d128	-0.5227227
6	0x3ece1d23	0.40256605
7	0xbec7e102	-0.39038855
8	0xbda2415a	-0.07922621
9	0xbf0e353a	-0.5554997
10	0x3f521661	0.820654
11	0x3f625c70	0.884223
12	0x3d2428f7	0.04007813
13	0xbfa1b07e	-1.2631986
14	0x3ead02c5	0.33791175
15	0xbd70bb56	-0.058772407
16	0x3df964bc	0.12177417
17	0xbf17ffe8	-0.59374857
18	0xbf40e534	-0.75349736
19	0x3d2b9cf7	0.04189774
20	0x3e985ce0	0.29758358
21	0xbf1181cb	-0.56838673
22	0x3f462d69	0.7741304
23	0x3e78f095	0.24310525
24	0xbf4fb5db	-0.81136864
25	0xbfc74c61	-1.5570184
26	0xbdf132a8	-0.1177724
27	0xbd1e195e	-0.03859841
28	0x3f99e293	1.202227
29	0x3daf853b	0.085703336
30	0x3f087f89	0.53319603
31	0x3ed2f94f	0.41205832
32	0xbde06ae7	-0.1095789
33	0x3e0a5a54	0.1351102
34	0xbf38e326	-0.722216
35	0x3f681284	0.9065325
36	0xbf38e037	-0.72217125
37	0x3e8f001e	0.27929777
38	0xbd23bd74	-0.0399756
39	0xbeb96425	-0.36209217
40	0x3f003333	0.50078124
41	0x3f0df422	0.5545064
42	0x3f9217aa	1.1413472
43	0x3d8a351b	0.0674841
44	0x3e085886	0.13315019
45	0x3e0df32d	0.13862295
46	0x3f88a748	1.067605
47	0xbfc0c281	-1.5059358
48	0x3dcc6eca	0.09982069
49	0xbf0885b2	-0.53329
50	0xbe49aa15	-0.19693787
51	0x3d1e3a2c	0.038629696
52	0x3e895998	0.26826167
53	0x3bac4ba8	0.0052580424
54	0x3e8b941b	0.27261433
55	0xbe712da7	-0.23552571
56	0x3f082594	0.5318234
57	0x3d9a8717	0.075452976
58	0xbe10cde5	-0.14141043
59	0xbf5fde75	-0.8744882
60	0xbe8d0008	-0.27539086
61	0x3fa6478d	1.2990586
62	0xbfae4470	-1.3614635
63	0x3c9a02e0	0.018800199
64	0xbf7d61e2	-0.9897748
65	0xbd96280a	-0.073318556
66	0xbf90c195	-1.1309077
67	0x3f28ddf7	0.6596369
68	0x3eed485d	0.4634427
69	0x3f47ebe9	0.78094345
70	0xbf40ee86	-0.7536396
71	0xbfdb6347	-1.7139672
72	0xbec65efd	-0.38744345
73	0xbf412560	-0.75447655
74	0xbd5aca69	-0.05341569
75	0x3d2ff3d9	0.04295716
76	0xbed8e9fa	-0.4236601
77	0xbf7f2f3f	-0.99681467
78	0x3f936a00	1.1516724
79	0x3e16976e	0.14706203
80	0xbf4e5f13	-0.8061382
81	0xbe892dfa	-0.2679289
82	0x3db987ea	0.09059127
83	0xbf85758a	-1.0426495
84	0xbf8cbf7a	-1.0995934
85	0xbd91dd19	-0.07122249
86	0x3ea6fb1c	0.32613456
87	0x3d13beab	0.036070507
88	0x3f1896f0	0.5960531
89	0xbf3e074f	-0.742299
90	0xbe244735	-0.16042788
91	0x3f32e37c	0.69878364
92	0xbea84695	-0.3286635
93	0xbf1ad137	-0.60475487
94	0xbf136c87	-0.57587475
95	0x3cd3275a	0.0257756
96	0xbe6b867f	-0.23000525
97	0xc01fb532	-2.4954343
98	0xbf10965f	-0.5647945
99	0x3e755de3	0.23961596
100	0x3ea359ad	0.31904355
101	0xbfd4da47	-1.6629113
102	0x3db6d41f	0.08927178
103	0xbdb598cc	-0.08867034
104	0xbfd4b18b	-1.6616682
105	0x3f813c52	1.0096533
106	0xbe53100e	-0.20611593
107	0xbf37e5b9	-0.71834904
108	0xbebbf940	-0.367136
109	0x3e9b3fe5	0.30322185
110	0x3e392140	0.1807909
111	0xbf1af4a4	-0.6052954
112	0xbe2b6b3b	-0.16740124
113	0xbed5ab8b	-0.4173244
114	0x3edf8bbf	0.43661305
115	0x3eadb50a	0.33927184
116	0x3d0470e6	0.03233423
117	0xbfd6f547	-1.6793603
118	0xbfdf642a	-1.7452443
119	0x3f26c194	0.65139127
120	0x3eaa6220	0.33277988
121	0xbe88e398	-0.2673614
122	0xbf9bb6ea	-1.2165196
123	0xbdb1f64d	-0.08689556
124	0xbea65995	-0.3249022
125	0xbf50e3a0	-0.8159733
126	0x3d32c6c1	0.043646578
127	0xbf6c65f1	-0.9234305
128	0xbd54686c	-0.051857397
129	0x3d06a195	0.03286894
130	0x3c27c520	0.010239869
131	0x3d4a70f0	0.04942411
132	0x3cc19fec	0.023635827
133	0xbdbf30d5	-0.09335486
134	0xbd4feff1	-0.050765935
135	0xbda22ec6	-0.079190776
136	0x3ba1c4dd	0.004936798
137	0xbc045993	-0.008077997
138	0xbd48b576	-0.04900118
139	0xbd8b3ea7	-0.06799059
140	0xbdec5956	-0.11540477
141	0x3d9abe64	0.075558454
142	0xbceb9711	-0.028758558
143	0xbcaff382	-0.021478418
144	0xbdb370df	-0.08761763
145	0xbce82871	-0.028339596
146	0x3cd32e65	0.025778959
147	0x3cb5214b	0.022110602
148	0xbd556c40	-0.05210519
149	0xbd95e9ae	-0.073199615
150	0x3dbbcde2	0.091701284
151	0xbdadf067	-0.08493119
152	0xbe0b9c55	-0.13633855
153	0xbd3b1daf	-0.045682605
154	0x3d99fc34	0.07518807
155	0x3d04caef	0.032420095
156	0x3c804822	0.015659396
157	0xbd03c742	-0.03217245
158	0x3d16fe1a	0.036863424
159	0xbdb3379b	-0.0875084
160	0x3c5ce6cb	0.01348276
161	0x3ce56bb4	0.028005458
162	0xbcf7517d	-0.030190224
163	0x3c25a159	0.010109269
164	0xbd9d940c	-0.07694253
165	0x3d338a0f	0.043832835
166	0x3c6b3e3d	0.0143581005
167	0xbde31792	-0.1108848
168	0xbdf7562b	-0.12076982
169	0xbcd70d0e	-0.026251342
170	0x3ce95dcb	0.028487107
171	0xbd2f5aa6	-0.04281106
172	0x3d7b5d7f	0.06136846
173	0xbd5c1817	-0.05373391
174	0xbd6dc25a	-0.058046676
175	0x3cfdeaba	0.030995715
176	0xbddbcbaa	-0.10732205
177	0x3bb68d6a	0.005571057
178	0xbd1de2a9	-0.038546238
179	0xbcc822c5	-0.024430642
180	0xbde1c0e6	-0.110231206
181	0xbda9b786	-0.082869574
182	0x3b647565	0.0034860012
183	0xbd9ef2f7	-0.077611856
184	0xbda310c5	-0.07962183
185	0xbd23469a	-0.039862253
186	0xbdb5add8	-0.08871049
187	0xbcc7bb24	-0.024381228
188	0x3c6d4075	0.0144807
189	0x3dbb1a82	0.09135915
190	0xbdcea434	-0.10089913
191	0xbd23e507	-0.04001334
192	0x3d45ef4f	0.048323926
193	0x3d85f0ec	0.06540093
194	0xbd5fee31	-0.054670516
195	0x3c74b5d3	0.014935928
196	0xbcd9c3f4	-0.026582696
197	0x3cae39ba	0.02126776
198	0xbdf3ef2b	-0.11910852
199	0x3d299db0	0.04141015
200	0xbda80146	-0.08203368
201	0xbd87cd6a	-0.066309765
202	0xbca98776	-0.020694476
203	0x3d10bb60	0.035334945
204	0xbd957e9c	-0.072995394
205	0x3c8da1e1	0.017289104
206	0xbcc22262	-0.023698036
207	0xbb78b853	-0.0037951663
208	0x3d5f2eae	0.054487877
209	0xbd18bbfe	-0.03728866
210	0xbda93a77	-0.082631044
211	0xbd9bcee7	-0.07607823
212	0x3cee7b6d	0.029111588
213	0xbdf3be7e	-0.11901568
214	0xbbba6a99	-0.005688977
215	0xbdae987c	-0.08525178
216	0xbd10c878	-0.035347432
217	0x3c7a174c	0.0152643435
218	0xbdd64133	-0.104616545
219	0xbdb8c870	-0.090226054
220	0xbcc6637c	-0.02421736
221	0xbd8297a0	-0.063765764
222	0x3d239d1e	0.03994476
223	0xbdb0665d	-0.08613274
224	0xbd372230	-0.044710338
225	0xbd1edc0e	-0.03878408
226	0xbc9e4c87	-0.0193236
227	0xbdbea9bc	-0.09309718
228	0xbc62a5a9	-0.013833442
229	0x3d520377	0.051272836
230	0x3d94c4bd	0.07264087
231	0xbe05a53d	-0.13051315
232	0xbd2e9500	-0.042622566
233	0xbb421cb1	-0.0029619152
234	0xbcb5bc34	-0.022184469
235	0xbdd15ead	-0.10223136
236	0xbdfe81ca	-0.12427099
237	0xbe280f5d	-0.1641211
238	0xbd652992	-0.055947848
239	0xbd60ca9c	-0.054880723
240	0xbdbce581	-0.09223462
241	0xbdc7b63a	-0.09751554
242	0xbc0ffebe	-0.008788763
243	0x3c3e9a49	0.011633464
244	0xbd53c28c	-0.051699206
245	0x3c68f99a	0.014219666
246	0xbcf4d054	-0.029884495
247	0xbcb9ed3b	-0.022696128
248	0xbdd409ec	-0.10353455
249	0xbd46f99f	-0.0485779
250	0x3d830dcd	0.06399117
251	0xbc9480c1	-0.0181278
252	0xbddde124	-0.10833958
253	0xbdac5fe3	-0.084167264
254	0x3d051627	0.03249183
255	0xbd74fc06	-0.05981066

fc2.bias f4 [64]
0	0x3fa594d1	1.293604
1	0x3d0a10cd	0.03370743
2	0x4052c256	3.2931113
3	0xbffe2551	-1.9855138
4	0x3ae43d79	0.001741334
5	0x4038c1f9	2.8868392
6	0xbf691981	-0.9105454
7	0x40299205	2.6495373
8	0x3f7eba13	0.99502677
9	0xbdab3cae	-0.08361183
10	0x402b39df	2.6754072
11	0xbf6aa1ff	-0.91653436
12	0x3ffbafa5	1.9662977
13	0x3ffc1d53	1.9696449
14	0x3f323eb7	0.69626945
15	0xbf0c2c70	-0.54755306
16	0x3f9d01db	1.2266191
17	0x3fe230c8	1.7671137
18	0x3fb27c05	1.3944098
19	0x3fde1101	1.7348939
20	0xbd5c213a	-0.053742625
21	0xbd3bcc63	-0.045849215
22	0xbf8e16f0	-1.110075
23	0xbf2cc6c8	-0.67490816
24	0xbfad7eae	-1.3554285
25	0x40162b7a	2.3464036
26	0x3e984ad5	0.29744592
27	0x4044dfb3	3.0761535
28	0x404c5233	3.192517
29	0x4019269b	2.3929813
30	0xbf541e08	-0.82858324
31	0xbf06f7ce	-0.5272187
32	0xbe900384	-0.28127682
33	0x3fb27a1b	1.3943514
34	0x3fc2de23	1.5224041
35	0x40632d98	3.5496578
36	0xbfeb413c	-1.8379283
37	0x3ef0d5f7	0.47038242
38	0x3f874757	1.0568646
39	0xbf9049c0	-1.1272507
40	0xbe340f59	-0.1758398
41	0xbd3841a6	-0.044984482
42	0x3fe2843b	1.7696604
43	0xbe8b767f	-0.27238843
44	0xbf77507c	-0.96607184
45	0x4051579c	3.2709723
46	0xbfb44d2c	-1.4086051
47	0xbf0cfb58	-0.5507102
48	0xbe96af5e	-0.2943067
49	0x3f8c7e38	1.0976019
50	0x401a359a	2.4095216
51	0x3fa2d67d	1.2721707
52	0x4046318d	3.0967743
53	0xbdb3e7b7	-0.087844305
54	0x401004cb	2.2502925
55	0x3fd0463e	1.6271436
56	0x4003d066	2.0595946
57	0xbfc9f983	-1.577927
58	0x3d8c6cfa	0.06856723
59	0xbf932333	-1.1495117
60	0xbcc47ef9	-0.023986327
61	0x40326833	2.7876098
62	0x3fba7c70	1.4569225
63	0x402a184a	2.6577325

final.weight f4 [6, 64]
0	0x3e0e4966	0.13895187
1	0xbd8dc18f	-0.06921684
2	0x3f0b5c8f	0.5443811
3	0xbec812ce	-0.39076847
4	0xbe19caa9	-0.15018715
5	0x3ed3565f	0.41276833
6	0xbdc2f4e9	-0.09519369
7	0xbb42cd1d	-0.0029724308
8	0xbdf6b34b	-0.12045916
9	0xbd631250	-0.055437386
10	0x3ea699be	0.3253917
11	0xbda57d02	-0.08080484
12	0x3e088720	0.13332796
13	0x3da2a78e	0.07942115
14	0x3e8c163e	0.2736072
15	0xbef3b0c7	-0.47595808
16	0x3ddae162	0.106875196
17	0x3e268a5e	0.1626372
18	0x3e38fdde	0.18065593
19	0x3e23f7bb	0.1601247
20	0x3dfbe59e	0.122996554
21	0xbecec859	-0.40387228
22	0xbe8834b7	-0.26602718
23	0xbe0311a6	-0.12799701
24	0xbe02b155	-0.1276296
25	0x3e8e0073	0.27734718
26	0xbe04b491	-0.12959506
27	0x3efdcba9	0.49569443
28	0x3eea4c32	0.45761257
29	0x3e08c031	0.13354565
30	0xbe8e70e1	-0.27820495
31	0xbece51e2	-0.40296847
32	0xbeb7fd90	-0.3593564
33	0xbe8bc6d7	-0.2730014
34	0x3c7a1971	0.015264855
35	0x3f25e348	0.6479993
36	0xbbca946d	-0.0061822445
37	0x3a7a90f6	0.0009558344
38	0x3dc494ac	0.095986694
39	0xbe9752c1	-0.29555324
40	0x3d6e0afe	0.05811595
41	0xbd9d5672	-0.07682504
42	0x3e0f31f6	0.13983902
43	0xbdddde5b	-0.108334266
44	0xbe18cb7b	-0.14921372
45	0x3f22679a	0.63439333
46	0xbe15d9bb	-0.14633839
47	0x3a00435d	0.00048928504
48	0x3e01d1ad	0.12677641
49	0x3ddf3d72	0.10900392
50	0x3c2ec846	0.010667866
51	0x3e9308fc	0.28717792
52	0x3edbf05f	0.42956826
53	0x3c0e7dc7	0.00869698
54	0x3e01ad96	0.12663874
55	0x3d0f7a82	0.035028942
56	0x3e0b292b	0.13589923
57	0xbe9d5b96	-0.30733937
58	0x3e043865	0.12912138
59	0xbe4974af	-0.19673418
60	0x3d4399bb	0.04775403
61	0x3e5ea97f	0.21744345
62	0x3e3f52aa	0.18683878
63	0x3ea75c6a	0.32687694
64	0xbc45b87f	-0.012067913
65	0x3b91579c	0.0044354927
66	0x3f179e35	0.5922578
67	0x3d7d5c0b	0.061855357
68	0x3db8aa78	0.09016889
69	0x3ea86d93	0.32896098
70	0xbec1d650	-0.3785882
71	0xbdffaae3	-0.12483766
72	0x3d8bda50	0.06828749
73	0x3de15a5e	0.11003564
74	0x3e534b42	0.20634177
75	0xbe704813	-0.23464994
76	0x3df8019d	0.12109683
77	0xbdbf64a3	-0.09345367
78	0xbdc5782d	-0.09642062
79	0x3db48a5d	0.08815453
80	0xbe146b6c	-0.14494103
81	0x3deedc8e	0.11663161
82	0x3e12a9e1	0.14322616
83	0x3db38251	0.0876509
84	0xbbd6d9e0	-0.0065567344
85	0x3ef877b8	0.48528838
86	0xbcfd46a1	-0.030917468
87	0xbe90e3d3	-0.28298816
88	0xbdfe65de	-0.124217734
89	0x3e52f824	0.2060247
90	0x3e438611	0.19094111
91	0x3ee01fc7	0.43774244
92	0x3ef438d6	0.47699612
93	0x3e955d5a	0.29172784
94	0xbd2de921	-0.042458657
95	0xbe0e2d40	-0.13884449
96	0xbd981be7	-0.07427197
97	0xbd677316	-0.05650624
98	0xbcd91c82	-0.026502851
99	0x3f2cf274	0.67557454
100	0xbed7ffe1	-0.42187408
101	0x3eebeca6	0.46078986
102	0xbd6c497c	-0.057687268
103	0xbd932b30	-0.07185972
104	0xbd82a133	-0.063784026
105	0x3d6fbeeb	0.058531683
106	0x3e4fbe0a	0.20287338
107	0xbdc75c28	-0.09734374
108	0x3e852d40	0.26011086
109	0x3f0c2657	0.54746
110	0xbe05481a	-0.13015786
111	0xbe3d9698	-0.18514478
112	0x3d9dbefd	0.07702444
113	0x3bba4ef8	0.0056856833
114	0x3c23074d	0.009950471
115	0x3d9c2634	0.07624474
116	0x3efcd9c2	0.49384886
117	0xbc22daa6	-0.009939825
118	0x3cc65de3	0.02421469
119	0x3e211ffa	0.15734854
120	0x3d3e1286	0.046404384
121	0xbdd3ffee	-0.10351549
122	0xbe40c4ee	-0.18825123
123	0xbe3c5657	-0.18392311
124	0x3d616cf2	0.05503554
125	0x3eb2e8f5	0.34943357
126	0x3d5784c8	0.052616864
127	0x3ea187e0	0.31548977
128	0xbd97d8b8	-0.07414383
129	0x3d94efe4	0.07272318
130	0x3f24f440	0.64435196
131	0x3da4882f	0.080337875
132	0xbb654f47	-0.003498988
133	0x3eb2985a	0.3488186
134	0xbe9b451a	-0.30326158
135	0x3d4134e8	0.047169596
136	0x3dd0c654	0.10194078
137	0x3d8b89c6	0.068133876
138	0x3e61ee3b	0.22063534
139	0xbe4fe006	-0.20300302
140	0x3de9bd02	0.114130035
141	0xbde41a92	-0.111378804
142	0xbdf59c89	-0.11992747
143	0x3d3b9fd3	0.045806717
144	0xbddb0607	-0.10694509
145	0x3dfeea74	0.12447062
146	0x3e21119d	0.15729375
147	0x3d8b2981	0.067950256
148	0x3d738264	0.059450522
149	0x3d30491d	0.043038476
150	0xbc3526dd	-0.011056629
151	0xbe94fec0	-0.2910061
152	0xbdd9aaac	-0.10628256
153	0x3e6680ec	0.22510117
154	0x3e454ce2	0.1926761
155	0x3efdffa4	0.496091
156	0x3f06bf89	0.5263601
157	0x3e9a3f4e	0.30126423
158	0xbd289b15	-0.041163523
159	0xbddfdd70	-0.10930908
160	0xbd16dc8e	-0.03683143
161	0xbcb1d3ed	-0.0217075
162	0xbe4f162b	-0.202233
163	0x3f1d696f	0.61489004
164	0xbedd39db	-0.43208203
165	0x3ef09124	0.46985734
166	0xbd83b186	-0.06430344
167	0xbd90c78e	-0.07069312
168	0xbe31c9f7	-0.173622
169	0x3d55028a	0.052004375
170	0x3e42e20c	0.19031543
171	0xbd9e86aa	-0.07740529
172	0x3e8839af	0.2660651
173	0x3f093948	0.5360303
174	0xbdd79ce1	-0.10527969
175	0xbeb00200	-0.34376526
176	0x3d8871a4	0.066623
177	0x3ca1dd8d	0.019758964
178	0xbcb7f3c9	-0.022455113
179	0x3d7223bd	0.059116114
180	0x3eebbe6e	0.46043724
181	0x3ca5416f	0.020172803
182	0x3d75408b	0.059876006
183	0x3e2b6c97	0.16740642
184	0xbbf3b1ba	-0.007436958
185	0xbdffb006	-0.12484746
186	0xbdf8f9c7	-0.12157016
187	0xbe48958a	-0.19588295
188	0xbc8905d4	-0.016726412
189	0x3eb41587	0.35172674
190	0x3d690a22	0.05689443
191	0x3eaa48ee	0.33258766
192	0xbd57c9c3	-0.05268265
193	0xbd8b574a	-0.068037584
194	0x3f1f0cb3	0.6212875
195	0x3dc04cb9	0.09389634
196	0x3dc7d6f8	0.09757799
197	0x3eb34c60	0.35019207
198	0xbece67cb	-0.40313563
199	0x3db3acbd	0.087731816
200	0x3daebedf	0.085324995
201	0x3da73ed8	0.08166283
202	0x3e79ff94	0.24413902
203	0xbe56fee1	-0.20995666
204	0x3e075e95	0.13219674
205	0xbdfd7280	-0.12375355
206	0xbe0f9fbf	-0.14025782
207	0x3c962f92	0.01833323
208	0xbdfc0876	-0.12306301
209	0x3e67d324	0.22639138
210	0x3e19e6e6	0.15029487
211	0x3d769a53	0.06020577
212	0xbd1f9076	-0.038956128
213	0x3ebbcf3c	0.36681545
214	0x3c904948	0.017613068
215	0xbe9fa25f	-0.31178567
216	0xbe0d126d	-0.1377656
217	0x3e75ab71	0.23991181
218	0x3e658663	0.22414546
219	0x3edaa561	0.427043
220	0x3f011e46	0.5043682
221	0x3e91186c	0.28338945
222	0x3c8e9c3a	0.017408479
223	0xbdf6dd0c	-0.1205388
224	0x3e34635b	0.17616026
225	0xbe738ece	-0.23784944
226	0xbd10a728	-0.035315663
227	0x3f2a9cfe	0.666458
228	0xbed444ff	-0.4145889
229	0x3ef0a666	0.47001952
230	0xbda1e471	-0.079049
231	0xbc90fe44	-0.017699368
232	0x3d8567e9	0.0651396
233	0x3c528d82	0.012851121
234	0x3e497730	0.19674373
235	0xbda90386	-0.08252625
236	0x3e6541c1	0.22388364
237	0x3f0db334	0.5535157
238	0xbdda4d37	-0.10659259
239	0xbf01d103	-0.5070955
240	0xbd77fefd	-0.06054591
241	0x3c02e568	0.007989265
242	0x3c31f066	0.010860538
243	0x3d9b3590	0.075785756
244	0x3eef524f	0.46742484
245	0xbc880478	-0.016603693
246	0x3ce98d49	0.028509753
247	0x3e3abcf4	0.18236142
248	0xbb9027f3	-0.0043992936
249	0xbe1d8063	-0.15381007
250	0xbe176fb5	-0.14788707
251	0xbe51e036	-0.20495686
252	0xbe26aaa4	-0.16276032
253	0x3ebfe803	0.37481698
254	0x3d6964b9	0.056980822
255	0x3ea2bdec	0.31785524

final.bias f4 [6]
0	0x4027b375	2.6203282
1	0x402b4bcd	2.6765015
2	0x3fda4b5d	1.7054249
3	0x3fb84eef	1.4399089
4	0x3f8ff596	1.1246822
5	0x3f672c6b	0.9030215
