D2QN_AAAI_REWARD/checkpoint_d2qn_-30_1000_cheetah_20.pth (torch, 45655 bytes, 6 tensors)

fc1.weight f4 [128, 17]
0.17771089 0.32370868 -1.2766137 -1.7763265 -1.6845056 -1.060984 -0.30727625 -0.22058736
1.2830789 -2.0234828 -0.14964637 0.12524094 0.038518634 -0.6361011 -0.00033826096 0.22391607
-0.078894734 0.48555785 -3.304069 0.73714334 0.4032909 0.43237588 -0.5599082 0.10931578
-0.14443012 -2.0599558 1.1030035 -1.7450025 -0.07724741 -0.119022764 -0.3395677 0.12916851
0.042549096 0.023962606 -5.984798 -0.5728337 -0.21059243 -0.73464864 0.15811314 -0.07829452
0.43573007 0.40872794 -0.04176377 -0.23745336 -0.00648832 -0.020760907 0.03698558 0.032993216
-0.121285595 -0.08128303 -0.037747756 0.83783466 -1.153064 -0.80948234 -0.5130564 -0.16815528
0.35678104 -0.69998705 -0.3966899 -0.7085344 0.48354164 0.53889257 0.16180076 0.047023363
0.301796 0.188385 0.023547946 0.06734228 0.832565 0.32203004 0.9330035 -0.15551938
-0.66290385 -0.84332126 -1.2011437 0.61463916 -1.1274068 -0.8885482 0.35889968 -0.30990624
-0.18611063 0.5188495 -0.022440378 0.02325216 0.09401209 -1.4783049 1.7450585 -2.871891
-0.9659101 -2.7849002 -1.6021252 -0.1364481 -1.7265899 0.052729078 0.2474608 0.33844265
-0.06656066 0.048408516 0.1213858 -0.27444234 -0.09173905 -0.107707545 0.59801334 -0.860071
-0.75506955 -1.3441839 -1.1142564 0.24575426 0.31701928 0.49420753 -0.22686155 1.6594135
0.59743446 0.28335544 0.13735814 -0.026047574 0.015736993 -0.06823816 -0.060326908 -0.013286088
-0.34996417 -1.7069676 -1.1518502 -1.4478565 -1.1370277 -0.34141436 -0.8397235 -2.2401226
0.029350383 -1.1030443 -0.25741437 0.12837242 -0.13871492 -0.21333444 0.2729406 -0.34842014
6.7040696 1.38712 0.38885528 1.1144402 0.5034071 0.79487014 1.3505862 0.50728416
-0.3226376 -0.06563907 0.096653916 -0.012585945 0.0013821492 0.048976853 -0.06560299 -0.0031022993
-0.027520414 0.90420717 -0.24033362 -0.6684381 -0.45164227 -0.5135042 -0.10112672 -0.024259252
-0.094889395 0.16618784 -0.1964232 -0.18195109 -0.036692757 -0.0025847591 -0.03403456 -0.070410736
-0.061153065 -0.010094729 4.093226 -1.2362416 0.052124586 -0.4801185 -0.7166279 1.4291823
0.4830447 0.3620508 -0.8347394 0.078522995 0.25726652 0.08321033 0.14590307 -0.042803656
-0.021283435 0.0759229 -0.003632219 0.3103851 -1.9242524 0.19348009 -0.25781453 -0.30388585
-0.78304106 -1.0790743 -0.79116255 -1.4684355 0.85395163 -0.2994066 -0.09253486 0.06860442
0.2678138 -0.12617211 0.04312095 -0.130951 1.2963552 2.0957117 1.125577 0.85339785
0.6432718 -0.7724552 0.3482778 0.7551653 -0.0031840955 -0.7982113 -0.8295819 -0.1917575
-0.14510494 -0.04187442 -0.011228635 -0.14522782 0.030075314 6.4690824 -1.5009626 -0.13832486
0.60519135 -0.25588706 -1.6129662 -0.56989497 -0.99692273 0.13166656 -0.030401334 -0.33483192
-0.0788119 -0.019507963 -0.052355666 -0.106083624 0.063115194 -0.02653316 -1.9639689 2.0738978
2.1379635 0.08027898 -0.0061201337 -0.6768847 0.025044682 -0.54247665 -0.09966977 -0.7781094
-0.09799703 -0.069859795 0.0025603103 0.068221405 0.006002804 -0.24176514 0.13970707 -1.5380234
00000000: d8f9 353e 25bd a53e 1468 a3bf ab5e e3bf
00000010: e19d d7bf 53ce 87bf 5053 9dbe a7e1 61be
00000020: ee3b a43f be80 01c0 e63c 19be 293f 003e
00000030: b7c5 1d3d 86d7 22bf 9e58 b1b9 414a 653e
00000040: 9093 a1bd 0a9b f83e de75 53c0 6db5 3c3f
00000050: 257c ce3e 5f60 dd3e 2556 0fbf f4e0 df3d
00000060: 7de5 13be 51d6 03c0 382f 8d3f 3e5c dfbf
00000070: e433 9ebd 35c2 f3bd d1db adbe c044 043e
00000080: f647 2e3d 3a4d c43c 7783 bfc0 3ba5 12bf
00000090: 8ba5 57be ef11 3cbf 69e8 213e e158 a0bd
000000a0: 0318 df3e ca44 d13e 7d10 2bbd f926 73be
000000b0: f99b d4bb c712 aabc 317e 173d e523 073d
000000c0: 9564 f8bd b877 a6bd 649d 1abd 557c 563f
000000d0: 9a97 93bf 3c3a 4fbf aa57 03bf e630 2cbe
000000e0: 01ac b63e 5a32 33bf f01a cbbe 8362 35bf
000000f0: c592 f73e ddf4 093f 19af 253e 929b 403d
00000100: 0185 9a3e ffe7 403e 9fe7 c03c c0ea 893d
00000110: fb22 553f 1fe1 a43e 51d9 6e3f 7940 1fbe
00000120: 11b4 29bf e7e3 57bf 14bf 99bf fe58 1d3f
00000130: de4e 90bf e577 63bf b3c1 b73e 08ac 9ebe
00000140: c993 3ebe 52d3 043f e2d4 b7bc 507b be3c
00000150: 6989 c03d 1839 bdbf 145e df3f 10cd 37c0
00000160: e245 77bf ce3b 32c0 7012 cdbf 0db9 0bbe
00000170: e600 ddbf 72fa 573d 5d66 7d3e 5b48 ad3e
00000180: f550 88bd 0248 463d 1e99 f83d b583 8cbe
00000190: afe1 bbbd c695 dcbd 6717 193f 9d2d 5cbf
000001a0: 3d4c 41bf 380e acbf f49f 8ebf 01a7 7b3e
000001b0: 5a50 a23e c508 fd3e 654e 68be a967 d43f
000001c0: 77f1 183f f713 913e 9da7 0c3e b961 d5bc
000001d0: deea 803c 73c0 8bbd 5919 77bd e4ad 59bc
000001e0: 812e b3be ea7d dabf d46f 93bf 5d53 b9bf
000001f0: 208a 91bf ddcd aebe 1ff8 56bf 2b5e 0fc0
00000200: 3770 f03c 8e30 8dbf d1cb 83be 0f74 033e
00000210: 490b 0ebe 5874 5abe dfbe 8b3e 2064 b2be
00000220: bd87 d640 268d b13f 0a18 c73e faa5 8e3f
00000230: 4adf 003f 9c7c 4b3f 02e0 ac3f 60dd 013f
00000240: c130 a5be c76d 86bd 7df2 c53d 4835 4ebc
00000250: 3b29 b53a f49b 483d dc5a 86bd f24f 4bbb
00000260: 7e72 e1bc 1f7a 673f 041a 76be c21e 2bbf
00000270: a83d e7be 0375 03bf 871b cfbd 57bb c6bc
00000280: 5f55 c2bd 252d 2a3e 2a23 49be 6351 3abe
00000290: 254b 16bd 1065 29bb d367 0bbd 8133 90bd
000002a0: a37b 7abd 5d64 25bc b5fb 8240 2a3d 9ebf
000002b0: 9780 553d 18d2 f5be ed74 37bf 72ef b63f
000002c0: a351 f73e b95e b93e 7bb1 55bf aad0 a03d
000002d0: 70b8 833e 2d6a aa3d 9d67 153e e352 2fbd
000002e0: 995a aebc 777d 9b3d 860a 6ebb ccea 9e3e
000002f0: e74d f6bf a51f 463e 4400 84be ed96 9bbe
00000300: 6175 48bf 1b1f 8abf a189 4abf b2f5 bbbf
00000310: 939c 5a3f d24b 99be eb82 bdbd 7980 8c3d
00000320: e41e 893e 4333 01be 989f 303d 0518 06be
00000330: f8ee a53f 2420 0640 e812 903f 4878 5a3f
00000340: 76ad 243f a0bf 45bf 7851 b23e 8352 413f
00000350: 42ac 50bb 9357 4cbf 7b5f 54bf 145c 44be
00000360: 6496 14be 8384 2bbd 4ff8 37bc 9ab6 14be
00000370: 8160 f63c b902 cf40 8b1f c0bf 08a5 0dbe
00000380: d2ed 1a3f a103 83be ad75 cebf a3e4 11bf
00000390: 5436 7fbf 99d3 063e 380c f9bc 176f abbe
000003a0: 2268 a1bd 2acf 9fbc e572 56bd 5f42 d9bd
000003b0: 8a42 813d 125c d9bc 5563 fbbf beba 0440
000003c0: 65d4 0840 4e69 a43d 678b c8bb 5148 2dbf
000003d0: 812a cd3c c0df 0abf aa1f ccbd 2d32 47bf
000003e0: abb2 c8bd a712 8fbd e1ca 273b aab7 8b3d
000003f0: 2bb3 c43b 4891 77be 5f0f 0f3e f3dd c4bf

fc1.bias f4 [128]
-1.6863265 -1.1367522 -1.5931995 -0.46319222 -0.46746892 -1.7102623 0.14370567 -1.2422962
-1.3030092 2.8719137 1.0970112 -0.9314559 -1.9310855 0.94967794 -2.2955549 0.4621409
-1.0923183 -0.97923434 -1.0318761 0.18952334 -0.92238337 0.742078 -1.2129838 -0.4808501
-0.96362543 -1.306021 2.9551508 -1.8757471 -1.7919776 2.6809294 -1.3361148 0.53976995
-2.3346457 -1.6408958 -0.7762853 -1.4816439 -1.2574683 -1.3993415 -0.7197349 -1.5329876
0.44623303 -0.06029191 -1.2187061 -1.2396669 1.9204605 -1.310919 2.011284 -1.9184504
-1.6629525 -1.1942204 -0.2992999 -2.2820294 0.93426925 0.7444339 -1.7906218 -0.857241
-1.8304214 -1.7250338 -1.5070124 -1.8369957 2.9112754 -0.12081243 1.5262301 1.7854016
-1.6762972 -1.6937646 -1.1981158 -2.0659359 0.12669942 -2.4777257 -1.5186075 0.8660892
-0.36424103 -0.82579565 0.25729433 2.860683 0.78726864 -0.9794627 -1.9542629 2.6041508
-0.5469109 -0.6094535 -1.4069455 0.6965872 -1.3094863 -0.4721098 2.2117422 -1.0009241
0.16623831 -1.0448364 0.6778186 0.5128092 1.0265578 -0.9660317 2.6149557 0.52809054
-0.05232053 -1.8657438 -1.9423027 1.0062907 0.44618902 0.28432983 0.28057063 2.296059
-0.9580433 -1.2607962 -0.88506734 -0.05330691 -0.25252414 -2.281515 -1.6791021 -0.004635776
-2.1433976 -2.2175312 1.610766 -0.97219944 -1.1700915 2.3783119 -0.19336525 -1.5861387
-1.900251 0.3802261 -1.2476038 -1.6564467 -2.744404 -1.7754236 -0.46258214 2.1962905
00000000: 8cd9 d7bf 1981 91bf f6ed cbbf 8827 edbe
00000010: 1658 efbe e0e9 dabf 9427 133e 9003 9fbf
00000020: 01c9 a6bf 6fcd 3740 dd6a 8c3f e573 6ebf
00000030: cf2d f7bf 181e 733f 5fea 12c0 bb9d ec3e
00000040: 16d1 8bbf 1aaf 7abf 8414 84bf 6812 423e
00000050: 5121 6cbf d3f8 3d3f 0e43 9bbf fc31 f6be
00000060: 28b0 76bf b22b a7bf 3121 3d40 7b18 f0bf
00000070: 865f e5bf 5994 2b40 cf05 abbf 5d2e 0a3f
00000080: d66a 15c0 e008 d2bf a2ba 46bf 82a6 bdbf
00000090: b9f4 a0bf 9f1d b3bf 8c40 38bf f038 c4bf
000000a0: a878 e43e a6f4 76bd 90fe 9bbf 68ad 9ebf
000000b0: a6d1 f53f 32cc a7bf e1b8 0040 c88f f5bf
000000c0: a1db d4bf 37dc 98bf d63d 99be c50c 12c0
000000d0: 452c 6f3f 3893 3e3f 1833 e5bf 2574 5bbf
000000e0: 404b eabf e8cd dcbf c8e5 c0bf ad22 ebbf
000000f0: 5652 3a40 826c f7bd 825b c33f 0a88 e43f
00000100: e890 d6bf 47cd d8bf dc5b 99bf 4b38 04c0
00000110: 7ebd 013e 0f93 1ec0 bb61 c2bf 06b8 5d3f
00000120: cd7d babe 5867 53bf 15bc 833e 6e15 3740
00000130: 708a 493f 11be 7abf 4925 fabf 68aa 2640
00000140: 5a02 0cbf 2505 1cbf ca16 b4bf 8a53 323f
00000150: 3f9d a7bf 60b8 f1be 2f8d 0d40 481e 80bf
00000160: 603a 2a3e 33bd 85bf 8585 2d3f 7747 033f
00000170: 3f66 833f da4d 77bf 6f5b 2740 f130 073f
00000180: 0d4e 56bd b1d0 eebf 609d f8bf 22ce 803f
00000190: e372 e43e ae93 913e f4a6 8f3e a1f2 1240
000001a0: 5342 75bf c561 a1bf c693 62bf 5958 5abd
000001b0: d84a 81be 5704 12c0 d1ec d6bf b5e7 97bb
000001c0: 6d2d 09c0 08ec 0dc0 952d ce3f 10e2 78bf
000001d0: 8fc5 95bf 4336 1840 8a01 46be 9806 cbbf
000001e0: 6d3b f3bf ffac c23e 7bb1 9fbf 7206 d4bf
000001f0: 51a4 2fc0 1541 e3bf 91d7 ecbe 0690 0c40

fc2.weight f4 [64, 128]
-0.10829263 -0.08932435 0.01060445 -0.06607931 0.037509777 -0.008113388 -0.0006349539 0.06652194
-0.100598864 0.044684924 -0.005249718 -0.07379097 0.0065153795 -0.017291019 -0.059403513 -0.018398125
-0.0674253 0.056316823 0.054453548 -0.023177102 -0.095012665 -0.024562659 -0.0066439006 0.0460193
-0.011122993 0.024116777 -0.0066347173 -0.060784727 -0.080069065 -0.110797904 -0.012818704 0.020126734
-0.020654825 0.085795574 -0.038862277 -0.08261644 0.00032586136 -0.023794847 -0.020611135 0.0711301
-0.03139928 0.07721091 -0.015668396 -0.045097064 0.052176055 -0.05112839 -0.016965732 -0.0017946159
0.001988109 -0.09593835 -0.027988737 -0.03093887 0.01599154 0.010366034 0.022879802 0.049337875
-0.031002594 -0.02238845 0.054511882 -0.07553578 -0.08999252 -0.012087635 -0.07331579 -0.015892534
0.06308872 -0.022644239 -0.07536296 -0.044656575 0.048331082 -0.03706502 -0.06776748 0.005258026
-0.023287676 -0.09329258 0.059640817 0.01336932 0.07035031 0.009807659 -0.032479126 -0.05894696
0.013828284 -0.055291377 0.017328845 -0.10726033 -0.0655434 0.03300335 -0.057170488 -0.0717509
-0.099434555 0.050305042 -0.04227887 -0.13301563 0.076141946 0.043012124 -0.07969712 -0.06830767
0.048018876 -0.006736934 -0.068629876 0.038724627 -0.03290435 -0.018085778 -0.085256666 -0.12182612
-0.06785123 -0.034946542 -0.084033065 0.06638348 -0.015976053 -0.05224143 0.022374148 -0.1144343
-0.054027278 0.017714826 -0.09268552 0.013277321 -0.011877442 -0.0945088 -0.12564662 -0.004793752
-2.1806889e-05 -0.04897733 -0.06367379 -0.085825525 0.009748848 -0.0052716117 0.022625376 -0.015252668
1.1084344 0.027562626 2.1717675 0.40015647 -0.5686855 -2.3752465 0.7222472 0.3307915
-0.9970385 -0.46941105 -1.2142417 -0.8953986 -0.25995386 0.6100112 -0.34669802 -0.25875014
0.4339742 -0.24049665 0.37205648 -1.0091065 -1.1494081 0.6196795 -0.4719644 0.43903112
-0.1248977 -0.77103436 0.021177707 0.19715491 0.2834782 0.3013127 0.099678546 0.07064784
-1.2672329 0.1301675 -0.3301226 -2.0405905 0.22933751 -0.30804572 -2.5261261 1.3044679
-0.98889893 -0.03096968 0.8651529 -0.61081403 1.9555159 -1.0309508 0.29362103 1.030284
-3.4388206 -0.8141123 0.08452692 -2.5261981 -0.34875193 -2.448464 -0.8618856 -0.25566626
0.5005564 -0.112034485 -0.62269056 0.04907055 0.0009251637 -0.20363648 -1.1979328 -0.7488004
0.6797536 -0.32070056 -0.36633894 -0.10112542 -0.80726737 0.44822207 -1.1942778 -0.61895454
-0.002485033 0.04671451 -0.6023089 -0.4732307 -2.0678692 -0.15967375 -1.6482285 0.056821153
0.70770425 -0.8881106 -0.027311368 0.07261257 0.04893696 0.05145233 0.32163024 0.5489759
0.6660165 0.5909399 -0.91167223 0.62779707 0.039294403 0.2690864 -0.7512197 -1.0729434
-0.091282226 -0.14494638 -0.6875512 1.9537152 -1.6659565 -1.0695709 -0.3834751 -0.35108772
-0.30236515 1.6336974 -0.34603465 0.76622397 -2.922719 0.83994776 -0.009018112 0.23270121
0.08052824 -2.7369297 0.62364817 0.52401567 -0.49292955 0.32762194 0.08924774 0.9703417
0.17482068 0.28322047 -1.3440969 0.27457532 -0.01864308 -0.44985554 1.391168 -0.24526443
00000000: 87c8 ddbd afef b6bd 49be 2d3c 9754 87bd
00000010: daa3 193d 04ee 04bc 0973 26ba a83c 883d
00000020: c706 cebd 8a07 373d d405 acbb b81f 97bd
00000030: f77e d53b e5a5 8dbc 1951 73bd aab7 96bc
00000040: 4716 8abd 78ac 663d af0a 5f3d e8dd bdbc
00000050: 0096 c2bd a137 c9bc 14b5 d9bb bc7e 3c3d
00000060: 373d 36bc 8c90 c53c 0b68 d9bb 68f9 78bd
00000070: 40fb a3bd 03ea e2bd 8b05 52bc d2e0 a43c
00000080: 4f34 a9bc 97b5 af3d 0d2e 1fbd cf32 a9bd
00000090: 5fd8 aa39 69ed c2bc afd8 a8bc a8ac 913d
000000a0: 889c 00bd c120 9e3d 025b 80bc b3b7 38bd
000000b0: 8fb6 553d 016c 51bd b8fb 8abc 5139 ebba
000000c0: ef4a 023b 537b c4bd a348 e5bc 8373 fdbc
000000d0: b100 833c 4cd6 293c 6c6e bb3c 8316 4a3d
000000e0: 27f9 fdbc fc67 b7bc da47 5f3d 81b2 9abd
000000f0: 004e b8bd 370b 46bc 9726 96bd 0f31 82bc
00000100: a934 813d 6980 b9bc e557 9abd d0e9 36bd
00000110: d0f6 453d 7ed1 17bd adc9 8abd 854b ac3b
00000120: ccc5 bebc 2e10 bfbd ee49 743d fe0a 5b3c
00000130: d313 903d 4eb0 203c d508 05bd 5e72 71bd
00000140: 0790 623c 3679 62bd 39f5 8d3c 4eab dbbd
00000150: 9e3b 86bd 852e 073d 9a2b 6abd 23f2 92bd
00000160: 58a4 cbbd a90c 4e3d 9c2c 2dbd 4035 08be
00000170: 4ff0 9b3d 7b2d 303d 3e38 a3bd e4e4 8bbd
00000180: 71af 443d 80c1 dcbb d28d 8cbd b79d 1e3d
00000190: b6c6 06bd a028 94bc 0c9b aebd f97f f9bd
000001a0: 96f5 8abd 1b24 0fbd 8719 acbd 10f4 873d
000001b0: 36e0 82bc 1cfb 55bd fd49 b73c 885c eabd
000001c0: b54b 5dbd af1e 913c e8d1 bdbd 1f89 593c
000001d0: 9a99 42bc d48d c1bd 82a9 00be e814 9dbb
000001e0: f0ed b6b7 749c 48bd 6767 82bd 4bc5 afbd
000001f0: a2b9 1f3c 7cbd acbb da58 b93c 54e6 79bc
00000200: 2ee1 8d3f 04cb e13c 3dfe 0a40 4fe1 cc3e
00000210: 5f95 11bf 0a04 18c0 31e5 383f 815d a93e
00000220: ea3d 7fbf a556 f0be 466c 9bbf d838 65bf
00000230: ac18 85be b229 1c3f 6782 b1be e67a 84be
00000240: de31 de3e c144 76be 307e be3e 672a 81bf
00000250: ce1f 93bf 51a3 1e3f 51a5 f1be b0c8 e03e
00000260: 5eca ffbd 8262 45bf df7c ad3c fae2 493e
00000270: 0e24 913e a945 9a3e 4424 cc3d d1af 903d
00000280: b034 a2bf a14a 053e d405 a9be 0999 02c0
00000290: 74d7 6a3e 2bb8 9dbe 0dac 21c0 cef8 a63f
000002a0: 7b28 7dbf 20b4 fdbc a97a 5d3f 4f5e 1cbf
000002b0: 584e fa3f 32f6 83bf 7f55 963e 59e0 833f
000002c0: a315 5cc0 aa69 50bf 731c ad3d 3bad 21c0
000002d0: 9d8f b2be a2b3 1cc0 89a4 5cbf b0e6 82be
000002e0: 7724 003f 5672 e5bd a668 1fbf 33fe 483d
000002f0: af86 723a 1586 50be dd55 99bf 62b1 3fbf
00000300: 5504 2e3f dd32 a4be c790 bbbe d81a cfbd
00000310: 13a9 4ebf 5d7d e53e 18de 98bf ce73 1ebf
00000320: efdb 22bb b757 3f3d eb30 1abf 4b4b f2be
00000330: f857 04c0 8481 23be 27f9 d2bf 4cbd 683d
00000340: 1b2c 353f 375b 63bf 17bc dfbc e6b5 943d
00000350: 1f72 483d aebf 523d b8ac a43e af89 0c3f
00000360: 0f80 2a3f d647 173f 5a63 69bf 4fb7 203f
00000370: 2bf3 203d b1c5 893e ef4f 40bf 3656 89bf
00000380: 2df2 babd d36c 14be 5b03 30bf 5713 fa3f
00000390: 103e d5bf b3e7 88bf d956 c4be c5c1 b3be
000003a0: 9bcf 9abe ff1c d13f 742b b1be 4127 443f
000003b0: d40d 3bc0 d106 573f b4c0 13bc 3a49 6e3e
000003c0: fdeb a43d db29 2fc0 68a7 1f3f e425 063f
000003d0: 4361 fcbe 10be a73e 85c7 b63d 5068 783f
000003e0: 3104 333e 4602 913e 5e0b acbf 2395 8c3e
000003f0: 5fb9 98bc 7753 e6be cb11 b23f 9926 7bbe

fc2.bias f4 [64]
-0.110468775 -1.0036659 3.2395868 -1.2367209 -0.7525362 2.6925085 -0.88663733 2.342955
1.7150015 -0.08361183 2.999341 0.0012477718 1.5464288 -0.7695139 0.13100263 -1.3902316
-0.32239395 -0.1075225 -0.020952595 0.745404 -0.09954482 -0.32838917 -1.448356 -1.1227715
-1.2241192 1.9150306 -0.8177256 2.8774946 3.033968 2.2903955 -0.7073096 -0.61799556
-0.072585054 1.6114262 2.833818 2.4582226 -1.8051419 1.4387089 1.7009386 -1.7161146
1.0056792 -0.03108659 3.255855 0.5108953 0.23982818 3.1935327 -1.34509 0.45390126
0.6141181 1.2923151 1.9668014 0.58619493 1.9851623 -0.10528236 -0.9236604 -0.28443167
1.3845556 -1.5279301 -0.024500158 -1.1807786 0.045138992 3.0538018 1.5493599 1.3999968
00000000: 743d e2bd 2078 80bf 6455 4f40 df4c 9ebf
00000010: 36a6 40bf 0f52 2c40 aafa 62bf faf2 1540
00000020: 2b85 db3f ae3c abbd 34f5 3f40 468c a33a
00000030: 61f1 c53f ddfe 44bf 8e25 063e 1cf3 b1bf
00000040: d210 a5be c234 dcbd c7a4 abbc ccd2 3e3f
00000050: 28de cbbd a022 a8be bb63 b9bf fab6 8fbf
00000060: f0af 9cbf b91f f53f 7756 51bf df28 3840
00000070: 882c 4240 d795 1240 3e12 35bf f534 1ebf
00000080: 79a7 94bd 3743 ce3f 465d 3540 8553 1d40
00000090: e40e e7bf 9d27 b83f 5bb8 d93f a5a9 dbbf
000000a0: 19ba 803f 4ea9 febc ee5f 5040 09ca 023f
000000b0: 8595 753e d762 4c40 e92b acbf bf65 e83e
000000c0: d836 1d3f 956a a53f 26c0 fb3f df10 163f
000000d0: cc19 fe3f 479e d7bd 0275 6cbf 07a1 91be
000000e0: 1e39 b13f 3793 c3bf 8eb4 c8bc c123 97bf
000000f0: aae3 383d 7d71 4340 6d51 c63f 1833 b33f

final.weight f4 [6, 64]
0.06781209 -0.24150565 0.57791996 0.062189665 0.0056652627 0.33011764 -0.21558234 0.09726888
0.030917158 -0.055437386 0.43462196 0.21695109 -0.32675526 -0.2642599 0.11206668 -0.21546179
-0.16525964 0.14039783 -0.058796927 -0.15746327 0.030677732 -0.32836878 -0.12485907 -0.27426204
-0.16545601 0.25822586 -0.15185529 0.43403855 0.47584754 0.07240424 -0.21977615 -0.26572895
-0.10615443 -0.035876315 0.22038841 0.19048451 -0.12338866 0.08349337 0.08018537 -0.16365306
0.19486676 -0.07019311 0.56155604 0.021222621 0.16829507 0.61726344 -0.31442818 0.24051058
0.38792965 0.21148075 0.13344027 0.20594703 0.016753163 -0.0026293797 -0.12549105 -0.1796043
0.0067666927 -0.22598201 0.049281407 0.011409003 0.08221716 0.49852666 0.17022589 0.18141824
0.025368165 -0.122240596 0.6404129 -0.1468819 -0.11965839 0.17650877 0.15726899 -0.07613649
0.11295301 0.11003564 0.47094122 -0.14813212 -0.07838234 -0.09086457 -0.09022686 -0.11207922
0.08147871 0.046033815 0.08838834 0.1712234 0.005054056 0.23522481 -0.121946245 -0.21025479
-0.060358476 -0.008604403 -0.097258694 0.31559107 0.38631994 0.20343545 -0.27962312 -0.13618228
-0.060138423 0.136185 0.3811721 0.16155776 -0.49141586 0.23755457 -0.10984478 -0.117740996
0.027411476 0.04514492 0.6508199 0.16104868 0.41579112 0.556108 0.08682658 -0.17852855
0.2681946 0.030731818 -0.103740424 -0.09842555 0.09740906 0.0015950776 0.022159198 0.016519625
0.16029678 -0.016694492 0.052638642 -0.16918518 -0.0047704135 0.4783614 -0.019178674 0.17854314
-0.03895665 -0.15235908 0.65801084 -0.119820595 -0.109441616 0.15102337 0.1666022 -0.052285533
0.08330834 0.068133876 0.5005605 -0.10319359 -0.50653535 -0.079477765 -0.043124426 -0.12126571
0.042909805 0.103792 -0.025103863 0.17113434 0.025149267 0.21177566 -0.10316777 -0.26093268
-0.030925345 -0.004410381 -0.10433235 0.40200794 0.41034535 0.20356469 -0.26578948 -0.12075035
-0.09924616 0.2674625 0.39850608 0.16306548 -0.48620415 0.24311753 -0.10869395 -0.13463564
0.028887521 0.074062616 0.67123663 0.16796564 0.40989327 0.479018 0.091217995 -0.08247997
0.2591445 0.025463263 -0.09855662 -0.08057475 0.089346476 0.02536545 0.0073800213 0.033194494
0.17928532 0.0029948212 0.10261256 -0.19541207 -0.01916919 0.45733157 -0.026495334 0.15993492
-0.026049633 -0.04665685 0.66136545 -0.17672163 -0.118308604 0.1945336 0.2922584 -0.035674408
0.1147314 0.08166283 0.52542067 -0.124417186 0.1400024 -0.10169529 -0.028360778 -0.063124396
-0.06031727 -0.09051246 0.08023887 0.24580434 -0.0077608363 0.20917346 -0.09116031 -0.22838405
0.019263266 -0.035630092 -0.12583661 0.34023067 0.4063576 0.2259637 -0.5679502 -0.04889374
0.0061041336 -0.39566347 0.37736157 0.15289155 -0.4794985 0.25078213 -0.23775128 -0.12674281
-0.016779393 0.043061107 0.620676 0.16339166 0.42729503 0.51695067 0.069706164 -0.09856643
0.2864722 0.021085316 -0.13390024 -0.10700692 0.1358635 -0.025147812 0.031832352 0.014522634
0.18374567 -0.013517866 -0.029806184 -0.18269745 -0.07706396 0.4641789 -0.001371321 0.14225829
00000000: 11e1 8a3d 424d 77be 90f2 133f 97ba 7e3d
00000010: aba3 b93b 2e05 a93e 9ec1 5cbe e834 c73d
00000020: fb45 fd3c 5012 63bd c586 de3e 6d28 5e3e
00000030: 774c a7be 134d 87be 3783 e53d 04a2 5cbe
00000040: d339 29be 73c4 0f3e 0cd5 70bd 0d3e 21be
00000050: de4f fb3c f41f a8be 1db6 ffbd 136c 8cbe
00000060: 4d6d 29be 2e36 843e f47f 1bbe 4d3a de3e
00000070: 4aa2 f33e ad48 943d 000d 61be a00d 88be
00000080: 7e67 d9bd 0bf3 12bd 80ad 613e 5f0e 433e
00000090: 32b3 fcbd 92fe aa3d 3a38 a43d ab94 27be
000000a0: 278b 473e 68c1 8fbd 23c2 0f3f 10db ad3c
000000b0: 8b55 2c3e fa04 1e3f bbfc a0be 6848 763e
000000c0: b79e c63e 698e 583e 91a4 083e c7e3 523e
000000d0: ee3d 893c ac51 2cbb ba80 00be 31ea 37be
000000e0: 22bb dd3b d467 67be 4ddb 493d d4ec 3a3c
000000f0: 7861 a83d e33e ff3e b24f 2e3e b4c5 393e
00000100: e6d0 cf3c 4759 fabd 1af2 233f 3568 16be
00000110: 750f f5bd b7be 343e 1f0b 213e 73ed 9bbd
00000120: e853 e73d 5e5a e13d 351f f13e f2af 17be
00000130: ec86 a0bd 3417 babd dcc8 b8bd ca89 e5bd
00000140: 4fde a63d f48d 3c3d f204 b53d 3055 2f3e
00000150: 7f9c a53b c6de 703e f4be f9bd 084d 57be
00000160: 733a 77bd 7bf9 0cbc 912f c7bd 2795 a13e
00000170: bacb c53e 6251 503e c32a 8fbe 5e73 0bbe
00000180: b553 76bd 1574 0b3e fd28 c33e 666f 253e
00000190: dc9a fbbe 8141 733e 4df6 e0bd 3122 f1bd
000001a0: 088e e03c e1e9 383d 229c 263f f2e9 243e
000001b0: 93e2 d43e 185d 0e3f 22d2 b13d 30d0 36be
000001c0: cd50 893e 4bc1 fb3c dc75 d4bd 5693 c9bd
000001d0: 677e c73d ec11 d13a 3587 b53c 2a54 873c
000001e0: d724 243e e3c2 88bc 9e9b 573d e13e 2dbe
000001f0: 2151 9cbb c9eb f43e 981c 9dbc 03d4 363e
00000200: 0291 1fbd 0504 1cbe 6673 283f 8064 f5bd
00000210: ed22 e0bd dfa5 1a3e c499 2a3e 5b29 56bd
00000220: 909d aa3d c689 8b3d bc24 003f 2957 d3bd
00000230: 4dac 01bf 3dc5 a2bd 3da3 30bd 285a f8bd
00000240: 31c2 2f3d e690 d43d 9ea6 cdbc d73d 2f3e
00000250: d605 ce3c b8db 583e a049 d3bd f898 85be
00000260: 2657 fdbc f584 90bb 33ac d5bd fcd3 cd3e
00000270: c918 d23e 4373 503e 8f15 88be f64b f7bd
00000280: 9241 cbbd d8f0 883e fd08 cc3e a3fa 263e
00000290: c0ef f8be cdf3 783e ef9a debd eddd 09be
000002a0: 86a5 ec3c 24ae 973d 2ad6 2b3f 2fff 2b3e
000002b0: 88dd d13e d941 f53e 80d0 ba3d 42eb a8bd
000002c0: 97ae 843e 5598 d03c 0ed8 c9bd 6004 a5bd
000002d0: 49fb b63d 34cb cf3c 1bd4 f13b f3f6 073d
000002e0: 9296 373e c344 443b 8926 d23d 1a1a 48be
000002f0: b508 9dbc 5d27 ea3e be0c d9bc fbc5 233e
00000300: 0a66 d5bc 411b 3fbd 3f4f 293f 84f6 34be
00000310: c84b f2bd d133 473e e5a2 953e 541f 12bd
00000320: 4cf8 ea3d d83e a73d f881 063f 70ce febd
00000330: ca5c 0f3e 9f45 d0bd dd54 e8bc 5d47 81bd
00000340: 3e0f 77bd 995e b9bd 4754 a43d 22b4 7b3e
00000350: 9d4e febb 9131 563e 42b2 babd 82dd 69be
00000360: ffcd 9d3c dcf0 11bd 50db 00be b732 ae3e
00000370: 1a0e d03e 0763 673e 2f65 11bf cd44 48bd
00000380: 2f05 c83b 6794 cabe 8935 c13e 9a8f 1c3e
00000390: d480 f5be 8466 803e 1275 73be dec8 01be
000003a0: f074 89bc d860 303d 9fe4 1e3f 2550 273e
000003b0: 6ac6 da3e e156 043f 1bc2 8e3d 32dd c9bd
000003c0: 7cac 923e 1dbb ac3c 251d 09be 7226 dbbd
000003d0: cd1f 0b3e c902 cebc a462 023d 58f0 6d3c
000003e0: d327 3c3e 0a7a 5dbc 192c f4bc 0a15 3bbe
000003f0: b6d3 9dbd dba8 ed3e e6bd b3ba 28ac 113e

final.bias f4 [6]
2.611664 2.5621593 1.6064252 1.3893452 1.0819827 0.7689919
00000000: 8125 2740 6bfa 2340 579f cd3f 10d6 b13f
00000010: 697e 8a3f a7dc 443f
