D2QN_AAAI_REWARD/checkpoint_d2qn_mount.pth (torch, 37207 bytes, 6 tensors)

fc1.weight f4 [128, 2]
00000000: 2279 adbb 9c36 c23e 15aa fd3e 1f5c f1c0
00000010: d670 8bbe ab2a 423e 578a 65bc 4087 0f3f
00000020: de83 80bd 9799 3f3e f675 be3f ebe0 6bc0
00000030: 8e8b 27bf 96e9 27c1 72bc 27be 947b 77c0
00000040: 34c6 603d 4521 8440 4144 1dbf 9efa a0bf
00000050: a77f 833e f750 163f df05 e5bd 709e 4e41
00000060: 2fab 813e b10e 32c0 82ad 6cbf 5bab 19c1
00000070: ec8c 6e3f b383 81c1 661f 8dbe 9e66 1c3f
00000080: 85aa eabe 86a8 a6be 92b5 153f e70b 35bf
00000090: f504 f8be 1543 9fbf 5e8c a13e 5f78 af3e
000000a0: 5474 5c3e f15e 20c0 6e01 f53d 4d04 29bf
000000b0: 2b69 1f3f 3a23 a03f a6e3 dcbe c9a5 8c41
000000c0: 3349 cd3e f396 c2c0 b38b e73e 12f5 333f
000000d0: cbaf 8f3e a6a2 c33d 2a6f f33e 21c8 5a40
000000e0: db58 88bd 543a 00c0 f15d bdbe 675b 80c0
000000f0: 10d0 a33e fd98 913e 967d df3e 3c89 b43f
00000100: 7a89 b63e cc30 f3bd cf2b dd3c aac5 273e
00000110: ae99 e03e 4ed0 2d3f 6845 333f 12d8 82bf
00000120: a91a a7bf 9680 373f 11e1 293e da00 d040
00000130: 171a 103e 4969 1dbf 2838 853d 4b7e e2be
00000140: 60f5 16bf 1dc2 65c0 cba3 093f 6492 34bf
00000150: ad23 01be 6c95 1fc0 5c4f eebd c7b9 a5be
00000160: 6539 8b3e d06f d6be c43f 363e 9318 9eba
00000170: 2b96 013f cb5e 873e 94cc 2840 bba9 0841
00000180: b200 883e bab1 38bf 6689 a03f 5444 5b40
00000190: 9972 ed3e 88b7 c540 a5db 283e 53c5 d03e
000001a0: 7310 4dbf 1121 18c1 856f 81be d874 0741
000001b0: e495 1fbd ea6e d93d 04e3 88bf 3f1d 9c40
000001c0: 3440 0e3f 4317 0740 e51a f83e 88a6 18bf
000001d0: 151f 873d 5592 cc3e 433a 913e 224c 1040
000001e0: ff12 8e3e 4a7d 2d3d f08e d53e 7827 aec0
000001f0: ea80 f7be 2e3f 1ac1 1bb0 03be 483c 72c0
00000200: ce7f ccbd 0aa0 83c0 9fd7 4c3e eb5f c140
00000210: 16db ebbe 02a3 14bd 40e8 413f 57d2 69c1
00000220: 3753 c63d d56e 5fc0 95fb 193e 4acb a9bf
00000230: 286e 6a3f 7cea 8840 0f50 97bf eac9 97bf
00000240: 2e24 8f3f d5f3 33c1 9783 f63e c233 96bb
00000250: 33f3 b3be 9db7 0abf 0aa6 0040 aac0 8740
00000260: 393f 61be 1edd 01c0 7c68 4e3e bbe0 11c0
00000270: 4ed5 e13e 3ba6 0dbf dfa8 063f db8a 1940
00000280: 9633 9ebc 9a7a 3bc0 1b32 28bf 64f8 76c0
00000290: e297 df3d 6ccc 40c0 556a 7fbe 14b9 50c0
000002a0: 17d2 10bf 7327 24c0 be1f 0f3f 1b25 aebe
000002b0: 436f c63e bf6a 4d40 a4ac a03e e9ca 02c1
000002c0: ea1b a7bd d59d a1be 6d60 913e 8aab bc3f
000002d0: 4f0f 7fbf a639 a6c0 2bbf 9c3f c7d5 5940
000002e0: 26f6 ad3e e2b6 7f3e c9a9 88be 36dc 4c41
000002f0: 9453 98be 1ebe adc0 a7a0 033f 4744 5b40
00000300: 8d1b 1d3f be7a 0341 f236 293e a45f 8ec0
00000310: b3f9 68be 201e 09be ed79 873f ac40 7fc0
00000320: 42af f33c e360 e93e b309 fe3f 182b c2c0
00000330: d038 d2be 2867 fd3e 6f0b 293f e931 0a40
00000340: 79ea 823e c25f b73d 487b acbb 0123 0fbe
00000350: d6b1 b53d d656 25be 934e 2c3e b6d0 09c0
00000360: 499d 10bf 5197 1ec1 0dff c63e 22ce 203f
00000370: 86dc be3d c5ae a0bf 23c8 823e b401 a43c
00000380: 80a2 f9be ced8 c13e baaa 45bf d3f3 97c0
00000390: 95f0 72be 1474 d6bd eb9a 533d cbf6 f6bf
000003a0: 33c9 b43d 4123 223f ac76 dd3e cae2 e4be
000003b0: 3660 a23e 78ec ffbe eb70 99be b3f7 543e
000003c0: e711 613e a1f2 3abf e6c6 18be 182c 5cc0
000003d0: 4e0e a23e 5b0d 14c0 8585 aa3e 2a55 8540
000003e0: 66d7 773e 37cd 02c0 b33a 4d3f 7c5c b240
000003f0: 0eb8 5f3f 6426 8340 57f4 dcbe 365a 6fc0
-0.005293981 0.3793229 0.49543825 -7.5424953 -0.27234524 0.18961589 -0.014010034 0.5606575
-0.06275152 0.18710934 1.4879749 -3.685603 -0.6544732 -10.494528 -0.1638048 -3.8669176
0.05487652 4.129061 -0.6143227 -1.2576482 0.25683329 0.5871729 -0.111827604 12.913681
0.25325915 -2.7821467 -0.9245225 -9.604335 0.9318378 -16.189306 -0.27563018 0.6109408
-0.4583322 -0.32550448 0.5848018 -0.70721287 -0.48441282 -1.2442347 0.31552404 0.34271523
0.2152875 -2.5057948 0.11963163 -0.6602219 0.6226985 1.251075 -0.43142432 17.58095
0.4009491 -6.0809264 0.4522377 0.7029582 0.28063807 0.09552507 0.4754575 3.418465
-0.06657573 -2.00356 -0.36985734 -4.0111575 0.31994677 0.28437033 0.43650502 1.4104381
0.3565176 -0.11874542 0.026998429 0.16383997 0.43867248 0.6789597 0.7002778 -1.022219
-1.3055011 0.7168058 0.16589762 6.500104 0.14072452 -0.6148878 0.065048516 -0.4423698
-0.5896816 -3.5899727 0.53765553 -0.70535874 -0.12611265 -2.493495 -0.1163623 -0.323683
0.27192226 -0.4188218 0.17797762 -0.0012061767 0.50619763 0.2643951 2.6374865 8.541438
0.2656303 -0.7214619 1.2541931 3.4260454 0.46376494 6.1786537 0.16490038 0.40775546
-0.80103225 -9.508073 -0.25280395 8.466026 -0.038961306 0.10616858 -1.069428 4.87857
0.55566716 2.1107948 0.4845802 -0.59629107 0.06597725 0.39955392 0.28364763 2.2546468
0.27748868 0.042355813 0.41710615 -5.442318 -0.4834054 -9.640425 -0.12860148 -3.7849293
-0.09985314 -4.113286 0.20004128 6.0429587 -0.46065587 -0.03628827 0.7574501 -14.6138525
0.09683841 -3.4911397 0.15037377 -1.3265164 0.91574335 4.2786236 -1.1821307 -1.1858494
1.1182916 -11.247029 0.4814727 -0.0045838067 -0.35146484 -0.5418642 2.0101342 4.2422686
-0.21996774 -2.029121 0.20157045 -2.2793415 0.4410805 -0.5533177 0.52601427 2.3991
-0.019311707 -2.929358 -0.65701455 -3.8589106 0.10917641 -3.012477 -0.24942906 -3.2612963
-0.5657057 -2.5649078 0.5590781 -0.34012684 0.3875676 3.2096403 0.31381714 -8.174539
-0.08159621 -0.3156573 0.2839388 1.473985 -0.99632734 -5.194537 1.224584 3.403673
0.3397686 0.24972108 -0.26692036 12.803762 -0.29751265 -5.4294577 0.5141701 3.4260423
0.61370164 8.217466 0.16524866 -4.449175 -0.22751503 -0.13390398 1.0584084 -3.9883223
0.029746655 0.4558173 1.984671 -6.0677605 -0.4105897 0.49492764 0.6603307 2.1592963
0.25569513 0.08953811 -0.0052637197 -0.13978197 0.0887181 -0.16146407 0.16826849 -2.1533637
-0.5649 -9.9119425 0.38866463 0.62814534 0.09319405 -1.2553335 0.25543317 0.020020343
-0.4875679 0.3786072 -0.77213633 -4.7485137 -0.23724587 -0.10471359 0.051661413 -1.9294065
0.08827438 0.63335043 0.43254602 -0.44704276 0.31714028 -0.499851 -0.29968962 0.20797615
0.21979485 -0.7302647 -0.14919624 -3.4401913 0.3165154 -2.3133152 0.33304992 4.166646
0.24203262 -2.0437753 0.8016769 5.5737896 0.8739022 4.0984364 -0.43155167 -3.739881

fc1.bias f4 [128]
00000000: c16a 33bf 6eb1 013f c1df adbe 5d9a f1be
00000010: 2c92 d0be 2ddb 543f d94c 3b3e 39e9 f23e
00000020: 0bf7 193f b15b 52bf 9257 4abe c4d5 54bb
00000030: 84d0 d23e 2f82 9abf f349 5f3f aa2f aabe
00000040: ef25 2bbf c0f8 383f 09cc 2dbf 7864 21bf
00000050: d65c 2a3f aa1c ebbe 71c0 3b3f b638 35bf
00000060: 8390 ce3e f59b f3be 6552 12bf fd17 5d3f
00000070: 060d db3e 6573 083f 79bd 72be e5b2 e93e
00000080: 810f 46be 5ccd 00bd 5f7f dcbe 9aac 1c3f
00000090: 097f 4cbf a496 183f b8d8 22be e22b dfbe
000000a0: 6836 d63e 52c1 06bf 1ae4 c03e 3b79 73be
000000b0: 0dac aebe 9072 ee3e 4210 bcbe 0cac c63e
000000c0: 166a f43e dd6f 7e3f aa82 213f d533 a63f
000000d0: e6b7 473e 9337 0a3e bd65 14bf 0e3e a8bf
000000e0: 7963 b03f 8119 84be 4350 3c3f f4bb 3b3f
000000f0: 000a bdbe 9dad e63e 70e5 3c3e 4121 603e
00000100: 9ac8 403e 45fe d53e d54e 0ebf 04d9 8b3e
00000110: 393b a23e 586d 383f 3412 3c3f b20a 09bf
00000120: 02ad 683f db1f b0be 3502 16bf cfcf aa3f
00000130: 70a8 473f 96af 2d3f db40 fabe 1443 083f
00000140: 0d43 0a3f b234 383f 0923 f43e 2b67 033f
00000150: 9033 5ebf 5a67 9fbe 1ed3 773f 9a33 053f
00000160: 05de d9be f18d 6c3f ebc9 083e fc5e 7d3f
00000170: d2ea e2be aadf 4dbe 0e80 3cbf 2023 4d3f
00000180: 877d 3b3f b624 e03e 4ac9 d83e e7b5 cd3e
00000190: b90f 76be fc1c 753f 9ddf fcbe c315 283f
000001a0: d2f3 f4be 1695 32bf 5e5e 11bf 1602 0f3f
000001b0: 508d 383e 5452 6d3f 5c25 0c3f 93a8 21bf
000001c0: 788c 1bbf d500 efbe 9e1e ebbe 53de ed3e
000001d0: 1eda 08bf a2a3 b0be 98e1 2ebf bd8b cdbe
000001e0: ce3f 3a3f fabb 043f 0131 303f 9bc0 5d3f
000001f0: f251 1f3f ad46 333f dceb ab3e e6e0 1d3f
-0.7008477 0.5066136 -0.33959773 -0.47188082 -0.4073652 0.83146936 0.18291034 0.4744356
0.6014258 -0.8217116 -0.19759968 -0.0032476047 0.4117471 -1.2070979 0.8722221 -0.3323949
-0.6685476 0.7225456 -0.6788946 -0.6304393 0.66547906 -0.45920306 0.7334052 -0.7078966
0.4034463 -0.47579923 -0.57156974 0.8636473 0.42783374 0.5330108 -0.2370509 0.45644298
-0.19341852 -0.031445846 -0.43065926 0.6120087 -0.7988134 0.5960486 -0.15902984 -0.43588167
0.41838384 -0.52638733 0.37674028 -0.23776715 -0.3411564 0.4657178 -0.36731154 0.38803136
0.47737187 0.9938944 0.6309 1.2984568 0.19503745 0.13497762 -0.5796774 -1.3143938
1.3780357 -0.25800708 0.7355997 0.7333367 -0.36921692 0.4505433 0.18446898 0.21887685
0.18826523 0.41795555 -0.5558904 0.27314007 0.31685808 0.72041845 0.73465276 -0.53531945
0.9088899 -0.34399304 -0.5859712 1.3344668 0.7799139 0.6784605 -0.48877606 0.53227353
0.5400856 0.71955407 0.4768298 0.51329297 -0.8679743 -0.31133538 0.96806514 0.5203186
-0.425522 0.92404085 0.13358276 0.9897306 -0.4431978 -0.20104852 -0.73632896 0.8013172
0.73238415 0.43778008 0.4234107 0.40177843 -0.24029435 0.9574735 -0.49389353 0.65658206
-0.4784227 -0.6975874 -0.5678462 0.5586256 0.18022656 0.9270375 0.54744506 -0.6314785
-0.60761213 -0.46680322 -0.45921797 0.46458682 -0.5345782 -0.34499842 -0.6831298 -0.40145674
0.7275361 0.5184933 0.68824774 0.8662202 0.62234414 0.7002972 0.33578384 0.6167129

fc2.weight f4 [64, 128]
00000000: d389 ef3c d0fa 893d aac6 3b3d 8c0f 613d
00000010: e06b fdbc 422e b03c fad5 31bc f364 2cbd
00000020: e8b4 91bd ea5c 93bd 794a 8bbd 625e 1d3d
00000030: e7c6 2b3d 81d1 24bc b881 51bd 2ce9 8b3d
00000040: 0c85 673d b66b 6bbc 65ee 2abd 8d5d a63d
00000050: 17b1 793c 846b 89bd 15ca 813d ff17 393d
00000060: 7b54 5bbd 8d85 4b3d d6b4 4dbd a1c0 0dbd
00000070: 95a6 633d 9890 8ebc 2905 80bd b5af 4ebd
00000080: 1b8c c4bc 03b2 8bbc dc96 0a3c 491a 793d
00000090: fe68 7cbc 8389 5fbd bf72 943b c897 2d3d
000000a0: 3d87 bb3c c770 a5bd ca7d 17bd 0686 86bd
000000b0: 077a 1abd e634 5f3c 1c8c 80bd aa29 433c
000000c0: 7487 563d d3f6 bd3b 584b 71bd 6f27 58bd
000000d0: f3b9 ecba 85a7 b4bd 53dd 333d 250d d2bd
000000e0: 68eb d8bd ade3 afbd 9500 20bd 0b06 1e3d
000000f0: bc54 abbd 9586 553d 953e 67bd d9d3 a93b
00000100: a1e0 88bc 588a cebd e51f 963d f6ef 423d
00000110: 3d33 893d 2ec0 c23c 45fa a2bd 6713 973d
00000120: c09d 84bc 48af 2b3d 8625 91bd 8b43 d0bc
00000130: b1d7 dcbd d81f 63bd be34 9c3c d86b b9bd
00000140: edd0 e83b f6c5 d83c e1ad 0cbc 5c43 a4bd
00000150: 6cf2 b6bd d063 dfbc e392 943c d7a8 873d
00000160: c82e 503d 2e34 fcbc d177 213c cf3b dbbd
00000170: dd9b 9abd f108 a73c ddc6 93bd ddc2 af3c
00000180: 3de0 abbd b97c 84bd 0b7b c0bd 2df5 cc3c
00000190: 538f 13bc 8353 403d 3f0e 603d ec9f e33c
000001a0: a144 3a3b 68de dfbc f56f 9dbc ec5f 18bc
000001b0: 2234 ba3c 5da1 a9bd 704a 5a3d 3d75 1dbc
000001c0: 32af 97bd f5fa 8cbd 4b2b a03d 339a 753d
000001d0: aeac a7bd 6358 7f3d 6370 353d 214c 563d
000001e0: 0008 5d3d b99e 8cbd 7bda e03b 5cac 7b3c
000001f0: 8a82 40bd 834b e03b e1ff 36bd 3a99 093d
00000200: 0ae6 c8bc 0771 a4bd 2849 b63c ae69 003d
00000210: bfe1 30bd e7cb 21bd d39c 7d3b 20ee 65bd
00000220: bb44 9dbc 6e0c 18bd f1c9 fd3c cce3 e3bd
00000230: 805e cbbd 74c4 37bd 3bc6 4a3d 73d6 c2bc
00000240: 4b0e 7db9 ab49 b8bd b6b5 b43d d2cb b03d
00000250: 2b71 e9bd 36bf 92bd 333e a9bd 9e1d 3fbd
00000260: 0f8a 1cbd 89f8 6cbd 6ada 01bd 6429 fabc
00000270: c8af 7bbd 89a8 e3bc dd0a a6bc 745f b8bd
00000280: 97f4 463c 3ad8 943d 4fc4 74bd 34e9 30bd
00000290: 7240 44bd 772e 633d 97be abbd 4589 adbd
000002a0: face 223d e80e 65bd 1bc7 f8bc 1af8 f9bb
000002b0: 2e88 98bc 6985 0bbd d70d 663d 6666 30bd
000002c0: 7a42 cdbd b3bb 55bd 93d6 f6bc 0e46 3dbb
000002d0: dc2c d6bd e1bf 8a3d f445 a1bc 2e9a 01bd
000002e0: 47c6 b33c a3f6 353d 7d2d e23c 3c0a 7b3b
000002f0: d5a6 dbbc 8138 98bd b3fd 5cbd 2deb 6b3d
00000300: f04c 39bd 09d2 c7bd f268 143d 6989 5e3d
00000310: b568 94bd abc9 f6bd 393c 02be d613 1dbc
00000320: 3d52 5dbd 2dd3 36bd ee5b 923c a271 023b
00000330: 36d8 bb3c e7ed ae3c e2c3 58bc 794b 00be
00000340: 6a4a 02be 1d0c 103d 3c49 07bc 55de 10bc
00000350: cd89 bcbd 73a0 a73d 1ecc 153d 02f4 043d
00000360: 88b4 98bd d821 a5bd 8172 ddbd a389 173d
00000370: 8f8f 1bbd 4256 b3bd b6d3 fa3c 649a b4bd
00000380: e0b7 72bd b379 61bd 70fb 58bd 7605 eebd
00000390: f9e8 963d 62d9 b0bd a66b 003d 1269 f23c
000003a0: 0295 363d 9007 4d3c 8605 9a3d 2650 11bd
000003b0: e4c5 b4bd 30d8 143d f849 d8bc fa9d b0bd
000003c0: 8323 cebc 753b 9bbd 91b5 9e3d 4f8d 7dbd
000003d0: ee00 a5bd 5b12 b6bb 6d5d 633d 981d bc3c
000003e0: 0186 9ebc 7457 20bd 0286 6bbc 9ad3 8cbd
000003f0: a4ec a8bd db85 c9bd 4152 e6bd 4d8a 14bc
0.029240524 0.06737292 0.045843758 0.054946467 -0.030935228 0.021506432 -0.010854239 -0.04208846
-0.07114583 -0.07195456 -0.06801314 0.03842009 0.041937735 -0.010059715 -0.0511491 0.068315834
0.056523368 -0.014368942 -0.041731257 0.08123312 0.015239975 -0.0670996 0.06337372 0.0451889
-0.053547364 0.04968791 -0.050221287 -0.034607533 0.055578787 -0.017402932 -0.06250984 -0.050460536
-0.023992589 -0.017052656 0.008458819 0.060816083 -0.015405891 -0.0545745 0.0045302804 0.042381078
0.022891635 -0.08078151 -0.036985196 -0.06568532 -0.03771403 0.013623452 -0.06276724 0.011911789
0.052375272 0.005797246 -0.058909744 -0.05277198 -0.0018060788 -0.08821014 0.043912243 -0.10256413
-0.10591775 -0.085883476 -0.039063055 0.03857998 -0.08365771 0.0521303 -0.056456167 0.005182725
-0.016708674 -0.10084981 0.07330302 0.047592126 0.06699226 0.023773279 -0.079578914 0.073767476
-0.016188502 0.041915208 -0.07087235 -0.025422832 -0.10783327 -0.05545029 0.019068118 -0.09053773
0.007104984 0.026461583 -0.008586378 -0.0802066 -0.08932957 -0.027269274 0.018136447 0.066240005
0.050825864 -0.0307866 0.009855227 -0.10704767 -0.0754926 0.020390006 -0.072156645 0.021455223
-0.083923794 -0.064691015 -0.093984686 0.025019253 -0.009006339 0.046954643 0.054701086 0.027786218
0.0028422254 -0.027327731 -0.019218424 -0.009300213 0.022729937 -0.08282731 0.053293645 -0.009610471
-0.07406463 -0.06883804 0.078207575 0.05996151 -0.08187233 0.06234015 0.044296633 0.052318696
0.053962708 -0.068662114 0.0068619824 0.015360918 -0.04699949 0.006844939 -0.04467762 0.033593394
-0.024523754 -0.08029371 0.02225168 0.031350784 -0.04318404 -0.039501097 0.003869821 -0.056135297
-0.019197812 -0.03712123 0.030980082 -0.11127433 -0.09930134 -0.044865087 0.049505454 -0.023783898
-0.00024133285 -0.08998426 0.08823721 0.08632626 -0.11398538 -0.07165377 -0.08263817 -0.046659105
-0.0382176 -0.05785421 -0.031702437 -0.030537315 -0.061446935 -0.027790325 -0.020268852 -0.09002581
0.012143276 0.072678044 -0.059757527 -0.04319115 -0.047913022 0.055464234 -0.083859615 -0.08473448
0.03974817 -0.05592242 -0.030368378 -0.007628453 -0.018619623 -0.034062777 0.056165542 -0.043066405
-0.10022445 -0.052180957 -0.030131614 -0.0028880867 -0.10457775 0.06774879 -0.019686677 -0.031641178
0.021945132 0.044424664 0.027609581 0.003830566 -0.02681295 -0.07432652 -0.053952884 0.057597328
-0.04523939 -0.09756858 0.036232896 0.054330263 -0.07246534 -0.12050184 -0.12718286 -0.009587249
-0.054033507 -0.044634987 0.017866101 0.0019904156 0.022930246 0.021353675 -0.013230296 -0.1252879
-0.12723699 0.035167802 -0.0082572065 -0.008842071 -0.09205971 0.081849 0.036571614 0.032459266
-0.074563086 -0.08063096 -0.108128555 0.036996495 -0.037978705 -0.08756687 0.03061853 -0.0881851
-0.059257388 -0.055047702 -0.052974164 -0.11622135 0.07368655 -0.086352125 0.03135266 0.029591117
0.0445757 0.01251401 0.07520585 -0.035476826 -0.08826807 0.036338985 -0.026402459 -0.08623882
-0.025163418 -0.075797 0.07749475 -0.06190234 -0.08056818 -0.0055563874 0.05550902 0.02296333
-0.019351007 -0.0391459 -0.014375212 -0.06876297 -0.082482606 -0.09839984 -0.112461574 -0.009066177

fc2.bias f4 [64]
00000000: 6459 0dbd 348e 263d 1914 ccbd 3120 313e
00000010: c123 393f 8c4c 003f a96a 94bc aad1 053e
00000020: 47bc abbd 6fc8 43bd 1324 c7bd 3d46 093f
00000030: 00a7 023d 1b61 2f3e 3345 aa3e 71e6 8dbd
00000040: 20e9 2c3d 5957 74bd 7e75 02bd 63a7 c6bd
00000050: cb54 b63a 912f 3c3d 5aaa 39bc ed07 303e
00000060: c726 14bc 9d66 873c 313a 243d 90aa 55bb
00000070: 533e bb3c 9307 383b 11bd 8ebb 9a31 0b3e
00000080: 994b 37bb f038 9ebd 6aa0 d2bc aa1a b1bd
00000090: 317c ffbc 5ec6 a7bb d15e ce3d ef5a 9fbc
000000a0: cd7e ad3e a43f 6f3d 6a74 5dbc 6560 503d
000000b0: 299a 433e 025b 563d 48d6 f2bd d50b 293d
000000c0: 01b3 233e eeab 25bd c040 dcbd 4edd e93e
000000d0: 01b4 a4bd c83a f0bb 2e1e aebd d271 a1bd
000000e0: 0a41 ddbc a66f 61bc a60c 5f3e 0873 97bd
000000f0: 3048 70bc 68af 5b3d 829b f2bc 17e0 e1bb
-0.034509078 0.04066296 -0.09964771 0.17297436 0.7232018 0.501168 -0.018117266 0.13068262
-0.083855204 -0.04779857 -0.097236775 0.536228 0.031897545 0.17126887 0.3325592 -0.06928719
0.042214513 -0.059653614 -0.03185033 -0.09699895 0.0013910768 0.0459438 -0.011332119 0.17190523
-0.009042448 0.016528422 0.04009456 -0.0032602884 0.022856867 0.0028080686 -0.0043560346 0.1359314
-0.0027968644 -0.07725704 -0.025711257 -0.08647664 -0.031187149 -0.0051200828 0.100766785 -0.01945254
0.33885804 0.0584103 -0.013516525 0.05087318 0.19101776 0.052332886 -0.11857277 0.04127105
0.15986253 -0.040447168 -0.107545376 0.45676655 -0.080421455 -0.007331226 -0.0850185 -0.078830376
-0.027008552 -0.013759529 0.21782169 -0.07394987 -0.014665648 0.053634077 -0.029615168 -0.0068931687

final.weight f4 [3, 64]
00000000: ec34 4c3c 9fef 863d b8d3 bc3d 5d10 20c0
00000010: 4ade 0fc0 01cf 93c0 d8df 0dbd 432d 3ac0
00000020: 1abf 1dbd 9503 17c0 8b22 e93c cc96 febf
00000030: 7c71 673d 2b51 bcbf d734 1bc0 ccb2 453d
00000040: 6866 8fbd 4013 1cbd 153f af3d 8f67 80bf
00000050: 340c e43c b0b0 8fbc 3110 fbbb 6cbb 1141
00000060: e04a b23c acc9 163d 0c50 013d 1d1f 583d
00000070: ecdc 703d 542b c9c0 e6ff e0bd e098 82c0
00000080: 2913 b83d 1866 8ebd e385 e0bd c0ea 823c
00000090: 547f f6bc de04 42bb e8e4 a5bf 3e59 c63d
000000a0: a3c0 40c0 c047 fcbd 5115 c33d f0ed 84bd
000000b0: 1f9b 8ec0 3b47 833d f75f c5be 2182 41bd
000000c0: 2bea 6bc0 6920 4dbd 44d0 a8be d1c0 99c0
000000d0: 42a9 d83c 1d0a 59bf 68f1 593d 5b05 5e3c
000000e0: c25e 903d 8b14 45bd 8934 dcbe 1933 a0bd
000000f0: 0964 b23d 801d 09bc 7c43 6d3d 76f1 973d
00000100: 177a c03b 1c96 18bd e1d8 283d f8cb 28c0
00000110: 64a2 08c0 693c 96c0 0128 83bd aff5 41c0
00000120: f2fc ad3c c7e6 5dc0 6adf be3d d5b8 05c0
00000130: 6007 e03d ece0 a1bf e735 1fc0 d641 9c3d
00000140: d8a0 f03d dc55 cbbd 8b2e aabd 7050 84bf
00000150: 1fae c03d ed80 4b3c 9452 12be 73e7 1341
00000160: ea80 92bd 8da4 713d e382 01be 8dfc f03c
00000170: d616 763c 31bc c5c0 5c85 00bd aa60 95c0
00000180: 9399 a1bd e0c8 45bd e591 ca3d 94f9 45bd
00000190: bf51 d83b cf5c 693d 8c6f 48bf c856 a93c
000001a0: d3dc 4ec0 283d 84bd eb3c b53d 3e49 9a3d
000001b0: 83d0 93c0 7c9e e1bc 6aa2 48bf eb42 1dbc
000001c0: 857d 6dc0 12c6 aabd 93f8 50bf 7610 abc0
000001d0: 3982 5c3d 5137 66bf e07d e2bc deaa 2b3d
000001e0: 8ac0 883d 93c1 f13d cebd fdbe 996e f5bd
000001f0: 780b 8b3c 30e7 db3d f016 d2bd 3a65 813d
00000200: 754a 773c ca41 c93c c6c9 ad3d 9391 04c0
00000210: 87d0 bcbf aa5b 9cc0 aa8a d73d 22e0 63c0
00000220: 84d4 d43d 0fa9 a2c0 2e10 803d 85a4 11c0
00000230: 775d c53d f2fb 70be 8c23 24c0 a23e 5ebc
00000240: 0ed1 cdbd e861 c03d 8351 153d 0146 47bf
00000250: f2e3 d9bd 543b 29bd 2015 c4ba 7519 0541
00000260: e6c2 943d 5d42 7cbd 1d96 b33b b4d9 ee3c
00000270: 5280 b5bd 2444 aac0 2ed8 f4bd de01 8ac0
00000280: 1e63 7d3d 53ff 4bbd 6a6f e4bc c241 a03d
00000290: eaaa 8d3d d852 783c 683e b83e 58b7 b13c
000002a0: 0532 79c0 eaa1 ad3d d8ed f4bb e22b 1c3d
000002b0: c815 9ec0 f2c6 883d 25ea 9cbf 40ab 63bc
000002c0: 001e 96c0 f879 f03c 9b4d 7bbf c8c5 bfc0
000002d0: 48f0 0fbe a409 2fbf 7d2a 813d afe5 c33d
000002e0: 8969 5f3d ecb8 77bd 55b6 5ebf 74ac 903d
000002f0: c6dd 283b 43af b6bd 2017 b9bd cab5 c3bd
0.012463789 0.06588673 0.0922007 -2.5009987 -2.2479424 -4.619019 -0.034637302 -2.9090126
-0.038512327 -2.3595936 0.028458854 -1.988977 0.05650471 -1.471227 -2.4251 0.048266217
-0.07001954 -0.038104296 0.08556954 -1.0031604 0.02783785 -0.017540306 -0.0076618423 9.108257
0.021764219 0.036813423 0.03157048 0.052764047 0.058804438 -6.286539 -0.10986309 -4.0811615
0.089880295 -0.069530666 -0.10963037 0.015981078 -0.030090012 -0.0029604952 -1.2960482 0.0968499
-3.0117576 -0.12318373 0.0952555 -0.064906955 -4.4564357 0.064100705 -0.38549778 -0.04724324
-3.6861675 -0.050079737 -0.32971394 -4.804787 0.026447896 -0.84781057 0.05320874 0.0135510815
0.070493236 -0.048115294 -0.4300883 -0.07822246 0.087104864 -0.00836885 0.057925686 0.07419102
0.0058739292 -0.03725253 0.041222457 -2.6374493 -2.1349115 -4.6948743 -0.064041145 -3.0306203
0.021238778 -3.4672105 0.093199566 -2.0894063 0.10938907 -1.2646766 -2.487665 0.07629745
0.117494285 -0.09928486 -0.083096586 -1.0337048 0.09408211 0.012420875 -0.14289314 9.244006
-0.07153495 0.05899482 -0.12647586 0.0294173 0.015020093 -6.1792226 -0.03137718 -4.66805
-0.0789062 -0.048287272 0.098911084 -0.04833372 0.006601542 0.056973275 -0.7829521 0.020671263
-3.232228 -0.06456977 0.0884951 0.07533501 -4.619203 -0.027541392 -0.78372824 -0.009598474
-3.710786 -0.0833856 -0.81629294 -5.3457594 0.053835128 -0.89928156 -0.027647913 0.041911
0.06677349 0.118044995 -0.49558872 -0.119839855 0.016973242 0.10737455 -0.10258281 0.063181356
0.0150934355 0.024567503 0.08485751 -2.0713851 -1.4751137 -4.8861895 0.10524495 -3.560555
0.10392097 -5.083137 0.06253086 -2.2756665 0.09636968 -0.2353361 -2.5646696 -0.0135647375
-0.1004964 0.09393674 0.03645469 -0.7784119 -0.1063918 -0.041316345 -0.0014959909 8.318715
0.072637364 -0.061586726 0.0054805414 0.029156543 -0.08862366 -5.320818 -0.119552955 -4.312728
0.061862104 -0.049804043 -0.027885158 0.07825042 0.06917365 0.01515647 0.35985112 0.02169387
-3.893678 0.08478148 -0.0074746422 0.038127787 -4.940159 0.06678571 -1.2258955 -0.01389581
-4.691162 0.029355034 -0.9816529 -5.992893 -0.14056504 -0.68374085 0.06306932 0.09565293
0.054544006 -0.06047909 -0.86996967 0.07064143 0.0025766953 -0.08920147 -0.09037614 -0.09556158

final.bias f4 [3]
00000000: a34e dfbf 332e 9bbf 71e8 16c0
-1.7445873 -1.2123474 -2.357937
