D2QN_AAAI_REWARD/checkpoint_d2qn_r-50_cheetah_0.pth (torch, 45655 bytes, 6 tensors)

fc1.weight f4 [128, 17]
00000000: 9923 8fbf ea3e 0340 de85 e03d 54b5 b9be
00000010: 9a05 aabf 0528 53bf 4cb2 a9bf 4e68 c6be
00000020: a694 efbe f481 0f3e fcab f73e 092d 363e
00000030: 83d9 eb3d ea3d 8ebe 4e7e 6f3e d1f6 7d3d
00000040: ba52 d43d cbb7 27bf 598d c2c0 bc79 993e
00000050: 9c4a 6bbd c632 cf3e db4e 43be 2288 8d3f
00000060: 375a 1e3e b288 adbf 27bf 8c3f a175 24be
00000070: 7cd2 f6bd f781 89be ffd0 ba3d 10b8 923e
00000080: ae79 903e 2183 62bc 5f7c f7be b9e6 bdbf
00000090: 2197 71bf e8ec 8ebf 89d2 d1bf 6a4e 1abf
000000a0: 7053 02bf f0dc adbf 55c2 96bf dccc 12bf
000000b0: 25fe cdbf b3d3 f5bd 0044 afbe 4bb4 d1bd
000000c0: 5989 373d b3fd 953e 208d 8ebd 6d7b 783d
000000d0: b959 70bf 56e1 d3bf b0a1 12c0 8751 3bbf
000000e0: 887d 873f af84 8c3e cea9 b33e 7366 79bf
000000f0: 1c3c 703f 67b4 c63e 5224 873e 3906 a53d
00000100: a9f9 1c3e bdb8 62bd 4fa4 b43d e5ab 193d
00000110: 325c 50c0 b1ac 9bbf ffa7 17c0 dd08 e2bf
00000120: ceb0 13c0 5a93 c13e b613 913e 659e 073e
00000130: f5f4 813e 677d 81bf 934e 813e 05ca 06bd
00000140: 2c4b 26bd 44bd 51bd 2211 063d 70da 543e
00000150: b059 ca3b c4fe cb3e f1eb 81bf d83b 1dc0
00000160: 2f93 d0bf efc9 21c0 84b2 29bf 75e6 8c3e
00000170: 55ce 3d3e 20be 263e 8e11 a43e 6f50 7c3e
00000180: a8e4 aabd d070 703e fce4 08bd f641 9fbd
00000190: b822 d73c 81b9 a9bd bbe5 be3e a237 92bf
000001a0: 33f6 49c0 68b3 15c0 9efa f3bf 2f4f 54bd
000001b0: 1b32 263e 2af4 9fbe cf7e 2b3f 8095 e63c
000001c0: e67b 413f 7a5b e43e a7e1 dd3d 0465 f9bd
000001d0: bc32 a3be 19c0 8bbc 2657 cabd 0019 4b40
000001e0: 6bf8 0540 cab5 d93f bc58 923f 9da8 873f
000001f0: 0233 95bf 3fb3 24bd 7762 653f d03b 9cbe
00000200: 6054 69bd 1e35 59be 4a5b 1bbd ac8c 31be
00000210: 3fde f83b f245 d8bb fd0e d0bc e87a 2b3d
00000220: 8e23 adbf e148 703f 01a7 943f c12b 313f
00000230: ae88 933e 49d9 af3e e45c 6ebd 9960 1cc0
00000240: 2207 fabf 7ff6 57bd c10d 303f c88d 9f3d
00000250: 84d4 68bd 241d 35bb 3e93 7fbe 8927 173e
00000260: 477b 9c3c 55f4 bd3f ab25 31bf b247 65bf
00000270: c581 00be 4cca 0ebf 629f 79bf 6c35 0cbf
00000280: 9d93 2ebf 9959 9e3e c310 66be 07e8 92bd
00000290: 47c7 1ebd f5c2 813c 933e 85bd f245 91bc
000002a0: 5e7e 21bd 49d7 4b3d 59ce c7be 06b9 183f
000002b0: 54a9 da3f a2d3 993f d15d 71bf ca87 05be
000002c0: e2e5 91bf c5aa 79bf 1d0e ecbf 519f 34be
000002d0: b5f3 7dbe 1245 19be e775 b6bb 7a95 ab3e
000002e0: fa90 37bc ac35 87bd cabe 6d3c 5c07 b4c0
000002f0: c7b1 1e3f 64d3 883e 7d81 c4bd f3e3 0f3e
00000300: cf4d 09be f473 e7bb 2104 2d3c 2a0a ab3e
00000310: eb64 65be ee0b 043e 0750 51bc f28e 83bd
00000320: 2880 bf3c b710 733d 16ce d83d fc73 4abb
00000330: 96e1 e1be 6e8e 4040 e209 b13e d126 663f
00000340: 8d7b 50be 31fb 86bf f8f6 8ebd b40e 483e
00000350: 2d46 c3be b542 46bf 5923 3cbf 6b34 04be
00000360: 168e 29be f819 1bbd e8b8 f6bd aaa8 423d
00000370: 9aeb 4f3b 3a53 fb40 e4c9 723a f3f2 d53e
00000380: 1fb7 fdbe f6c9 debd 70d0 b43f 7d10 813f
00000390: ee59 873e 74e1 90be b0e3 6abc b07d 313e
000003a0: 0f95 923d 0795 36bb 5b17 e43c 4c34 2d3c
000003b0: 08b7 3e3c cacc a0bc 1428 45c0 89f1 f63f
000003c0: ead5 933e 3b18 133f b64d 613e ae3c 97be
000003d0: 0d8d 593f e2b8 873d 57c7 143d fa47 46bf
000003e0: c5fc 15bd 1b16 e5bd 21b1 7bbd d9be a63d
000003f0: fc5d c63c 407f 6b3d 7efe 8a3c a3c4 1040
-1.1182739 2.050715 0.10963033 -0.36271155 -1.328296 -0.8248294 -1.3257537 -0.38751453
-0.46793097 0.14014417 0.483734 0.17790617 0.115160964 -0.27781612 0.23388025 0.06200296
0.10367341 -0.6551482 -6.0797544 0.29975688 -0.0574442 0.40468425 -0.1907305 1.105717
0.15464102 -1.3557341 1.0995835 -0.16060497 -0.120518655 -0.26856968 0.09121894 0.28656054
0.28217834 -0.013825209 -0.48337075 -1.4836036 -0.9437123 -1.1166048 -1.6392375 -0.602759
-0.50908566 -1.358305 -1.1778055 -0.5734384 -1.6093184 -0.12003269 -0.34231567 -0.10239466
0.04480872 0.2929512 -0.06960511 0.060664583 -0.93886906 -1.6553142 -2.2911186 -0.73171276
1.0585184 0.2744498 0.35090488 -0.9742195 0.9384172 0.3880951 0.26394898 0.080578275
0.15329613 -0.05535196 0.08820402 0.037517447 -3.2556272 -1.2162076 -2.3696287 -1.7658955
-2.3076663 0.37807733 0.2833535 0.13244016 0.253822 -1.0116395 0.2525526 -0.032907505
-0.040599033 -0.05120589 0.032731183 0.20786452 0.0061752424 0.39842808 -1.0150129 -2.4567776
-1.6294917 -2.52795 -0.6628802 0.27519575 0.1853574 0.16283464 0.32044643 0.24640058
-0.08344394 0.23480535 -0.0334215 -0.07776253 0.026261672 -0.08287335 0.37284645 -1.1423228
-3.1556518 -2.339075 -1.9060857 -0.051833328 0.16230051 -0.3124097 0.6699037 0.028147459
0.7557968 0.4460104 0.108340554 -0.1217747 -0.31874645 -0.017059373 -0.098799035 3.1734009
2.0932872 1.7008603 1.143333 1.0598332 -1.1656191 -0.040210005 0.8960337 -0.30514383
-0.056965232 -0.21211669 -0.037928857 -0.17338818 0.007594853 -0.006600135 -0.025397772 0.04186526
-1.3526475 0.93861204 1.1613466 0.6920739 0.28815216 0.34345463 -0.058194056 -2.4433959
-1.9533427 -0.05272531 0.68770987 0.077907145 -0.056843296 -0.0027635777 -0.24958512 0.14761175
0.019101752 1.4840189 -0.691981 -0.89562523 -0.12549503 -0.5577743 -0.97508824 -0.54769015
-0.6819399 0.30927733 -0.22467332 -0.07173162 -0.038764264 0.015840033 -0.06506076 -0.017733548
-0.039427154 0.04976586 -0.39024618 0.59657323 1.7082925 1.201771 -0.9428378 -0.1304008
-1.139828 -0.975262 -1.8441807 -0.176389 -0.24799998 -0.14967754 -0.0055682543 0.3351248
-0.011203999 -0.06602034 0.01451082 -5.6258984 0.61990017 0.26723778 -0.095950104 0.140518
-0.13408588 -0.0070633832 0.010560066 0.33406192 -0.22401778 0.12895176 -0.012775428 -0.06423749
0.02337654 0.059342112 0.10586183 -0.0030891886 -0.4411742 3.0086932 0.34577852 0.8990298
-0.20359631 -1.0545408 -0.06980699 0.19536859 -0.38139477 -0.77445537 -0.73491436 -0.12910621
-0.16558108 -0.037866563 -0.12046987 0.04752413 0.0031726123 7.8539095 0.00092616514 0.41786918
-0.49553773 -0.10878365 1.412611 1.0083157 0.26435798 -0.28297007 -0.0143365115 0.17333102
0.07157337 -0.0027859823 0.027843168 0.010571551 0.011640318 -0.019628901 -3.0805712 1.9292461
0.2887414 0.5745885 0.220023 -0.29538482 0.8498085 0.066270605 0.036322918 -0.7745358
-0.036618013 -0.11185857 -0.06144822 0.0814187 0.024214737 0.057494402 0.016967054 2.2620018

fc1.bias f4 [128]
00000000: 173d 9b3e d7d2 a5bf cd4b 04c0 d1ad bfbe
00000010: 7ec0 d9bf 09a5 95bf 12e4 efbe 1c3f ddbf
00000020: d16e 7fbf c714 1d40 95e1 0fbf 4130 dfbf
00000030: 5f6d d8bf 65c4 483f bf44 09c0 b73c 243f
00000040: 02ee 87bf d3e4 b7bf 14a7 f8be c9af 0fbf
00000050: 4d34 05bf acdc 573f 4992 9e3e 018d 91bf
00000060: 9b0e 8a3f 323e b7bd daf9 bdbe c412 84bf
00000070: 972a a3bf f3ce 1840 255f dbbe bf59 cdbf
00000080: 4c0c 07c0 c39d 0cc0 71fd cebe 086c d6bd
00000090: d1b5 91bf f1d7 eebf a607 913e b7a9 a2bf
000000a0: a320 85bf afd7 5fbf 271d bcbf 19be c8bf
000000b0: f7bf 713e 18ac a8bf 645b 0040 ec35 a5bf
000000c0: 5993 c3bf 027e 01c0 c3f0 a6be 2dd3 a9bf
000000d0: aeb5 2b40 25e1 88bf 30e5 8cbf e5b4 08c0
000000e0: 258c 94bf 88c2 1ec0 9dc2 edbf bab4 d33e
000000f0: 03a2 0a40 712a 5ebf 249d 463f 2975 d93f
00000100: ec3f 5fbf d6dc c0bf 8a4e a5bf d2eb bdbf
00000110: 8749 18c0 be2b c2bf ad90 c9bf a7d7 463f
00000120: dd16 4dbf 9a7e a7bf 8073 8cbf df34 3040
00000130: d488 15be bd2f f73f 9b35 a7be 2f70 2c40
00000140: c926 88bf 0ad3 c3bf e2dc acbf 6072 bd3e
00000150: f55a aabf df2c dfbf aa24 3040 76f7 dbbf
00000160: f810 31bf 2f48 eabf d920 14bf 2c7d 9bbf
00000170: fdf0 173f b52e 4bbf 3f20 af3f dc29 7f3f
00000180: 6cd0 3540 9272 1fc0 5ab7 15c0 f11d b83e
00000190: ddb6 1fbf 0b77 d23d 7d9d 6c3f ec10 ae3f
000001a0: c097 a23e bd88 32bf cdc1 94bf 1924 6abf
000001b0: 43a2 b8bf 0098 debf 8e73 eebf c3cd 0b3f
000001c0: 8bf7 64bf 6fc2 edbf 58d5 37be f2d6 c3bf
000001d0: 6e01 d73f 03a5 1f40 9ef0 0dbd 4615 e4bf
000001e0: 55b2 bbbf 1a54 e33e d541 683f e16b 3ec0
000001f0: 6cdd 25c0 148c efbf 28f1 c53d a515 3b40
0.30320045 -1.2954968 -2.0671265 -0.374373 -1.7011869 -1.169099 -0.4685369 -1.7284884
-0.9977847 2.4543931 -0.56203586 -1.7436601 -1.6908377 0.78424674 -2.144821 0.64155143
-1.0619509 -1.4366707 -0.4856497 -0.561276 -0.5203293 0.84321094 0.30970982 -1.1371156
1.0785707 -0.0894741 -0.37104684 -1.0318227 -1.2747372 2.3876312 -0.42846027 -1.6043013
-2.1101255 -2.197129 -0.40427735 -0.10469824 -1.1383611 -1.865965 0.28326148 -1.2708043
-1.0400585 -0.8743848 -1.4696397 -1.5683013 0.23608385 -1.3177519 2.005578 -1.2907081
-1.5279342 -2.023316 -0.32605562 -1.3267571 2.6829638 -1.0693709 -1.1007442 -2.136041
-1.1605269 -2.4806232 -1.8575016 0.4134882 2.1661384 -0.8678351 0.7758353 1.698888
-0.8720691 -1.5067394 -1.2914593 -1.4837592 -2.3794878 -1.5169599 -1.5747277 0.7767281
-0.8011301 -1.3085511 -1.0972748 2.753227 -0.14602977 1.9311444 -0.32658085 2.6943471
-1.0636836 -1.5298779 -1.3504908 0.37001324 -1.3309008 -1.7435569 2.7522378 -1.7184894
-0.6916652 -1.8303279 -0.5786262 -1.2147574 0.59352094 -0.79368144 1.3681716 0.9967325
2.840846 -2.4913678 -2.339316 0.35960343 -0.623884 0.10276612 0.9242781 1.3598914
0.317564 -0.69739896 -1.1621643 -0.9146133 -1.4424518 -1.7390137 -1.8629014 0.5461084
-0.8944022 -1.8574961 -0.17952478 -1.5299971 1.6797311 2.4944465 -0.0346533 -1.7818992
-1.4663798 0.44400102 0.9072545 -2.9753344 -2.5916395 -1.8714623 0.096651375 2.923196

fc2.weight f4 [64, 128]
00000000: 90e5 3c3f 0ee9 c83d 2b0b 4a3f 80a8 35bf
00000010: fb80 83bd 7741 e5bf 6c4c 61be 9185 b2bf
00000020: d6aa 1bbf fe04 803e d8d3 a2bf 2595 503e
00000030: b46e b1be 73fb 1bbe 0de7 e43e b407 2dbf
00000040: 25bc 063e 3a17 633e 9ee5 34bf 902d 773f
00000050: 367c 05c0 3b7e c73d 8863 ca3e d71e 8b3f
00000060: 7bb6 59be 2a0a ac3d 4489 923e 3519 c53e
00000070: 298f 37be c267 233e 56ab a0bf d76d 45bf
00000080: a244 debd 2e53 04bf 6b6a 06bf 01ca 693e
00000090: afa5 fcbf 53fb 74bf 263f 2d3f 4c8f 2bbf
000000a0: 790c c8bf f0e7 8e3e 17b7 c53d ace2 953e
000000b0: 132b 95bf 2258 c4be 706a da3e 0b46 033f
000000c0: 59c7 c0be a8a8 44be 0dbd 343f d4b0 763d
000000d0: 3b27 cdbe 042a 3abf 34eb c2be 5dc4 e1bc
000000e0: e1ba 083f 67f7 6fbe e573 5abe 439a d43e
000000f0: 6d16 853d 6f88 0fbd 447d 46c0 cc12 6a3e
00000100: ed5a 9ebf 3602 aabe 9eaa 5ebe 90ab 0dbe
00000110: 0b40 a33c 1e53 9fbc 7059 80be 0bcf 43bf
00000120: ac9a 2ec0 61b6 aa3d 8e8c 17bf 00f2 b73c
00000130: 0871 503d aa42 d03d 91d6 3f3f e032 a3bd
00000140: f0b1 d1be 9bc9 1cbe bd5b e63d c457 00c0
00000150: a547 1d3f 75d3 81be e5f4 cfbe 2bfd 353d
00000160: ae3f a8be f4b6 9cbf bd63 b33d 3c1c 243f
00000170: 1aa9 263e a60c 6c3f b2ff 1f3f ba8a 813e
00000180: 8702 3f3e e37d d0bf cb76 cdbd 6279 17bf
00000190: 3ff8 00bc d47f 1ebe 0992 103e 7fb1 2dbf
000001a0: 7801 90bf 013b 0e3f caf8 b9bf 7f7f 803f
000001b0: 183c fc3e a708 c2bd 3f4c dabf b5d3 1d3f
000001c0: 517c 0abd 6d36 973f df0e d8bb 39ac 963e
000001d0: b076 1cbf e24f 463e e3b5 a73d e260 9dbe
000001e0: ae76 b4be cb63 9b3e 719e 08c0 168d cdbe
000001f0: 7273 ebbd dc38 dbbe b552 8f3e 51a5 bb3d
00000200: ac07 0ebe 9569 b7bf c0a4 d8bd 90b3 85be
00000210: 5cb5 5a3e 1e0a 90bd 1c99 f5be a73a 4a3f
00000220: fecb ab3e d7e0 7f3e bd42 83bf d9a6 10bf
00000230: 83c6 cc3e c5be 0140 ba2a c6be 5a7f 903f
00000240: 61c9 cb3e 98d4 09bf 8325 cc3e d887 31bf
00000250: d8de 3a3f ea1a 3c3d 69c6 cabe 840c 733f
00000260: 0253 733e bfe0 26bf 7141 e23e 6025 fd3e
00000270: 46ce d03e 81f1 15bf 746b 6fbf aaa0 343f
00000280: e60e b03e 3209 743f d727 cfbe c69f 523f
00000290: 8466 f53c 9cbe ca3d 41bf 01bf 4be9 d73e
000002a0: d260 a33e 507f 28c0 16b4 a4be c943 13bf
000002b0: 449f ecbe 0960 783e 2377 ddbe f9b9 aabe
000002c0: ff23 9ebe df4e 0fc0 6baa 09bf ae1b c9bf
000002d0: 7754 ba3e 6bd4 96bf d541 1ebf 8655 6ebf
000002e0: b515 3fbc d462 81be a23c 39c0 ddff 4bbb
000002f0: 9c06 4d3e 36a0 7fbe 1d5f f0be 0ed2 633e
00000300: 0855 14bf 0da9 913e 4391 4e3e ed43 6d3f
00000310: d5c9 b6bf 484b 08bf 5681 babf 77c1 52bf
00000320: 9f87 fe3e f722 6dbe ce43 aebf f8cc 713d
00000330: 88df 5bbf 6ef3 cf3e 57ac 2f3f 8f79 25be
00000340: 6cca 9c3e a430 64bd e552 45be b88a 69be
00000350: 5050 58bf 5d2c 0e3f a517 95be bd8c 93bf
00000360: 4cce 083f b51d 75bf c0dc 70be 008e 80bf
00000370: a9cb f8bd 8376 ee3f 2ff5 8cbe 91e0 1a3f
00000380: e37a bbbc 399f 98be b579 0abf 6ee5 ac3e
00000390: a7a9 90be 0a16 0e3f 6970 88bf 52c3 ebbf
000003a0: 8808 9bbe b4b1 273e 945d c5be 9cb1 063f
000003b0: 3015 41bf 4928 a7be c946 7cbf 9c58 88bf
000003c0: 7e10 87bb ea97 963f 5469 15bf 8dea 1a3f
000003d0: 7d87 373e 4dbd 293f c306 d73d 0791 a9bf
000003e0: f0b3 283f 19cd bfbf 3931 b1bf acd1 e6bf
000003f0: 64e6 cebf 822f 53bf 615f 413e a7ea 23be
0.73787785 0.09810077 0.7892329 -0.70960236 -0.064210854 -1.7910603 -0.22001809 -1.3947011
-0.6080755 0.2500381 -1.27209 0.20369394 -0.34654772 -0.15232639 0.44707528 -0.6758988
0.13157709 0.22176829 -0.7066287 0.965539 -2.0857062 0.097408734 0.3952906 1.0868787
-0.21261017 0.08400376 0.2862035 0.38495794 -0.17925705 0.15957549 -1.2552288 -0.7712073
-0.108529344 -0.5168942 -0.5250613 0.22830965 -1.9738063 -0.9569599 0.6767448 -0.6701553
-1.5628806 0.2791133 0.09654062 0.292745 -1.165377 -0.3834849 0.4265933 0.5127875
-0.3765209 -0.19204962 0.7060097 0.06022723 -0.40068993 -0.7272036 -0.3807007 -0.027559454
0.53410155 -0.2343422 -0.21333273 0.41523942 0.06498418 -0.035042223 -3.1013956 0.22858733
-1.2371498 -0.33204812 -0.21744773 -0.13834977 0.019927999 -0.019448813 -0.25068235 -0.764878
-2.7281904 0.08335567 -0.59198844 0.022454262 0.050889045 0.10168965 0.7493678 -0.07968688
-0.40956068 -0.15311281 0.112479664 -2.0053568 0.61437446 -0.2535664 -0.40616527 0.044430893
-0.32861084 -1.2243333 0.08759258 0.6410558 0.16275445 0.922068 0.62499535 0.25301152
0.18653308 -1.6288418 -0.100324236 -0.5916959 -0.0078716865 -0.1547845 0.14118208 -0.6784896
-1.1250448 0.5555878 -1.4529049 1.0038909 0.49264598 -0.094743066 -1.7054518 0.61651164
-0.033809964 1.1813484 -0.0065935696 0.2942827 -0.611186 0.1936641 0.08188989 -0.30737978
-0.35246795 0.30349573 -2.1346705 -0.40146703 -0.11496629 -0.42816818 0.27992788 0.09162391
-0.13870114 -1.4329096 -0.105782986 -0.26113558 0.21358246 -0.0703318 -0.47968376 0.78995746
0.3355407 0.24988113 -1.0254742 -0.5650459 0.39995202 2.0272686 -0.38704473 1.1288865
0.39802077 -0.5384002 0.3987237 -0.69347906 0.7299628 0.045924105 -0.396045 0.9494097
0.23762134 -0.65186685 0.44190553 0.49442577 0.40782374 -0.5857163 -0.93523335 0.70557654
0.34386367 0.9532653 -0.40460083 0.82275045 0.02995611 0.09899637 -0.50682455 0.42170176
0.31909806 -2.6327705 -0.32168645 -0.57525307 -0.4621526 0.24255385 -0.43254957 -0.3334501
-0.30886838 -2.239189 -0.5377566 -1.5711572 0.36392567 -1.1783575 -0.618192 -0.9309925
-0.01166289 -0.25270712 -2.8943257 -0.0031127848 0.20022053 -0.2496346 -0.46947566 0.22248098
-0.5794225 0.28449288 0.201726 0.9268177 -1.4280344 -0.5323987 -1.457072 -0.82326454
0.49712846 -0.2315787 -1.3614442 0.059033364 -0.85887957 0.4061541 0.68622345 -0.16159652
0.30623186 -0.05571045 -0.19269903 -0.22806823 -0.8449755 0.55536443 -0.29119602 -1.1527325
0.53439784 -0.95748454 -0.2352171 -1.0043335 -0.1214822 1.8629917 -0.2753081 0.6049891
-0.022885745 -0.29808977 -0.5409196 0.3376879 -0.28254434 0.5550238 -1.0659305 -1.8418982
-0.30279946 0.16376382 -0.38547957 0.5261476 -0.75422955 -0.32647923 -0.9854551 -1.0652041
-0.004121839 1.176511 -0.5836384 0.60514146 0.17922778 0.66304475 0.104993366 -1.3247384
0.6589956 -1.4984466 -1.3843147 -1.8032737 -1.616406 -0.82494366 0.1888404 -0.16007482

fc2.bias f4 [64]
00000000: 4f4a 9a3f 38c9 04bf 925a 5340 328f 9ebf
00000010: 56da d2be 0513 4940 1760 d8be a5a2 3c40
00000020: 4f26 8c3f ae3c abbd 3c53 4740 87a7 06bf
00000030: 6f26 e73e bf1c 2640 7ede b73f 39dd 9bbd
00000040: c1ed d83f 606a 0140 726d 4b3e 3d20 d13f
00000050: 8da7 a1bd 1b3c 78bf bef9 b4bf 29a7 95bf
00000060: 7603 41be 51df f33f 44db c5be a9fa 4a40
00000070: 73ae 4540 ca0d 0c3f a149 adbf 928a 9fbd
00000080: a47e 95bd 90c2 4240 86a8 a23f 54a9 5440
00000090: 2859 d5bf 06c2 1940 f8a1 5f3d 2404 38bf
000000a0: e98e 83be e2d6 57bf ad4a 2e40 11df 35bf
000000b0: 3a2c 8bbf 11a1 fc3f b7d1 b4be 2a4c c6bf
000000c0: e6e2 8c3e dff2 e03f d088 3340 1558 dabf
000000d0: b25c fc3f 1874 cdbd 434a 893d 14b9 dd3f
000000e0: 6da7 1c40 4999 4bbf cbda dcbc 0c67 c8bf
000000f0: 1dc3 313d f5cb 5540 64dd 7f3f 4f34 1040
1.2053927 -0.51869535 3.302403 -1.238745 -0.41182202 3.1417859 -0.4226081 2.947427
1.0949191 -0.08361183 3.1144552 -0.52599376 0.4514651 2.5955045 1.4364774 -0.07610554
1.6947557 2.0221176 0.19865969 1.6337963 -0.07893286 -0.96966714 -1.4138715 -1.1691638
-0.18848976 1.9052526 -0.3864385 3.171549 3.0887725 0.5470854 -1.3538095 -0.07790102
-0.072995454 3.0431252 1.2707679 3.322835 -1.6667833 2.4024673 0.054597825 -0.7188132
-0.2569497 -0.8431226 2.7233078 -0.710435 -1.0872872 1.9736654 -0.3531625 -1.5491993
0.2751686 1.7574118 2.8052254 -1.705813 1.9715788 -0.10031909 0.067036174 1.7322106
2.4477189 -0.7953077 -0.026959797 -1.5656447 0.043398965 3.3405735 0.9994719 2.2531927

final.weight f4 [6, 64]
00000000: deed 21be 36df 8dbe 583e 013f e6bb 1abe
00000010: 9e15 333e 8bb8 033f 191b ccbe 721c f83e
00000020: dea3 303e 5012 63bd 0e57 de3e 5815 f0bc
00000030: f69b 9c3e f8fb 283d fe0e 6b3e a182 a7be
00000040: 11be 1f3e 219b 0d3e 7c93 c63d b473 033e
00000050: 4dba 793d 30a1 edbd 0ffa dbbe 2b1f 33be
00000060: 7989 163f 8a36 3a3e 22ac 703d 793d fa3e
00000070: 8d7a d43e 8370 343e a5b7 e2bd c20f efbd
00000080: 5c68 d2bd 75a0 923e c4fe e8bd 3ef6 2b3f
00000090: 11de 11be 28d3 c53e 5a7e 4a3e 669f 0b3e
000000a0: f471 02be f210 f7be 89e0 8f3d 2a6d 9cbe
000000b0: 657c 95be efee f53d d678 67be 3ab5 2dbe
000000c0: 8d01 0d3f 6ebb a9bd 0cff 993e be10 07bd
000000d0: d325 e33d 3832 b8bc 9166 003e c9c3 193c
000000e0: 9483 353c 4a63 79be 387f a03c fed6 5fbe
000000f0: d056 a53d 7bb0 1c3f dece 6f3e 15c3 8c3e
00000100: 8227 1b3d 5670 983d 10fd 193f 3d14 f8bd
00000110: d497 0dbf 4db2 f13e 5cf2 68be 2900 2d3e
00000120: e630 803e 5e5a e13d 44b1 043f e14d 20bf
00000130: e5b1 293e 2731 8d3d 4bb4 9f3d b9c7 8d3e
00000140: da14 543e 82c8 ea3c 8821 ed3e d711 b73c
00000150: 33ff 3dbb ed9b 94be 7bb4 edbc 87bc cfbd
00000160: f915 dc3c 0492 a73d 8110 65be 15fc f23e
00000170: 713f e73e 00ac d33a 1591 0dbe 149a d03c
00000180: d0e6 cabd 35b2 a83e e253 9a3d a2dd 163f
00000190: 28cd efbd 53a2 3b3e 9875 73bd 418c 1abe
000001a0: 8149 323e 9c5d 7bbc 4d48 6a3d 791b 0cbe
000001b0: 260e bbbd 6b37 e8bd 1a90 86be e50e 2dbe
000001c0: 7200 733e 1476 e33d db74 413e a0fe d6be
000001d0: efb8 4c3e f1ed 643b f80c b33e 120c ab3e
000001e0: c3bf 2dbc eb11 85bd 10d4 533d c9a6 c53c
000001f0: c219 6039 669d 293f 01b2 8dbd 3e6c 243e
00000200: d88f 043d 9aa9 8b3d 4763 173f 5444 d5bd
00000210: 0bf6 b4be be35 db3e 3e89 a3be 1ddb 493e
00000220: c126 773e c689 8b3d 01df 0c3f 08c3 08bf
00000230: a223 163e 82a8 ec3d 300b b53d 0e68 a73e
00000240: 6068 493e cbac 143d 846c 083f 3285 bbbb
00000250: 4be3 ab3d a226 84be f8aa b3bc 9204 b0bd
00000260: 1baf 993c 377d a23d 2c89 83be 32e8 fd3e
00000270: 9136 e63e b7d1 83bb 1d7e 1dbe 22cb e1bd
00000280: 54ed c7bd 0b8b be3e 7c3a d43d 3c49 163f
00000290: eec8 c8bd e5a8 303e 195d 25be a5a2 26be
000002a0: 744b 4c3c 9da0 9dbd f262 b93c fb20 f5bd
000002b0: 4f6b a7bd 3d3b cfbd 2677 21be 9bc3 13be
000002c0: 6292 593e 8031 033e e66e de3d 5d2a dabe
000002d0: fff1 453e b569 943c b673 b03e f7ed aa3e
000002e0: c556 063e 00a3 a3bd 9030 da3d 82ae 0a3d
000002f0: 4036 11bd aaf0 263f a04d a8bd bf51 293e
00000300: 9534 5ebd a22d 433e fd5e 1b3f 67cd fdbd
00000310: d65d 87bd e460 e63e 01ec 25bf e2bb 5e3e
00000320: 3f92 7d3e d83e a73d a88f 103f e85e 53be
00000330: 92a9 6e3e 59c2 943d 0a0c f13d e7fe 6e3e
00000340: 3cae 523e 4a88 71bc 5c17 193f d556 533c
00000350: af9f 0e3c e9c0 89be 930b 12bc d029 3ebe
00000360: aff1 3abe a766 313d d600 8ebe 561b ea3e
00000370: 852f e73e 4b9a a93d 48b0 f6bd 6aae 66bd
00000380: aea7 473c a2ca be3e d22b ec3d 04df 153f
00000390: 3463 bdbd d679 483e 467f edbd 6668 26be
000003a0: cfb0 303e 0cd5 b3bd 06f2 e93b 12da ffbd
000003b0: a76e bbbd 7ef7 12be 0a5f 9fbe 25a7 03be
000003c0: 3669 713e c1bc 083e 85ac 163e 7791 c7be
000003d0: e383 593e 8836 8abc cad9 9f3e 70d5 ac3e
000003e0: 4e5e 3a3d 9b8e 44bd 7198 71bc f874 94bd
000003f0: df46 76bd e83e 253f 7040 0fbd 7c01 0a3e
-0.15813395 -0.2770936 0.50485754 -0.1511074 0.17488715 0.51453465 -0.39864424 0.48459202
0.1725001 -0.055437386 0.43425792 -0.029307052 0.3058774 0.04125592 0.22954938 -0.3271685
0.15599848 0.13828708 0.09696099 0.12837106 0.060968686 -0.1160301 -0.42964217 -0.17492358
0.58803517 0.18184868 0.05875791 0.48875025 0.4149975 0.17621045 -0.11070184 -0.116729274
-0.10273811 0.28638044 -0.11376718 0.6717261 -0.14244868 0.38637662 0.19774762 0.13635024
-0.12738782 -0.48255116 0.070252486 -0.30552036 -0.29196468 0.120084636 -0.22604689 -0.16963664
0.5508049 -0.082877025 0.30077398 -0.03297495 0.11091199 -0.022484884 0.12539126 0.009385058
0.011078734 -0.24354282 0.019591913 -0.21859357 0.08073199 0.6120679 0.23418757 0.27492586
0.037879474 0.074433014 0.6015177 -0.12113235 -0.55309796 0.47206345 -0.22748703 0.16894592
0.25037307 0.11003564 0.51832986 -0.62618834 0.16571768 0.06894141 0.0779806 0.2769144
0.20711079 0.028660063 0.46314645 0.022347374 -0.0028991222 -0.29025212 -0.029016724 -0.101433806
0.026865946 0.08182147 -0.22369577 0.47457948 0.4516559 0.0016149282 -0.13824876 0.025464095
-0.09907305 0.3294846 0.075355306 0.58931935 -0.11709052 0.1832364 -0.059438318 -0.15092565
0.17410852 -0.015342142 0.057197858 -0.13682355 -0.09133558 -0.11338695 -0.26281816 -0.16900213
0.23730639 0.11106506 0.18892233 -0.41991138 0.19992422 0.0034931863 0.34970832 0.33407646
-0.010604802 -0.06497558 0.05171591 0.02412738 0.000213719 0.66255796 -0.06918717 0.16056916
0.032363743 0.06819458 0.5913586 -0.10413423 -0.35343966 0.4281444 -0.31940645 0.19712491
0.24135877 0.068133876 0.55027777 -0.53422594 0.1466203 0.11555578 0.088400245 0.32696575
0.19668722 0.0362976 0.5329058 -0.005722665 0.08392962 -0.25810724 -0.02193211 -0.08594622
0.018760255 0.07934039 -0.2569059 0.49591213 0.44963506 -0.0040228027 -0.1538014 -0.11025073
-0.097620636 0.37215456 0.103627175 0.58705497 -0.09803949 0.17251928 -0.16148795 -0.16272981
0.012469161 -0.0769665 0.022630189 -0.11969181 -0.08174764 -0.10118721 -0.15768108 -0.14430086
0.21247247 0.12811852 0.10860996 -0.42610446 0.19330595 0.018116811 0.3446328 0.33384678
0.13119037 -0.07990074 0.10653794 0.03385783 -0.035452127 0.65210974 -0.08217931 0.1653509
-0.054249365 0.19060376 0.60691816 -0.12392693 -0.06609695 0.44995797 -0.6481324 0.21751359
0.2476282 0.08166283 0.564692 -0.20641673 0.23306873 0.072636314 0.117698744 0.23339425
0.20574278 -0.0147419665 0.5980127 0.01289912 0.008705064 -0.2690499 -0.008913892 -0.18570638
-0.18256257 0.043310788 -0.27735013 0.4572398 0.45153442 0.08281382 -0.12045342 -0.056318678
0.012185974 0.37263972 0.115317956 0.5854342 -0.09247437 0.19577727 -0.11596541 -0.16250762
0.17254947 -0.0878087 0.007139447 -0.124927655 -0.09151965 -0.14352223 -0.31127197 -0.1285673
0.23575291 0.13353254 0.14714248 -0.38978168 0.21241717 -0.016871706 0.31220847 0.3375659
0.045500092 -0.04798756 -0.0147458175 -0.072488725 -0.06012618 0.6454911 -0.03497356 0.13477129

final.bias f4 [6]
00000000: 9029 3040 2286 2940 bff2 d33f ce09 bf3f
00000010: 0f68 983f 0e6c 663f
2.7525368 2.6488118 1.6558455 1.4924867 1.1906756 0.9000863
