D2QN_AAAI_REWARD/checkpoint_d2qn_-50_1000_cheetah_20.pth (torch, 45655 bytes, 6 tensors)

fc1.weight f4 [128, 17]
0.031357355 3.0755622 0.3318965 0.63086706 0.3149062 -1.0364102 -0.77612746 0.0324945
0.1425918 -1.070947 -0.6283159 -0.18059456 -0.10112414 -0.013349909 -0.014687411 -0.11086763
-0.0037464052 1.8677853 -0.80371 1.2980188 0.022937663 -0.42777836 -1.7398547 -1.4020537
-1.402018 0.092315815 -0.47399125 -1.9452176 -0.4099409 0.022303633 -0.41447967 -0.04687773
-0.098309174 0.09169092 -4.5707126 -0.5246535 -0.41243935 -0.7185868 -0.5868758 0.28635573
0.9848895 0.6513261 0.3587979 -1.1491829 -0.036772452 -0.09947983 -0.052352764 -0.023273367
-0.02138459 0.040134773 0.020494493 -0.857795 -1.5303937 -2.2968168 -3.0270464 -1.1976511
0.75051075 0.091941066 -0.08608973 -0.08189943 0.05594061 0.41366208 0.27885318 -0.048557036
0.19644397 -0.043487508 0.05278181 0.031617824 0.48714727 -0.12666442 -0.35003322 -1.8158638
-0.80127746 -2.0942066 -2.547664 -1.455409 -0.9907154 1.0265592 0.46504515 0.32308894
0.1677917 0.18632483 -0.30907115 -0.2481154 -0.24163227 0.4435314 -2.4316654 -2.6474729
-2.2502213 -2.0936494 -1.1138649 -0.50708604 -1.3835938 -1.1820334 0.56845284 -1.1189566
0.4976484 -0.16764568 -0.67069167 -0.32251328 -0.0828377 0.25270158 0.028679485 -1.519113
-2.3966744 -1.9886317 -1.359535 0.66919214 -0.06949079 0.17472208 -0.5051984 0.79328984
0.36823204 0.3360018 0.1301916 -0.13838859 -0.08248219 -0.1057988 -0.0047326447 0.49733922
0.057447955 -2.2979593 -0.84682107 -1.9734793 -1.8625839 -0.06812931 0.3052006 1.8110228
0.75004286 -0.9363921 -0.11721662 0.03036474 -0.15287238 0.054047104 -0.006974628 -0.10109977
1.4807936 2.278172 0.71421415 0.642718 -0.37953365 -0.870092 -0.4595617 -0.71131265
-1.3137072 1.2093732 -0.773142 0.20795451 -0.12569186 -0.19062038 -0.19557466 -0.14994948
-0.16964598 0.56624097 -1.1613789 -1.4532905 -1.0243325 -1.0541304 -1.3593217 -1.4658518
-1.2321562 0.22500543 0.019757641 -0.35562542 0.22926447 0.06196665 -0.47524303 -0.0831489
0.01712379 0.012515498 1.7870711 -1.089572 1.0349939 0.43255118 -0.7834651 -0.03971556
-1.0988972 -0.2689141 -0.5209418 -0.56587696 0.7935704 0.18483764 -0.3149708 0.4409328
-0.23216026 0.028063701 0.031895347 -5.152758 -0.91218936 1.264693 0.56215507 0.25671506
-1.4352413 -2.5963738 -1.0463257 -0.3200339 -0.17237805 0.12466856 0.020707782 0.034240026
0.058043223 0.0030355868 -0.050430484 0.0032835098 -5.1288223 1.1149889 0.18955976 0.9099906
0.39043412 -0.7354621 0.12731394 -0.5760484 -0.32763702 -0.31898585 -0.25393948 -0.051199425
0.075828694 0.021215132 -0.18064398 -0.22644672 0.017081397 1.2710366 1.6696087 0.69647735
-0.29075834 0.00818655 -0.13783054 0.4475159 0.76738524 0.10571986 0.67157173 0.9489975
0.0763484 0.14793731 0.054264456 0.036456306 0.050007265 0.03188187 -0.9819501 1.8053426
0.44762266 1.1177065 0.27813247 -0.4418163 0.81862503 0.07543729 0.18466315 -1.2628813
-0.53324306 -0.14216512 -0.2382021 0.03685748 -0.117038675 0.06404447 -0.025795784 3.3872154
00000000: 9270 003d 03d6 4440 57ee a93e 8180 213f
00000010: 633b a13e 17a9 84bf 4ab0 46bf f418 053d
00000020: 9603 123e cb14 89bf 50d9 20bf c8ed 38be
00000030: 2c1a cfbd 94b9 5abc 77a3 70bc 910e e3bd
00000040: 4086 75bb 9713 ef3f f0bf 4dbf 7b25 a63f
00000050: c4e7 bb3c c405 dbbe 8fb3 debf 7f76 b3bf
00000060: 5375 b3bf 1310 bd3d fbae f2be e4fc f8bf
00000070: c6e3 d1be 1cb6 b63c ae36 d4be dd02 40bd
00000080: 5256 c9bd 73c8 bb3d 4743 92c0 b14f 06bf
00000090: 402b d3be 4ef5 37bf 7e3d 16bf 389d 923e
000000a0: b821 7c3f 4fbd 263f 5cb4 b73e 6d18 93bf
000000b0: b69e 16bd 15bc cbbd da6f 56bd caa7 bebc
000000c0: bc2e afbc 5c64 243d 11e4 a73c 7498 5bbf
000000d0: f1e3 c3bf 0cff 12c0 21bb 41c0 a24c 99bf
000000e0: 7921 403f 994b bc3d d04f b0bd e3ba a7bd
000000f0: fb21 653d 84cb d33e d8c5 8e3e bee3 46bd
00000100: 9c28 493e f51f 32bd bd31 583d b181 013d
00000110: 5e6b f93e 51b4 01be 8e37 b3be 3a6e e8bf
00000120: 8520 4dbf 7b07 06c0 ed0c 23c0 d84a babf
00000130: 869f 7dbf 4b66 833f 661a ee3e ea6b a53e
00000140: 96d1 2b3e f0cb 3e3e 933e 9ebe f711 7ebe
00000150: 736e 77be 8c16 e33e 68a0 1bc0 3270 29c0
00000160: a003 10c0 5afe 05c0 2093 8ebf 64d0 01bf
00000170: 9a19 b1bf df4c 97bf 2086 113f f839 8fbf
00000180: c5cb fe3e 4fab 2bbe 73b2 2bbf 7620 a5be
00000190: d0a6 a9bd 1a62 813e 3df1 ea3c 4b72 c2bf
000001a0: 1d63 19c0 7c8b febf 3e05 aebf 2d50 2b3f
000001b0: 3051 8ebd 58ea 323e af54 01bf 0b15 4b3f
000001c0: e988 bc3e 6e08 ac3e f250 053e bdb5 0dbe
000001d0: 6cec a8bd 0bad d8bd 4d14 9bbb 3fa3 fe3e
000001e0: 8c4e 6b3d c411 13c0 44c9 58bf f89a fcbf
000001f0: 2669 eebf 6187 8bbd 4143 9c3e 98cf e73f
00000200: cf02 403f 65b7 6fbf 440f f0bd 7abf f83c
00000210: 948a 1cbe 7f60 5d3d 6c8b e4bb 650d cfbd
00000220: a58a bd3f 92cd 1140 bdd6 363f 2b89 243f
00000230: 3c52 c2be 59be 5ebf ac4b ebbe 9618 36bf
00000240: 8f27 a8bf becc 9a3f a2ec 45bf 07f2 543e
00000250: 5eb5 00be fd31 43be b944 48be 5b8c 19be
00000260: adb7 2dbe 2bf5 103f 10a8 94bf 6c05 babf
00000270: 541d 83bf bfed 86bf 41fe adbf 08a1 bbbf
00000280: 4bb7 9dbf d367 663e c7da a13c 8914 b6be
00000290: 4ec4 6a3e bed0 7d3d 0e53 f3be f849 aabd
000002a0: 3147 8c3c ce0d 4d3c bfbe e43f 1877 8bbf
000002b0: ae7a 843f 5977 dd3e 2b91 48bf c8ac 22bd
000002c0: aaa8 8cbf 1caf 89be 715c 05bf 50dd 10bf
000002d0: 6e27 4b3f 1446 3d3e da43 a1be f2c1 e13e
000002e0: 6bbb 6dbe d9e5 e53c b2a4 023d 65e3 a4c0
000002f0: 3e85 69bf 76e1 a13f 65e9 0f3f 2870 833e
00000300: fdb5 b7bf fd2a 26c0 00ee 85bf 7cdb a3be
00000310: df83 30be 3b52 ff3d 5ea3 a93c 453f 0c3d
00000320: bbbe 6d3d b2f0 463b 3290 4ebd 2730 573b
00000330: 501f a4c0 f5b7 8e3f f41b 423e 25f5 683f
00000340: fbe6 c73e 3f47 3cbf 965e 023e e877 13bf
00000350: 0ac0 a7be 1d52 a3be 5b04 82be 7db6 51bd
00000360: 134c 9b3d 5bcb ad3c bcfa 38be a6e1 67be
00000370: 49ee 8b3c 54b1 a23f bdb5 d53f 574c 323f
00000380: 47de 94be e120 063c 7323 0dbe ce20 e53e
00000390: 5c73 443f a783 d83d 20ec 2b3f 80f1 723f
000003a0: 8d5c 9c3d e17c 173e 6844 5e3d 3553 153d
000003b0: 6bd4 4c3d 9096 023d 1561 7bbf 7715 e73f
000003c0: cc2e e53e 0211 8f3f 6167 8e3e bf35 e2be
000003d0: 6991 513f de7e 9a3d 5618 3d3e 18a6 a1bf
000003e0: 9e82 08bf bc93 11be 40eb 73be def7 163d
000003f0: f9b1 efbd bf29 833d ae51 d3bc 23c8 5840

fc1.bias f4 [128]
-1.4775083 -2.0647633 -1.7289286 -0.71098727 0.40797463 -1.9158995 0.7214357 -1.1149417
-0.9487644 -0.3391215 -0.645188 0.42038834 -2.0045798 -1.3654233 -2.0600824 0.14243303
-1.1470294 -1.041259 -0.74269944 -2.2205498 -1.5714054 -0.44394755 -0.4189866 -1.279345
-2.0693114 0.70931 2.9905243 -1.455685 -0.95758814 0.35903892 -1.6654882 -0.12740442
-2.4261572 -0.37672773 -0.87975776 -1.1051198 -0.6961465 -2.0431592 -1.0658966 -0.6499507
0.3299363 -2.0088162 -1.7527955 0.54899913 1.8172174 -0.97591215 1.7050183 -1.3413469
-2.0732663 -0.8616415 0.81156677 -0.9454538 2.550667 0.68143046 -1.6439011 -1.4154751
-0.67221403 -2.5255392 -2.352073 -1.7051121 2.5703585 -0.060625773 0.6560621 1.9185922
-1.5533311 -2.2457297 -1.3619564 -0.8553486 -0.036267098 -1.5422602 -2.2082233 0.70063114
-0.69672436 -0.39776492 -1.1375718 2.8881106 -0.9731724 -0.5004568 -2.0521057 2.7196302
-0.45743257 0.99597734 0.69995934 0.8115795 -0.9906591 -1.67335 0.78104883 -0.8916953
0.6688263 -1.9522707 -0.4001854 2.097054 1.9105837 -1.3005217 2.5900002 0.07609081
0.6770299 -1.2390718 -1.178479 1.615922 1.2080292 -0.8744788 0.70616937 2.6194024
0.5390237 -1.3164465 -0.4426476 -0.83435124 -0.26818874 -1.6403662 -1.9596812 0.11067464
-1.6687666 -1.7676765 1.2956609 -2.3274446 0.5568388 2.4628987 2.6493187 0.28274757
-1.3957342 -0.54599625 -0.35913146 -2.5932207 -2.3557742 -1.1567452 -1.128067 2.316034
00000000: fe1e bdbf 1525 04c0 884d ddbf 4303 36bf
00000010: 0de2 d03e 323c f5bf 03b0 383f 69b6 8ebf
00000020: 39e2 72bf 55a1 adbe 0a2b 25bf 243d d73e
00000030: 094b 00c0 31c6 aebf 64d8 03c0 f7d9 113e
00000040: dcd1 92bf fa47 85bf 8d21 3ebf 7d1d 0ec0
00000050: d023 c9bf 184d e3be 6985 d6be 94c1 a3bf
00000060: 996f 04c0 5795 353f c064 3f40 e353 babf
00000070: 7f24 75bf f3d3 b73e b82e d5bf 4e76 02be
00000080: 2946 1bc0 75e2 c0be ce37 61bf 9174 8dbf
00000090: a836 32bf 1fc3 02c0 4d6f 88bf 2b63 26bf
000000a0: 69ed a83e 7290 00c0 9a5b e0bf 358b 0c3f
000000b0: 949a e83f 61d5 79bf 0a3e da3f 41b1 abbf
000000c0: 65b0 04c0 8a94 5cbf d7c2 4f3f 4309 72bf
000000d0: 213e 2340 3a72 2e3f 5a6b d2bf 4a2e b5bf
000000e0: 3816 2cbf 6fa2 21c0 5d88 16c0 1d41 dabf
000000f0: c180 2440 bb52 78bd b0f3 273f 6e94 f53f
00000100: 8ed3 c6bf 09ba 0fc0 9654 aebf 20f8 5abf
00000110: cf8c 14bd c868 c5bf 8853 0dc0 905c 333f
00000120: 875c 32bf d8a7 cbbe f49b 91bf ced6 3840
00000130: d421 79bf f01d 00bf b355 03c0 6c0e 2e40
00000140: 9a34 eabe 5ff8 7e3f 8930 333f adc3 4f3f
00000150: d69b 7dbf 5530 d6bf d1f2 473f 2546 64bf
00000160: 3338 2b3f 02e4 f9bf 1ae5 ccbe 2236 0640
00000170: 028e f43f 7f77 a6bf 90c2 2540 80d5 9b3d
00000180: d551 2d3f e899 9ebf 66d8 96bf 88d6 ce3f
00000190: b3a0 9a3f d8dd 5fbf 84c7 343f 4aa4 2740
000001a0: 75fd 093f 5281 a8bf b5a2 e2be 0b98 55bf
000001b0: 0950 89be 85f7 d1bf d5d6 fabf 63a9 e23d
000001c0: 259a d5bf 3943 e2bf 37d8 a53f daf4 14c0
000001d0: fd8c 0e3f 22a0 1d40 708e 2940 4ac4 903e
000001e0: 6ba7 b2bf 69c6 0bbf 14e0 b7be 54f7 25c0
000001f0: 01c5 16c0 3a10 94bf 8064 90bf e739 1440

fc2.weight f4 [64, 128]
-0.44404018 -0.40270558 0.016424445 -0.005075775 0.10755188 0.10487295 0.27476907 0.21003792
-0.6664202 0.091316506 -0.01770377 -0.020598194 -0.013892332 -0.40058628 0.3371848 -0.33607715
-0.35706672 -0.83036983 -0.05778351 0.011364066 -0.14026815 -0.37722832 0.01596544 -0.12920472
0.17512172 0.3202989 0.03826805 -0.24639139 -0.41507843 -0.13468418 -0.15313962 0.056655817
0.34856772 0.079927795 -0.35739002 -0.12578087 -0.31084707 0.0492423 0.10687308 0.26451078
-0.12155146 0.041218936 -0.29568085 -0.20297197 0.05194999 0.059871186 -0.0061631664 -0.056702882
-0.15800962 -0.026288461 -0.027997801 -0.23162593 0.047424264 -0.4648119 0.13871087 -0.031738296
0.069377504 0.23780836 -0.21590963 0.035547487 -0.09127107 -0.15334302 -0.10693771 -0.22045584
0.26776502 -0.3858552 -0.08392653 -0.18727076 0.07250559 -0.22018841 0.023591965 0.17919925
-0.11550413 -0.38074315 -0.08723187 -0.06693392 0.29366896 0.11119146 0.091814145 -0.15663376
-0.8254546 -0.3355893 -0.18584788 -0.120702684 -0.7116111 -0.6692388 -0.066330746 -0.2416644
0.061987147 -0.0048923846 -0.03421875 -0.13199136 0.25458294 0.06920871 -0.08166604 -0.34892923
-0.079166524 -0.3531185 -0.12115209 0.19858083 0.20383073 -0.13857193 -0.20471498 -0.13187324
-0.22844769 -0.1302302 -0.1636403 0.052271795 0.004192651 -0.193804 0.04194954 -0.030557442
0.07863451 -0.18848798 -0.25757834 0.027135586 -0.23438656 0.08306227 -0.06420654 0.07755663
-0.21789691 0.06119798 -0.35379228 -0.029884623 0.17367865 0.17668214 -0.022425571 -0.016646476
2.5154808 0.16999058 0.6852854 0.12326776 0.38113296 0.4885707 -1.0888195 -1.5726681
0.71672124 1.018569 1.0548248 -0.94145906 0.38816193 -0.7423286 -1.7211572 -3.0066457
0.5650529 0.6378949 -0.229506 -0.11799436 1.5492756 -0.39608848 0.7217717 -0.12597375
-1.4813591 -0.914095 0.15754567 -0.4904737 -1.6970292 -1.3701022 0.69098437 -0.73271644
-1.3037225 -0.6457935 1.1779299 -1.0069389 -0.32197547 -2.0275774 2.5412557 0.87043315
-0.14712372 -0.01366215 0.68672806 0.53169435 0.87919015 0.46817496 -0.77401614 -0.13606313
0.3368352 0.6752199 -1.1903079 -0.39314386 -0.37484592 -1.78348 -0.75192505 -1.2262892
-1.5117084 0.50679255 0.60620934 0.5532775 -0.3816725 -0.40028372 0.5109266 -0.22871608
-0.56087893 -0.62121654 -0.7682991 0.3940125 0.015103749 -0.87674874 0.6152156 -0.36177075
-0.036510676 -0.77493304 1.2454143 -0.5452004 -0.2199639 -0.62344944 -0.91937554 -0.29241666
-0.011993279 -0.33723703 -0.7559949 -0.15425712 0.06554957 0.6216366 0.09242501 -0.26781854
-1.2554132 1.4480304 -0.92448324 -0.14050932 -1.4381449 -0.57274103 -0.07342375 -0.25324437
-0.4204353 -0.046802074 -2.278855 -0.05528753 0.13514829 1.4214233 -0.65634394 -0.40973553
1.2809856 0.83927506 -0.1257761 0.2745748 -0.16021399 0.19651322 -0.28080785 1.2419801
-0.073592156 0.21326523 0.6355161 1.0987536 0.16290103 -0.36854923 -0.37612244 0.1902918
0.32367402 -1.8992417 0.43404448 0.99813884 -0.06795115 -1.3598716 -1.2041487 -0.6245183
00000000: 3c59 e3be 6d2f cebe 8f8c 863c b052 a6bb
00000010: 2944 dc3d a1c7 d63d 88ae 8c3e 2e14 573e
00000020: 849a 2abf 2604 bb3d 7f07 91bc 8bbd a8bc
00000030: aa9c 63bc a519 cdbe 7ca3 ac3e 4e12 acbe
00000040: 73d1 b6be 1e93 54bf 67ae 6cbd 5930 3a3c
00000050: 74a2 0fbe 1224 c1be f4c9 823c 3e4e 04be
00000060: 1c53 333e 38fe a33e f5be 1c3d 064e 7cbe
00000070: 2985 d4be a6ea 09be a2d0 1cbe ee0f 683d
00000080: 7877 b23e 2fb1 a33d d3fb b6be b3cc 00be
00000090: 5927 9fbe 4bb2 493d 46e0 da3d f56d 873e
000000a0: f9ef f8bd 30d5 283d 7b63 97be e2d7 4fbe
000000b0: 83c9 543d 7d3b 753d 63f4 c9bb 4841 68bd
000000c0: 46cd 21be e65a d7bc a55b e5bc 592f 6dbe
000000d0: f23f 423d d3fb edbe 390a 0e3e 0400 02bd
000000e0: cb15 8e3d 0984 733e 6a17 5dbe 3e9a 113d
000000f0: 54ec babd f405 1dbe 2802 dbbd 2dbf 61be
00000100: 7f18 893e d08e c5be ace1 abbd e8c3 3fbe
00000110: d07d 943d 1279 61be f043 c13c 0280 373e
00000120: 6e8d ecbd c4f0 c2be 9fa6 b2bd a714 89bd
00000130: c75b 963e 59b8 e33d 0e09 bc3d 9a64 20be
00000140: fe50 53bf 5cd2 abbe e84e 3ebe f832 f7bd
00000150: 252c 36bf 3c53 2bbf 6ad8 87bd df76 77be
00000160: 3ce6 7d3d 4c50 a0bb f628 0cbd be28 07be
00000170: b258 823e 4cbd 8d3d 8640 a7bd daa6 b2be
00000180: 0f22 a2bd f3cb b4be 961e f8bd c658 4b3e
00000190: 01b9 503e cde5 0dbe cea0 51be c709 07be
000001a0: 31ee 69be 115b 05be 5391 27be f31a 563d
000001b0: 8162 893b 8e74 46be 48d3 2b3d 9a53 fabc
000001c0: 210b a13d fe02 41be 4fe1 83be 734b de3c
000001d0: 0803 70be 8d1c aa3d b87e 83bd 03d6 9e3d
000001e0: 5e20 5fbe bcaa 7a3d 4324 b5be 99d0 f4bc
000001f0: d1d8 313e 2aec 343e d5b5 b7bc 315e 88bc
00000200: a3fd 2040 0312 2e3e dd6e 2f3f cf73 fc3d
00000210: dc23 c33e f025 fa3e 705e 8bbf 304d c9bf
00000220: 0b7b 373f 7860 823f 8004 873f 7603 71bf
00000230: 29bd c63e 3f09 3ebf e14e dcbf e26c 40c0
00000240: 4fa7 103f 154d 233f 9f03 6bbe 07a7 f1bd
00000250: aa4e c63f 1ccc cabe 08c6 383f 43ff 00be
00000260: 2d9d bdbf 2102 6abf a753 213e 5e1f fbbe
00000270: 4138 d9bf 825f afbf 5ae4 303f 4e93 3bbf
00000280: 61e0 a6bf b952 25bf 68c6 963f 60e3 80bf
00000290: f8d9 a4be d4c3 01c0 efa3 2240 b5d4 5e3f
000002a0: 9aa7 16be 36d7 5fbc 69cd 2f3f 1f1d 083f
000002b0: 9b12 613f a1b4 ef3e ec25 46bf 2254 0bbe
000002c0: aa75 ac3e 36db 2c3f 025c 98bf 274a c9be
000002d0: ceeb bfbe 1349 e4bf 297e 40bf 0bf7 9cbf
000002e0: a97f c1bf 28bd 013f 8930 1b3f 98a3 0d3f
000002f0: 946a c3be fdf1 ccbe 16cc 023f 8c34 6abe
00000300: c395 0fbf 0c08 1fbf 40af 44bf 02bc c93e
00000310: b775 773c 9b72 60bf c57e 1d3f 043a b9be
00000320: 388c 15bd 0362 46bf bc69 9f3f 4192 0bbf
00000330: 373e 61be 629a 1fbf 325c 6bbf a3b7 95be
00000340: 757f 44bc 55aa acbe e288 41bf 94f5 1dbe
00000350: da3e 863d 9423 1f3f 5349 bd3d 831f 89be
00000360: 61b1 a0bf 0f59 b93f efaa 6cbf ade1 0fbe
00000370: 2215 b8bf 289f 12bf 315f 96bd 3fa9 81be
00000380: 4c43 d7be 88b3 3fbd c3d8 11c0 2d75 62bd
00000390: 5064 0a3e 33f1 b53f 2806 28bf dbc8 d1be
000003a0: 56f7 a33f bbda 563f 73cb 00be 1195 8c3e
000003b0: 230f 24be c33a 493e 0cc6 8fbe 34f9 9e3f
000003c0: 7cb7 96bd 3362 5a3e 2fb1 223f f5a3 8c3f
000003d0: 87cf 263e 7cb2 bcbe 1f93 c0be dbdb 423e
000003e0: 9ab8 a53e 5a1a f3bf 143b de3e 0786 7f3f
000003f0: f929 8bbd 4610 aebf 8b21 9abf 6ee0 1fbf

fc2.bias f4 [64]
-0.077551685 -0.58731073 3.1689856 -1.0535598 -0.7218015 2.8919125 -1.2624763 2.8026664
-0.070326045 -0.08361183 3.0608249 -0.07279464 1.2618665 -0.7633174 0.14892799 -1.7199749
1.0859964 -0.117711574 -0.017398011 1.4577394 -0.055020265 0.54259884 -1.277449 -0.80940723
-0.392246 1.6891271 -0.8196995 2.9806623 3.1563098 2.361345 -0.9725427 -0.9560471
-0.07433514 2.2055435 3.0190291 3.1993608 0.016715135 2.471611 0.39570504 -1.3228663
-0.7945713 -0.021937763 3.278387 0.23217498 -0.64766306 3.2930899 -1.6020436 -0.42825764
-0.17868868 1.9128413 2.385856 1.6582801 1.9190835 -0.11486626 0.6728957 -0.5814036
1.5778018 -1.0271612 3.1611426 -1.3742148 0.045104645 2.2329724 1.7981647 0.014054281
00000000: 6bd3 9ebd ff59 16bf a9d0 4a40 0cdb 86bf
00000010: fcc7 38bf 1815 3940 d398 a1bf e35e 3340
00000020: 1a07 90bd ae3c abbd 8ee4 4340 5b15 95bd
00000030: d784 a13f c568 43bf 9480 183e 2328 dcbf
00000040: ee01 8b3f c412 f1bd 4686 8ebc 3497 ba3f
00000050: ee5c 61bd c2e7 0a3f 7383 a3bf 5035 4fbf
00000060: 78d4 c8be 5135 d83f d4d7 51bf 2cc3 3e40
00000070: fb00 4a40 4720 1740 8ff8 78bf 81bf 74bf
00000080: 063d 98bd a027 0d40 c637 4140 54c2 4c40
00000090: 2eee 883c e02e 1e40 da99 ca3e af53 a9bf
000000a0: 0669 4bbf d3b6 b3bc 18d1 5140 47bf 6d3e
000000b0: 3fcd 25bf fcc1 5240 c40f cdbf 9644 dbbe
000000c0: 2afa 36be fcd7 f43f ddb1 1840 8642 d43f
000000d0: 87a4 f53f 003f ebbd e542 2c3f ded6 14bf
000000e0: 69f5 c93f 057a 83bf 2950 4a40 45e6 afbf
000000f0: a6bf 383d 05e9 0e40 432a e63f ed43 663c

final.weight f4 [6, 64]
0.113182135 0.0033568735 0.50282174 -0.025093539 -0.152182 0.42974678 -0.22236769 0.25726745
-0.056773923 -0.055437386 0.43652913 0.2590803 0.15929899 -0.17140102 0.24103282 -0.13790068
0.37847713 0.08827227 -0.058478877 0.20757787 0.107202716 0.13599388 -0.315868 -0.32644406
0.21435003 0.16873433 -0.1797999 0.4568577 0.46360937 0.12528937 -0.23811644 -0.30135754
-0.09645753 0.14924294 0.27303088 0.5955063 0.0034857423 0.2392567 0.18695147 -0.22953643
-0.023358785 -0.05677927 0.5769049 0.07113079 -0.26233336 0.64901394 -0.2568829 -0.13333933
0.17649582 0.1492593 0.10854199 0.16649432 0.14630952 -0.0066987425 -0.08529648 -0.5436041
-0.08191546 -0.15551215 0.5161394 -0.18734315 0.06505233 0.105582714 0.16062556 0.08562009
0.0039327727 -0.26386586 0.6447428 -0.15925783 -0.13819829 0.31201982 0.0641391 0.0982461
0.035071667 0.11003564 0.48943263 -0.2026839 0.16676208 -0.20897986 -0.3005841 -0.14060698
0.32060376 0.031003864 0.11695155 0.09841888 0.009145536 0.33816218 0.051821306 0.025449047
-0.08980789 0.119411774 0.043262698 0.35323164 0.4347225 0.28959203 -0.26029697 -0.12587777
-0.113446675 -0.03758922 0.47510454 0.48855117 -0.073507994 0.08864893 -0.0013738178 -0.12522906
-0.19212982 0.03852369 0.5607645 0.3974168 -0.119309664 0.5841844 -0.12085034 -0.123002514
-0.33116964 -0.047139224 -0.10436616 0.055601865 0.12884934 -0.00072957843 0.08355971 -0.035861943
0.106818795 0.008068608 0.5964864 -0.14139518 0.015828326 0.15179282 0.05500968 0.06467517
-0.1331712 -0.17086616 0.6381845 -0.18950742 -0.14550523 0.3106519 0.03988998 0.1001145
0.043530364 0.068133876 0.5187154 -0.1940617 0.16238645 -0.23737578 -0.3008449 -0.15212826
0.32247877 0.014385503 -0.06430906 0.08869622 0.059450522 0.23852213 0.09104529 0.011845191
-0.22550066 0.11402369 0.054719914 0.3744057 0.44560295 0.30395696 -0.2944734 -0.09349886
-0.10041206 -0.047779698 0.47403687 0.49500483 -0.09382714 0.08738222 -0.018179594 -0.11825768
-0.18650372 0.061783873 0.60736346 0.38739914 -0.1243009 0.5118595 -0.11958583 -0.1328279
-0.23270467 -0.07887783 -0.04125833 0.08063368 0.16244628 0.003585193 0.09671904 -0.033073884
0.11259287 0.010797497 0.6097167 -0.15006714 -0.035452127 0.1531866 0.05625024 -0.014041125
-0.010904549 -0.11464385 0.6091968 -0.26435414 -0.048698828 0.33060056 0.051147982 0.0851305
0.06745748 0.08166283 0.5289354 -0.23314734 0.19596273 -0.14315514 -0.250241 -0.13609609
0.3503956 -0.063214235 0.09391859 0.1224897 -0.054825813 0.36731222 0.08958524 -0.03327929
0.13440923 0.087310515 0.044961546 0.4004937 0.44965345 0.28225496 -0.2063081 -0.17849272
0.010807025 -0.00571104 0.4610618 0.5175265 -0.04929848 0.071319796 0.022500252 -0.13276774
-0.21248963 0.043061107 0.5634306 0.26612714 -0.131734 0.5212579 -0.218229 -0.15723611
-0.263912 -0.08350759 -0.042358324 0.039157707 0.13061981 -0.018795982 0.111909024 -0.08955993
0.17748407 -0.0060992828 0.633078 -0.17063014 -0.061647665 0.13545269 -0.005168545 -0.12894823
00000000: 09cc e73d fefe 5b3b edb8 003f f790 cdbc
00000010: 99d5 1bbe c507 dc3e 5bb4 63be 8fb8 833e
00000020: c68b 68bd 5012 63bd bf80 df3e 2ca6 843e
00000030: 461f 233e c083 2fbe 4fd1 763e d635 0dbe
00000040: c1c7 c13e 18c8 b43d 8c87 6fbd 4b8f 543e
00000050: 198d db3d fb41 0b3e 73b9 a1be ad23 a7be
00000060: 937e 5b3e b1c8 2c3e 771d 38be 41e9 e93e
00000070: 355e ed3e db4b 003e ccd4 73be 894b 9abe
00000080: 878b c5bd 24d3 183e b4ca 8b3e 1a73 183f
00000090: 0d71 643b b5ff 743e 3570 3f3e 990b 6bbe
000000a0: ec5a bfbc 6191 68bd 0ab0 133f 05ad 913d
000000b0: 8f50 86be c725 263f 2886 83be 1b8a 08be
000000c0: 52bb 343e 6ed7 183e 434b de3d 7d7d 2a3e
000000d0: 2ad2 153e 2081 dbbb ecaf aebd a329 0bbf
000000e0: 4bc3 a7bd 943e 1fbe b621 043f e2d6 3fbe
000000f0: 283a 853d c03b d83d 077b 243e 9659 af3d
00000100: 7dde 803b 6d19 87be dd0d 253f 7c14 23be
00000110: da83 0dbe 10c1 9f3e 5c5b 833d 4035 c93d
00000120: 4fa7 0f3d 5e5a e13d ea96 fa3e 5e8c 4fbe
00000130: aec3 2a3e d1fe 55be 29e6 99be 47fb 0fbe
00000140: 2d26 a43e d1fb fd3c 4b84 ef3d d68f c93d
00000150: 29d7 153c 9823 ad3e 9442 543d 857a d03c
00000160: 33ed b7bd 298e f43d 3a34 313d c7da b43e
00000170: f393 de3e 6845 943e a545 85be 1ae6 00be
00000180: bb56 e8bd 27f7 19bd e740 f33e 6123 fa3e
00000190: 5c8b 96bd 928d b53d ad11 b4ba 0c3c 00be
000001a0: aebd 44be 04cb 1d3d 438e 0f3f 377a cb3e
000001b0: a058 f4bd 1c8d 153f 6280 f7bd bee8 fbbd
000001c0: 118f a9be 0f15 41bd edbd d5bd c8be 633d
000001d0: 15f1 033e 2e41 3fba 5a21 ab3d f9e3 12bd
000001e0: d0c3 da3d 3232 043c 55b3 183f e6c9 10be
000001f0: 68aa 813c 946f 1b3e d551 613d 6a74 843d
00000200: 085e 08be 8af7 2ebe 0f60 233f 3c0e 42be
00000210: 53ff 14be c40d 9f3e ad63 233d d508 cd3d
00000220: e54c 323d c689 8b3d 88ca 043f 1cb8 46be
00000230: a248 263e a312 73be 5808 9abe 83c7 1bbe
00000240: f01b a53e 2cb1 6b3c 78b4 83bd 5da6 b53d
00000250: 6482 733d 253f 743e f475 ba3d 5512 423c
00000260: a5e9 66be 4185 e93d fd21 603d 1bb2 bf3e
00000270: 1226 e43e 3fa0 9b3e 38c5 96be 557c bfbd
00000280: d7a4 cdbd a5b4 43bd f6b4 f23e 4671 fd3e
00000290: 7228 c0bd 73f5 b23d 5fed 94bc 1531 f2bd
000002a0: d5fa 3ebe 1611 7d3d 2c7c 1b3f 2e59 c63e
000002b0: 7891 febd 3909 033f 6ae9 f4bd 0904 08be
000002c0: 224a 6ebe b38a a1bd 7ffe 28bd 4523 a53d
000002d0: 5158 263e 8ff5 6a3b a214 c63d 7b78 07bd
000002e0: 1797 e63d fce7 303c 6516 1c3f 33ab 19be
000002f0: 4036 11bd f3dc 1c3e a766 663d bf0c 66bc
00000300: fea8 32bc 65ca eabd 52f4 1b3f 6d59 87be
00000310: 6c78 47bd 7a44 a93e 8c80 513d e658 ae3d
00000320: 2627 8a3d d83e a73d 4f68 073f 2dbe 6ebe
00000330: 74aa 483e 4397 12be 971f 80be c65c 0bbe
00000340: 0d67 b33e 7776 81bd 6458 c03d e1db fa3d
00000350: 0891 60bd 5910 bc3e 7778 b73d dd4f 08bd
00000360: 93a2 093e dbcf b23d 9929 383d 830d cd3e
00000370: fa38 e63e b983 903e 6e42 53be ccc6 36be
00000380: f30f 313c ad23 bbbb 4b10 ec3e 9e7c 043f
00000390: 34ed 49bd 1d10 923d 7352 b83c 44f4 07be
000003a0: e296 59be d860 303d fd3c 103f d141 883e
000003b0: 47e5 06be 2871 053f 6c77 5fbe 8102 21be
000003c0: 791f 87be 0706 abbd ec7f 2dbd d563 203d
000003d0: 33c1 053e 08fa 99bc 8f30 e53d 326b b7bd
000003e0: 62be 353e 7edc c7bb 6611 223f abb9 2ebe
000003f0: 4382 7cbd 1cb4 0a3e e65c a9bb 010b 04be

final.bias f4 [6]
2.6958475 2.665811 1.6697314 1.4301535 1.0971118 0.825896
00000000: c488 2c40 a69c 2a40 c2b9 d53f 450f b73f
00000010: 296e 8c3f ec6d 533f
