D2QN_AAAI_REWARD/checkpoint_d2qn_-10_1000_cheetah_20.pth (torch, 45655 bytes, 6 tensors)

fc1.weight f4 [128, 17]
000000 77 54 39 bf b2 69 95 3f dc 10 e8 bf 0a 1d 9f bf
       -0.7239451 1.1672881 -1.8130145 -1.2430737
000010 0d 4e f3 bf c2 06 7c bf 18 8f dd be c1 fa 91 bf
       -1.9008194 -0.9844781 -0.43273234 -1.1404649
000020 0f af 54 3f 2a 76 9a bf b4 13 be 3e 23 af 98 3d
       0.8307962 -1.2067311 0.37124407 0.0745528
000030 51 d1 85 3d 61 ac 7b be 95 c2 00 3e ce 3b 58 3e
       0.065340646 -0.24577476 0.12574227 0.21116564
000040 a5 7f 16 be 54 bd 08 3e 65 70 93 c0 98 ae 9b 3f
       -0.1469713 0.13353473 -4.60747 1.2162657
000050 1d fc ad 3c e1 96 76 3e dc 8b b4 3e 9f d9 85 bd
       0.021238381 0.24080993 0.35262954 -0.065356486
000060 6c 74 83 3f c7 f2 78 bf ca 48 a0 3f 07 ce 90 bf
       1.0269904 -0.9724545 1.2522213 -1.1312875
000070 be d2 ae bc 3d b4 89 be e5 0e 94 bc e4 8b 30 bc
       -0.021340724 -0.26895323 -0.018073509 -0.01077554
000080 b0 d4 7d 3b cd 1a dd bb d3 c0 9f bf a9 e1 e1 bf
       0.0038731508 -0.0067475797 -1.248072 -1.7646991
000090 3d 4a cd bf ed ba 4c c0 2a 8e 02 bf db 71 13 bf
       -1.6038281 -3.198909 -0.50998175 -0.57595605
0000a0 54 99 45 be 35 07 8f bf a6 a2 b8 3e 49 cf a6 bf
       -0.19296771 -1.1174074 0.3606159 -1.3032008
0000b0 89 3a 21 bf ba 8d c5 bd fe 2a bd 3c 08 65 74 3e
       -0.6297994 -0.09646173 0.02309179 0.23866665
0000c0 20 6c d3 be 25 ad 9d bd 6c d6 2f be 2b e8 84 bf
       -0.4129343 -0.0769904 -0.17171639 -1.0383352
0000d0 8f a6 05 3f 8e d9 0a bf 9c 76 91 bf 93 b3 3d bf
       0.52207273 -0.5423821 -1.1364322 -0.74102134
0000e0 e4 83 1a 3f bc d5 ac be 0f 5c 6b be 00 81 57 bf
       0.603575 -0.33756816 -0.22984336 -0.84181213
0000f0 5d 5a 3f bf 3b 73 9b 3e c9 c1 38 3c 3d 5d ab bd
       -0.7474726 0.3036135 0.011276671 -0.08367393
000100 41 f9 95 3e 76 ee 50 be fa 0b be 3d 43 ce 27 3d
       0.29291728 -0.20403466 0.09279628 0.04096819
000110 48 c1 74 3e 60 3b 45 be d5 a7 66 be a8 09 4e bf
       0.23901856 -0.19260931 -0.2252496 -0.80483484
000120 29 3d 96 bf 9a e9 22 c0 eb 76 79 bf 87 77 10 c0
       -1.1737415 -2.545508 -0.9744708 -2.2572954
000130 c4 f0 52 3e 97 2a 8c bf 5c 30 2e be 7c 1a a7 bd
       0.20599657 -1.0950497 -0.17010635 -0.08159348
000140 f7 77 89 bc 23 dc 86 3d 9c 3b 05 bd dd e0 71 be
       -0.016780837 0.065849565 -0.03252755 -0.23620935
000150 e2 66 41 bd 04 f3 83 c0 ce de c6 3e 38 cb 1e c0
       -0.047217257 -4.123415 0.3884186 -2.4811535
000160 90 9f 4a bf 89 5f ab bf 15 0a b3 3d c4 d7 21 3f
       -0.79149723 -1.338853 0.08742157 0.6321986
000170 4b 2f a0 bd eb 9c 15 be a6 1f b1 bf 6a 0d 91 be
       -0.078215204 -0.1461064 -1.3837783 -0.28330547
000180 db 13 d4 3b fa 32 35 3d a6 7c 49 be 7e 2b b5 bd
       0.0064720935 0.04423807 -0.19676456 -0.08846186
000190 57 72 ca bd 0d a2 b7 bc 84 62 e3 3f 26 a5 a0 bf
       -0.0988509 -0.022416139 1.776444 -1.2550399
0001a0 c1 a5 0b c0 03 5b 2f c0 de 69 1e c0 ff 92 6a bf
       -2.1819918 -2.73993 -2.4752116 -0.9163055
0001b0 37 bb 6e 3d 7a 13 10 be 5e ee 2d be c1 29 86 3f
       0.05828401 -0.1406993 -0.16985461 1.0481492
0001c0 c0 47 78 3e 7c 14 54 3e d4 4b 11 3e c9 0d ad bd
       0.2424612 0.20710939 0.14189082 -0.08449895
0001d0 83 e3 00 3d ce e8 6f 3d d6 45 1f bd 57 54 f1 3e
       0.031466972 0.05857163 -0.03888496 0.4713466
0001e0 72 5a 19 3f 25 05 4b be 9c 61 2e be 0d d5 35 3e
       0.59903634 -0.19826181 -0.17029423 0.17757054
0001f0 b6 cc 44 bf 77 2f 2d bf e0 5a 5c bf 91 ad 86 bf
       -0.76874864 -0.6765055 -0.86076164 -1.0521718
000200 b7 66 7d be 9d 72 ab 3e 01 dc 13 3e 8a dc 4d bd
       -0.24746214 0.3348588 0.14439394 -0.05025915
000210 4b d2 1f 3d 19 71 05 3d 9f 2c c3 bc 72 e1 72 3d
       0.03901891 0.03257856 -0.023824988 0.059297033
000220 e9 39 13 40 7a e5 d6 3f 9c 29 22 3f f6 b2 70 3f
       2.3004096 1.6788781 0.6334474 0.9402307
000230 b1 5e 21 3f f8 e7 9f be 1d 81 d7 3f 13 24 ef 3e
       0.6303511 -0.31231666 1.6836277 0.4670721
000240 7f bf d1 bf d6 7c 9b bd 6b 7e 08 3f 5d ff a7 3c
       -1.6386565 -0.0759217 0.533179 0.020507509
000250 ee 54 50 3c 04 32 d5 bc f7 e6 76 3d 1e 0a 09 3e
       0.012715561 -0.026024826 0.06027886 0.13382766
000260 68 49 05 3d d8 07 94 3f 0d 48 83 be 85 1d 43 bf
       0.03254071 1.1564894 -0.25640908 -0.7621692
000270 e4 0a c6 be 3e e2 c3 be bc 2b 88 be 04 23 8e bd
       -0.38680184 -0.38258547 -0.26595867 -0.069402725
000280 79 3f 63 be 1f 76 a9 3e 3b 38 43 bb 32 40 37 be
       -0.22192182 0.33097932 -0.0029788155 -0.17895582
000290 b8 cf 3e bd 24 d4 c5 3b 5f f7 77 bb 65 9e 8a bc
       -0.046584815 0.006037252 -0.0037836654 -0.016921232
0002a0 cf 94 a2 bc aa 27 fe 3b 9e d9 97 40 34 a1 aa bf
       -0.019846348 0.007756193 4.7453146 -1.3330445
0002b0 40 5a b8 bf ba a5 84 bf d5 f1 99 bf 2a d1 6a bf
       -1.4402542 -1.0363076 -1.2026926 -0.9172541
0002c0 5d df c0 bf 69 97 a7 bf 1a 69 44 bf ec fc 67 3f
       -1.5068165 -1.3093082 -0.7672287 0.90620303
0002d0 e1 ea 4d 3e a2 e1 99 3d 09 e2 aa 3d 0e db 5f 3d
       0.2010913 0.07513739 0.08343894 0.054652266
0002e0 78 60 33 3d ad 16 51 3c 75 8e 99 3b 5e 83 49 c0
       0.04379317 0.012761754 0.0046861717 -3.148643
0002f0 64 9b 4b bf a3 c5 40 3e d5 85 a2 3e 06 47 96 be
       -0.7953398 0.18825392 0.3174273 -0.29351062
000300 f1 67 f7 be 73 30 93 bf d5 e8 1a c0 e8 bb 88 bf
       -0.48321488 -1.149916 -2.420461 -1.0682344
000310 f2 5f 00 be 5b f3 56 3e 9e db da 3c 7b b3 14 bd
       -0.125366 0.2099127 0.02671605 -0.03630398
000320 24 77 b0 3d a4 5b 2b be c8 dc 89 3d 3d 36 9e be
       0.08616474 -0.16734177 0.06731564 -0.30900756
000330 5e a2 88 bf 2a 54 0f 3f fd 9b f9 be 76 69 a6 bd
       -1.067455 0.559878 -0.48751822 -0.08125584
000340 ab 64 e9 be 1a 04 bf bf e1 f6 eb bf 41 49 93 bf
       -0.45584616 -1.4923127 -1.8434716 -1.150673
000350 e6 26 be be c2 1d 87 bf 55 60 75 bf 2b ee 4a 3d
       -0.37139052 -1.0555956 -0.95850116 0.04954354
000360 ac 72 60 bd c3 1e a2 be 79 c5 fd be e0 60 1b 3d
       -0.05479686 -0.31664094 -0.49564722 0.037934184
000370 1e 0e 10 3e 70 c8 05 40 82 00 c5 3f ad 5a c2 3f
       0.14067885 2.0903587 1.539078 1.5183922
000380 63 5c d6 3d ae c1 5f 3f c0 54 7b bf a6 88 b5 bf
       0.1046684 0.87404907 -0.98176193 -1.4182327
000390 59 48 3e bf 2c 83 3c 3d 1d 9b fd 3e e1 71 a4 3f
       -0.74329144 0.046023533 0.49532405 1.2847253
0003a0 a7 93 87 3e 81 f9 66 3d 1a 1d 9b 3d 8e 47 4e bc
       0.26479837 0.05639029 0.0757391 -0.012590302
0003b0 42 39 84 bd ff 32 44 bc 90 94 89 c0 10 b7 ac 3f
       -0.064562336 -0.011975049 -4.299385 1.3493366
0003c0 bd 77 f6 bc e8 27 dd 3e 9a a9 1a 3e 9a d8 61 be
       -0.030086393 0.4319451 0.1510376 -0.22055283
0003d0 0e 29 7f 3f 76 b6 cf be 71 e4 b8 3d 64 8f c1 be
       0.9967202 -0.40568894 0.09027947 -0.3780471
0003e0 6d d0 db bd b3 b9 89 bd f6 8e 69 bd dd 42 7e 3d
       -0.107331134 -0.067248724 -0.057021104 0.062075485
0003f0 4d dd b8 3c b1 e4 0a 3c 2c 8f 90 bd 5f 9b 80 bd
       0.022566462 0.008477376 -0.07058558 -0.06279635

fc1.bias f4 [128]
000000 f4 42 2b bf a4 c1 79 be 9c dd f8 bf d0 fe 74 bf
       -0.6689904 -0.24390274 -1.944263 -0.95701313
000010 a9 98 05 be 54 12 bb bf 2a 0c 32 3f 9e c1 ab bf
       -0.13046516 -1.4614968 0.6954981 -1.3418462
000020 36 3b ed bf 75 9b 32 40 02 b6 1d 3f b7 10 26 3f
       -1.8533695 2.7907383 0.61605847 0.64869255
000030 5c 2f fe bf 9a 68 aa bf 84 c8 06 c0 3f 0f 44 bf
       -1.9858203 -1.3313172 -2.1059885 -0.76585764
000040 a8 93 81 bf 4b c8 8d bf 3d 60 86 3e bc da 2e bf
       -1.0123186 -1.107675 0.262453 -0.6830251
000050 f0 c2 0d c0 04 af 62 3f 8e 93 63 bf de e9 fa bf
       -2.215023 0.885483 -0.88897026 -1.9602621
000060 03 33 86 bf 8f 58 3c bf 0e a0 35 40 dd 64 50 bf
       -1.0484318 -0.7357263 2.837894 -0.81403905
000070 a8 dc 84 bf be 0c 29 40 83 9c 15 c0 94 bc 4e bf
       -1.0379839 2.6414027 -2.3376777 -0.807565
000080 8e e6 0b c0 04 2f d3 bf cf 47 b5 be 22 e8 f2 bf
       -2.185947 -1.6498723 -0.35406348 -1.8977091
000090 73 0f c6 bf c6 6f 13 c0 36 b3 78 bf 92 fe a5 bf
       -1.5473465 -2.303697 -0.97148454 -1.2968314
0000a0 71 55 b5 be c4 3f 6c bf fb 85 6a bf 86 f3 3d 3f
       -0.3541675 -0.922848 -0.9161069 0.7419971
0000b0 11 73 79 3f 59 2c 08 3e f0 42 ed 3f 86 11 65 bf
       0.974412 0.13298167 1.8536053 -0.89479864
0000c0 dd 70 eb bf 77 6c b6 bf 3b 0f d9 3e 76 be bd bf
       -1.8393818 -1.4251851 0.42394432 -1.4823749
0000d0 15 04 21 40 17 0e 40 be 22 6f 00 c0 13 b1 9f bf
       2.5158741 -0.18755375 -2.006783 -1.2475914
0000e0 15 df b2 bf 54 05 9d bf d2 d7 ed bf 94 3e a1 bd
       -1.3974329 -1.2267251 -1.8581488 -0.07873264
0000f0 ae 8e 31 40 ca 2a 50 3f 2e 52 20 be 1b a9 bb 3f
       2.7743335 0.8131529 -0.15656349 1.4660982
000100 ef 7f bd bf 18 d1 f4 bf 6a 5b 18 c0 69 01 e0 bf
       -1.4804667 -1.912631 -2.3805795 -1.750043
000110 40 4c 37 3e 6f 0c de be 64 94 ff bf d7 73 73 3f
       0.17900181 -0.4336886 -1.996716 0.9509863
000120 7d d0 ee be 04 d4 80 3f 7d 28 1a bf bd af 33 40
       -0.4664344 1.0064702 -0.6021803 2.8076012
000130 22 96 dd 3e 4f 1a 8d bf b8 c6 a9 bf 25 21 21 40
       0.43278605 -1.1023654 -1.3263769 2.517648
000140 c8 f5 b2 bf 3b e7 fe bc 7a 2d 8c bf 79 60 27 3f
       -1.3981256 -0.031116119 -1.0951378 0.6538158
000150 53 45 b3 bf 3d ef bc bf c2 aa c6 3f 35 6c 10 bf
       -1.4005531 -1.476051 1.5520861 -0.5641511
000160 83 bc 91 3e 29 5f a3 bf 3b 1f cd 3f 8e f8 6d bf
       0.28464136 -1.2763416 1.6025156 -0.9295739
000170 c7 98 74 3f c6 38 d8 3d 86 26 d7 3f 8b d2 99 3f
       0.9554562 0.10557704 1.6808631 1.2017378
000180 c7 42 9b be b1 6e 2e c0 e2 85 da bf 4c c6 11 3f
       -0.30324385 -2.725506 -1.7072108 0.569432
000190 49 43 b1 be a4 56 b5 bf b1 46 7c bb 70 e0 a1 3f
       -0.34621647 -1.4167066 -0.0038494284 1.2646618
0001a0 4f 0c 0e 3f 4d 62 cf bf 8e 7e e3 3e bc 83 51 3f
       0.5548753 -1.6201874 0.4443249 0.81841636
0001b0 6c 4a b3 bf 10 b9 07 c0 0d a9 dc bf bb 6a b2 be
       -1.4007087 -2.1206703 -1.723909 -0.34847054
0001c0 c8 f2 81 bf c7 ae aa bf 2e 41 d6 3f 5c 13 de bf
       -1.0152216 -1.3334588 1.6738641 -1.7349658
0001d0 46 f4 f1 3c 88 f0 09 40 6f 17 fe 3f 13 68 f7 bf
       0.029535424 2.1553059 1.9850901 -1.9328636
0001e0 70 f2 ac bf 47 f5 6b be 24 38 9d 3f 1d fd e8 bf
       -1.3511486 -0.23042785 1.2282758 -1.8202244
0001f0 c5 98 27 c0 4c bb f9 bf 03 99 8a bf 06 2e 07 40
       -2.6186993 -1.9510283 -1.0827945 2.112184

fc2.weight f4 [64, 128]
000000 06 8f 18 be 0a 83 f5 bd 7c 00 cc 3c 62 bd c8 bd
       -0.14898309 -0.11987884 0.024902575 -0.09801747
000010 79 9c 00 3d 41 af a3 3c 6f ef 14 3c 06 94 8c 3d
       0.031399224 0.019981029 0.009090289 0.06864171
000020 de e4 d6 bd 07 2e a8 3c 1d 92 17 3c 40 0d b2 bd
       -0.10492872 0.02052976 0.009251145 -0.086939335
000030 6a f8 61 3a d6 a2 d0 bc 1e 6e af bd cd b5 87 bc
       0.00086200854 -0.025468271 -0.08565925 -0.016566182
000040 9d b5 3b bd b4 7c 31 3d 8d cc 99 3d 97 11 17 bd
       -0.045827497 0.043331817 0.07509718 -0.03688201
000050 18 d3 ae bd de 2e b1 bb 3a cd 41 bb b6 14 61 3d
       -0.08536357 -0.0054071983 -0.0029571787 0.054951392
000060 71 3c a2 3c 65 bd d2 3c e9 3e 0d bc 42 1e 73 bd
       0.019804211 0.025725076 -0.008620956 -0.059355028
000070 4a 05 d4 bd 4b 46 0b be 31 bc 9d bc c3 38 0c bb
       -0.10352571 -0.13601033 -0.019254776 -0.0021396137
000080 58 ef 3a bd 97 b5 af 3d d5 e7 a4 bc 26 75 91 bd
       -0.045638412 0.085795574 -0.020130077 -0.071024224
000090 86 72 3d bd 9a b3 d9 bd 67 5f e0 bc 24 52 97 3d
       -0.046251796 -0.106299594 -0.027389241 0.07388714
0000a0 5d 0c 0a bd a6 bf 85 3d 3f 88 7b bb b3 07 12 bd
       -0.033703197 0.06530695 -0.003838077 -0.035651874
0000b0 e8 db 42 3d f9 41 8f bd e7 a8 3f 3b 5f 59 92 bb
       0.047573 -0.06995005 0.002924496 -0.0044662203
0000c0 36 d8 b5 bc 43 e4 e1 bd ad a5 87 bc 83 73 fd bc
       -0.022197824 -0.110298656 -0.016558493 -0.03093887
0000d0 fd 73 2c 3d bc 59 2e 3c 92 92 08 3d f0 f4 4b 3d
       0.042102803 0.0106415115 0.033342905 0.049794137
0000e0 de 09 05 bd 2e fb 4d bd cb f3 ae 3d d3 18 bd bd
       -0.032480113 -0.05028837 0.085425936 -0.092332505
0000f0 d0 bf ce bd 0c 81 30 bc 8c 52 3a bd 2e 28 09 3c
       -0.10095179 -0.010772955 -0.04548888 0.008371396
000100 74 a2 89 3d 33 37 19 bb 48 8b c5 bd 9f 3e 85 bd
       0.067204386 -0.0023378849 -0.096457064 -0.06506085
000110 e7 07 8d 3d de 7f 97 bc 00 8d 86 bd 02 e6 b1 39
       0.06886273 -0.018493589 -0.06569862 0.0003393144
000120 08 ef 49 bd a3 c7 9c bd 84 77 62 3d 4a 85 fa 3c
       -0.049300224 -0.07655265 0.05528976 0.030581135
000130 db f5 87 3d e0 96 f7 3b 9b ea 7c bd 0e 35 7e bd
       0.0663869 0.0075558275 -0.061747175 -0.062062316
000140 1b 93 45 3d c3 37 80 bd b3 a2 89 bd e8 1a cb bd
       0.048235994 -0.06260636 -0.067204855 -0.09917241
000150 a9 8d 26 bd fa 39 35 3d 95 7d 7b bd e5 8f 8a bd
       -0.04066244 0.044244744 -0.06139906 -0.06765727
000160 83 2b b5 bd cc 42 00 3d 44 11 55 bd 3c 2c df bd
       -0.0884619 0.031313702 -0.05201842 -0.10897109
000170 ed f2 8e 3d d8 fa 31 bc 20 a9 58 bd f0 9f bf bd
       0.06979928 -0.0108630285 -0.052895665 -0.093566775
000180 29 94 8e 3d 9f 60 75 bd aa 05 d7 bd 52 af 09 3d
       0.06961853 -0.0599066 -0.10499127 0.033614464
000190 61 ed a0 bd ab b7 72 bc d2 c9 ac bd e6 7d 04 be
       -0.078577764 -0.014814298 -0.08436932 -0.12938651
0001a0 3e 04 a1 bd 59 70 86 bc c4 30 b7 bd 6d 81 3e 3d
       -0.07862137 -0.016410993 -0.08944848 0.04651015
0001b0 b7 e8 68 bd 92 0b ac bd fd 49 b7 3c 9f 14 c4 bd
       -0.05686256 -0.08400644 0.022374148 -0.09574246
0001c0 65 30 46 bd d9 9f 9a 3c 71 0e 73 bd 07 3f 22 3c
       -0.048385996 0.01887505 -0.059339944 0.009902722
0001d0 4a 77 25 bd 3c 1d 9e bd 16 df cd bd c5 38 1b 3c
       -0.040396966 -0.0772042 -0.10052316 0.009473984
0001e0 5e d9 b5 3c da a4 b7 bd 1a 42 a1 bd 01 0c d0 bd
       0.022198375 -0.0896699 -0.07873936 -0.101585396
0001f0 a4 7c af bc 26 b7 3a bd c2 11 1e 3c cc 0d 8c 3c
       -0.021421738 -0.04558482 0.0096477885 0.017096423
000200 7b 03 c3 be ae d6 d1 3e 83 98 e5 be a0 08 d5 3e
       -0.38088593 0.409841 -0.4484292 0.41608143
000210 d0 27 c8 be 51 c6 1c 3e b3 af 81 3f 40 94 b8 be
       -0.39092875 0.15310027 1.0131744 -0.36050606
000220 bc d9 9c bf 64 c0 69 bf e1 8e f8 3c 4b 92 68 bf
       -1.2253947 -0.9130919 0.030341567 -0.90848225
000230 8d 84 2a 3f 78 b4 7c be 19 7f e5 3e 91 89 36 c0
       0.66608506 -0.24678218 0.4482353 -2.8521464
000240 bf 68 a6 3f 11 6b 2c bc 0f fb 7b 3b fe f4 c0 bd
       1.3000716 -0.0105235735 0.0038449203 -0.094217286
000250 93 c4 f1 bf 90 ab 2b 3f 3d c7 0a bf 69 82 3a be
       -1.8888115 0.6705866 -0.54210263 -0.1821381
000260 ba db 08 bd 8d ef 2f 3f 0d 2b 7a 3e 6e ef 1f c0
       -0.033412673 0.687249 0.24430485 -2.4989886
000270 38 70 a2 3e 0b 09 cb 3e 4e 67 16 bf 36 c3 9c 3e
       0.3172624 0.39655337 -0.5875138 0.30617684
000280 0a 6e 4e 3d 4f cd c6 3d 21 6b f5 be b3 97 a9 bf
       0.05039791 0.09707128 -0.47933295 -1.324942
000290 34 30 ee be 05 29 0e 3f 05 0f b8 be 41 aa 2f 3c
       -0.4652115 0.5553134 -0.3594896 0.010721744
0002a0 e6 42 31 bf b6 f4 33 3e 96 b0 df bf 1a a2 17 c0
       -0.69242704 0.17573819 -1.7475765 -2.369269
0002b0 0e 37 2b bf 3b 93 c2 be af 6e 1e bf 62 61 11 c0
       -0.6688088 -0.38002953 -0.6188764 -2.2715688
0002c0 6e 29 2c 3f a1 19 cb 3f a0 d2 3e bf 5c 3d 38 3e
       0.67250717 1.5867196 -0.7454014 0.17992157
0002d0 54 73 70 be 35 3e 44 3c 76 25 09 bd fe 27 33 3e
       -0.23481494 0.011977722 -0.03348299 0.17495725
0002e0 ed ae ea be f1 82 5d bf 3d a3 19 bf 71 9a be 3e
       -0.45836583 -0.86527926 -0.60014707 0.37227204
0002f0 8f 58 fc 3d 3b ac 08 bf e1 7b fb be 60 fa 98 be
       0.12321579 -0.533878 -0.4911795 -0.2987852
000300 54 ae d6 3e 54 09 03 bf 88 9f 61 bd da 7b 1c bf
       0.41929877 -0.5118611 -0.05508378 -0.6112648
000310 14 42 e8 3e a2 d1 e0 3d 5c 50 0e 3e f1 9d 6e 3e
       0.45362914 0.10977484 0.13897842 0.23302437
000320 65 06 59 3e ed ec 9e bf fd 47 04 be 8c 1e 3e bd
       0.21193846 -1.2416054 -0.12918086 -0.04641585
000330 d2 c3 85 bd 55 43 e6 be fd b9 de be a2 6e 35 3d
       -0.065314904 -0.44973245 -0.43501273 0.04429496
000340 55 60 e6 3e 98 b7 42 be db f3 f4 be e6 c7 5e 3f
       0.4499537 -0.19015348 -0.47842297 0.8702377
000350 4f 60 e5 bd 8c bb ed bd 0a b5 a1 be 18 8c a6 3d
       -0.1120001 -0.11608037 -0.31583434 0.081321895
000360 7c 7a 65 be 39 15 1f 3e bc c2 a2 3e 7d 3a 78 be
       -0.22410005 0.1553544 0.31789196 -0.24241062
000370 84 b0 02 be 0d 33 10 3e 6d 67 16 3f 72 f0 db 3e
       -0.12762648 0.14081974 0.58751565 0.42956883
000380 ca ed ba 3f af 11 35 bf bc 25 41 3e 16 ae 14 3f
       1.4603817 -0.7073011 0.18862051 0.58078134
000390 d7 9d 91 bf 88 0f 7b 3e 69 f3 35 c0 8e 41 e2 bf
       -1.1376294 0.24517643 -2.8429816 -1.7676256
0003a0 40 30 94 bf 50 0a 33 3f 95 93 d5 be 61 ec ed be
       -1.1577225 0.6993761 -0.4171416 -0.46469405
0003b0 26 f7 77 3f bc 2c d1 3e 67 7a 3d c0 7c 08 16 be
       0.96861494 0.40854442 -2.9605958 -0.14651674
0003c0 23 31 7b bf 3f 4f 3d bf 0f 50 74 3e 8a fe 83 3e
       -0.9812185 -0.73949045 0.23858665 0.25780135
0003d0 38 22 90 3f 28 60 42 3e b3 e5 89 3e b2 20 6c 3f
       1.1260443 0.18981993 0.2693306 0.9223739
0003e0 4b dd 9e bf f1 8e 50 3e ee a6 94 bf c9 fb 28 3f
       -1.2411283 0.20367028 -1.1613443 0.66009194
0003f0 90 b5 38 bf 9f a0 0d 3f 70 8a bc be 0d 12 72 bf
       -0.7215204 0.55323213 -0.3682437 -0.94558793

fc2.bias f4 [64]
000000 28 df c6 bd 4a e9 99 bf b8 b2 41 40 fe 0e e8 bf
       -0.097105324 -1.2024319 3.0265331 -1.8129575
000010 2e 6d 28 be 85 c4 37 40 9a af 43 bf b2 a6 29 40
       -0.16447899 2.8713696 -0.7643982 2.6507993
000020 1c ea 7a be ae 3c ab bd 05 c6 44 40 ad 1b 10 bd
       -0.24503368 -0.08361183 3.0745862 -0.035182644
000030 15 42 d0 3f df 97 65 be e2 64 27 3f e8 d4 dc bf
       1.6270167 -0.22421215 0.6538831 -1.7252474
000040 c1 e2 bc be 38 f6 f7 3e c2 b4 e3 bd 85 c4 68 3f
       -0.3689175 0.48430037 -0.11118461 0.90924865
000050 e7 b1 69 bd d5 e3 9a bd 7f 0b 9f bf 1e e9 4a bf
       -0.057054427 -0.07562987 -1.2425383 -0.7926196
000060 eb 1e fa be 93 6b 03 40 75 2c 97 be a1 24 3f 40
       -0.48851714 2.0534408 -0.29526106 2.9866107
000070 53 e6 45 40 56 e6 14 40 a5 1c d1 be 4f 6c 87 bf
       3.0921829 2.3265586 -0.40842167 -1.0579928
000080 21 03 a7 bd 9c 29 03 40 0a 71 40 40 e7 18 0c 40
       -0.08154894 2.0494146 3.0068994 2.18902
000090 9e e6 f9 bf 9e 7b 8b 3f a3 34 00 40 ba 90 9c be
       -1.9523504 1.08971 2.0032127 -0.30579168
0000a0 3e 1c 9f be cb a0 86 bd c0 d8 38 40 fd 64 e4 bb
       -0.31076235 -0.065736376 2.8882294 -0.0069700466
0000b0 d2 bf 75 bf d6 62 52 40 81 6a d4 be f7 25 54 3e
       -0.9599582 3.2872825 -0.41487506 0.20717607
0000c0 41 19 85 bf d4 f1 e3 3f 5b 36 0b 40 69 85 bc 3e
       -1.0398332 1.7808175 2.1751926 0.36820534
0000d0 6e 8c d9 3f 42 a9 75 be 9d bb 55 3c f1 4c ac 3f
       1.6995981 -0.23990348 0.013045219 1.3460981
0000e0 3e 77 18 40 ea 7c bd bf 0e a3 f2 3f da 10 34 bd
       2.382278 -1.4803746 1.895601 -0.043961383
0000f0 be a5 68 3d 39 f1 22 40 4d 51 ea 3f 8b c0 44 40
       0.05679869 2.545973 1.8306061 3.074252

final.weight f4 [6, 64]
000000 9d ce 9f 3d 1a 34 42 be 8b 11 fb 3e 5f 92 16 be
       0.0780308 -0.18965188 0.49036822 -0.14704274
000010 f6 d8 23 3e 0c d0 e6 3e fc 8a 50 be ca fd 53 3e
       0.16000733 0.45080602 -0.20365518 0.20702282
000020 9e 70 b2 be 50 12 63 bd d4 25 0b 3f 40 a7 56 3d
       -0.34851545 -0.055437386 0.54354596 0.052405596
000030 2c 54 7d 3e 82 b6 fa 3d 57 58 37 3e 08 8e 1f be
       0.2473914 0.12241842 0.17904793 -0.15581524
000040 9a 14 9d 3e ea 47 25 3e dc d0 08 be 31 fc 0d 3e
       0.3067978 0.16140714 -0.13360924 0.13865735
000050 9e e5 fb 3d 94 1c 63 be 4d b7 55 be 0b 51 a6 be
       0.122996554 -0.2217887 -0.20870705 -0.32483706
000060 42 0e 44 bd cd 95 21 3e 40 db 10 bf 21 03 f3 3e
       -0.04786516 0.157798 -0.5658455 0.47463325
000070 ea ff ec 3e 9b ad ec 3d e6 ed dd be 86 20 04 be
       0.46288997 0.1155655 -0.43345565 -0.12903032
000080 21 d6 8a bd dd 76 39 3e b1 3e 96 3e b0 89 16 3e
       -0.06779123 0.18111749 0.29344705 0.14700961
000090 4d ad 59 bd 65 37 36 be ee 8e 22 3e a0 e7 41 3c
       -0.053143788 -0.17794569 0.15874836 0.011835009
0000a0 f1 e8 25 3c 77 59 ce 3d fb 4e ac 3e bb 6a f5 bd
       0.010126338 0.10075658 0.33654007 -0.11983248
0000b0 05 49 b7 bd 41 74 1f 3f 8a 81 a5 be 53 1d 9a 3e
       -0.08949474 0.62286764 -0.32325393 0.30100498
0000c0 17 c3 20 be ec cd 86 3e b5 60 ec 3d b7 55 f0 3d
       -0.15699421 0.2632898 0.11541883 0.11735099
0000d0 6a 19 9f bd b0 31 63 be cc 6c cc bd 30 0f 34 3e
       -0.07768519 -0.22186923 -0.09981689 0.17583919
0000e0 e8 39 98 3e bc 6e d9 be 61 cd 96 3e a8 40 e7 bc
       0.2973168 -0.42467296 0.29453567 -0.028229073
0000f0 62 1f 85 3d 6d 1a 4a 3e 5c a9 2e 3e 45 f3 04 3f
       0.065001264 0.19736643 0.17056793 0.519337
000100 cf b5 e4 bc 29 89 83 bd 6d 2b eb 3e 08 c9 ac bd
       -0.027918724 -0.064226456 0.4593157 -0.08436781
000110 4f c6 16 be 17 01 c8 3e ce 2c 94 3e 0b a7 6b 3d
       -0.14724086 0.3906333 0.28940433 0.05753235
000120 7e dc 03 be 5e 5a e1 3d 79 53 fc 3e 61 e8 2a bd
       -0.1287708 0.11003564 0.49282435 -0.04172552
000130 ed 48 54 3e 91 06 a9 bd d8 86 e6 bd 47 de c6 bd
       0.20730944 -0.082532056 -0.11256188 -0.09710365
000140 36 4d e9 bd 00 68 0e 3e f8 31 f0 3d 21 b0 4d 3e
       -0.1139168 0.1390686 0.11728281 0.20086719
000150 e0 d9 d6 bb 98 66 43 3e 05 80 16 bd 38 35 b1 bc
       -0.0065567344 0.19082105 -0.036743183 -0.021631822
000160 d8 f8 9b be 71 13 8c 3d 84 c9 6e 3c 96 97 d9 3e
       -0.3046329 0.06839646 0.014574412 0.42498463
000170 37 3e de 3e 44 a4 d9 3d 1e cb 40 bf 6b 7b 58 be
       0.4340684 0.10627034 -0.7530993 -0.2114083
000180 d5 b6 af bd d8 8c f2 3c dc 46 0a 3f c2 a6 0a 3e
       -0.08579794 0.029608175 0.5401437 0.13540176
000190 cf 5b 82 be 74 74 46 3e fe 77 25 3e 60 e8 97 be
       -0.2546067 0.19380361 0.16159055 -0.29669476
0001a0 a0 5b 1b 3b c4 a2 0a be d6 63 03 3f 9f e0 e3 3d
       0.0023705736 -0.13538653 0.5132421 0.111268274
0001b0 68 d5 30 be 29 3d 21 3f 0f 8d 68 be cc bd a4 be
       -0.17268908 0.6298395 -0.2271006 -0.32176054
0001c0 ab 93 5e bd d7 83 64 3e f3 87 18 be ac 7e fd bd
       -0.054340046 0.22315918 -0.1489561 -0.12377676
0001d0 bc 22 ed 3d c1 56 42 3e 5c 7a 77 3d 6c f2 20 3e
       0.11578891 0.18978406 0.060419425 0.15717477
0001e0 d3 8a 78 3d ed d1 2e be 74 57 4a 3e 51 6e fa bc
       0.060679268 -0.17072268 0.19759923 -0.030570181
0001f0 68 aa 81 3c 2c 7b 0c 3e 1a 52 df 3d b5 76 f8 3e
       0.015828326 0.13718861 0.109043315 0.48528066
000200 36 9f 83 bd f8 7a 89 bd fb d4 f1 3e 32 57 9f bd
       -0.064268515 -0.067129076 0.47232804 -0.07780303
000210 04 2c 09 be 29 5d af 3e 4a 7f 9c 3e ae 66 8f 3d
       -0.13395697 0.34250763 0.30565864 0.070020065
000220 85 98 47 be c6 89 8b 3d 72 12 04 3f cf 36 a8 bd
       -0.19491775 0.068133876 0.51590645 -0.08213579
000230 7e f0 51 3e 1c 9e 0b be b6 d5 de bd e1 12 eb bd
       0.20501897 -0.13634533 -0.10880606 -0.1147821
000240 f4 03 a1 be 24 fa 34 3e fd 09 09 3e b5 3a 38 3e
       -0.31448328 0.17673546 0.13382716 0.17991145
000250 7d 62 34 3d 50 38 84 3e bc ae e3 bd aa 95 cc bc
       0.04403924 0.25824213 -0.11117312 -0.02497371
000260 5d d1 db be c2 b4 6a 3d c1 30 73 3d 68 dc f9 3e
       -0.4293317 0.05730129 0.059372667 0.4880097
000270 c0 47 e4 3e 8a b3 ec 3d 16 fb ca bc 86 98 6e be
       0.4458599 0.11557682 -0.02477793 -0.2330037
000280 0f a6 c9 bd a4 35 1d 3d 73 5a 06 3f fc 44 16 3e
       -0.09846126 0.038381234 0.52481765 0.14674753
000290 8b 50 8e be 13 87 46 3e 7c 2f 16 3e 3f 75 43 be
       -0.27795824 0.19387464 0.14666551 -0.19087695
0002a0 77 d1 84 bd 33 ac 89 bd 27 ed 07 3f 05 2e ea bc
       -0.06485265 -0.067222975 0.5309624 -0.028586397
0002b0 a1 07 2f be 76 1b 1b 3f fd 32 87 be 98 d2 a4 be
       -0.17092754 0.6058878 -0.26406088 -0.3219192
0002c0 3a a8 5b bd 70 75 65 3e 73 25 05 be c9 c8 bf bd
       -0.05362723 0.2240808 -0.13002567 -0.093644686
0002d0 b4 ca d0 3d 1c a8 46 bd 46 0f 52 3d 6e d1 4e 3e
       0.101949126 -0.048500165 0.051284097 0.20197079
0002e0 51 77 53 3d 09 54 32 be ba f6 4d 3e 8a 9b 3c bd
       0.05162746 -0.1741487 0.2011365 -0.04604677
0002f0 40 36 11 bd 4d e9 02 3e a8 c7 09 3e 72 30 fa 3e
       -0.035452127 0.1278431 0.13455069 0.48865086
000300 b1 bc 24 3c a0 2b 74 bd 54 59 f0 3e 2c 0a 0b be
       0.010054753 -0.059611917 0.46943152 -0.13578099
000310 27 77 07 be 7a 60 b2 3e 11 cb 37 3e 42 ba a1 3d
       -0.13229047 0.3483923 0.17948557 0.07896854
000320 eb 44 c8 be d8 3e a7 3d af 60 f9 3e 28 17 fb bc
       -0.3911508 0.08166283 0.48706576 -0.03065069
000330 c4 30 47 3e 5c 8f 66 bd ce 41 ac bd 9c 78 bf bd
       0.19452196 -0.056289062 -0.08410989 -0.09349176
000340 f7 54 08 3b 9a 1b 34 3d 5b e1 17 3e 00 b6 12 3e
       0.0020802596 0.043971635 0.1483206 0.1432724
000350 08 91 60 bd b0 6e f2 3d d0 a4 30 bd 7b d3 78 bd
       -0.054825813 0.11837518 -0.043125927 -0.06074856
000360 70 56 ac be fb e5 85 3d 49 09 49 3d 66 4f dd 3e
       -0.33659697 0.06538006 0.04908112 0.4322464
000370 99 c4 ec 3e 5d 0c ed 3d ff 08 89 be c0 e3 1a be
       0.46243742 0.11574624 -0.26764676 -0.15125942
000380 42 0e 41 3d 27 ed 02 3d e4 5d 07 3f 0f bf 29 3e
       0.047132738 0.031964447 0.5287764 0.1657679
000390 3d 93 84 be b0 63 6c 3e 51 47 6e 3e b9 f7 f6 bd
       -0.25893584 0.23084903 0.23269393 -0.12058968
0003a0 a8 83 d7 bd 91 d9 73 be 19 1c 0f 3f f8 d8 c9 bd
       -0.10523158 -0.23813464 0.5590225 -0.09855837
0003b0 7b f4 48 be a0 a7 1c 3f aa d8 ad 37 06 11 98 be
       -0.19624512 0.61193275 2.07241e-05 -0.29700488
0003c0 da f7 61 bc ce 9f 4f 3e 13 1f 11 be f2 21 2b be
       -0.013792003 0.20275804 -0.1417201 -0.16712168
0003d0 aa 69 b8 3d 6f 31 09 be 50 58 b7 3d 9a 8a 4b 3e
       0.09004529 -0.13397764 0.08952391 0.19877091
0003e0 1e e3 35 3d e5 7d 5e be 90 29 5a 3e 19 21 8f bd
       0.04440605 -0.21727712 0.21304917 -0.06988735
0003f0 43 82 7c bd ad 9a 20 3e 01 5d 0f 3e 9a 94 03 3f
       -0.061647665 0.15684004 0.14000322 0.51398623

final.bias f4 [6]
000000 54 4b 26 40 bc 3d 24 40 92 76 cf 3f 43 34 b5 3f
       2.5983477 2.566268 1.620806 1.4156574
000010 07 b1 84 3f a3 e8 37 3f
       1.0366524 0.7183935
