D2QN_AAAI_REWARD/checkpoint_d2qn_-20_1000_cheetah_20.pth (torch, 45655 bytes, 6 tensors)

fc1.weight f4 [128, 17]
0.91375554 0.2126039 -3.7858996 -0.7329191 -0.7261753 -1.430057 0.006915171 0.5131299
-0.17705998 0.35266665 -0.6531486 0.034464657 -0.09539627 -0.31098095 0.08363302 0.3754081
-0.08684306 0.3783918 -1.2325577 0.5581705 0.38466102 0.2892322 -0.9011699 0.47899777
-0.81871194 -1.6361006 1.0694226 -1.518372 -0.21928151 0.05330518 -0.4144416 0.27700123
0.051081933 -0.10399803 -3.2904513 -2.9817495 -1.1447504 -0.659399 -0.53829473 0.09805187
0.9161428 -0.73460346 -0.81408745 0.27276698 -1.178848 -0.066785805 -0.08833154 0.06663165
-0.07194207 -0.007650693 -0.12232626 -0.46107885 -0.98290217 0.34444714 -1.8587128 -0.07694633
-0.09761734 -1.3553238 -1.1821263 -0.69740456 0.10986037 -0.13282321 -0.053341296 -0.08196182
0.5787611 -0.62290066 -0.34503353 -0.042116147 -0.29144934 -0.640124 -1.5705788 -0.5116521
-0.6136049 -0.85541624 -2.3221471 -2.0939548 -0.68615764 -0.15899543 0.20349315 -0.08509265
-0.15549053 0.28361833 -0.12077236 0.09190146 -0.15979904 -5.584637 -0.20497969 -0.6299633
-0.028800651 -0.32871404 0.21864839 0.19698074 0.94430417 0.064803176 -0.53714436 -0.07691538
-0.02576525 -0.06304865 -0.017234515 -0.027873505 0.041349016 0.037824895 1.9622424 -0.2607277
-1.5004909 -1.9252902 -1.1293781 -0.44286832 -0.65724623 -0.22250439 -1.1418039 2.0153031
0.59075105 0.36180407 0.16397098 0.100349896 -0.18125612 0.012601071 -0.13049096 1.4798084
2.106551 -1.1846097 -1.2668012 -0.8499732 -2.0528705 -0.48260757 -1.0307536 -0.49826294
-0.94515526 0.06831939 0.0075091845 0.15061 -0.58110124 0.2544463 0.3748698 0.17017443
-2.270798 0.5771187 0.12529376 -0.7347924 -0.81161994 -0.7597377 -0.3476912 -0.012334049
0.28203413 -0.094633654 0.9871385 0.061649367 0.06865538 0.25467455 -0.048372347 -0.06798864
-0.0035585936 -0.16968887 -1.8225036 -1.241245 -0.40706587 -0.58759147 -0.5736113 -0.6700931
-0.1612448 0.32799655 -0.28899035 0.028825674 -0.0039281603 0.00499864 -0.11115799 -0.09695453
-0.029116023 0.00580272 0.94885147 -0.43030062 1.1683774 0.25133744 -0.560386 -0.8179291
-1.183864 -0.66450924 -0.5666677 0.4254041 -0.36813527 -0.24109589 0.5453037 -0.34208468
-0.09948689 0.36325118 -0.038083788 -5.5646076 -2.6776893 0.46074027 -0.51285774 0.15559348
-0.5184573 -1.228014 -0.20794688 0.38396266 -0.04759765 -0.027886303 0.0027238664 -0.06329918
0.100607246 -0.061745744 -0.0002746169 -0.016998779 0.8929725 0.54680395 -0.9464395 -0.8298449
-0.80163455 -0.87786657 -0.70690566 -0.88424426 -0.7932918 -0.07170657 -0.07474316 0.12938893
-0.07558482 0.089333996 0.08989041 -0.21198998 -0.0045250584 6.4317694 -0.50671077 0.81822366
0.25840312 0.13646635 0.63116163 0.9933508 0.17210901 -0.2933562 -0.24827676 0.092240706
0.0396774 0.012478178 0.07000244 -0.06627122 -0.0049989833 -0.09073593 -3.8271909 0.9909617
-0.007066956 0.15632114 -0.16385952 -0.27818567 0.8281794 -0.11811358 0.0008161375 -0.46467862
-0.3318038 -0.11372503 -0.08455049 0.079232745 -0.015693579 0.02924177 -0.03905221 1.1660268
00000000: e2eb 693f d6b4 593e 2e4c 72c0 96a0 3bbf
00000010: a0e6 39bf 1c0c b7bf a998 e23b 7b5c 033f
00000020: 364f 35be b990 b43e bf34 27bf d02a 0d3d
00000030: 1f5f c3bd e538 9fbe ca47 ab3d 7e35 c03e
00000040: c6da b1bd 92bc c13e 73c4 9dbf 43e4 0e3f
00000050: 4af2 c43e 3e16 943e 12b3 66bf 323f f53e
00000060: 1b97 51bf bf6b d1bf d7e2 883f 045a c2bf
00000070: 558b 60be 8856 5a3d b031 d4be 1bd3 8d3e
00000080: 4a3b 513d ebfc d4bd c196 52c0 fcd4 3ec0
00000090: 2e87 92bf 5fce 28bf afcd 09bf 6bcf c83d
000000a0: 5688 6a3f f90e 3cbf 0968 50bf 1da8 8b3e
000000b0: 7ee4 96bf ffc6 88bd 2be7 b4bd 2d76 883d
000000c0: 5d56 93bd aab2 fabb 3186 fabd 8712 ecbe
000000d0: 7a9f 7bbf 605b b03e 4dea edbf 0a96 9dbd
000000e0: 9aeb c7bd 407b adbf ea4f 97bf 1b89 32bf
000000f0: 79fe e03d cf02 08be 677c 5abd 99db a7bd
00000100: b029 143f 6b76 1fbf 3ca8 b0be fb81 2cbd
00000110: d938 95be 2bdf 23bf ba08 c9bf a2fb 02bf
00000120: 3615 1dbf 8ffc 5abf 0f9e 14c0 5b03 06c0
00000130: 07a8 2fbf b3cf 22be 8260 503e 0e45 aebd
00000140: e938 1fbe 6c36 913e 8057 f7bd d536 bc3d
00000150: 5ca2 23be 59b5 b2c0 32e6 51be 4645 21bf
00000160: 58ef ebbc 354d a8be 5de5 5f3e 52b5 493e
00000170: ebbd 713f 87b7 843d 4b82 09bf d085 9dbd
00000180: a511 d3bc a71f 81bd 662f 8dbc fa56 e4bc
00000190: 965d 293d 47ee 1a3d c22a fb3f 1a7e 85be
000001a0: 1610 c0bf e96f f6bf 768f 90bf a3bf e2be
000001b0: 4a41 28bf 31d8 63be a126 92bf bafa 0040
000001c0: 763b 173f 623e b93e 02e8 273e 3f84 cd3d
000001d0: 349b 39be b974 4e3c 6c9f 05be 5d6a bd3f
000001e0: bbd1 0640 4aa1 97bf 8b26 a2bf d897 59bf
000001f0: 3b62 03c0 5718 f7be bcef 83bf 521c ffbe
00000200: b2f5 71bf 09eb 8b3d 9b0f f63b 8239 1a3e
00000210: 0dc3 14bf c946 823e efee bf3e 3542 2e3e
00000220: c154 11c0 0dbe 133f 024d 003e 5b1b 3cbf
00000230: 53c6 4fbf 2b7e 42bf 9504 b2be c014 4abc
00000240: c766 903e 4acf c1bd 1cb5 7c3f 0c84 7c3d
00000250: 319b 8c3d b464 823e 1522 46bd a13d 8bbd
00000260: 4b37 69bb ebc2 2dbe cc47 e9bf 1ee1 9ebf
00000270: f06a d0be 656c 16bf 31d8 12bf 398b 2bbf
00000280: 5b1d 25be 2aef a73e 8bf6 93be d223 ec3c
00000290: ccb7 80bb a2cb a33b cda6 e3bd 1990 c6bd
000002a0: ba84 eebc be24 be3b eee7 723f 5d50 dcbe
000002b0: 648d 953f 4daf 803e 7575 0fbf cd63 51bf
000002c0: db88 97bf 471d 2abf 2211 11bf 91ce d93e
000002d0: 3a7c bcbe d7e1 76be 0699 0b3f b925 afbe
000002e0: c8bf cbbd 0ffc b93e bffd 1bbd 4411 b2c0
000002f0: 435f 2bc0 26e6 eb3e a54a 03bf e653 1f3e
00000300: 9eb9 04bf 902f 9dbf 07f0 54be c196 c43e
00000310: c1f5 42bd d171 e4bc e582 323b 00a3 81bd
00000320: 2c0b ce3d 1be9 7cbd 75fa 8fb9 0641 8bbc
00000330: d999 643f 58fb 0b3f dc49 72bf b770 54bf
00000340: ec37 4dbf ddbb 60bf c5f7 34bf d55d 62bf
00000350: 2c15 4bbf e5da 92bd f112 99bd 887e 043e
00000360: 37cc 9abd bef4 b63d 7718 b83d e713 59be
00000370: f146 94bb 0ed1 cd40 ccb7 01bf 1b77 513f
00000380: 6a4d 843e d6bd 0b3e cf93 213f 3d4c 7e3f
00000390: 583d 303e c932 96be 433c 7ebe b2e8 bc3d
000003a0: c584 223d 4671 4c3c 705d 8f3d 35b9 87bd
000003b0: 83ce a3bb c2d3 b9bd b2f0 74c0 aaaf 7d3f
000003c0: ec91 e7bb a612 203e caca 27be 5a6e 8ebe
000003d0: 9103 543f 88e5 f1bd 0ff2 553a 5bea edbe
000003e0: 30e2 a9be abe8 e8bd cf28 adbd c744 a23d
000003f0: d28f 80bc 708c ef3c 36f5 1fbd 5e40 953f

fc1.bias f4 [128]
-0.75384766 -1.8362591 -1.1308382 -1.7343843 -0.36113942 -1.7370219 0.34485418 -1.2616339
-2.3130503 1.9426253 -0.59523696 0.01406591 -1.4508802 0.5683861 -1.9336779 0.44400352
-0.69088364 -0.5716409 -0.7975846 -1.8188741 -1.803187 0.15830576 0.15248297 -0.9455057
0.745393 -1.3208597 3.0381403 -1.132879 -0.8130834 2.6640768 -1.6494942 1.5401971
-2.1014578 -1.5981249 0.41831604 -1.6064626 -1.4452401 -1.8261331 -1.362614 -1.5329068
0.45789206 -1.768971 -1.6602379 0.69182086 0.69144213 0.65103805 1.2246875 -0.5797608
-2.0862327 -1.243343 0.6320609 -1.2457141 1.667545 0.6379329 -1.4842043 0.34671792
-0.7746506 -2.2302182 -0.62388724 -0.6318162 2.7239106 0.49363583 -0.76531476 1.9318295
-0.75015813 -1.8378927 -1.581682 -1.2054158 -1.9356782 -1.5906022 0.20981064 1.3227967
-0.6367725 -0.31775895 -1.688848 2.5670402 0.05213371 -0.65752035 -2.1207604 2.705277
-1.4415148 0.41923022 -0.84546614 -0.9059053 -0.4649158 -1.4458157 0.847878 -0.016956238
-0.4266183 -1.0931131 -0.013571718 2.3819191 -0.6669628 -0.94896346 2.7108588 1.0334488
-2.1392837 -2.2162008 -1.9741081 1.7036815 -0.7368206 -0.79370207 -0.40368372 2.560007
0.7352983 -1.1389204 0.79361147 -1.7138906 0.35386482 -2.2011292 -1.3546423 0.26971877
-1.4693433 -1.451223 1.1457452 -2.109776 0.07766524 2.4998903 1.3554256 -0.55584615
-1.4253051 -0.7675896 0.65481776 -2.6352212 -2.5670388 -1.5552562 -0.87918377 2.2756488
00000000: 29fc 40bf 8a0a ebbf 4ebf 90bf 4e00 debf
00000010: 44e7 b8be bc56 debf ba90 b03e 387d a1bf
00000020: 0409 14c0 f2a7 f83f 7361 18bf b474 663c
00000030: 71b6 b9bf c081 113f c282 f7bf 6e54 e33e
00000040: c0dd 30bf 0f57 12bf 812e 4cbf ded0 e8bf
00000050: d5ce e6bf e81a 223e 7f24 1c3e a90c 72bf
00000060: 13d2 3e3f ee11 a9bf e470 4240 2e02 91bf
00000070: 3c26 50bf 3c80 2a40 a022 d3bf 2e25 c53f
00000080: 497e 06c0 5b8f ccbf 852d d63e 91a0 cdbf
00000090: a1fd b8bf bbbe e9bf 236a aebf 4a36 c4bf
000000a0: d470 ea3e a46d e2bf ad82 d4bf 2c1b 313f
000000b0: 5a02 313f 6eaa 263f 8fc2 9c3f 346b 14bf
000000c0: d684 05c0 dd25 9fbf bece 213f 8f73 9fbf
000000d0: 1d72 d53f 924f 233f 68fa bdbf 0385 b13e
000000e0: 804f 46bf e5bb 0ec0 13b7 1fbf b5be 21bf
000000f0: 8d54 2e40 d6bd fc3e abeb 43bf 3046 f73f
00000100: 5d0a 40bf 1140 ebbf 8e74 cabf 114b 9abf
00000110: 4ec4 f7bf da98 cbbf 9ad8 563e 6751 a93f
00000120: 8603 23bf 4db1 a2be 2c2c d8bf 634a 2440
00000130: 288a 553d 4153 28bf 8aba 07c0 4223 2d40
00000140: 8f83 b8bf 58a5 d63e 7870 58bf 69e9 67bf
00000150: 7209 eebe 7d10 b9bf 880e 593f cfe7 8abc
00000160: b76d dabe 21eb 8bbf e95b 5ebc 5d71 1840
00000170: 13be 2abf 45ef 72bf b67e 2d40 0d48 843f
00000180: 06ea 08c0 3cd6 0dc0 93af fcbf 3c12 da3f
00000190: 46a0 3cbf 0f30 4bbf a2af cebe 28d7 2340
000001a0: 823c 3c3f 25c8 91bf 1f2a 4b3f c460 dbbf
000001b0: c52d b53e 4ddf 0cc0 eb64 adbf 9418 8a3e
000001c0: 7113 bcbf adc1 b9bf c7a7 923f 9206 07c0
000001d0: f40e 9f3d 34fe 1f40 967e ad3f ef4b 0ebf
000001e0: 6670 b6bf c180 44bf 23a2 273f 77a7 28c0
000001f0: 5d4a 24c0 a312 c7bf 3012 61bf 3ba4 1140

fc2.weight f4 [64, 128]
0.101832144 0.2293001 1.1160619 0.107250035 -0.11954917 -1.0674667 0.8967168 -0.07440246
-0.14641462 0.20511232 -0.48928735 -0.9269619 -0.2096087 0.332562 -0.97088176 -0.40146863
-2.65164 0.24222763 0.28787357 -0.0027423783 -0.06713668 -0.46335542 -0.13853486 0.3495405
-0.23929183 0.32416254 -0.1494572 -0.3376221 -0.78531706 -0.39896166 -0.797953 0.13197157
-0.84243196 -0.18544063 -1.1160446 0.008520809 0.842496 0.6921531 0.53917587 0.011930249
0.104882084 -1.3878745 1.0535232 -0.39117935 -1.4826916 -1.0077193 0.1939755 0.6114762
0.65509665 -0.8964109 -0.50773895 -0.00713351 -0.41621158 -0.61493754 -0.0029408108 -0.33383903
0.6714916 0.7619795 -0.5623225 -0.33304 0.5398324 0.22005056 0.27973783 0.3209408
-0.62982863 0.20721395 -1.3045079 -2.4080012 -0.25807416 -0.44327414 -0.11805949 0.35353604
0.28242874 -0.21411358 -0.8702138 -0.027101902 -0.1206655 -0.04778357 -1.1309279 0.0310873
0.27968997 -0.79008615 0.13726601 -0.13343358 -1.2661145 -1.2013359 -0.057591878 0.14720899
-0.36666486 -0.25431743 -0.29383677 0.0649335 0.400091 0.61921936 0.08719788 -0.16055098
-0.16214749 -0.5312432 -2.599391 1.1204334 -0.27329054 -0.39405137 -0.23282787 -0.038932234
-0.17088047 -0.10565055 -0.17443097 -0.59982675 0.118744954 -0.58576703 0.048743516 -1.273899
-0.05313064 -0.7412431 0.39009303 -1.7026933 0.017532626 0.71844816 0.7594649 0.94427097
-0.21344541 0.159351 -0.8082828 1.7876418 1.1351947 0.24951835 -0.20063125 0.06830954
-0.10876818 1.0043614 1.0892098 -0.007905822 1.0001454 0.75312227 0.9786901 -0.07906474
-0.8504891 -0.008865602 0.08619603 1.2088766 -0.2560972 -1.8535981 0.62510735 -0.21523999
0.16791753 0.61922795 -0.0052757557 -0.5901202 0.00012707317 0.11601048 -3.0601563 -0.42437175
-4.265712 0.27460238 0.11900271 -1.3423121 0.8196962 -0.120930664 -0.63320124 0.73474365
-0.6055407 -0.8996752 -0.16465557 -1.9947475 0.07083913 0.02524678 0.42886057 0.5046793
-1.8987323 -2.5577686 1.0424365 -1.6505145 -1.120568 0.30127043 -0.4360587 1.2522706
-0.52629864 -1.4043686 -0.14856423 -0.34554717 0.39218765 -0.8733143 0.63306046 -1.571736
0.47857362 0.14859317 1.1318913 0.56586665 0.206074 0.2518191 0.26387715 0.12735708
0.19241792 -0.645521 -0.1608412 -0.04442231 -0.0995684 0.95237577 -0.21914703 -0.14272954
0.3925522 0.14415409 -0.44353178 0.03302063 0.42468095 -1.1087184 -0.4225649 -0.4026981
0.5034073 -1.7725344 -0.5077701 -1.3441283 0.28345466 0.102767535 0.5643221 -0.008009673
-1.2044762 0.39565662 -0.58405626 0.61665547 -1.6048521 0.06030365 0.37301514 -1.0905128
0.5950945 0.5758126 -0.5780473 0.06890763 -1.0552073 -0.0067268205 0.4883881 0.21424824
-0.092483215 0.20762558 -0.062405497 -0.1694231 -1.2936198 -1.4780527 0.20182282 -0.4231456
-0.025042243 0.11873964 0.27576146 -1.1477743 -0.0218593 0.7528405 0.019975474 0.21156149
-0.42697018 -0.7509773 0.37330532 -2.2977588 -5.526933 0.5911532 -0.4087389 0.341802
00000000: 5f8d d03d a5cd 6a3e 1edb 8e3f e8a5 db3d
00000010: 32d6 f4bd c0a2 88bf 3b8f 653f 5160 98bd
00000020: b7ed 15be f708 523e df83 fabe 604d 6dbf
00000030: aaa3 56be 9145 aa3e b58b 78bf 4c8d cdbe
00000040: 78b4 29c0 850a 783e 2a64 933e 79b9 33bb
00000050: f57e 89bd ec3c edbe 15dc 0dbe f9f6 b23e
00000060: eb08 75be a2f8 a53e 4f0b 19be cedc acbe
00000070: 8a0a 49bf b444 ccbe a646 4cbf 8e23 073e
00000080: 9fa9 57bf 26e4 3dbe 8dda 8ebf dd9a 0b3c
00000090: d1ad 573f f230 313f 6e07 0a3f 1777 433c
000000a0: 6bcc d63d dfa5 b1bf d9d9 863f a948 c8be
000000b0: d7c8 bdbf f2fc 80bf 83a1 463e b489 1c3f
000000c0: 6ab4 273f 2f7b 65bf 2efb 01bf 38c0 e9bb
000000d0: af19 d5be 8c6c 1dbf 9eba 40bb f3ec aabe
000000e0: e0e6 2b3f 1711 433f 5ef4 0fbf 3884 aabe
000000f0: 7532 0a3f ef54 613e cc39 8f3e 5a52 a43e
00000100: 733c 21bf e52f 543e 1dfa a6bf b11c 1ac0
00000110: 4c22 84be d4f4 e2be 2dc9 f1bd ad02 b53e
00000120: 809a 903e 9740 5bbe 55c6 5ebf cf04 debc
00000130: 791f f7bd b4b8 43bd 3fc2 90bf cbaa fe3c
00000140: 8633 8f3e 1643 4abf 768f 0c3e d0a2 08be
00000150: 0a10 a2bf 60c5 99bf 76e5 6bbd f4bd 163e
00000160: 7fbb bbbe e535 82be c671 96be dbfb 843d
00000170: bad8 cc3e 2985 1e3f cd94 b23d 7a67 24be
00000180: fe09 26be 8eff 07bf 6c5c 26c0 5d6a 8f3f
00000190: bdec 8bbe 1ac1 c9be 6e6a 6ebe 6877 1fbd
000001a0: 4afb 2ebe 515f d8bd 089e 32be 3f8e 19bf
000001b0: 8e30 f33d d4f4 15bf 48a7 473d 1f0f a3bf
000001c0: 849f 59bd 1cc2 3dbf 46ba c73e dbf1 d9bf
000001d0: 95a0 8f3c 38ec 373f 4b6c 423f bebb 713f
000001e0: 6f91 5abe e92c 233e 9feb 4ebf 72d1 e43f
000001f0: 0f4e 913f bd81 7f3e 4772 4dbe dfe5 8b3d
00000200: dac1 debd ea8e 803f 3a6b 8b3f 6c87 01bc
00000210: c404 803f 9fcc 403f 6f8b 7a3f b2ec a1bd
00000220: a7b9 59bf 0841 11bc 8b87 b03d 78bc 9a3f
00000230: 2c1f 83be b442 edbf 0907 203f df67 5cbe
00000240: 93f2 2b3e b985 1e3f 3fe0 acbb 1e12 17bf
00000250: f23e 0539 e796 ed3d 9ad9 43c0 4147 d9be
00000260: b680 88c0 af98 8c3e b1b7 f33d e2d0 abbf
00000270: 9cd7 513f 7faa f7bd 7a19 22bf 2918 3c3f
00000280: b704 1bbf 1d51 66bf 789b 28be e353 ffbf
00000290: 1b14 913d 56d2 ce3c 9d93 db3e aa32 013f
000002a0: a909 f3bf 7bb2 23c0 8f6e 853f 0f44 d3bf
000002b0: c66e 8fbf 1e40 9a3e 1643 dfbe 674a a03f
000002c0: 82bb 06bf 5ac2 b3bf 3921 18be 8feb b0be
000002d0: d2cc c83e 8791 5fbf 4010 223f a52e c9bf
000002e0: 9a07 f53e cf28 183e d0e1 903f a3dc 103f
000002f0: 1005 533e 6fee 803e e81a 873e e569 023e
00000300: 3409 453e dd40 25bf 8eb3 24be 2bf4 35bd
00000310: 84ea cbbd e6ce 733f 1468 60be b127 12be
00000320: 9afc c83e 219d 133e 9916 e3be a440 073d
00000330: c86f d93e 7cea 8dbf 6d5a d8be 722e cebe
00000340: 4ddf 003f 68e2 e2bf 39fd 01bf 650c acbf
00000350: f820 913e c977 d23d 6a77 103f 013b 03bc
00000360: 472c 9abf 8193 ca3e b684 15bf 22dd 1d3f
00000370: cb6b cdbf f600 773d d7fb be3e ec95 8bbf
00000380: 1d58 183f 7468 133f e8fa 13bf 721f 8d3d
00000390: 0811 87bf a96c dcbb 010e fa3e e463 5b3e
000003a0: d767 bdbd cd9b 543e e89c 7fbd 407d 2dbe
000003b0: 5595 a5bf d530 bdbf a4aa 4e3e 8aa6 d8be
000003c0: 6425 cdbc c52d f33d 9b30 8d3e 45ea 92bf
000003d0: 4612 b3bc 28ba 403f 9ba3 a33c 93a3 583e
000003e0: d69b dabe 0c40 40bf e021 bf3e 7b0e 13c0
000003f0: a3dc b0c0 d155 173f 3a46 d1be ac00 af3e

fc2.bias f4 [64]
1.2824478 -0.94250154 3.2091966 -0.83442885 -0.26261708 2.837641 -0.94711274 2.5890448
1.208979 -0.08361183 3.0932462 0.73051697 0.49844646 -0.8208183 0.80157703 -0.45693147
-0.7007701 0.0051156506 1.7082131 2.944039 -0.07826474 -0.11582082 -0.182409 -0.9718315
-1.5531226 1.4726651 -0.017769175 2.970029 3.1283703 2.0836124 -1.2691691 -1.3610297
-0.10659712 2.5712962 2.969972 2.5633676 -1.5206236 2.0101085 1.605048 -0.90800345
-0.8393596 -0.035722155 3.0218105 -0.44301033 -0.23016942 3.2354057 -1.4037513 0.9148597
-0.055437367 2.4448292 2.201159 0.2636276 0.84221786 -0.111129016 -0.12186231 0.2282253
-0.7349325 -1.8480062 -0.034214802 -1.5226837 0.04817984 3.0754652 1.88441 1.2988517
00000000: 4027 a43f c847 71bf 7a63 4d40 219d 55bf
00000010: bf75 86be e99b 3540 fb75 72bf e9b2 2540
00000020: d3bf 9a3f ae3c abbd bff7 4540 2903 3b3f
00000030: 6034 ff3e 2621 52bf 2734 4d3f ecf2 e9be
00000040: ab65 33bf 30a1 a73b baa6 da3f 236b 3c40
00000050: 4449 a0bd 7733 edbd 6dc9 3abe f3c9 78bf
00000060: b9cc c6bf 4a80 bc3f a990 91bc f514 3e40
00000070: 3837 4840 e859 0540 2274 a2bf 3936 aebf
00000080: 974f dabd 1e90 2440 0514 3e40 370e 2440
00000090: cba3 c2bf 9ea5 0040 3672 cd3f ea72 68bf
000000a0: 45e0 56bf 6551 12bd 5865 4140 40d2 e2be
000000b0: 88b1 6bbe e310 4f40 1fae b3bf 3f34 6a3f
000000c0: 4b12 63bd 1578 1c40 cadf 0c40 32fa 863e
000000d0: 979b 573f 9c97 e3bd f292 f9bd e5b3 693e
000000e0: 8924 3cbf 788b ecbf d224 0cbd 4de7 c2bf
000000f0: 3958 453d 6cd4 4440 5934 f13f c640 a63f

final.weight f4 [6, 64]
0.18043825 -0.24783477 0.5836058 -0.23004133 0.030541383 0.39203537 -0.016203154 0.22756591
-0.10680518 -0.055437386 0.48591888 0.18688564 0.26023746 -0.115399 0.3801823 -0.15008137
-0.27192968 0.12662613 0.23225066 0.3253245 0.07867792 -0.3730124 0.17765914 -0.16217057
-0.052732207 0.13077593 -0.05788215 0.47427902 0.4665601 0.1712054 -0.34880885 -0.20049492
-0.11416214 0.10928173 0.25803664 0.28010508 -0.29324064 0.05061056 0.19539344 -0.14557797
-0.39103153 -0.06724972 0.48034412 -0.14633536 -0.15933426 0.61914724 -0.23362464 0.14510146
0.58510786 0.30900544 0.076623835 0.13875057 0.010840015 0.009151253 -0.06683795 -0.5482939
-0.13644147 -0.211576 0.027544642 -0.114257626 0.06739266 0.48298204 0.15244637 0.17323379
0.14336038 -0.16804661 0.61289275 0.05280721 -0.17707951 0.34871837 -0.13796337 0.11899562
0.15019825 0.11003564 0.48146468 -0.11603684 0.3843439 -0.04227069 0.052727062 -0.38479415
-0.3252462 0.06852055 0.15780768 0.34366727 -0.006618018 -0.08442807 0.004993736 -0.124688335
-0.37208968 0.22749397 0.41774058 0.37141356 0.42831907 -0.05929147 -0.079360396 -0.08382025
-0.013108007 0.1467202 0.5104106 0.23187606 -0.13488492 0.18057708 0.19933087 -0.048120484
-0.2501214 0.04205592 0.4817584 -0.05335433 0.01568577 0.5806302 -0.1556684 -0.024207678
-0.064542666 0.3506624 -0.1277329 -0.053653076 0.16208488 -0.016278803 0.038069468 0.16526118
-0.17026792 -0.11788615 0.033243425 -0.124900684 0.015828326 0.49880207 -0.12518942 0.10988929
0.15938674 -0.17648731 0.6091838 0.025542295 -0.18239467 0.30816516 -0.117219985 0.08965814
0.13733372 0.068133876 0.50321686 -0.083153576 0.4273165 0.00038157924 0.06497542 0.19209276
-0.37174785 0.0572612 0.20585828 0.35624674 0.059450522 -0.1406786 -0.0028890036 -0.15939146
-0.40754154 0.22955917 0.40732798 0.42390352 0.44426772 0.007849124 -0.09996733 -0.08970952
-0.08229897 0.16281305 0.53804547 0.23735057 -0.117215216 0.1771648 0.16939998 -0.036457814
-0.47058833 0.02639887 0.48377225 -0.06520574 0.015645575 0.5189175 -0.15500627 -0.096895166
-0.051843476 0.36510783 -0.16060731 -0.09178022 0.20634872 0.019459559 0.07755593 0.12141032
-0.1412332 -0.10593074 0.07731654 -0.10487431 -0.035452127 0.52858335 -0.06920933 0.09069122
0.082238846 -0.178784 0.5979882 -0.21085681 -0.28144315 0.3390308 -0.17812535 0.10525278
0.14299858 0.08166283 0.5197082 -0.10619403 0.25899148 -0.0131363 0.075749844 -0.27711764
-0.34344485 0.10830985 0.1602004 0.37339753 -0.054825813 -0.08532877 0.011984634 -0.12317354
-0.37968963 0.23963034 0.40040138 0.3840134 0.44144925 -0.060962643 -0.08995086 -0.085820146
0.007940153 0.08468578 0.49885377 0.24224663 -0.1395477 0.22620177 0.12874132 -0.052865822
-0.5371592 -0.033947945 0.5082794 -0.020017939 0.021971881 0.52496356 -0.1848766 0.075612485
-0.0823323 0.38119188 -0.17524402 -0.13022296 0.18390474 -0.018795982 0.0039292662 0.27580288
-0.11731108 -0.11413004 0.01547025 -0.12175301 -0.061647665 0.51464015 -0.11914866 0.10343082
00000000: cec4 383e 66c8 7dbe 3167 153f f48f 6bbe
00000010: ec31 fa3c dcb8 c83e 7abc 84bc 0a07 693e
00000020: adbc dabd 5012 63bd 5cca f83e f35e 3f3e
00000030: d83d 853e 5056 ecbd 41a7 c23e eeae 19be
00000040: 5e3a 8bbe 48aa 013e 1ed3 6d3e ef90 a63e
00000050: e421 a13d 7bfb bebe 47ec 353e 0b10 26be
00000060: bafd 57bd 20ea 053e d515 6dbd b3d4 f23e
00000070: f7e0 ee3e 7850 2f3e 1397 b2be 8a4e 4dbe
00000080: d7cd e9bd 1acf df3d 611d 843e ef69 8f3e
00000090: a323 96be 054d 4f3d 3815 483e 6412 15be
000000a0: 4935 c8be 39ba 89bd aaef f53e f0d8 15be
000000b0: 8528 23be 6f80 1e3f 4c3b 6fbe 7a95 143e
000000c0: a1c9 153f f635 9e3e f5ec 9c3d a114 0e3e
000000d0: 519a 313c 23ef 153c 56e2 88bd fd5c 0cbf
000000e0: 50b7 0bbe 61a7 58be 4da5 e13c e7ff e9bd
000000f0: 2a05 8a3d 6c49 f73e e71a 1c3e 3364 313e
00000100: 10cd 123e 6914 2cbe 8ae6 1c3f 5f4c 583d
00000110: 5554 35be 378b b23e 4546 0dbe fab3 f33d
00000120: 92cd 193e 5e5a e13d 8a82 f63e b9a4 edbd
00000130: b9c8 c43e 0824 2dbd 55f8 573d bd03 c5be
00000140: ac86 a6be 8154 8c3d 5698 213e 28f5 af3e
00000150: f5db d8bb a0e8 acbd 7ea2 a33b 995c ffbd
00000160: 8a82 bebe 2ef4 683e 18e2 d53e eb29 be3e
00000170: a34c db3e 9ddb 72bd b487 a2bd f4a9 abbd
00000180: f7c2 56bc d23d 163e 45aa 023f eb70 6d3e
00000190: 461f 0abe 33e9 383e 641d 4c3e fc19 45bd
000001a0: ea0f 80be d442 2c3d 09a9 f63e 128a 5abd
000001b0: 727f 803c 2ea4 143f 8967 1fbe 2e4f c6bc
000001c0: f22e 84bd 068a b33e 6acc 02be 54c3 5bbd
000001d0: 94f9 253e 205b 85bc bbee 1b3d 3a3a 293e
000001e0: b75a 2ebe 4b6e f1bd 422a 083d eecb ffbd
000001f0: 68aa 813c fc62 ff3e a831 00be a30d e13d
00000200: 4736 233e 17b9 34be 78f3 1b3f 133e d13c
00000210: abc5 3abe d3c7 9d3e 0811 f0bd b09e b73d
00000220: 36a1 0c3e c689 8b3d d2d2 003f 6c4c aabd
00000230: 3ac9 da3e b30e c839 d511 853d f7b3 443e
00000240: bc55 bebe b88a 6a3d 83cc 523e f965 b63e
00000250: 6482 733d 0d0e 10be 7055 3dbb 8437 23be
00000260: 49a9 d0be 8f11 6b3e 4b8d d03e e209 d93e
00000270: 0f77 e33e 9d99 003c acbb ccbd a0b9 b7bd
00000280: 5d8c a8bd 77b8 263e 59bd 093f 070c 733e
00000290: 880e f0bd b06a 353e 3077 2d3e ca54 15bd
000002a0: f4f0 f0be 7142 d83c ffb0 f73e 968a 85bd
000002b0: 262b 803c c7d7 043f f7b9 1ebe f970 c6bd
000002c0: d359 54bd 6aef ba3e 3e76 24be 45f7 bbbd
000002d0: 144d 533e a769 9f3c a5d5 9e3d f9a5 f83d
000002e0: 709f 10be 37f2 d8bd 2258 9e3d 58c8 d6bd
000002f0: 4036 11bd 3d51 073f 9fbd 8dbd 51bc b93d
00000300: d76c a83d 2713 37be c115 193f d9ea 57be
00000310: 5119 90be 7295 ad3e 7e66 36be c58e d73d
00000320: 386e 123e d83e a73d 990b 053f 417c d9bd
00000330: 889a 843e a339 57bc bc22 9b3d 5de2 8dbe
00000340: 01d8 afbe 8ed1 dd3d 930b 243e f62d bf3e
00000350: 0891 60bd dac0 aebd 335b 443c 6942 fcbd
00000360: ae66 c2be a861 753e 6901 cd3e 689d c43e
00000370: a305 e23e f7b3 79bd 2838 b8bd 79c2 afbd
00000380: 6a17 023c bd6f ad3d c369 ff3e 800f 783e
00000390: 98e5 0ebe 70a1 673e c4d4 033e d589 58bd
000003a0: 4483 09bf 000d 0bbd 991e 023f a9fc a3bc
000003b0: 60fe b33c 0364 063f 4b50 3dbe b8da 9a3d
000003c0: d69d a8bd 952b c33e 2b73 33be 2b59 05be
000003d0: 8651 3c3e 08fa 99bc 13c1 803b 0936 8d3e
000003e0: cb40 f0bd 03bd e9bd ee76 7d3c a459 f9bd
000003f0: 4382 7cbd 75bf 033f 3604 f4bd 8ad3 d33d

final.bias f4 [6]
2.594494 2.5939357 1.6637335 1.4880719 1.1645479 0.88838553
00000000: 310c 2640 0b03 2640 38f5 d43f 2479 be3f
00000010: e80f 953f 3c6d 633f
