D2QN_AAAI_REWARD/checkpoint_d2qn_-30_1000_cheetah_50.pth (torch, 45655 bytes, 6 tensors)

fc1.weight f4 [128, 17]
000000 dc 50 42 c0 40 24 6b c0 60 0c e5 bf 2a 8a d6 bf
       -3.0361853 -3.6740875 -1.7894402 -1.6760914
000010 92 cc 42 bf b4 0f 34 bf 4d 01 af 3d 55 27 85 bf
       -0.760934 -0.7033646 0.0854517 -1.0402628
000020 26 22 87 3f c3 7e 85 bf 74 f5 fd be 00 c0 b4 3c
       1.0557296 -1.042931 -0.49601328 0.022064209
000030 d8 bd a0 bd 0c f2 73 3d ed 6d 2c be 97 37 b8 bc
       -0.0784871 0.059557006 -0.16838808 -0.022487445
000040 14 89 25 be 47 5d 1a 3e 43 ed 63 c0 ab db 82 3f
       -0.16165572 0.15074645 -3.5613563 1.0223287
000050 98 fe f3 3e e6 f6 e4 be 35 5e 50 be 34 6a 33 3e
       0.47655177 -0.4471962 -0.20348437 0.17520982
000060 c3 4e 7e 3f 99 2f ae bf 76 b1 e8 3e b6 a4 aa bf
       0.9933893 -1.3608276 0.45447892 -1.3331516
000070 92 db 5b be 7e db 26 be dd b2 14 be 75 5b 13 3e
       -0.21470478 -0.16294667 -0.14521356 0.14390357
000080 1d 15 1b 3c f7 18 01 3d cb 54 a9 c0 23 01 87 bf
       0.009465483 0.03151795 -5.2916007 -1.0547222
000090 b4 9d 16 bf f1 b1 93 3e d0 5c 14 3e 6c b0 67 3e
       -0.58834386 0.28846696 0.1448853 0.22625893
0000a0 9a 6b 2a 3f 15 34 0c 3f b6 4b 6c 3d b7 54 2f 3c
       0.66570437 0.5476697 0.05768939 0.01070135
0000b0 f7 54 67 be 16 5e 7f bd 3f 86 95 3c c9 50 06 3d
       -0.22591005 -0.062345587 0.01825249 0.032791886
0000c0 88 64 bb 3c 23 88 6c bd 35 a3 24 bd 1f ad 97 40
       0.022875085 -0.057747018 -0.04019471 4.739883
0000d0 83 5a 85 bf 63 46 f4 bf 83 4b f2 bf e2 69 50 bf
       -1.0418247 -1.908398 -1.8929294 -0.81411564
0000e0 b5 d6 25 3f c5 af 92 be fa 52 8d bd e2 39 32 bf
       0.6478074 -0.28649727 -0.06900592 -0.6961957
0000f0 e4 3d b9 3f c5 85 d2 be ff 78 aa 3d 7e 3e 11 3e
       1.4472013 -0.41117683 0.083238594 0.14183995
000100 a2 f1 7b 3d 2d 29 92 3d 47 bd 16 bd a7 0b 98 3c
       0.061509736 0.0713676 -0.036801603 0.018560244
000110 85 9a 5b c0 c6 dd 9e 3f 96 5a d0 be e4 c6 3d bc
       -3.4313061 1.241143 -0.40694112 -0.011583064
000120 b9 3b 1b 3e 14 5d 70 3e 54 4a 99 3f d9 d3 01 3e
       0.15159501 0.23473006 1.1975808 0.1267847
000130 2f a2 8f 3e 47 94 26 be 52 26 09 bd 31 39 1e 38
       0.28053424 -0.16267501 -0.03348381 3.77234e-05
000140 1e e9 67 bd 67 66 2e 3c 9f 0f 68 bd a7 0e 03 3d
       -0.056618802 0.010644532 -0.056655522 0.031996395
000150 b2 67 7a bd 0f 9a aa c0 07 d8 fe be d1 5f 18 bf
       -0.061134048 -5.331306 -0.4977419 -0.59521204
000160 a7 16 e5 bd 81 4e ad be fc df 27 3e c4 c4 ae 3f
       -0.11185961 -0.33848956 0.16394037 1.3653798
000170 1f c2 03 3f 53 23 80 bc 86 ec 02 bf 41 11 4f bd
       0.5146808 -0.015641844 -0.51142156 -0.050553564
000180 65 36 9f bc 7d 18 4d bd 19 aa 7b 3c 0a 6d 9e bd
       -0.019435117 -0.050072182 0.015360379 -0.07735641
000190 6c c4 14 3c f8 54 b1 3c 22 ee 4d 3f 32 2c 40 bf
       0.009080034 0.021646962 0.80441487 -0.75067437
0001a0 fa 98 08 c0 0e c1 ef bf de 43 ed bf 3e 58 63 3e
       -2.134337 -1.8730791 -1.8536336 0.2220163
0001b0 0b 15 39 3f 1a 64 5c 3f 4f ef a3 bd de 97 40 3f
       0.72297734 0.8609024 -0.08004629 0.7523173
0001c0 22 95 e2 3e ce 65 ae 3e f0 f7 07 3e ef 9b 36 be
       0.44254404 0.34062046 0.13278174 -0.17832921
0001d0 96 52 c4 bd 6e b4 85 bb 99 88 c7 bd 2d e7 c6 3f
       -0.095860645 -0.004080347 -0.09742851 1.5539299
0001e0 cf d8 15 40 59 3a 45 3f 1e ac 97 be cf b7 9e bd
       2.341358 0.77042156 -0.29623502 -0.077499025
0001f0 b2 21 00 c0 bc 2a a2 bf b2 6d 07 bf e0 30 c5 3e
       -2.0020566 -1.2669291 -0.52901757 0.3851385
000200 8e 1b 6c be 8f 64 06 bf 79 00 4d be 0c 50 00 bd
       -0.23057386 -0.5249719 -0.20019712 -0.03132634
000210 c2 2e 1d be b7 31 d3 3e 3d bf e6 3d a8 c5 72 bd
       -0.15349868 0.41248867 0.112669446 -0.05927053
000220 de fc 82 c0 7d a1 0a 3f b8 91 1d be 42 1e 27 be
       -4.0933676 0.5415266 -0.15387619 -0.16320136
000230 1b be 11 3e 2d 84 80 bc 37 6c 51 3e cd 22 57 be
       0.14232676 -0.015688026 0.20451437 -0.21009369
000240 4e a1 cc be d4 45 92 3e 5a b2 79 3d 3d cf 07 3e
       -0.39966816 0.285689 0.060961105 0.13262649
000250 24 ba c1 bd 7a 9a 4a 3e 96 4e 92 be 1a 8e 58 be
       -0.09459332 0.1978549 -0.2857558 -0.21147957
000260 2a 38 e3 3d 6a a9 65 3f ff 3f e4 bf 77 b8 b3 bf
       0.11094697 0.8971163 -1.783203 -1.4040669
000270 97 60 dc bf e6 12 06 c0 55 6c 60 bf 87 62 8c be
       -1.7216977 -2.0949035 -0.876653 -0.2741892
000280 b2 70 0f 3f 78 30 44 3e 32 b5 5f bf 3c b6 34 be
       0.56031334 0.19159114 -0.8738586 -0.17647642
000290 e8 61 3a be e9 45 0c be 83 04 90 bd f4 90 ca bc
       -0.18201411 -0.13698544 -0.070321105 -0.024727322
0002a0 23 fd 82 3e f0 b4 02 3d 55 bf 50 40 82 3e ec be
       0.25583753 0.031910837 3.261678 -0.4614144
0002b0 ea b1 0b bf 0f 06 ae 3e d1 15 f8 be 37 98 d0 bf
       -0.5456835 0.33988997 -0.48454145 -1.6296452
0002c0 71 9b 9d bf e4 ff a0 bf 79 34 a4 3c ce 95 a3 be
       -1.2313062 -1.2578092 0.020044552 -0.3195023
0002d0 a1 eb 03 3f 0d 49 60 3e 93 f9 99 bd f0 00 e7 3d
       0.51531416 0.21902867 -0.07518306 0.11279476
0002e0 c0 e1 03 be 36 4f 1c 3e 86 aa ed bd 4f e8 44 40
       -0.12879086 0.15264592 -0.116047904 3.076679
0002f0 1e 33 af bf 09 2f 64 3f 26 f0 3d 3f 43 e9 ae 3e
       -1.3687475 0.8913427 0.7419456 0.3416234
000300 3f 93 24 bf e4 20 9e bf d3 de 33 bf 8b ca 2e 3e
       -0.6428718 -1.2353787 -0.7026188 0.17069452
000310 2c 84 23 be 2c a9 5f 3f 2a 0f 06 3e 28 ad 92 bd
       -0.15968388 0.8736751 0.13091722 -0.07161933
000320 ed 0c 7b 3e 72 01 5d be e3 9a c6 3d 77 48 cb 3c
       0.2451665 -0.21582583 0.09697511 0.024814827
000330 19 ca 7f c0 ca d2 4b 40 a3 93 28 bd 6b ef 90 3e
       -3.99671 3.1847405 -0.041156422 0.2830766
000340 d0 2b 9e 3e 33 33 57 bf 1b f3 65 bf b7 9c 8e bf
       0.308928 -0.840625 -0.89824075 -1.1141576
000350 3a ba 7e be 13 a7 82 3e 9f 4d e4 3b 5b 87 f6 3c
       -0.24875727 0.25518093 0.006967261 0.03009384
000360 0f 3c 08 3d 47 ae a1 bc 5c 71 0a 3d 96 3a 02 3d
       0.0332604 -0.019736422 0.033799514 0.031794153
000370 b0 79 6c bd 32 2f 2b 40 74 9c 72 3f 9c aa ec be
       -0.057733238 2.6747556 0.9476998 -0.46223915
000380 3c 34 95 bd 62 8b 66 be 65 38 7b bf d6 3f 2c bf
       -0.072853535 -0.22514108 -0.98132926 -0.67284906
000390 d6 a7 1a 3e 4e 45 4f 3c 8d 60 20 3f 03 1b d9 3c
       0.15103087 0.012650801 0.62647325 0.026502138
0003a0 25 a9 fb be 16 95 b1 3e 0f 01 06 3e 18 57 25 3d
       -0.49152485 0.34684056 0.13086341 0.040366262
0003b0 ba 4a 3f bd 6f 0d 0b bd 78 71 3d c0 bd 28 2a 40
       -0.046702124 -0.03394836 -2.9600506 2.6587365
0003c0 ab b2 2d 3f 5a d5 25 3f 3c a1 a0 3e 84 5b 08 bf
       0.6785075 0.64778674 0.31373012 -0.5326464
0003d0 c5 aa 6d bd bd e9 c3 bd 86 f1 bc 3e 7c fb 99 3e
       -0.058024187 -0.095660664 0.36903018 0.3007468
0003e0 5b 8a a0 bd 01 2f 2e bc 1f ab e6 bb 75 76 ca 3d
       -0.07838889 -0.010631324 -0.007039442 0.09885875
0003f0 bc a1 56 bd 82 8b 24 be fa 54 31 bd 1d bd 74 bf
       -0.052400336 -0.16068843 -0.04329393 -0.95601064

fc1.bias f4 [128]
000000 0d 0f 5d bf 5a ca 61 bf a4 0b ce bf 1d 0a 69 3f
       -0.8635109 -0.8819939 -1.6097302 0.91031057
000010 9b 86 1a c0 68 76 e9 bf 74 17 8d 3c 30 92 bd bf
       -2.4144657 -1.823926 0.017223097 -1.4810238
000020 0d 92 f4 bf f0 73 77 be f7 9a b8 bd e3 05 b3 be
       -1.9107071 -0.2416532 -0.09013932 -0.3496543
000030 d3 71 d7 bf ab fb ad bf 1a 5a 08 c0 5a f7 27 bf
       -1.6831611 -1.3592428 -2.1304994 -0.65611804
000040 15 c4 4f bf 2a 75 b9 bf 33 b5 8c bf 40 77 f4 be
       -0.8115857 -1.4488881 -1.0992798 -0.4774723
000050 6a 86 90 bf 7a 9b 6f bd 31 d8 32 bf 21 a8 73 bf
       -1.129102 -0.058497883 -0.6986113 -0.9517842
000060 df e5 ff bf 32 b2 ee bf 03 43 2b be 60 3b 8b 3f
       -1.9992026 -1.8648131 -0.16724782 1.0877495
000070 ac 0e 90 bf 60 96 34 40 b0 9a d3 bf b6 e2 40 3f
       -1.1254478 2.8216782 -1.6531582 0.75345933
000080 64 08 da bf bb c5 ad bf 5e b7 78 3e b4 56 6d bf
       -1.7033811 -1.3575968 0.24288699 -0.92710423
000090 b3 f5 df bf 8d 01 e1 bf a9 92 87 bf 19 a2 f3 bf
       -1.7496856 -1.7578598 -1.0591632 -1.9033843
0000a0 b5 ec bb 3f 48 23 88 bf 77 70 af bf 8e 57 dc bf
       1.4681612 -1.0635767 -1.3706197 -1.721422
0000b0 ac 3a 35 3f 67 5f ff bf 4f 23 b2 3f 29 7e 9e be
       0.7079265 -1.995099 1.3917025 -0.30955628
0000c0 cb 45 fa bf 59 37 77 bf c2 74 7c be f9 88 b0 bf
       -1.9552549 -0.9656883 -0.24653915 -1.3791801
0000d0 9d 5d 2a 40 9a 49 59 be d6 86 e9 bf 03 14 5d bf
       2.6619637 -0.21219483 -1.8244274 -0.8635866
0000e0 47 20 d5 be 42 81 e8 bf 16 23 c0 bf 4e de 53 bf
       -0.41626188 -1.8164446 -1.5010707 -0.82761085
0000f0 4e 3a 3c 40 de e3 37 3e 75 4b 86 3d 84 b2 a6 3f
       2.9410586 0.17958018 0.06557361 1.3023229
000100 4f 87 7c bf 94 01 03 c0 a4 0c e7 bf 63 3b a5 bf
       -0.98643965 -2.0469713 -1.8050733 -1.2908748
000110 a8 51 ea bf f2 e3 d2 bf d9 36 ca bf 51 c0 81 3f
       -1.830617 -1.6475813 -1.5797988 1.0136815
000120 f7 78 7d bf 50 b5 dd be 37 47 76 bd 41 26 2c 40
       -0.990127 -0.43302393 -0.06012651 2.6898348
000130 93 9e b6 3e ed 4d ab be f9 e4 99 bf 1c a5 28 40
       0.35667858 -0.3345789 -1.2023002 2.6350775
000140 a0 85 9c bf 64 ad 18 3f 6a 78 0d 3f f4 3c 47 3f
       -1.2228279 0.59639573 0.5526186 0.7782738
000150 1e 6f d7 bf 6c df 4b bf 86 05 36 40 90 3c 01 3e
       -1.6830785 -0.7963779 2.8440871 0.12620759
000160 4e 47 4e 3f aa 39 e3 bf d7 7c 19 40 5e a6 9b 3e
       0.8057755 -1.7751973 2.3982446 0.30400366
000170 d3 07 86 3f 3a b8 69 bf 8f eb 2e 3e 56 f1 2e 3f
       1.0471138 -0.9129673 0.17082046 0.68337
000180 13 32 2c be 5c 25 ae bf 41 c7 f4 bf a2 22 ab 3f
       -0.16815977 -1.3605151 -1.9123307 1.3369944
000190 f8 5b a3 be a2 f8 b2 bf 1a b2 82 bf a5 61 14 40
       -0.31906104 -1.3982127 -1.0210602 2.3184597
0001a0 bf c1 79 3c 1f 2f a8 bf b1 9b 21 bf 2f 57 b0 bf
       0.015243947 -1.313938 -0.6312819 -1.3776606
0001b0 01 6a d0 bf c1 ed 17 c0 23 6c ca bf bb 20 58 3e
       -1.628235 -2.3738863 -1.5814251 0.21106236
0001c0 26 af 36 bf 62 46 f3 bf 92 23 a5 3f a3 8f a1 bf
       -0.71361005 -1.9005854 1.290148 -1.262196
0001d0 26 b1 d4 3f fb 52 a5 3f fa f3 b7 bf df 9c 85 3d
       1.6616561 1.2915949 -1.4371331 0.065240614
0001e0 63 63 a7 bf 2a b3 9c 3e 9b 39 2e 40 5b 0e 04 c0
       -1.3077205 0.3060544 2.722266 -2.0633762
0001f0 c2 75 f0 bf 3a ea 1b c0 82 c7 e7 3d 0d df 26 40
       -1.8785937 -2.436171 0.1131735 2.607364

fc2.weight f4 [64, 128]
000000 da 9d 77 bf b1 1b 13 c0 0a 06 8c 3f 30 25 86 3f
       -0.9672524 -2.2985651 1.0939343 1.0480099
000010 8b 99 05 be 8d 4c 7c 3f 63 eb b0 bd 8e 41 2a 3f
       -0.13046853 0.9855431 -0.086386465 0.6650628
000020 f4 62 4b 3c 77 b2 25 bf 14 2b 6b bf 6f 0d 99 3f
       0.012413729 -0.6472544 -0.91862607 1.1957225
000030 0e ce 81 bf 15 79 04 bf 1b 16 3f bd 3d 97 33 3f
       -1.0141008 -0.51747257 -0.04665194 0.70152646
000040 32 82 9e 3f d1 a8 5d bf d2 52 33 be 01 b2 39 bf
       1.2383482 -0.8658572 -0.17512062 -0.7253724
000050 a3 44 1f 3f 8d c3 84 bf be ee b9 3e 23 cc 8a bf
       0.62214106 -1.0372177 0.36314958 -1.0843548
000060 00 80 03 bf c2 d9 16 bf ab 71 a0 3e 44 80 cb be
       -0.5136719 -0.5892602 0.31336722 -0.39746296
000070 a5 e7 04 3f 81 b2 d4 3b 28 f8 93 3e f0 32 b3 be
       0.5191596 0.006491006 0.28900266 -0.349998
000080 e1 85 a2 3e 54 bb 88 3e d5 76 df be 09 38 87 bf
       0.31742766 0.2670542 -0.4364535 -1.0563976
000090 f2 2e 96 3f 74 e0 56 3f 22 2b 0b 3f aa c8 0e 3f
       1.1733077 0.8393624 0.5436269 0.5577494
0000a0 07 24 61 3f cc 91 e5 be a1 ea 2c bf 95 be 08 bf
       0.879456 -0.44837797 -0.67545515 -0.53415805
0000b0 b4 81 9c bf b5 e8 15 bf 81 b2 36 3d 0b 40 26 3f
       -1.2227082 -0.5855821 0.04460383 0.6494147
0000c0 cd 85 bf bf 3b 91 43 bf a7 2e 02 bf 01 b6 81 bf
       -1.4962708 -0.7639348 -0.50852436 -1.0133668
0000d0 c3 2e 66 3e eb 0b 8c be 70 3a 5b 3d 4a b7 23 bf
       0.22478776 -0.27352843 0.053522527 -0.6395155
0000e0 2a c8 70 bf 14 ff 9b 3e d0 11 8a 3e 6b e7 ac 3d
       -0.94055426 0.30468047 0.26966715 0.08442577
0000f0 22 fd ab 3d 1a 49 e2 3e 99 b4 45 bf 0e e6 a6 3e
       0.083978906 0.44196397 -0.77228695 0.32597393
000100 2c aa 57 3e 40 ee 14 3f c1 cb 2a 3f 18 80 30 bf
       0.21061009 0.5817604 0.66717154 -0.68945456
000110 03 19 00 bf 00 ad 62 be 02 2c 36 3f 20 35 90 bf
       -0.50038165 -0.22136307 0.711609 -1.1266212
000120 94 14 46 3e 69 4c 68 3e cc c2 e1 be 4b 5b 1f be
       0.19343787 0.22685398 -0.4409393 -0.15562169
000130 d1 4b a2 3a 75 08 88 3f 25 8b 0c bf 50 1e 33 3c
       0.0012382214 1.0627581 -0.5489982 0.01093252
000140 3a 67 2b bf 50 d5 e0 be 92 86 bf 3d 59 4a 62 3d
       -0.66954386 -0.43912745 0.09351839 0.055246685
000150 e8 c8 05 3e 18 ba c4 3f bb 11 37 be 68 38 46 3f
       0.13064921 1.5369291 -0.17877857 0.7742982
000160 0e 34 dd be 77 f6 73 be b2 f9 a5 3e b0 d4 33 c0
       -0.43203777 -0.23824488 0.32417065 -2.8098564
000170 87 fb 36 bf e8 27 7d bf 12 d0 9d bd c4 e9 08 be
       -0.7147755 -0.9888902 -0.07705702 -0.13370425
000180 3f e1 fd 3e e5 76 73 bf 03 ab 01 be 14 54 85 bf
       0.49585912 -0.95103294 -0.12662892 -1.0416284
000190 b1 73 d9 bf 3e a9 20 bf f5 d7 8f be e8 21 92 bf
       -1.6988431 -0.62758243 -0.2809445 -1.1416597
0001a0 d5 d8 ba be a4 9a 3c 3f be 16 d3 ba 89 77 cf 3d
       -0.36493555 0.7367346 -0.00161048 0.101302214
0001b0 02 8c 75 be cd 05 9c bd 20 c9 79 3e 9f 44 81 3f
       -0.2397919 -0.07618294 0.2439313 1.0099066
0001c0 07 7f 84 3f 8f 9d 8d 3e a8 02 7c 3f 52 70 76 be
       1.0351266 0.2765927 0.98441553 -0.24066284
0001d0 77 0d a8 3e da 9b 18 be fe e2 1f 3f e3 60 fa be
       0.32822773 -0.14903203 0.6245574 -0.48902044
0001e0 24 e6 b7 3e 13 5f 8d c0 e7 c7 91 bf 77 d4 20 bf
       0.3591777 -4.4178557 -1.138913 -0.62824196
0001f0 ef b0 15 be aa 93 4b c0 07 1e 15 bf 5c 13 89 bd
       -0.14618276 -3.1808877 -0.58248943 -0.06693146
000200 de 1e e7 bc 15 0c 5c 3d 08 64 9a 3d dd 4c 59 3d
       -0.02821296 0.05372246 0.07538611 0.05305182
000210 53 f6 65 3d 60 aa 36 bd 7d a1 7e bd b1 8f 84 bc
       0.056143116 -0.044596076 -0.062165726 -0.016181799
000220 fd b6 eb 3c 10 2e b1 3c b4 b4 70 bd 8c 0c 86 bd
       0.028773779 0.02162841 -0.058766082 -0.06545362
000230 78 d6 97 bd e8 22 61 3d 1b 20 ff bc a2 02 f7 bc
       -0.074139535 0.05496493 -0.031143239 -0.030152623
000240 b6 83 bd bd 5c f6 4e bd 38 e2 25 3c 7b d8 8c 3b
       -0.092536375 -0.050527915 0.0101247355 0.0042982674
000250 1b a6 5a bd 26 25 46 bd fd 22 1d 3d 2e 90 89 bd
       -0.053381067 -0.04837527 0.038363446 -0.06716953
000260 a9 f4 b6 bd a5 92 69 bc 97 72 e9 3c 36 8a cd 3b
       -0.08933384 -0.014256154 0.028497024 0.0062725795
000270 ad 3f b6 3b 47 8c 85 bd b0 d8 7c 3d db 1e 17 bd
       0.00556179 -0.065208964 0.061730087 -0.03689466
000280 91 48 11 3d 1a 0f ab 3c 0a 9a a6 bc 8c be 81 bc
       0.035469595 0.020881224 -0.020337123 -0.01583793
000290 47 dc 8a bd bd 71 86 3d ed 45 ae 3c be 26 af bd
       -0.06780296 0.065646626 0.021273578 -0.08552311
0002a0 2c b0 d8 bd 0c e0 a4 bc a5 f9 0f 3d e3 85 b2 bd
       -0.10580477 -0.020126365 0.03515019 -0.08716943
0002b0 87 ae 4c 3d a2 21 9a bd f1 6b b1 bd 34 e4 8a 3c
       0.04997113 -0.07525946 -0.08663166 0.016954519
0002c0 7f 1d 8a bd df 48 64 bc ed 10 51 bd ef 94 16 ba
       -0.06743907 -0.013933389 -0.051041532 -0.0005744239
0002d0 b1 f7 fb bd fa 07 a6 bd 8e 3f b5 3c e4 eb b1 bc
       -0.12303103 -0.0810699 0.022125032 -0.021718927
0002e0 b9 64 9c bd bb 48 0e bc d8 9a a2 bd 37 c7 54 3a
       -0.07636399 -0.0086843325 -0.0793969 0.00081168435
0002f0 6f 4a e4 39 1e 86 5d 3d b5 da b9 bd da 0c 02 bd
       0.00043543006 0.054082982 -0.09074918 -0.031750537
000300 a5 98 07 3d 91 ec bc 3d e9 56 a0 bd a7 8d 32 3d
       0.033104558 0.09224809 -0.07829077 0.04359212
000310 b2 20 82 3c d1 71 13 3d 94 85 95 bd b3 52 41 3d
       0.015884731 0.035997216 -0.07300869 0.04719801
000320 ec 68 82 bd 12 7e 97 bd de 48 65 ba a0 5b 34 3d
       -0.063676685 -0.07397093 -0.0008746515 0.044032693
000330 a9 bf 9c bd dc 58 c2 3c 24 94 33 bd 74 51 58 bc
       -0.07653744 0.023724012 -0.04384245 -0.013203014
000340 2b ed 49 3d b7 59 04 bb cf fc 9f bd 8e 61 23 bd
       0.049298447 -0.0020195076 -0.07811891 -0.039887957
000350 da 03 22 3c a8 8f 97 bd f9 ad aa bc da 5c a0 bd
       0.009888614 -0.07400447 -0.02083491 -0.0783021
000360 09 34 22 bd 2f dd b4 3c 3c 0e ee bd c9 b0 86 bd
       -0.039600406 0.022078125 -0.11623809 -0.06576688
000370 a6 42 f5 3c 15 09 b3 bd a0 18 44 3d 1f 21 b6 bd
       0.029939007 -0.08741967 0.047875047 -0.08893036
000380 e6 5f fd bc 03 6e c0 bb 63 c4 f4 3b b5 6a b4 bd
       -0.030929517 -0.0058724894 0.0074697 -0.08809415
000390 e0 e1 42 3c 25 fc 37 3d cb 0b 84 3d 7a 7a d3 bd
       0.011894673 0.0449182 0.06447562 -0.10326095
0003a0 ef 29 b6 bd 60 cc 5b bc bf 98 16 bd 88 f1 50 bd
       -0.08894717 -0.013415426 -0.036766764 -0.051011592
0003b0 05 d7 b1 bd 93 04 ec bd 18 2b 47 bd 0e b6 48 bd
       -0.0868359 -0.1152431 -0.04862508 -0.049001746
0003c0 72 19 d7 bd 40 e3 bd bd 57 7c 5a bd 03 2e 09 3d
       -0.105029 -0.0927186 -0.053341236 0.033491146
0003d0 cb 0c 62 bd 76 a3 46 bc 38 01 eb bb 2b 08 df 3b
       -0.05518798 -0.012123933 -0.007171776 0.0068063936
0003e0 2c 50 a5 bd 55 e3 bd bb bf 03 60 3d 6e 24 de bb
       -0.08071932 -0.0057949224 0.054691073 -0.006779245
0003f0 d5 e7 f0 bd 27 01 5a bc d0 ba 69 bc 63 c6 95 bd
       -0.117629685 -0.013305939 -0.014265731 -0.0731323

fc2.bias f4 [64]
000000 4d 08 71 3f c6 1c fa 3c ea f2 4b 40 ad 74 02 c0
       0.9415329 0.030531298 3.1867013 -2.0383713
000010 58 11 f1 be 28 59 36 40 f6 79 97 bf 78 31 27 40
       -0.47083545 2.8491917 -1.1834095 2.6123943
000020 fd 90 4c be ae 3c ab bd 81 b4 c1 3e 64 8a 6f 3d
       -0.19977184 -0.08361183 0.37833026 0.05848159
000030 45 e5 24 40 81 43 0d 40 ba e1 9d 3f 93 09 3e bf
       2.5764935 2.207245 1.2334511 -0.7423336
000040 76 b1 14 3f ad 0d 9a bd 94 dc 8b bd 1a 15 5f 3f
       0.58083284 -0.0752214 -0.06829181 0.87141573
000050 9e 4a 9b bd d6 cc 5f bf ac d1 6d bf b6 9c 86 bf
       -0.075825915 -0.8742193 -0.9289806 -1.0516574
000060 f2 1a 7c bf cd c3 0b 40 62 d6 ed 3e ff fb 3e 40
       -0.98478615 2.1838257 0.46452624 2.9841306
000070 45 61 46 40 74 b2 13 40 62 63 47 bf 29 81 6f bf
       3.0996869 2.307767 -0.7788602 -0.9355646
000080 af fd cc bd 7c 13 15 40 be 19 00 40 e7 29 5c 40
       -0.10009324 2.3293142 2.0015712 3.4400575
000090 26 54 07 c0 4b 17 9c 3f 3d 7d d4 3f 74 e0 35 bf
       -2.114511 1.2194608 1.660072 -0.71045613
0000a0 72 75 ac bf 6a 57 fe bc a4 b0 54 be 01 28 7b be
       -1.3473341 -0.031047542 -0.20770508 -0.24526979
0000b0 e8 73 53 be f7 fc 4c 40 b9 ed 92 bf 5b 5e f5 be
       -0.20649683 3.2029397 -1.1478797 -0.4792355
0000c0 2e 5e 69 be 91 7f 79 3f 5f d3 25 40 f1 04 fd 3f
       -0.22789833 0.97460276 2.591026 1.9767133
0000d0 e8 35 2e 40 b6 00 f4 bd 56 4f 42 40 ec de d4 3e
       2.7220402 -0.11914198 3.0360923 0.41576326
0000e0 61 e1 be 3f 82 32 84 bf 41 4a c3 be 6f 0f 41 bf
       1.491253 -1.0327914 -0.3814259 -0.75414175
0000f0 7c 6f 52 3d e7 14 b1 3f 5e fd 09 3f 6a 00 f5 3f
       0.05137585 1.3834504 0.5390223 1.9140751

final.weight f4 [6, 64]
000000 6a 85 2b 3e 75 63 e0 bd c5 b7 fe 3e 2a 05 88 be
       0.16750112 -0.1095647 0.4974958 -0.2656644
000010 61 dd 9c be d3 17 ec 3e bf 00 9b be 0b 83 0c 3e
       -0.3063765 0.46111926 -0.30274007 0.13721864
000020 0e 8b 94 be 50 12 63 bd 2c 67 85 3e 03 2d 13 3e
       -0.2901234 -0.055437386 0.26055276 0.1437264
000030 ee a3 40 3e f0 8d 85 3d 83 bd 08 3e 0d 35 78 be
       0.18812534 0.06521213 0.13353543 -0.24238987
000040 31 52 be 3e 6c ee 6b 3e 44 56 70 be fc 1d 82 be
       0.37172082 0.2304017 -0.23470408 -0.254135
000050 63 0f 3a 3d 28 91 74 be bd da 63 be 63 47 e6 bc
       0.04542483 -0.23883498 -0.22251411 -0.028110212
000060 88 4b 99 bd 55 02 4b 3e 92 53 d8 bd fc f4 f4 3e
       -0.074851096 0.19825108 -0.10562815 0.47843158
000070 8d 2e db 3e 56 98 de 3d f1 18 a5 bd 4c ac 2b be
       0.42808953 0.108688995 -0.08061398 -0.16764945
000080 c3 40 97 bd 54 32 28 3e 7a 2f 1e 3e 9b 34 23 3f
       -0.07385399 0.16425449 0.15447798 0.63752145
000090 51 41 43 be a4 f9 c1 bd b2 ec 5e 3e d4 cc af be
       -0.19067885 -0.09471443 0.2176998 -0.3433596
0000a0 61 1d ac be 56 80 19 bd 3a 00 7a 3d d7 d3 60 be
       -0.33616164 -0.037475906 0.061035372 -0.2195581
0000b0 82 9e 7d 3e 6a e1 20 3f 23 5e 26 be 61 df 9e bd
       0.24767497 0.62843955 -0.16246848 -0.0775745
0000c0 9e de 0d 3d e6 ea 61 3e d0 38 ee 3d 64 d1 0d 3e
       0.034636132 0.22062263 0.1163193 0.13849407
0000d0 c2 47 ba 3e 46 be 24 bd 57 31 00 3f 22 01 b3 3d
       0.36382872 -0.04022052 0.50075287 0.087404504
0000e0 19 f8 af 3d a4 62 3f be be 35 c5 bd 5f 5c 1d be
       0.08592243 -0.18689972 -0.09629391 -0.15367268
0000f0 d0 56 a5 3d ea 1e 3c 3e d6 22 1c 3e d6 41 a7 3e
       0.08073199 0.18371168 0.15247664 0.32667416
000100 30 37 27 3e ad 1c 9f 3a f4 6d 19 3f f3 5e 22 bd
       0.16329646 0.0012139283 0.599334 -0.039641332
000110 8c 14 2d be 1e d6 98 3e 42 74 87 bd 25 bb 87 3c
       -0.1690237 0.29850858 -0.06613971 0.01656873
000120 29 84 02 3f 5e 5a e1 3d 9c c8 1c 3e a3 25 b0 bd
       0.5098291 0.11003564 0.15310901 -0.08600929
000130 57 95 85 3e d3 46 e3 3d d9 d1 0e be 22 45 92 3b
       0.260905 0.11097493 -0.13947238 0.0044638077
000140 2a 24 41 be ff 4d 21 3e 28 ee dd 3c ea 93 31 3e
       -0.18861452 0.1575241 0.0270911 0.17341581
000150 40 f7 f1 3a 79 e9 5e be 88 98 7d be dd 18 34 be
       0.0018460527 -0.2176875 -0.24765217 -0.1758761
000160 12 cd 17 be 75 13 da 3d 33 9c f0 3d 0f ff d5 3e
       -0.14824322 0.106482424 0.11748543 0.41796157
000170 2e 9c fa 3e 66 5f bf 3e 79 eb 6c be 38 fe eb bd
       0.4894728 0.3737747 -0.231367 -0.11523098
000180 51 17 bf bd ce 9a bb 3d 68 bd 23 3e 08 76 25 3f
       -0.09330619 0.09160386 0.15990222 0.64633226
000190 38 d5 ce be 57 6a 4f 3d c5 90 66 3c 37 3c 03 bf
       -0.40397048 0.050638523 0.014072602 -0.51263756
0001a0 f2 00 8a 3d 63 c2 8c 3d 68 d7 1a be f6 a8 9f be
       0.067384616 0.06873014 -0.15121233 -0.31183594
0001b0 2e aa 4c 3d a6 dd 0a 3f e9 4b e1 bd 4c cb 01 be
       0.049966983 0.5424446 -0.11000807 -0.12675208
0001c0 05 18 99 3d 5d a7 31 3e 6a 74 1a 3d 17 09 af 3d
       0.074752845 0.17349 0.037708677 0.085466556
0001d0 d3 8a 7c 3e 15 18 22 3c 1f 86 13 3f b2 23 d9 3e
       0.24662332 0.009893437 0.5762653 0.42410046
0001e0 84 39 d4 bd a9 65 bf bd ce ac b1 3d d7 d8 b6 bd
       -0.10362533 -0.09345562 0.08675538 -0.08928078
0001f0 68 aa 81 3c 57 96 55 3e 1b 6f 92 bd 53 f2 ed 3d
       0.015828326 0.20858131 -0.07150098 0.11618485
000200 2c f0 22 3e 57 3b aa 3c ce 24 23 3f b7 86 58 bd
       0.15911931 0.020780249 0.63728034 -0.05286285
000210 b6 92 62 be d3 75 ab 3e d1 5c 4d bd c2 96 f9 3c
       -0.22126278 0.3348833 -0.050137345 0.030467395
000220 26 c3 bc 3e c6 89 8b 3d 2e c7 30 3e 9d 47 cb bd
       0.36867636 0.068133876 0.17263481 -0.099257685
000230 43 e6 90 3e 3e fb 18 3e d3 30 af bd 2b 0f 06 3d
       0.28300676 0.14939591 -0.08554234 0.03272931
000240 a5 c5 41 be d0 13 37 3e 7f 04 8d be 13 6b 4b 3e
       -0.18923052 0.17878652 -0.27542493 0.19865064
000250 89 d7 98 bb 40 14 56 be 30 e0 ac be 82 35 43 be
       -0.0046643657 -0.20906162 -0.3376479 -0.1906338
000260 e5 74 0f be 68 5f c2 3d 27 82 e0 3d 9b 8d eb 3e
       -0.14009435 0.094908535 0.109623246 0.46006474
000270 8a 3d f9 3e 8b 8d c6 3e 0c 88 99 be f5 0b 14 be
       0.48679763 0.38779864 -0.29986608 -0.14457686
000280 a6 bf d3 bd 06 12 c2 3d f5 ee 17 3e 5a a7 16 3f
       -0.103392884 0.09476094 0.14837249 0.5884911
000290 bd 1f dd be 75 ae 82 3d 51 6c 97 3c be be d8 be
       -0.43188277 0.06380931 0.018484266 -0.42333025
0002a0 1f 64 7f 3b 64 d4 9d 3d 78 ba 03 be 7f 54 88 3d
       0.003896959 0.07706526 -0.12864101 0.06656741
0002b0 fd 70 b0 bc a7 45 09 3f 28 2c b1 bd 92 ec 29 be
       -0.021538252 0.53621906 -0.08651 -0.1659415
0002c0 68 82 85 3d 2d 31 1d 3e e2 32 1d 3b e8 79 b5 3d
       0.06519014 0.1535079 0.0023986627 0.088611424
0002d0 34 7f 56 3e 08 4e 8a 3d d6 d8 18 3f 5e b3 e5 3e
       0.20946962 0.067531645 0.59705865 0.4486341
0002e0 fa 4a da bd 75 df fb bd 4e 97 ac bd aa 99 85 bd
       -0.10658832 -0.122984804 -0.084272966 -0.0652345
0002f0 f5 15 a4 bc 02 71 50 3e d9 b7 51 bd a5 b6 03 3e
       -0.020030001 0.20355609 -0.05120072 0.12862642
000300 ff 7a 1c 3e d7 fe 85 bd d9 0c 10 3f 80 9e ae bb
       0.15281294 -0.065427475 0.56269604 -0.0053289533
000310 b2 8e f3 bc 59 0e a1 3e e5 22 7d bd 4c 8c b0 3d
       -0.029731128 0.3145626 -0.061800856 0.086205095
000320 10 c2 15 3f d8 3e a7 3d 56 06 40 3e 27 d7 a6 bc
       0.5849924 0.08166283 0.18752417 -0.020366265
000330 e9 b3 c5 3e d9 79 47 3d 12 4e 5b bd 13 54 c4 3d
       0.38613823 0.048700187 -0.05354125 0.095863484
000340 13 29 21 be 44 12 26 3e ad 86 4c 3e 2f cd 3c 3e
       -0.15738325 0.16217905 0.1997325 0.18437646
000350 66 6a 86 bc 27 20 2d be 55 6a fd be 05 49 c1 bd
       -0.016408157 -0.16906796 -0.49495187 -0.094377555
000360 46 cf 18 be fb dd 5d 3d e9 4d 03 3e 05 9b e2 3e
       -0.14922819 0.054166775 0.12822689 0.44258896
000370 07 93 fe 3e d8 bb d9 3e 80 d5 79 3c ba 40 df bd
       0.49721548 0.42526126 0.015248656 -0.109010175
000380 88 37 80 b8 cc 5c a8 3d ae be 58 3e 31 9f 21 3f
       -6.113859e-05 0.082208246 0.21166489 0.6313353
000390 57 4d c9 be 40 09 d4 3d fe 4d b0 3c 44 b5 a0 be
       -0.39316818 0.10353327 0.021521565 -0.31388295
0003a0 ea ab a3 bc 44 bc 20 3d 92 c6 cf bd c9 f7 2c be
       -0.019979436 0.039242044 -0.10145296 -0.16891398
0003b0 33 d2 0b 3e 92 9c 07 3f 7d c2 65 be 8f d9 b5 bd
       0.13654403 0.5297328 -0.22437473 -0.08879387
0003c0 0b 22 8e bd a1 b7 f4 3d 0f 3e c5 bd 7f be 56 3d
       -0.06940087 0.11949087 -0.09630977 0.052427765
0003d0 a4 4a 91 3e 83 c7 b2 bc 5d 45 12 3f d8 21 dc 3e
       0.2837726 -0.02182365 0.5713709 0.4299457
0003e0 ff 23 c4 bd 2a de 04 be 74 74 f4 3d 1c ed e9 bd
       -0.09577178 -0.12975374 0.11936274 -0.11422178
0003f0 cb cb 7e bd ea cf 13 3e 48 da 30 bd af 70 01 3e
       -0.06220607 0.14434782 -0.04317692 0.12640642

final.bias f4 [6]
000000 c7 ca 25 40 ef 66 21 40 15 3f d6 3f 77 97 b4 3f
       2.5905015 2.5219076 1.6738001 1.4108723
000010 69 cf 8b 3f f0 92 4f 3f
       1.0922672 0.81083584
