D2QN_AAAI_REWARD/checkpoint_d2qn_-10_1000_cheetah_50.pth (torch, 45655 bytes, 6 tensors)

fc1.weight f4 [128, 17]
-0.011210699 -0.4086378 -1.5733715 -1.2141485 -0.9393692 -0.8549047 -0.32024658 -1.2250686
-0.22742529 0.041831303 -0.31699756 0.15050142 -0.06663699 0.090999074 -0.09942922 -0.03398602
-0.04220772 -1.1603023 -6.3611484 -0.91332036 -1.1792526 0.25864488 1.0538623 1.2819347
0.7969582 -0.27585733 0.9271874 -0.3658919 0.0071866577 -0.04415744 0.02834597 0.006830593
-0.050615076 -0.025046045 -4.971919 -1.1996843 -0.29613468 -0.056169786 0.23342483 -0.09451316
0.944939 0.3736698 0.5883677 -0.12693074 0.06503172 -0.01999396 -0.07361221 0.093262754
-0.016118538 -0.00428472 0.0266752 0.42677382 -1.0119846 -2.821195 -1.2869902 -1.1544455
-0.6999305 0.2815659 -0.4249123 0.46587515 0.34740645 -0.13090833 -0.104741625 0.008261438
-0.020726975 0.031485576 0.060966853 -0.020237355 -1.2854898 1.514387 -1.3677785 -2.2801645
-2.5985532 -1.0965627 -0.11142941 -0.28436643 0.7102443 0.14444667 0.72990227 0.13531043
0.061783537 -0.1057631 0.0021693122 0.09000545 0.04763253 -5.123325 -0.9613902 -0.54074705
-0.6208942 -0.16599143 0.21981448 0.3085553 1.1540792 -0.035189036 -0.17332704 -0.0427665
-0.0067177084 0.020440262 -0.015277059 -0.020948298 -0.051893137 0.06342706 1.5176163 -0.9571584
-1.8715268 -2.746148 -3.0010343 0.307744 0.3610542 -0.009041994 0.45956683 -0.53163767
0.29765436 0.3112117 0.026350597 -0.24571215 -0.09243375 0.05602702 -0.0945931 2.6273725
1.8222678 1.352804 0.7997518 0.8019018 -0.5819301 0.48198634 0.5267131 0.17548393
-0.64873564 -0.6221933 -0.20702189 -0.1263232 0.037273325 -0.080894865 -0.058536097 -1.9281792e-05
1.0788605 -1.2349665 1.4995325 0.5118845 0.7285809 0.018933907 0.25208965 -0.6052363
-0.4166141 1.4067082 0.37629008 0.34250852 -0.082148455 -0.28477132 -0.044470906 0.050470356
0.09098249 2.0476642 -0.54997176 -0.72910875 0.6939235 0.020738417 -1.0334451 -0.63295424
-0.37418497 0.3420101 -0.22323354 -0.19682562 -0.079180636 0.086823866 -0.11697262 -0.0062173447
-0.2619609 0.21607868 8.703403 -1.1047307 0.82968366 1.013721 -0.46843016 -1.1698982
-1.84898 -1.232439 -0.26182637 0.19792429 -0.3177586 -0.033091355 0.03761482 -0.1295921
-0.05418283 -0.039540675 0.022522012 -5.6467752 0.34162948 1.1897892 1.1697843 0.4835532
-1.1491606 -2.1765077 -0.82773966 0.34717816 -0.060169693 0.20810309 -0.019452982 0.07639502
0.05624899 0.030200174 -0.013068301 0.0056729387 -0.3857185 1.4288177 1.3936427 1.4040626
0.45306575 -0.62943196 -0.896742 -0.5934731 -0.2334629 -0.7310456 -0.70235604 -0.15316562
-0.0646346 -0.0514578 -0.048009504 0.07464584 0.0005054668 5.692109 0.52476305 1.308907
0.62572336 0.3187022 -0.5013387 -0.5676188 -0.17020826 -0.017538065 -0.10267043 0.44433895
0.08214638 0.17272526 0.019499253 -0.06576101 -0.030608788 -0.022448558 -3.3763566 1.0304277
-0.7301278 -0.33022374 -0.38203597 -0.05931551 1.0777717 0.04909526 0.7262237 -0.8467273
-0.14825016 -0.04343324 -0.03145768 -0.062049102 -0.04345906 0.012776659 0.0021755768 0.24754475
00000000: 14ad 37bc f938 d1be 3d64 c9bf 3869 9bbf
00000010: 807a 70bf 09db 5abf 5cf7 a3be 0ccf 9cbf
00000020: 2de2 68be 4d57 2b3d 814d a2be 0b1d 1a3e
00000030: f978 88bd b95d ba3d 8ca1 cbbd ed34 0bbd
00000040: 01e2 2cbd c984 94bf 878e cbc0 5dcf 69bf
00000050: c0f1 96bf 1a6d 843e f6e4 863f 7016 a43f
00000060: 7405 4c3f 2c3d 8dbe 275c 6d3f 2f56 bbbe
00000070: 0e7e eb3b 6fde 34bd cf35 e83c 2bd3 df3b
00000080: c151 4fbd 5d2d cdbc f619 9fc0 418f 99bf
00000090: f79e 97be 4a12 66bd eb06 6f3e 1e90 c1bd
000000a0: 86e7 713f a651 bf3e 449f 163f 22fa 01be
000000b0: 5a2f 853d 60ca a3bc 00c2 96bd 8b00 bf3d
000000c0: 060b 84bc d666 8cbb f385 da3c 1982 da3e
000000d0: b688 81bf 758e 34c0 18bc a4bf dfc4 93bf
000000e0: a52e 33bf 6829 903e 1b8e d9be 3087 ee3e
000000f0: 42df b13e d50c 06be c782 d6bd fc5a 073c
00000100: 9ecb a9bc 05f7 003d 61b8 793d cfc8 a5bc
00000110: ee8a a4bf 6fd7 c13f 5e13 afbf 37ee 11c0
00000120: b24e 26c0 2b5c 8cbf 1a35 e4bd 7a98 91be
00000130: 92d2 353f d4e9 133e e0da 3a3f d18e 0a3e
00000140: bc10 7d3d 539a d8bd 052b 0e3b c754 b83d
00000150: 541a 433d 47f2 a3c0 ab1d 76bf 666e 0abf
00000160: ecf2 1ebf a8f9 29be 0c17 613e f6fa 9d3e
00000170: deb8 933f 6122 10bd a57c 31be ed2b 2fbd
00000180: 3920 dcbb 5672 a73c a14c 7abc c49b abbc
00000190: e68d 54bd 0ce6 813d 4041 c23f 5508 75bf
000001a0: 318e efbf e4c0 2fc0 f210 40c0 9f90 9d3e
000001b0: 19dc b83e df24 14bc 584c eb3e 6819 08bf
000001c0: 2766 983e 2457 9f3e 35dd d73c f79b 7bbe
000001d0: e84d bdbd 977c 653d 07ba c1bd df26 2840
000001e0: 1240 e93f ae28 ad3f 89bc 4c3f 7049 4d3f
000001f0: 5ff9 14bf eac6 f63e abd6 063f 0fb2 333e
00000200: 8a13 26bf 0f48 1fbf 8cfd 53be de5a 01be
00000210: eaab 183d 35ac a5bd 8cc3 6fbd 55bf a1b7
00000220: 1a18 8a3f 6213 9ebf aef0 bf3f dd0a 033f
00000230: 4784 3a3f 481b 9b3c e511 813e c4f0 1abf
00000240: 714e d5be 040f b43f 18a9 c03e 475d af3e
00000250: 733d a8bd 8ccd 91be 2027 36bd 01ba 4e3d
00000260: 0755 ba3d ee0c 0340 f3ca 0cbf dfa6 3abf
00000270: f8a4 313f 9de3 a93c ee47 84bf 4a09 22bf
00000280: 2c95 bfbe f31b af3e 5597 64be a88c 49be
00000290: 7529 a2bd b6d0 b13d 578f efbd deba cbbb
000002a0: bd1f 86be bb43 5d3e 2441 0b41 d167 8dbf
000002b0: 2666 543f 9cc1 813f 14d6 efbe 39bf 95bf
000002c0: 60ab ecbf 90c0 9dbf 1b0e 86be aaac 4a3e
000002d0: 41b1 a2be cd8a 07bd ff11 1a3d cbb3 04be
000002e0: d1ee 5dbd 67f5 21bd 1580 b83c 62b2 b4c0
000002f0: 0fea ae3e 034b 983f 7ebb 953f 4994 f73e
00000300: b217 93bf e74b 0bc0 bfe6 53bf 56c1 b13e
00000310: 7f74 76bd fa18 553e dc5b 9fbc fe74 9c3d
00000320: 5765 663d 5b66 f73c 6d1c 56bc 0fe4 b93b
00000330: e57c c5be 80e3 b63f e262 b23f 53b8 b33f
00000340: 3cf8 e73e 7422 21bf e290 65bf daed 17bf
00000350: e610 6fbe ce25 3bbf 9bcd 33bf 73d7 1cbe
00000360: 255f 84bd 6ac5 52bd 9da5 44bd ebdf 983d
00000370: 4e81 043a c225 b640 df56 063f 448a a73f
00000380: 682f 203f ef2c a33e bc57 00bf 774f 11bf
00000390: 134b 2ebe fdab 8fbc e044 d2bd 6580 e33e
000003a0: 5c3c a83d e4de 303e e6bc 9f3c b5ad 86bd
000003b0: 48bf fabc 0ae6 b7bc 3a16 58c0 0ee5 833f
000003c0: a8e9 3abf 1613 a9be 389a c3be d2f4 72bd
000003d0: 6cf4 893f 1d18 493d cce9 393f 1fc3 58bf
000003e0: e4ce 17be 0ee7 31bd c5d9 00bd 3327 7ebd
000003f0: 2102 32bd 3155 513c 1f94 0e3b 5f7c 7d3e

fc1.bias f4 [128]
-1.1699562 0.17716141 -1.8457084 0.95235264 -1.4683813 -1.4628533 0.13501473 -1.6488761
-1.6448853 1.7321595 1.012515 -0.99764585 -1.7934146 0.27656475 -2.0308344 -0.7625256
-0.92333925 -0.9236217 -0.6250268 -1.7735988 -1.3623803 -0.042835437 -1.5454289 -1.42117
-2.289672 -1.6403649 2.7983198 -1.1341913 -0.9144737 2.521926 -1.7978716 0.74452394
-2.5915997 -2.2769806 -0.6695967 -0.97384626 -1.7562652 -1.6172727 -1.5312703 -1.9733095
-0.65984553 -0.6106006 -2.5368497 -1.5658386 0.4177661 -0.5335502 2.058998 -2.2270427
-1.6940771 -0.5159196 2.8368268 -1.6473464 2.6104512 -0.685422 -2.1300988 -0.9980987
-0.18180476 -1.8072803 -1.3908811 -0.67172515 -0.13176522 -0.06803283 1.0228611 1.1168349
-1.4464575 -1.5370208 -1.50236 -1.9635286 -1.8165758 -1.5339857 -2.079361 0.27583846
-0.15295784 -1.3187355 -0.89329773 2.724101 -0.05458961 -0.67062044 -1.8711683 2.530862
-1.0699049 0.78377783 0.08194019 0.23347974 -1.6904796 -0.31281048 2.932903 -0.74873996
0.8543514 -1.231636 0.81804466 -1.6926978 1.492426 -0.18290769 0.76081777 0.88762516
-0.07579197 -1.5218874 -2.171456 0.5478063 0.93244654 0.1772351 -1.4342045 2.3319602
0.2410289 -1.078376 -0.86129445 -1.0097002 -0.89517194 -1.8660064 -2.267752 0.8908723
-0.68926644 -2.3595521 1.6952338 -1.4722816 -0.033496328 -1.1263138 0.7650276 0.4117415
-1.2342187 -0.048684113 1.9513438 -2.0843701 -1.8705732 -2.2796693 -0.7321306 -0.73281866
00000000: 20c1 95bf cd69 353e 2c40 ecbf 62cd 733f
00000010: ebf3 bbbf c73e bbbf 4d41 0a3e 5f0e d3bf
00000020: 9a8b d2bf 67b7 dd3f 179a 813f b865 7fbf
00000030: 9c8e e5bf e599 8d3e 31f9 01c0 e134 43bf
00000040: f65f 6cbf 7972 6cbf c201 20bf 4905 e3bf
00000050: 7a62 aebf 3674 2fbd 9dd0 c5bf e6e8 b5bf
00000060: fc89 12c0 7af7 d1bf ac17 3340 2e2d 91bf
00000070: f31a 6abf 3c67 2140 a820 e6bf 1f99 3e3f
00000080: c5dc 25c0 0dba 11c0 b06a 2bbf fd4d 79bf
00000090: 4ccd e0bf cb02 cfbf aa00 c4bf 6895 fcbf
000000a0: a3eb 28bf 5250 1cbf bf5b 22c0 666d c8bf
000000b0: 70e5 d53e bf96 08bf a0c6 0340 de87 0ec0
000000c0: 85d7 d8bf 4f13 04bf 928e 3540 3fdc d2bf
000000d0: a211 2740 d177 2fbf 8a53 08c0 6583 7fbf
000000e0: 072b 3abe f654 e7bf 6408 b2bf 2ef6 2bbf
000000f0: 76ed 06be cc54 8bbd 1ded 823f 72f4 8e3f
00000100: 8525 b9bf 19bd c4bf 554d c0bf e854 fbbf
00000110: 8e85 e8bf a559 c4bf 4014 05c0 b33a 8d3e
00000120: fba0 1cbe 53cc a8bf 29af 64bf ac57 2e40
00000130: 5b99 5fbd c8ad 2bbf 7182 efbf a5f9 2140
00000140: a5f2 88bf aaa5 483f 42d0 a73d 5015 6f3e
00000150: a361 d8bf b228 a0be afb4 3b40 6cad 3fbf
00000160: c6b6 5a3f 40a6 9dbf 606b 513f 52aa d8bf
00000170: d107 bf3f 274c 3bbe f4c4 423f 673b 633f
00000180: d238 9bbd 35cd c2bf 23f9 0ac0 093d 0c3f
00000190: d1b4 6e3f 1e7d 353e 0394 b7bf d63e 1540
000001a0: 48d0 763e 3a08 8abf cb7d 5cbf db3d 81bf
000001b0: fd29 65bf 4cd9 eebf d922 11c0 3510 643f
000001c0: c473 30bf e702 17c0 6cfd d83f b973 bcbf
000001d0: 7233 09bd 0d2b 90bf d9d8 433f c8cf d23e
000001e0: e1fa 9dbf fe68 47bd a2c5 f93f 5266 05c0
000001f0: f16e efbf 1ae6 11c0 e96c 3bbf 019a 3bbf

fc2.weight f4 [64, 128]
-0.015762819 -0.14620158 0.63125926 -0.32078132 -0.20140684 -0.3414141 0.31097874 -0.20951715
0.22749077 -0.044545494 -2.099712 0.5420874 -0.28309205 0.065702215 -0.2320324 -0.42655304
1.9651288 0.29362312 0.52846885 0.033184536 0.8282263 0.48339623 0.07312185 0.09840584
-0.37486866 1.3359122 0.09892229 -0.20524396 0.6303777 -0.18728168 0.10827559 0.3876233
-2.0040412 -0.057443112 0.5247627 -0.24161462 -0.27855387 -0.4994874 0.54878867 0.22759964
-0.9446188 0.4188676 0.39772937 -0.49042132 0.18349405 -0.6689022 -0.35639465 0.78669554
-0.21274312 0.9401561 0.22218566 1.2448175 -0.27110213 -0.15818487 0.47587582 -0.6976628
-0.5146 -0.023052804 -0.073784016 0.628136 -0.3978157 0.13533846 0.07867156 -0.09029253
0.8488734 0.36863676 -0.03782874 -0.19185917 -0.2531855 0.42158115 -0.32920796 0.7921285
0.07351645 -0.12720269 0.15550299 -0.03833513 -0.053738203 0.26182222 0.3785905 -0.09047194
0.16296472 -0.2553338 -0.66360074 0.089764684 0.66509813 -1.8711112 0.2932057 -0.101852566
0.36445016 0.46024343 0.06892121 -0.7498988 -0.05483979 -0.7351424 -1.1283393 -0.39618143
-1.3942847 -0.29694584 -0.6306441 0.41850886 0.7619532 0.060602475 -1.4809511 0.04225665
0.96256137 0.046525385 0.817777 -1.7038873 0.1974294 -0.11769937 0.43865687 -7.6865764
-0.2761449 0.4578922 -0.16138917 -0.9545217 0.26609144 0.50935847 1.1008337 -0.44975954
-2.6009288 -0.7744734 0.09924353 -0.20883161 -0.41419846 -0.27180588 -0.88270485 -0.16669057
-0.030462602 0.038374953 0.055712726 0.039927904 0.07180564 -0.059918884 -0.041176155 -0.037324958
-0.011858107 0.009798952 -0.023128752 -0.076074935 -0.073255084 0.04827135 -0.032867566 -0.028306529
-0.07184334 -0.071098104 -0.0029053455 0.005547166 -0.050973825 -0.0325333 0.05371488 -0.062732704
-0.07747492 -0.03711706 0.048910763 0.0026753733 0.012212902 -0.033959735 0.016967013 -0.052767262
0.034428168 0.020881224 -0.015642608 0.018139591 -0.07369209 0.049777195 0.035706077 -0.08565762
-0.09236939 -0.049539264 0.03451106 -0.05671895 0.04691801 -0.04443952 -0.12349585 0.017400267
-0.08267135 -0.013933389 -0.05350588 -0.034897245 -0.09247997 -0.09604058 0.0039664954 -0.03471011
-0.06627219 -0.021432798 -0.0957292 0.008625728 -0.002337821 0.050654255 -0.086806454 -0.018965354
0.03225214 0.089636534 -0.062885836 0.027070086 -0.0004712478 0.03580209 -0.0800947 0.032722916
-0.058151875 -0.09707484 -0.021487666 0.041450553 -0.075345054 0.021865405 -0.03562354 -0.010093782
0.055107396 0.011285148 -0.07337616 -0.057899475 0.007565586 -0.0839276 -0.023669884 -0.068177536
-0.03742727 0.015746918 -0.11158365 -0.068730734 0.015790712 -0.105243474 0.041876707 -0.09531707
-0.019032968 0.006157531 0.011003013 -0.0649343 0.011894673 0.0449182 0.05085732 -0.09621897
-0.053986963 0.008221447 -0.002837505 -0.055485196 -0.10030103 -0.117444165 -0.067861885 -0.047763485
-0.07466589 -0.09152787 -0.047055 0.03872503 -0.051763203 -0.00202526 -0.020314177 0.023147421
-0.07542245 -0.0057949224 0.050274424 0.034059312 -0.13779557 -0.029183539 -0.014234328 -0.049135953
00000000: 0721 81bc deb5 15be 359a 213f 733d a4be
00000010: 983d 4ebe d4cd aebe 9b38 9f3e aa8b 56be
00000020: 57f3 683e 5675 36bd ae61 06c0 3dc6 0a3f
00000030: 71f1 90be e28e 863d e799 6dbe 2965 dabe
00000040: 5789 fb3f c555 963e bc49 073f 82ec 073d
00000050: a406 543f b67f f73e e9c0 953d 0089 c93d
00000060: c9ee bfbe 2cff aa3f c597 ca3d 792b 52be
00000070: 6f60 213f c5c6 3fbe 98bf dd3d 9076 c63e
00000080: 3642 00c0 7849 6bbd d956 063f d369 77be
00000090: 9d9e 8ebe d0bc ffbe 6a7d 0c3f e10f 693e
000000a0: 8ad2 71bf d075 d63e 2fa3 cb3e 8118 fbbe
000000b0: dde5 3b3e 2d3d 2bbf 5c79 b6be e164 493f
000000c0: 55d9 59be 12ae 703f a384 633e 2e56 9f3f
000000d0: e6cd 8abe 37fb 21be ffa5 f33e 079a 32bf
000000e0: d3bc 03bf 3cd9 bcbc 131c 97bd 85cd 203f
000000f0: 80ae cbbe 2a96 0a3e 8e1e a13d 4aeb b8bd
00000100: c44f 593f f5bd bc3e 4ff2 1abd bb76 44be
00000110: 88a1 81be 7cd9 d73e f28d a8be efc8 4a3f
00000120: cb8f 963d 6c41 02be 2d3c 1f3e 4c05 1dbd
00000130: 971c 5cbd 900d 863e 9dd6 c13e 5a49 b9bd
00000140: 39e0 263e 1dbb 82be bde1 29bf 8cd6 b73d
00000150: df43 2a3f 9280 efbf 0f1f 963e 1498 d0bd
00000160: 3699 ba3e 07a5 eb3e 9026 8d3d 5ef9 3fbf
00000170: b09f 60bd 4b32 3cbf 6c6d 90bf 4bd8 cabe
00000180: ec77 b2bf 4909 98be e471 21bf cb46 d63e
00000190: 5d0f 433f 4d3a 783d ce8f bdbf 4f15 2d3d
000001a0: 6c6a 763f 6791 3e3d d559 513f fb18 dabf
000001b0: ef2a 4a3e 5e0c f1bd a297 e03e 6ff8 f5c0
000001c0: dd62 8dbe d970 ea3e 3443 25be 895b 74bf
000001d0: 233d 883e 5165 023f 1ee8 8c3f e246 e6be
000001e0: 9e75 26c0 e443 46bf 3140 cb3d f4d7 55be
000001f0: d211 d4be 242a 8bbe f2f8 61bf efb0 2abe
00000200: b58c f9bc 0e2f 1d3d 0733 643d 718b 233d
00000210: d60e 933d 816d 75bd 54a8 28bd 0ee2 18bd
00000220: 8148 42bc c98b 203c 8278 bdbc 2dcd 9bbd
00000230: c306 96bd 2eb8 453d 24a0 06bd 18e3 e7bc
00000240: 9a22 93bd e29b 91bd 9c67 3ebb 00c5 b53b
00000250: eec9 50bd a341 05bd 2204 5c3d 017a 80bd
00000260: 2cab 9ebd 0f08 18bd a756 483d 5155 2f3b
00000270: a018 483c 5d19 0bbd 68fe 8a3c 7c22 58bd
00000280: 8d04 0d3d 1a0f ab3c ed24 80bc 7b99 943c
00000290: e1eb 96bd 2ce3 4b3d 8940 123d 436d afbd
000002a0: 2a2c bdbd afe9 4abd 785b 0d3d 2152 68bd
000002b0: 192d 403d 3706 36bd 64eb fcbd 018b 8e3c
000002c0: 994f a9bd df48 64bc fb28 5bbd 6af0 0ebd
000002d0: 2366 bdbd ecb0 c4bd 60f9 813b 302c 0ebd
000002e0: b7b9 87bd d693 afbc ac0d c4bd ed52 0d3c
000002f0: 2136 19bb d67a 4f3d 95c7 b1bd 3b5d 9bbc
00000300: d21a 043d 5c93 b73d 4aca 80bd 16c2 dd3c
00000310: cf11 f7b9 36a5 123d b108 a4bd 7708 063d
00000320: a930 6ebd 2ccf c6bd e706 b0bc 0ec8 293d
00000330: 824e 9abd 141f b33c fde9 11bd 6460 25bc
00000340: 4bb8 613d 57e5 383c 3d46 96bd 0028 6dbd
00000350: bce8 f73b 3ce2 abbd 58e7 c1bc aaa0 8bbd
00000360: 564d 19bd aeff 803c f885 e4bd b3c2 8cbd
00000370: 865b 813c e489 d7bd e986 2b3d 9935 c3bd
00000380: 07eb 9bbc 1dc5 c93b fb45 343c 46fc 84bd
00000390: e0e1 423c 25fc 373d c44f 503d 740e c5bd
000003a0: 6f21 5dbd 3fb3 063c 6ff5 39bb 7244 63bd
000003b0: a06a cdbd 9186 f0bd 2cfb 8abd a5a3 43bd
000003c0: 6eea 98bd f772 bbbd bebc 40bd 239e 1e3d
000003d0: a705 54bd 39ba 04bb eb69 a6bc a99f bd3c
000003e0: 1677 9abd 55e3 bdbb 8eec 4d3d c781 0b3d
000003f0: 481a 0dbe 5112 efbc 1937 69bc c842 49bd

fc2.bias f4 [64]
2.0821872 0.036823176 3.1226714 -0.88872594 -0.53189546 2.847275 -1.5115081 2.8516307
-0.045095213 -0.08361183 2.9212768 -0.49711066 2.7496738 2.4068916 0.9143443 -0.21250243
-0.63804626 0.9293065 1.8560158 1.9049842 -0.05226441 -0.24406277 -0.054563146 -1.3065436
-2.1557577 2.1943343 -0.7426523 3.0409064 3.250842 1.1264491 -1.5728104 -1.1435902
0.025220346 2.5770245 3.1605217 2.910849 0.09502922 0.68094754 2.5869336 0.09676258
-0.81709325 -0.027989497 1.8060358 -1.046868 -0.20310012 3.314784 -1.7727375 -0.17688112
-0.3763834 1.533121 2.6934874 0.6875299 3.1041052 -0.17292358 3.114521 0.49339446
2.200937 -1.5874163 -0.31586975 -0.045504317 0.04484229 1.7664653 2.0894017 2.1800106
00000000: 8e42 0540 e6d3 163d d9d9 4740 8b83 63bf
00000010: 4d2a 08bf c139 3640 1979 c1bf 1e81 3640
00000020: c2b5 38bd ae3c abbd 33f6 3a40 4a85 febe
00000030: a8fa 2f40 830a 1a40 7812 6a3f 3d9a 59be
00000040: 0057 23bf 08e7 6d3f ed91 ed3f 86d6 f33f
00000050: 3513 56bd 97eb 79be 9b7d 5fbd d23c a7bf
00000060: eff7 09c0 f96f 0c40 761e 3ebf 369e 4240
00000070: cc0d 5040 7c2f 903f da51 c9bf 2a61 92bf
00000080: e69a ce3c f8ed 2440 fd45 4a40 5a4b 3a40
00000090: ae9e c23d 9452 2e3f 5290 2540 762b c63d
000000a0: 062d 51bf 3b4a e5bc 2e2c e73f c5ff 85bf
000000b0: 7af9 4fbe 6c25 5440 10e9 e2bf 5320 35be
000000c0: 53b5 c0be 4f3d c43f 1962 2c40 f601 303f
000000d0: a9a9 4640 e112 31be 5054 4740 339e fc3e
000000e0: 27dc 0c40 7530 cbbf aeb9 a1be bc62 3abd
000000f0: 8dac 373d 891b e23f c2b8 0540 4b85 0b40

final.weight f4 [6, 64]
0.2329913 -0.09392915 0.45707673 -0.33676717 -0.17971213 0.5301257 -0.0980311 0.34843817
-0.044164453 -0.055437386 0.44290915 0.19964601 0.36513394 0.11374812 0.2712205 -0.4326247
-0.2851437 0.11406756 0.18687533 0.21205673 0.122996554 0.24347597 0.30113226 -0.28985506
-0.3780471 0.08437672 -0.19071108 0.504571 0.54323775 -0.0719169 -0.26603633 -0.041772295
-0.240019 0.061556123 0.37848258 0.41911462 0.13878717 -0.21542317 0.19135803 0.48973307
-0.19091125 -0.07019311 0.18469019 -0.089107715 -0.45526487 0.69464755 -0.15153408 0.04128455
0.14919576 0.27088013 0.18411715 0.1484272 0.47650993 0.07265684 0.4107102 -0.22702636
0.14089064 -0.13437833 -0.22267258 -0.0023516524 0.08073199 0.12722243 0.13468662 0.16049884
0.18394761 -0.017580932 0.537125 -0.1649359 0.30916068 0.3272625 -0.07389608 0.19643705
-0.012959825 0.11003564 0.47933003 -0.034528647 0.272242 0.19185804 0.045876615 -0.02144388
-0.057110794 -0.049806673 0.0660648 0.2476816 -0.0065567344 0.6905236 -0.0225461 -0.12496723
-0.31683734 0.1003231 -0.10736318 0.40536278 0.4817041 0.29029545 -0.11202076 -0.18872489
0.10474077 0.18829116 0.52990764 0.3397019 -0.1100264 0.064272545 0.08889594 -0.17777148
-0.28731728 0.042249672 0.07230828 -0.27369097 0.14864 0.6198416 -0.030109072 -0.20778467
-0.32788676 0.15702459 0.10012263 0.0039891517 0.5203617 -0.060640626 0.6358517 0.14659122
0.08208952 -0.1279934 0.044593256 -0.031029942 0.015828326 -0.018945836 0.115620136 0.12258002
0.18134901 0.04028511 0.53430784 -0.19407514 0.3664483 0.3144261 -0.07297064 0.24390312
-0.04334385 0.068133876 0.48751742 -0.07477938 0.2845508 0.1734712 0.025103979 0.010488232
-0.0073862025 -0.057284907 -0.016202569 0.25235268 0.059450522 0.3963275 0.013668449 -0.119678885
-0.33414894 0.11626488 -0.08788339 0.4731924 0.53691906 0.29954916 -0.078616396 -0.18057275
0.12091682 0.18478546 0.5342372 0.34932944 -0.14454511 0.07710576 0.07660991 -0.16693515
-0.38694003 0.07706526 0.15549189 -0.2747932 0.14157927 0.57855314 -0.057956964 -0.19837728
0.004317514 0.17059714 0.10728625 -0.099613935 0.4322194 0.16814072 0.6890223 0.14689548
0.083434455 -0.13354152 -0.015000746 -0.050249506 -0.020576231 -0.01658567 0.13605371 0.10639288
0.18415272 -0.053417485 0.49815673 -0.098411396 0.2923413 0.30264837 -0.042067505 0.22021963
0.049907956 0.08166283 0.5025272 -0.068843566 0.33940881 0.24250478 0.01850898 -0.014912914
-0.05180218 -0.069771126 0.099423 0.26196668 -0.054825813 0.60984886 0.04211446 -0.09274585
-0.28327808 0.15576236 -0.11171417 0.41554466 0.5528847 0.30678642 -0.1020009 -0.1988217
0.12775642 0.2034144 0.53035104 0.38240382 -0.13063201 0.09083393 0.121230796 -0.20824376
-0.37891248 0.039242044 0.052032262 -0.23141718 0.14266565 0.58688563 -0.054702442 -0.18798435
0.24367371 0.17075598 0.118204795 0.003916607 0.4149687 -0.04395967 0.67871326 0.15294997
0.0049616992 -0.119013175 0.054646444 -0.08442057 -0.06220607 -0.045148 0.08898742 0.045753423
00000000: 4595 6e3e ed5d c0bd f605 ea3e bf6c acbe
00000010: 7506 38be 51b6 073f 88c4 c8bd 7d66 b23e
00000020: c9e5 34bd 5012 63bd fdc4 e23e 0170 4c3e
00000030: d6f2 ba3e c6f4 e83d 6add 8a3e fc80 ddbe
00000040: 5bfe 91be 419c e93d 3f5c 3f3e 6625 593e
00000050: 9ee5 fb3d c451 793e 022e 9a3e e267 94be
00000060: 648f c1be b4cd ac3d c449 43be 912b 013f
00000070: a111 0b3f 2b49 93bd ea35 88be 6d19 2bbd
00000080: 8ac7 75be 4622 7c3d 78c8 c13e 3196 d63e
00000090: 391e 0e3e e497 5cbe 5cf3 433e 4bbe fa3e
000000a0: 3d7e 43be 68c1 8fbd 6d1f 3d3e 1b7e b6bd
000000b0: 7a18 e9be 6cd4 313f c02b 1bbe fd19 293d
000000c0: c6c6 183e cdb0 8a3e 3589 3c3e 4dfd 173e
000000d0: 1cf9 f33e 1ccd 943d 9b48 d23e 9979 68be
000000e0: a345 103e 799a 09be 4804 64be 2e1e 1abb
000000f0: d056 a53d 9946 023e 4aeb 093e cf59 243e
00000100: c35c 3c3e e305 90bc 0681 093f f5e4 28be
00000110: 4f4a 9e3e f38e a73e d456 97bd cb26 493e
00000120: 7255 54bc 5e5a e13d bf6a f53e e96d 0dbd
00000130: 4e63 8b3e 6f76 443e 1ee9 3b3d 13ab afbc
00000140: 02ed 69bd 1502 4cbd fb4c 873d 3fa0 7d3e
00000150: e0d9 d6bb 28c6 303f 99b2 b8bc d2ee ffbd
00000160: 8138 a2be 3376 cd3d 3ae1 dbbd b68b cf3e
00000170: eba1 f63e 9ba1 943e 246b e5bd 1941 41be
00000180: 5482 d63d 66cf 403e 07a8 073f 68ed ad3e
00000190: 8555 e1bd 53a1 833d 130f b63d ba09 36be
000001a0: 401b 93be fe0d 2d3d 5d16 943d 3921 8cbe
000001b0: 1635 183e f0ad 1e3f 4da7 f6bc 81c5 54be
000001c0: c6e0 a7be 0ecb 203e 180d cd3d 6eb7 823b
000001d0: 6d36 053f 4e62 78bd 2dc7 223f 021c 163e
000001e0: 8d1e a83d b410 03be 6ba7 363d 8132 febc
000001f0: 68aa 813c 4c34 9bbc 40ca ec3d 3c0b fb3d
00000200: 8eb3 393e 0002 253d 66c8 083f a2bb 46be
00000210: 1d9f bb3e 75fc a03e a271 95bd bdc1 793e
00000220: 5289 31bd c689 8b3d e29b f93e ee25 99bd
00000230: a4b0 913e 6fa2 313e dca6 cd3c d5d6 2b3c
00000240: f507 f2bb 94a3 6abd 40bb 84bc 5f34 813e
00000250: 6482 733d 70eb ca3e a1f1 5f3c 341a f5bd
00000260: 9215 abbe 481c ee3d 35fc b3bd 4646 f23e
00000270: 8773 093f 825e 993e a201 a1bd 10e8 38be
00000280: 3da3 f73d 6638 3d3e c5c3 083f 4fdb b23e
00000290: a203 14be a0e9 9d3d a8e5 9c3d 0cf1 2abe
000002a0: 011d c6be 64d4 9d3d 4439 1f3e b2b1 8cbe
000002b0: 28fa 103e 0f1c 143f 4864 6dbd 6a23 4bbe
000002c0: ef79 8d3b 04b1 2e3e e5b8 db3d 6402 ccbd
000002d0: dc4b dd3e 152d 2c3e c463 303f c56b 163e
000002e0: afdf aa3d 1cbf 08be b0c5 75bc 6dd2 4dbd
000002f0: 7c8f a8bc acde 87bc aa51 0b3e 83e4 d93d
00000300: 8892 3c3e 4bcc 5abd 660e ff3e ea8b c9bd
00000310: c2ad 953e baf4 9a3e fa4e 2cbd 4181 613e
00000320: 496c 4c3d d83e a73d 9fa5 003f dbfd 8cbd
00000330: fec6 ad3e 2c53 783e 25a0 973c 4b55 74bc
00000340: 862e 54bd 2ae4 8ebd 499e cb3d 7f20 863e
00000350: 0891 60bd 0e1f 1c3f 3680 2c3d 89f1 bdbd
00000360: d309 91be 2b80 1f3e 66ca e4bd 45c2 d43e
00000370: da89 0d3f 1c13 9d3e d9e5 d0bd ea97 4bbe
00000380: 94d2 023e dd4b 503e 16c5 073f 6fca c33e
00000390: 66c4 05be 2407 ba3d da47 f83d da3d 55be
000003a0: d100 c2be 44bc 203d c81f 553d a0f8 6cbe
000003b0: f216 123e 233e 163f ab0f 60bd f87e 40be
000003c0: 9a85 793e a8da 2e3e 5b15 f23d e156 803b
000003d0: c776 d43e 0e0f 34bd 27c0 2d3f eb9e 1c3e
000003e0: c095 a23b 2ebd f3bd f3d4 5f3d b1e4 acbd
000003f0: cbcb 7ebd 1ced 38bd 093f b63d f167 3b3d

final.bias f4 [6]
2.634107 2.6397176 1.6677241 1.4780282 1.0978017 0.8698173
00000000: 3695 2840 22f1 2840 fc77 d53f 0730 bd3f
00000010: c484 8c3f 59ac 5e3f
