D2QN_AAAI_REWARD/checkpoint_d2qn_-30_1000_cheetah_10.pth (torch, 45655 bytes, 6 tensors)

fc1.weight f4 [128, 17]
0	0xc05974a9	-3.3977454
1	0xbdaed472	-0.085366145
2	0xbfbac919	-1.459262
3	0xbfd732a6	-1.6812332
4	0xc01045d3	-2.2542617
5	0xbe4292e8	-0.19001353
6	0x3f20d973	0.628318
7	0xbf3d46d6	-0.7393621
8	0x3f2ebfee	0.6826161
9	0xbf9927fd	-1.1965328
10	0xbe84afde	-0.25915426
11	0x3cb591ba	0.022164214
12	0xbde4a254	-0.11163774
13	0xbe8d5246	-0.27601832
14	0x3dae9551	0.085245736
15	0x3db3e780	0.087843895
16	0xbbe89d21	-0.0070988094
17	0x3fb44bcf	1.4085635
18	0xc0189d1f	-2.38459
19	0xbf1b376d	-0.6063145
20	0xbf8ce62a	-1.100774
21	0xbf96fc1a	-1.1795685
22	0xbf8e6e3c	-1.1127391
23	0xbd914d3b	-0.07094809
24	0xbf04a98c	-0.5182121
25	0xbfd721b2	-1.6807158
26	0x3f485060	0.7824764
27	0xbf3a4737	-0.72764915
28	0xbe564003	-0.20922856
29	0xbe621730	-0.22079158
30	0xbe101aa7	-0.14072667
31	0x3e511e12	0.20421627
32	0x3f612a60	0.87955284
33	0xbe8edddb	-0.27903637
34	0xc05feef2	-3.498959
35	0xc01a3d35	-2.4099858
36	0xbfa36ef9	-1.2768241
37	0xbf13aae2	-0.5768262
38	0xbf196204	-0.59915185
39	0x3e7bfd3b	0.24608319
40	0x3e866d97	0.26255485
41	0xbf28ca51	-0.6593371
42	0xbd2881ef	-0.04113954
43	0x3e8fa76d	0.28057423
44	0xbd312c86	-0.04325535
45	0x3df0644c	0.1173788
46	0xbc821b4b	-0.015882155
47	0x3e8ab88a	0.27093917
48	0xbef77454	-0.4833094
49	0xbe655692	-0.22396305
50	0x3d0792e1	0.03309906
51	0x400ef3e2	2.2336354
52	0xbf4c24ce	-0.7974366
53	0xbf988e85	-1.1918494
54	0x3e95e00a	0.2927249
55	0x3e01cfac	0.12676877
56	0xbffc6e49	-1.9721156
57	0xbec21ecb	-0.37914118
58	0xbe6c5464	-0.23079067
59	0x3fbddc88	1.4832926
60	0x3f60c45a	0.8779961
61	0xbf13cd6a	-0.5773531
62	0xbe8b9bdb	-0.27267346
63	0xbc276127	-0.010216034
64	0x3e404549	0.1877643
65	0x3e000c81	0.1250477
66	0x3c469b30	0.0121219605
67	0x3c87f900	0.016598225
68	0xc03848dc	-2.879447
69	0x3efcabcb	0.49349818
70	0xbf52fd65	-0.824179
71	0xbf970c28	-1.1800585
72	0xbf863b37	-1.0486821
73	0xbd2bc225	-0.041933198
74	0x3fb78da1	1.4340097
75	0x3f8e51ce	1.1118715
76	0x3eef37c2	0.46722227
77	0xbf51fbd2	-0.8202487
78	0x3f00dd14	0.5033734
79	0x3b4a784d	0.0030894459
80	0x3d5e5652	0.05428154
81	0xbdb798e4	-0.089647084
82	0x3d07b357	0.033130016
83	0x3d614e8a	0.05500654
84	0x3cf7a555	0.030230204
85	0xc014be5e	-2.324119
86	0x3fc7e38c	1.5616317
87	0x3f8bcdc3	1.0922168
88	0x3f250fe2	0.6447736
89	0x3ed2f099	0.41199186
90	0xbfb2abc2	-1.3958666
91	0xbf6d8fe5	-0.9279769
92	0xbe93abc2	-0.28841978
93	0xbed0e85f	-0.40802285
94	0xbf5ad47e	-0.8548049
95	0x3f5b4d60	0.8566494
96	0x3de0e2af	0.109807365
97	0x3d0ec1c9	0.034852777
98	0xbd7941db	-0.06085382
99	0xbe437ff1	-0.19091775
100	0x3e575efb	0.21032326
101	0x3df920a1	0.121644266
102	0xbf60df77	-0.8784098
103	0xbf77f952	-0.9686481
104	0xc041ec9c	-3.0300665
105	0xc0837761	-4.1083226
106	0xc0098c81	-2.1492007
107	0x3d9da848	0.07698113
108	0x3db1e74e	0.08686696
109	0x3e76c9fe	0.24100491
110	0x3dcd395b	0.10020705
111	0xbf0a8f70	-0.5412512
112	0x3ec5080f	0.3848271
113	0x3eab5790	0.33465242
114	0x3d244cff	0.04011249
115	0xbd8ce73c	-0.06880042
116	0x3d464939	0.048409674
117	0xbd0cad07	-0.0343447
118	0xbcba7413	-0.022760427
119	0x3d84e4e2	0.064889684
120	0x3ff9c46b	1.9513067
121	0x3d9f0a70	0.07765663
122	0xbeb97b54	-0.36226904
123	0xbf017e9f	-0.50583833
124	0xbfc981b3	-1.5742706
125	0xbf9b9c2a	-1.2157032
126	0xbfcb3520	-1.5875587
127	0xbec7e049	-0.39038303
128	0x3d9914ae	0.074746475
129	0x3df439b3	0.11925068
130	0xbe8bf033	-0.27331695
131	0xbcb53493	-0.022119796
132	0xbd678d02	-0.05653096
133	0x3e72d563	0.23714213
134	0x3e3c13ac	0.18366879
135	0x3e25fbed	0.16209383
136	0xc003363e	-2.0501857
137	0x3c82b297	0.015954299
138	0x3eb3d224	0.35121262
139	0x3d964f76	0.07339375
140	0x3ec9becb	0.39403376
141	0xbe9bc9d5	-0.30427423
142	0x3e8cbfa2	0.27489954
143	0xbe0c2ece	-0.1368973
144	0xbf18413d	-0.59474546
145	0x3e8343da	0.25637704
146	0x3d37fe1d	0.044920076
147	0xba74fa58	-0.00093451655
148	0xbdaf6fa5	-0.085662164
149	0x3dbf7b4d	0.0934969
150	0x3e27b7bf	0.16378687
151	0xbc5cdb59	-0.013480031
152	0xbc680e95	-0.014163633
153	0xbf1ca638	-0.6119113
154	0xbfafa852	-1.3723242
155	0xbff082c1	-1.8789903
156	0xbfe4a164	-1.7861753
157	0xbfa2fa32	-1.2732604
158	0xbed00be4	-0.40634072
159	0xbf0150a4	-0.5051367
160	0xbeaea876	-0.341129
161	0x3e9a766f	0.30168483
162	0xbd68f5d5	-0.05687507
163	0x3d5d7b2c	0.054072544
164	0xbd50d23f	-0.050981756
165	0xbd244ead	-0.040114094
166	0xbd64cce1	-0.05585945
167	0xbd4b2eaa	-0.04960505
168	0xbce93e9b	-0.028472235
169	0x3c1dc270	0.009628877
170	0x401f9a7c	2.493804
171	0xbf69d14a	-0.91334975
172	0x3f4369d5	0.7633336
173	0x3d8239d0	0.06358683
174	0xbe9c2ff9	-0.3050535
175	0x3ee78995	0.45222154
176	0xbf5bf540	-0.85921097
177	0xbf8de8ed	-1.1086708
178	0xbed8fed4	-0.42381918
179	0x3fa33ca5	1.2752882
180	0x3d8bc8a9	0.06825382
181	0x3dfdc3ef	0.12390887
182	0x3d284715	0.041083414
183	0x3de21287	0.1103869
184	0xbdb35573	-0.087565325
185	0x3d5eac0b	0.05436329
186	0xbc378a51	-0.011202411
187	0xbf78afda	-0.9714333
188	0xc02a5833	-2.6616333
189	0x3fac3807	1.3454598
190	0x3ef789d2	0.48347336
191	0x3f472156	0.7778524
192	0xbe868055	-0.26269785
193	0xbc99576b	-0.018718442
194	0xbf1633f9	-0.58673054
195	0xbf900c41	-1.125374
196	0x3f1445d1	0.5791903
197	0x3ee2998c	0.44257772
198	0x3d2c2480	0.042026997
199	0xbd4ec671	-0.050482217
200	0xbe16b15b	-0.14716093
201	0x3d2a3eda	0.041563846
202	0x3e90209a	0.28149873
203	0x3e56e027	0.20983945
204	0xbf3b729e	-0.73221767
205	0x3e6d3cc5	0.23167713
206	0x3f2d9828	0.67810297
207	0x3eef0b5b	0.4668835
208	0xbeeeecc1	-0.46665004
209	0xbf2bdc90	-0.67133427
210	0xbee99e00	-0.45628357
211	0xbf87625b	-1.0576891
212	0xc006dd0e	-2.107242
213	0x3f5c7663	0.86118144
214	0xbf9b5a39	-1.2136909
215	0xbddfe1a9	-0.10931713
216	0xbd25da6b	-0.040491503
217	0xbee8851b	-0.4541405
218	0x3e47b90f	0.19504188
219	0xbae47e3b	-0.0017432639
220	0x3da597b7	0.08085578
221	0x40e16a13	7.0441985
222	0x3fa54327	1.2911118
223	0x3f68bb09	0.90910393
224	0x3e1c7a41	0.15281011
225	0x3f0f2218	0.559114
226	0x3f4972fe	0.7869109
227	0x3fbb4e33	1.463324
228	0x3e9b3c68	0.30319524
229	0x3ec6ba4f	0.38814017
230	0xbef547e9	-0.47906426
231	0xbe88eb13	-0.26741847
232	0xbd8d4cda	-0.06899424
233	0xbd3a3f0d	-0.045470286
234	0xbc8a17c3	-0.016857034
235	0xbc775538	-0.015096001
236	0xbcbcdbd1	-0.023054035
237	0xbcc8f627	-0.024531437
238	0xbf42ab9b	-0.760431
239	0x3f5cea73	0.8629524
240	0x3fd2dd78	1.6473837
241	0x3e8b2dcc	0.27183378
242	0x3ecb6e70	0.39732695
243	0xbf1030e0	-0.5632458
244	0xbe4ebb68	-0.20188677
245	0xbebc6855	-0.3679835
246	0xbec380a6	-0.38184088
247	0xbfad6ed4	-1.3549447
248	0xbf8158c5	-1.0105215
249	0xbe4f65cf	-0.2025368
250	0xbe65f6c1	-0.2245741
251	0xbe0b7c85	-0.13621719
252	0x3db71211	0.08938993
253	0xbb8568e0	-0.00407134
254	0xbbcdde0a	-0.0062825726
255	0x40810ada	4.0325747

fc1.bias f4 [128]
0	0xbf988f0c	-1.1918654
1	0xbfd680b5	-1.6758028
2	0xbfbf3825	-1.4939009
3	0x3f791afa	0.9730679
4	0xc0160a50	-2.3443794
5	0xc0126c06	-2.2878432
6	0xbf4fecf1	-0.8122092
7	0xbfaaebf5	-1.3353258
8	0xc00a1529	-2.1575415
9	0x400594cf	2.0872076
10	0xbe3f0f15	-0.18658097
11	0xbf5e602b	-0.8686549
12	0xbfedbc9c	-1.8573184
13	0xbf49a4ee	-0.7876729
14	0xbfd0d83f	-1.6315993
15	0x3f4a36ec	0.78990054
16	0xbfae9f17	-1.36423
17	0xbf46a9bf	-0.7760276
18	0xbf7f7414	-0.99786496
19	0x3f649719	0.89293057
20	0xbfc6e327	-1.5538071
21	0x3f25a287	0.6470112
22	0xbfa32ee2	-1.2748682
23	0xbe5a2d8b	-0.21306436
24	0xbf666cd0	-0.90009785
25	0x3eb612b6	0.3556115
26	0x4017ce96	2.371984
27	0xbf7f4812	-0.99719346
28	0xbe6019aa	-0.2188479
29	0x3f931d37	1.1493291
30	0xbfff9214	-1.9966455
31	0x3eb98c50	0.36239862
32	0xc02dcdcb	-2.7156856
33	0xbfcfea2a	-1.6243336
34	0x3e90e8ac	0.28302515
35	0xbfdcd9a6	-1.7253921
36	0xbfc7cba6	-1.5609024
37	0xbfa02b94	-1.2513299
38	0xbf9fde44	-1.2489705
39	0xbffef5fd	-1.991882
40	0x40325b0c	2.786807
41	0xbf7615fe	-0.9612731
42	0xbf68eb64	-0.9098418
43	0xbf609c11	-0.8773814
44	0xbd0b0bee	-0.033946924
45	0xbeed55e2	-0.46354586
46	0x3ede8429	0.43460205
47	0xbfbb1daa	-1.4618428
48	0xbff4f130	-1.9136105
49	0xbffaae4c	-1.9584441
50	0xbe80a855	-0.25128427
51	0xbf90bd38	-1.1307745
52	0x4026ea2f	2.6080434
53	0xbfbf9e1b	-1.4970125
54	0xbfb47640	-1.4098587
55	0xbfa0f2b4	-1.2574067
56	0xbfe46440	-1.7843094
57	0xbf8b0d90	-1.0863514
58	0xbfa178cd	-1.261499
59	0xbf8934e5	-1.0719267
60	0x403e3546	2.9720016
61	0x3f0654aa	0.5247294
62	0x3f41ae0b	0.75656193
63	0x3fd66197	1.6748532
64	0xbfc982a0	-1.5742989
65	0xc007c465	-2.121362
66	0xbf9f4328	-1.244237
67	0xbfe98444	-1.8243489
68	0xbedcf4be	-0.43155473
69	0xbf26e1f1	-0.6518851
70	0x3f26d4ae	0.65168273
71	0x3f93ba32	1.1541197
72	0xbf407e95	-0.7519315
73	0xbfbd56dc	-1.4792132
74	0x3e86dee8	0.2634194
75	0x402582a9	2.5860999
76	0x400c4879	2.1919234
77	0x3e8aa4d7	0.27078888
78	0xbf8bc422	-1.091923
79	0x4025ab67	2.5885866
80	0x3e5ad8db	0.21371786
81	0xbd70b40f	-0.058765467
82	0x3f1998ec	0.59998965
83	0x3e8c1184	0.27357113
84	0xbf941c46	-1.1571128
85	0xbf9408c1	-1.1565171
86	0x40238fb7	2.5556467
87	0xbfca0810	-1.578371
88	0x3f15ed89	0.58565575
89	0xbfd8c539	-1.6935188
90	0x3f7029be	0.93813694
91	0xbfc2b1f5	-1.5210558
92	0x3fc371d0	1.5269108
93	0xbff827ce	-1.9387147
94	0x40351e30	2.8299675
95	0x3f8ecbae	1.1155908
96	0xbccfee8d	-0.025382305
97	0xbfe90ffe	-1.8208005
98	0xc00636a3	-2.0970848
99	0x3f63b9d7	0.88955444
100	0x3f0f74b0	0.56037426
101	0xbf7a57c3	-0.97790164
102	0xbf002a59	-0.5006462
103	0x3fdfd0f9	1.7485648
104	0xbf6dbf0a	-0.9286963
105	0xbf8893db	-1.0670122
106	0xbf522448	-0.8208661
107	0x3ea8ccbf	0.3296871
108	0x3ef6e569	0.482219
109	0xc00abede	-2.1678996
110	0xbff73196	-1.9312007
111	0x3eb5c9da	0.35505563
112	0xbfb2ad79	-1.395919
113	0xc001ac41	-2.0261385
114	0x3f4aa07a	0.7915112
115	0xbfc731bd	-1.5562054
116	0x3e330c69	0.17485203
117	0xbf2c6588	-0.67342424
118	0x3f36e761	0.71446806
119	0xbfba8b49	-1.4573756
120	0xbf8d9f3d	-1.1064221
121	0x3f951d0b	1.1649488
122	0xbf006d2e	-0.50166595
123	0xbff93948	-1.9470606
124	0xc0034190	-2.0508766
125	0xc004f373	-2.077359
126	0xbf6ac6cd	-0.91709596
127	0xbeecb5a8	-0.46232343

fc2.weight f4 [64, 128]
0	0xbd9b99c1	-0.075976856
1	0xbff823ff	-1.9385985
2	0x3f0c6aa9	0.5485025
3	0xbd317355	-0.04332288
4	0xbee525d3	-0.4475542
5	0x3d253376	0.04033228
6	0xbf275f01	-0.6537934
7	0xbdb8356e	-0.08994566
8	0xbfa237b2	-1.2673247
9	0x3f0ad969	0.5423799
10	0x3e83553e	0.25650972
11	0xbe5d04a6	-0.21583804
12	0xbfbcd9ef	-1.4754008
13	0x3f2dec60	0.67938805
14	0x3eb0c46c	0.34524858
15	0x3f2a2535	0.66463023
16	0x3f876327	1.0577134
17	0x3dd5c426	0.10437803
18	0xbf84049a	-1.0313904
19	0x3e6f0b9d	0.23344274
20	0x3ec5aa79	0.38606623
21	0xbf17cdb4	-0.59298253
22	0xbec173ab	-0.3778356
23	0x3ee85403	0.45376596
24	0xbe9891f9	-0.29798868
25	0x3fb11744	1.3835225
26	0x3e15d76d	0.1463296
27	0xbd761e36	-0.060087405
28	0x3ebc008d	0.3671917
29	0xbd768cf7	-0.06019303
30	0xbf105379	-0.5637737
31	0x3e07a14f	0.13245128
32	0x3eda7a6e	0.4267153
33	0xbf1af3da	-0.6052834
34	0xbe70bce7	-0.2350956
35	0xbf730a01	-0.9493714
36	0xbfcda7b9	-1.606681
37	0x3e86b455	0.26309457
38	0xbf8af608	-1.0856333
39	0xbf915354	-1.1353555
40	0x3ec9c673	0.39409217
41	0xbe251350	-0.16120648
42	0xbe8e0b92	-0.27743202
43	0xbee3835b	-0.44436154
44	0x3e1d97cf	0.15389942
45	0x3db209b6	0.086932585
46	0xbdc6009e	-0.096680865
47	0x3f4ce73e	0.8004035
48	0xbfb56099	-1.4170104
49	0x3ece1bc8	0.4025557
50	0xbed6d85f	-0.41961953
51	0x3dc7f571	0.09763611
52	0x3dc8e63e	0.0980954
53	0x3d9e9aee	0.07744394
54	0xbe4be94d	-0.19913216
55	0x3e51aaa6	0.20475253
56	0xbe8f61b4	-0.2800423
57	0x3f968a16	1.176089
58	0xbf27af7e	-0.65502155
59	0x3f59c8ce	0.8507203
60	0x3e5bb0ba	0.21454135
61	0xbeb7fcab	-0.35934958
62	0xbf58bd76	-0.84664094
63	0xbf179c3a	-0.5922276
64	0xbf0a6005	-0.54052764
65	0xbea9c05d	-0.33154574
66	0x3ec3356c	0.38126695
67	0xbfa149b3	-1.2600616
68	0x3d23c80b	0.039985698
69	0xbedab8b5	-0.42719045
70	0xbf021f7b	-0.50829285
71	0xbf1f3e27	-0.6220421
72	0xbe858489	-0.2607768
73	0x3fa78a68	1.3089113
74	0xbf98f59a	-1.1949952
75	0x3e3b6c9c	0.1830315
76	0xbe543ce4	-0.20726353
77	0x3ec89678	0.391773
78	0x3f121a10	0.5707102
79	0xbea74037	-0.3266618
80	0x3f962371	1.1729566
81	0xbf2e3dbc	-0.6806295
82	0xbd8b6572	-0.068064585
83	0xbe15404a	-0.14575306
84	0xbcd160b1	-0.025558801
85	0xbf8f18c8	-1.1179438
86	0xbdd29d73	-0.10283937
87	0x3e99674e	0.29961628
88	0x3dc34acd	0.095357515
89	0x3e997915	0.2997519
90	0x3dc53e0a	0.09630974
91	0xbfd03556	-1.6266277
92	0x3ef2c2ec	0.4741434
93	0x3e009c5a	0.12559643
94	0xbc3660ef	-0.011131509
95	0xbdcea95e	-0.10090898
96	0xbe6d4f9f	-0.23174904
97	0xbf02abd9	-0.5104347
98	0xbd943ab3	-0.072377585
99	0x3ec9be68	0.3940308
100	0xbf098b2b	-0.5372798
101	0x3d596b24	0.053080693
102	0xbe2f8116	-0.17139086
103	0xbe4d1ee9	-0.20031323
104	0xbe8c7624	-0.27433884
105	0xbecb4545	-0.39701286
106	0x3ec73992	0.3891111
107	0xbeb7425a	-0.3579281
108	0x3e66896a	0.22513357
109	0xbfa6ffcd	-1.3046814
110	0xbf135b8a	-0.5756155
111	0xbf8cb6ee	-1.0993326
112	0xbe4cf396	-0.20014796
113	0xbf3207a5	-0.69542915
114	0x3cc99c07	0.024610532
115	0xbf093b8a	-0.53606474
116	0x3cef1969	0.029186921
117	0x3e5d2f63	0.21600108
118	0xbdd2b4cc	-0.102883905
119	0xbda42620	-0.08015084
120	0x3c0058ca	0.007833669
121	0xbeaf19a1	-0.3419924
122	0xbf485283	-0.782509
123	0xbff88498	-1.9415464
124	0x3c09c082	0.008407714
125	0x3e2fee3f	0.17180727
126	0xbf95045a	-1.1641953
127	0xbecc3114	-0.39881194
128	0x3b6b3dd1	0.0035895
129	0x3eef68ab	0.46759543
130	0x3fa0c4c6	1.256005
131	0xbfb9b0e3	-1.4507107
132	0xbf9b7960	-1.2146416
133	0x3f987b90	1.1912708
134	0xbfb949af	-1.4475611
135	0xbf19ea68	-0.601233
136	0x3e83a434	0.25711215
137	0xbe05fc00	-0.13084412
138	0xbe9ef04a	-0.310427
139	0xbf35abb0	-0.709651
140	0xbfc6a555	-1.5519205
141	0x3f067178	0.5251689
142	0x3eabfb3d	0.33590117
143	0xbf97fa1b	-1.1873201
144	0x3ef44a2f	0.47712848
145	0xbc10e819	-0.008844399
146	0xbf324716	-0.6963972
147	0xbeda2fb8	-0.42614532
148	0x3d86e41e	0.06586479
149	0xbfca5d3d	-1.5809704
150	0xbf947cd0	-1.160059
151	0xbfe6f411	-1.8043233
152	0xbf2086c7	-0.62705654
153	0xbf9fe1df	-1.2490805
154	0xbeb0b62c	-0.34513986
155	0xbe7c02fe	-0.24610516
156	0xbf7f5349	-0.9973646
157	0xbf5f4659	-0.87216717
158	0xbe3e4060	-0.18579245
159	0xbf18c28d	-0.5967186
160	0xbffb599b	-1.963672
161	0xbebeac84	-0.37240994
162	0x38fc957e	0.000120441415
163	0x3fbe84df	1.4884299
164	0x3ee37da8	0.44431806
165	0xbc63b0e5	-0.013897155
166	0x3f1e3197	0.6179442
167	0x3f3be267	0.7339234
168	0xbe825c1e	-0.25460905
169	0xbd4f153d	-0.050557364
170	0x3eaff780	0.34368515
171	0xbf3b9521	-0.7327443
172	0xbec39099	-0.38196257
173	0xbe8b310a	-0.2718585
174	0xbf24597a	-0.6419903
175	0x3f8dee63	1.1088375
176	0x3f79d738	0.9759402
177	0xbf846922	-1.0344584
178	0x3eb861e9	0.360122
179	0x3f340bcf	0.7033052
180	0xbdc89c55	-0.09795443
181	0xbf7ec83d	-0.9952429
182	0x3ec9a65a	0.3938473
183	0xbf5e5cd6	-0.86860406
184	0xbe5b4ad0	-0.21415257
185	0x3ef067b4	0.4695412
186	0xbfa8de55	-1.319285
187	0x3ec17c91	0.3779035
188	0xbe8caa43	-0.2747365
189	0xbcd72967	-0.02626486
190	0xbe3e378a	-0.18575874
191	0xbf726f15	-0.9470075
192	0x3f2ea63e	0.68222415
193	0xbddf6b41	-0.10909129
194	0xbe67c85a	-0.22635022
195	0x3e9751ef	0.29554698
196	0xbf0f9adc	-0.5609567
197	0xbe9e4db0	-0.30918646
198	0xbd48c6f6	-0.04901787
199	0xbedf6ee5	-0.43639293
200	0xbed41f9b	-0.41430363
201	0xbf07eea1	-0.53098494
202	0xbe56e116	-0.20984301
203	0x3e4418a4	0.19150025
204	0x3cc87cb2	0.024473522
205	0x3f33ba2a	0.7020594
206	0xbf6fa65f	-0.9361324
207	0xbdf36445	-0.11884359
208	0x3f928136	1.1445682
209	0xbcc39abd	-0.023877496
210	0xbf93c9ec	-1.1545997
211	0x3f66476c	0.8995273
212	0xbf9f6d16	-1.2455165
213	0x3ef38382	0.4756127
214	0xbedebb1c	-0.43502128
215	0xbfbfa8ea	-1.4973423
216	0xbedc1fd6	-0.4299304
217	0xbf2c4be6	-0.6730331
218	0xbe8fe865	-0.2810699
219	0x3eea765f	0.45793435
220	0xc0189d28	-2.384592
221	0xbfdc3741	-1.7204362
222	0xbd808bb8	-0.06276649
223	0xbea3d467	-0.31997988
224	0x3f7c8840	0.986454
225	0x3ede3841	0.43402293
226	0x3fb624cf	1.4229983
227	0x3f87aa37	1.059882
228	0xbf9e5fb0	-1.2372952
229	0xbfc7eedb	-1.5619768
230	0xbd1dd602	-0.038534172
231	0xbfd806d2	-1.6877081
232	0x3caf3608	0.021388069
233	0xbf108376	-0.56450593
234	0x3f6de29a	0.9292389
235	0xbd4677e1	-0.04845417
236	0xbe277260	-0.16352224
237	0x3f6fa2a5	0.9360755
238	0xc019f8a3	-2.4058006
239	0xbf094fe8	-0.5363755
240	0xbd8d62e7	-0.0690363
241	0x3ee549ed	0.44782963
242	0xc01700b6	-2.3594184
243	0x3ee95896	0.45575398
244	0xbff0e07a	-1.8818505
245	0xbe2960de	-0.16540858
246	0xbf130518	-0.5742965
247	0x3d5a1be3	0.05324925
248	0xbf5b27e0	-0.8560772
249	0x3f54e979	0.8316875
250	0x3fcd0c27	1.6019334
251	0x3ee1df28	0.44115567
252	0x3f917721	1.136448
253	0x3e36fc64	0.17869717
254	0xbe774256	-0.24146399
255	0xbf6047b0	-0.87609386

fc2.bias f4 [64]
0	0x3fa87672	1.3161147
1	0xbed5e711	-0.41777852
2	0x3fb76219	1.4326812
3	0xbfc87842	-1.56617
4	0xbedd4287	-0.4321482
5	0x4032abcd	2.791736
6	0xbf0f1c8d	-0.5590294
7	0x402e21cd	2.720813
8	0x3f2432fb	0.6414029
9	0xbdab3cae	-0.08361183
10	0x404092d1	3.008961
11	0xbf118d56	-0.56856287
12	0x4005c07e	2.0898738
13	0xbd1ea5d2	-0.038732357
14	0x3fbc048f	1.4688891
15	0xbe2cb471	-0.16865708
16	0x3f4cbeee	0.79978836
17	0x3d8ad654	0.06779161
18	0x40508b27	3.2584932
19	0x3f54435b	0.82915276
20	0x40172d4c	2.3621397
21	0xbe0ecb4c	-0.13944739
22	0xbfbbe6c1	-1.4679796
23	0xbf3cea7f	-0.7379531
24	0xbe6c7e72	-0.2309511
25	0x3fe7115c	1.8052173
26	0xbeca4f58	-0.3951366
27	0x403ddcaa	2.9665933
28	0x4046cc81	3.106232
29	0x3ffcedb5	1.9760042
30	0xbf86fd8d	-1.0546128
31	0xbf85fe66	-1.0468261
32	0xbd894058	-0.06701726
33	0x40063dde	2.097526
34	0x4036e4fd	2.8577263
35	0x40281cf5	2.6267674
36	0xbffbc19e	-1.9668462
37	0x3f98544e	1.1900728
38	0x400fa356	2.2443442
39	0xbe093058	-0.13397348
40	0xbf46d279	-0.77664906
41	0xbf63f8f4	-0.8905175
42	0x3dde1be1	0.10845161
43	0xbf571f0f	-0.84031767
44	0x3f36b7e6	0.71374357
45	0x404ee08c	3.2324553
46	0xbfa4257f	-1.2823943
47	0xbd6cf398	-0.057849497
48	0xbe2d774d	-0.16940041
49	0x3f2d6636	0.67734087
50	0x3ff21e3b	1.8915476
51	0x3e70bc7e	0.23509404
52	0x4019dea2	2.4042134
53	0xbdc7fabb	-0.0976462
54	0xbe13c601	-0.14431001
55	0x3f960e1a	1.1723053
56	0x3feb0fa9	1.8364154
57	0xbfb23af1	-1.3924237
58	0x4041855e	3.023765
59	0x3f548415	0.8301404
60	0x3d3310d6	0.043717228
61	0x40487bdd	3.13256
62	0x3f90da84	1.1316686
63	0x3fe69e1d	1.8017002

final.weight f4 [6, 64]
0	0x3e180c54	0.14848453
1	0xbe401319	-0.18757285
2	0x3e0565e7	0.13027154
3	0xbccaf0c7	-0.024773015
4	0xbe2b8808	-0.1675111
5	0x3eca68e5	0.39533153
6	0x3f1486b9	0.5801807
7	0x3e5d53fb	0.21614067
8	0xbe02dabc	-0.12778753
9	0xbd631250	-0.055437386
10	0x3eee6a27	0.46565363
11	0xbea4bd6d	-0.3217577
12	0x3e281f46	0.1641818
13	0x3d920aef	0.07130992
14	0x3e8f2e44	0.27964985
15	0xbe162825	-0.14663751
16	0x3ddb02e9	0.106939144
17	0x3e7c1a15	0.24619325
18	0x3ef8aa5d	0.48567477
19	0x3e9dba41	0.30806163
20	0x3df03b9c	0.117301196
21	0xbf20c54a	-0.6280104
22	0xbe9fe345	-0.3122808
23	0xbe3e5516	-0.18587145
24	0x3e28ba06	0.16477212
25	0x3e251436	0.16120991
26	0xbeb5ca12	-0.3550573
27	0x3ef7bdfb	0.4838713
28	0x3efbaea0	0.49156666
29	0x3d419f04	0.04727079
30	0xbe4bc1ef	-0.19898199
31	0xbe9c5c27	-0.30539057
32	0xbd858cd9	-0.06521005
33	0x3e766bf5	0.2406462
34	0x3e44d7c3	0.19222932
35	0x3e2a5d2b	0.16637103
36	0xbe9f1031	-0.3106704
37	0xbe14b149	-0.14520754
38	0x3e01972b	0.12655322
39	0x3e1cc3f9	0.15309133
40	0xbe1f53e7	-0.1555935
41	0xbeab996b	-0.33515486
42	0x3e62bc41	0.22142126
43	0xbdb586c4	-0.08863595
44	0x3e28772c	0.1645171
45	0x3f2f1742	0.68394864
46	0xbe56aeee	-0.20965168
47	0x3e0cc07b	0.137453
48	0x3be42948	0.006962929
49	0x3e516bdd	0.20451303
50	0xbbb9d85f	-0.0056715454
51	0x3e107062	0.1410537
52	0x3e832325	0.2561275
53	0x3ca8e8e9	0.020618873
54	0xbd928c13	-0.07155623
55	0x3e103f51	0.14086653
56	0x3e17b2fb	0.1481437
57	0xbe697ad6	-0.22800764
58	0x3ef9710c	0.4871906
59	0x3e387cec	0.18016404
60	0x3da556d0	0.08073199
61	0x3ef985bd	0.48734847
62	0x3e2b9fd4	0.16760188
63	0x3d9408a1	0.07228208
64	0x3d9dac89	0.07698924
65	0xbcb75ca8	-0.02238305
66	0x3dd13069	0.10214312
67	0xbe27da58	-0.16391885
68	0xbea96f0b	-0.33092532
69	0x3e91b981	0.2846184
70	0xbcf2a809	-0.029621141
71	0x3da5d21d	0.080967166
72	0x3e0a1f8f	0.13488601
73	0x3de15a5e	0.11003564
74	0x3ef63177	0.48084614
75	0xbe6a5ed8	-0.22887743
76	0x3e504a33	0.20340805
77	0x3b6fac1f	0.0036571098
78	0x3e9eb7c7	0.30999586
79	0x3e1831c2	0.14862731
80	0xbdc244cd	-0.09485779
81	0x3c954006	0.018219005
82	0x3f1fd188	0.62429094
83	0x3ec736f2	0.38909107
84	0x3cc8fa36	0.024533372
85	0x3e4b805b	0.19873182
86	0xbe054af8	-0.1301688
87	0xbee2d142	-0.44300276
88	0xbd786743	-0.060645353
89	0x3d1d69d7	0.038431015
90	0xbe369c53	-0.1783307
91	0x3ec7e71f	0.3904352
92	0x3eeec37c	0.46633518
93	0x3e66b4ee	0.22529957
94	0xbdb67c9b	-0.08910485
95	0xbe564aa2	-0.20926908
96	0xbdbfd151	-0.09366096
97	0x3e1bd385	0.15217407
98	0x3ed5d788	0.41766
99	0x3de9f3af	0.11423432
100	0xbee96ec7	-0.4559233
101	0x3d3db453	0.04631455
102	0x3d268504	0.040654197
103	0xbe8b8ee1	-0.27257445
104	0xbda3da0a	-0.08000572
105	0x3e4ae426	0.19813594
106	0xbe1405fd	-0.1445541
107	0xbe34cbcd	-0.17655869
108	0x3e2e571a	0.17025414
109	0x3f13ff52	0.5781146
110	0x3da03111	0.07821859
111	0xbe66b89d	-0.22531362
112	0xbe2192b7	-0.15778624
113	0xbd3cdc9c	-0.046108827
114	0x3d2a4f97	0.04157981
115	0xbe0775fb	-0.132286
116	0x3ea9081e	0.33014005
117	0x3bb0113d	0.0053731487
118	0x3dfd04d1	0.12354434
119	0xbde10115	-0.109865345
120	0x3e0cf015	0.13763459
121	0xbd908c25	-0.070579804
122	0x3efbe843	0.4920064
123	0x3e501dcc	0.20323867
124	0x3c81aa68	0.015828326
125	0x3f05ad91	0.52217966
126	0x3d3ea135	0.046540458
127	0xbdc8871b	-0.09791394
128	0x3cae057c	0.02124285
129	0xbe35f181	-0.17767908
130	0x3db6a0e5	0.08917407
131	0xbe22fc05	-0.1591645
132	0xbe94c1e1	-0.29054168
133	0x3e97c9f3	0.29646263
134	0xbd469706	-0.04848387
135	0x3d6e521f	0.058183786
136	0x3e083537	0.1330155
137	0x3d8b89c6	0.068133876
138	0x3f04387f	0.51648706
139	0xbe1d8e07	-0.1538621
140	0x3e36d089	0.17852987
141	0x3c0905f6	0.008363238
142	0x3e8bfbae	0.27340454
143	0xbe250003	-0.16113286
144	0xbdcec487	-0.10096078
145	0x3d900b7f	0.07033443
146	0x3f1bfd69	0.6093355
147	0x3ec804fc	0.39066303
148	0x3c873838	0.0165063
149	0x3e6791bc	0.22614187
150	0xbdfa3429	-0.1221698
151	0xbee87bbc	-0.45406902
152	0xbdef519d	-0.116854884
153	0x3d5d41e9	0.054017935
154	0xbe65b9ba	-0.2243413
155	0x3edae458	0.42752337
156	0x3eef1021	0.46691993
157	0x3e657a69	0.22409977
158	0xbdc90d10	-0.098169446
159	0xbe4f4812	-0.20242336
160	0xbdff843c	-0.124763936
161	0x3e203aef	0.15647481
162	0x3ee7ae62	0.4525023
163	0x3de9cb02	0.11415674
164	0xbee99a35	-0.45625463
165	0x3c1d4da7	0.009601033
166	0x3d5dc5c7	0.054143693
167	0xbe3dac37	-0.18522726
168	0xbd529dd7	-0.05142006
169	0x3e87bb8e	0.2651028
170	0xbe79a47a	-0.24379149
171	0xbe295264	-0.16535336
172	0x3e432bbe	0.19059655
173	0x3f077ee7	0.5292801
174	0x3dbbf891	0.0917827
175	0xbe6159dd	-0.22006936
176	0xbe63cf8f	-0.22247146
177	0xbc5b750c	-0.013394605
178	0xbbf6c0e4	-0.0075303186
179	0xbdd5c88c	-0.10438642
180	0x3ea066a2	0.31328303
181	0xbc82e1fc	-0.015976898
182	0x3c2142ee	0.009842617
183	0xbe0c3ea6	-0.13695773
184	0x3e15b419	0.14619483
185	0xbd39ce7d	-0.04536294
186	0x3efa388a	0.4887126
187	0x3e614b6a	0.22001424
188	0xbd113640	-0.035452127
189	0x3f0a8818	0.5411391
190	0x3d99d43a	0.07511182
191	0xbda49957	-0.0803706
192	0x3d68f1be	0.05687117
193	0xbe9462bb	-0.28981575
194	0x3dbc3b11	0.091909535
195	0xbe197a66	-0.14988098
196	0xbf87100b	-1.0551771
197	0x3e9d83b2	0.30764538
198	0xbc2a8f7c	-0.010410186
199	0x3e14b941	0.14523794
200	0x3e13e4ce	0.14442751
201	0x3da73ed8	0.08166283
202	0x3f037cb0	0.51362133
203	0xbe4f7c85	-0.20262344
204	0x3e4e5475	0.20149405
205	0x3e173661	0.14766838
206	0x3e9b837b	0.3037375
207	0x3e5de149	0.2166797
208	0xbe0b8e5c	-0.13628525
209	0x3dc3d249	0.09561593
210	0x3f1e0076	0.61719453
211	0x3ebb318a	0.36561233
212	0x3c8461af	0.01615986
213	0x3e02b750	0.1276524
214	0xbdc1eae5	-0.09468631
215	0xbea7b812	-0.32757622
216	0xbd85d25b	-0.06534263
217	0x3d2ac60e	0.041692786
218	0xbdca23c0	-0.098701
219	0x3ed808cf	0.4219422
220	0x3efed737	0.4977357
221	0x3e6587ec	0.22415131
222	0xbd18a97c	-0.037271008
223	0xbe2caac1	-0.16862012
224	0xbc3862ed	-0.0112540545
225	0x3e09b49b	0.13447802
226	0x3eda1608	0.42594934
227	0x3de4330d	0.1114255
228	0xbee1d6a4	-0.4410907
229	0x3d7d7754	0.06188138
230	0x3bc6fa3d	0.006072311
231	0xbe16f27d	-0.1474094
232	0xbda60671	-0.08106697
233	0x3e154d4d	0.14580269
234	0xbd84452b	-0.06458505
235	0xbe1f5228	-0.15558684
236	0x3e6154c0	0.22004986
237	0x3f018d19	0.5060592
238	0x3d90d5e0	0.070720434
239	0xbe50fa71	-0.20408036
240	0xbb9cead6	-0.004788737
241	0xbd5625bb	-0.052282076
242	0x3cbe9b77	0.02326749
243	0xbe3c634e	-0.18397257
244	0x3ea6c0a9	0.32568863
245	0xbc5f845a	-0.013642395
246	0x3d712d48	0.058881074
247	0xbdf14132	-0.11780013
248	0x3dfc644e	0.12323819
249	0xbdc116b7	-0.09428161
250	0x3efb2d6a	0.49058086
251	0x3e64e56a	0.2235314
252	0xbd787818	-0.060661405
253	0x3f098144	0.5371287
254	0x3c988bc2	0.01862133
255	0xbdcd81a0	-0.1003449

final.bias f4 [6]
0	0x40233656	2.5501914
1	0x40241113	2.5635421
2	0x3fd752b7	1.6822118
3	0x3fb45ec5	1.4091421
4	0x3f908317	1.1290005
5	0x3f5f9424	0.8733542
