D2QN_AAAI/checkpoint_d2qn_cheetah_50.pth (torch, 45655 bytes, 6 tensors)

fc1.weight f4 [128, 17]
000000 ff f7 bd c0 85 17 9d 40 34 07 46 3f 69 69 df be
       -5.936523 4.909121 0.7735474 -0.4363511
000010 e6 8b b6 3e 9c e9 b9 bf 15 17 88 bf ec cf 32 ba
       0.3565361 -1.4524417 -1.0632044 -0.0006821144
000020 b4 31 58 3e 95 f5 73 bf b9 47 76 3f 60 f7 db 3d
       0.2111271 -0.95296603 0.9620319 0.107405424
000030 20 68 9c 3d 60 93 0d 3d 05 bb 62 bd f9 86 52 ba
       0.07637048 0.034564376 -0.055354137 -0.0008030977
000040 83 ae 61 bc b4 d0 9d bf c5 cc ba bf 15 50 ba 3f
       -0.013774517 -1.2329316 -1.4593741 1.4555689
000050 bf f0 28 40 cf 96 96 3f aa 99 93 bf 83 1e a6 3f
       2.639694 1.1764773 -1.153127 1.2978061
000060 18 fd 7f bf 21 11 1e be 69 1f 53 3f c3 83 e6 be
       -0.99995565 -0.15436222 0.82469803 -0.450224
000070 0a c4 d0 bc af 71 9d 3d a4 88 b9 bd 80 0e db 3d
       -0.025484104 0.07687699 -0.09059265 0.10696125
000080 ab 1f 8a 3d fe db 91 bd e7 72 f0 c0 c0 13 66 bf
       0.067443214 -0.07122038 -7.514026 -0.89873886
000090 31 b5 55 bd bc 45 ab be 37 d9 9e be 20 a1 85 3e
       -0.05217475 -0.3345164 -0.31025097 0.2609949
0000a0 b4 bb e3 be e0 59 f8 be c8 54 66 be 5a 4a b2 bb
       -0.44479144 -0.4850607 -0.22493279 -0.0054409923
0000b0 fd cb f9 bd c7 fa aa bc 62 66 90 bb cc 27 bb bb
       -0.12197111 -0.020871533 -0.004406736 -0.0057115313
0000c0 be bb fd 3c b9 c5 ed bc 4b 61 2a bc 98 aa d8 3f
       0.030973312 -0.029024946 -0.010399173 1.6927061
0000d0 6f 58 7d 3e c5 7d 07 3f 24 a1 8f 3e 22 20 a3 bd
       0.24740766 0.52926284 0.28052628 -0.07965113
0000e0 10 0c 89 bf 24 fc ad bf d8 ca 2e bf 79 21 85 bf
       -1.0706806 -1.3592572 -0.68278265 -1.040084
0000f0 bc 4e 0c bf 9c 23 e5 3d b9 0e f8 bd e6 0d 3f bb
       -0.5480764 0.111884326 -0.12112183 -0.0029152571
000100 73 22 ec 3d 2a f7 0a bc 52 af fd 3d 86 94 24 bd
       0.11530008 -0.00848178 0.12386955 -0.040180705
000110 86 17 15 41 96 fb c3 bf f4 30 03 c0 39 7f b8 3c
       9.318243 -1.5311153 -2.0498629 0.022521602
000120 33 75 32 c0 3a aa 3f c0 53 06 10 bf 14 8d e5 bd
       -2.7884033 -2.9947648 -0.5625965 -0.11208549
000130 e7 3f 0d c0 f6 25 24 bf 6f 25 43 3e 61 5c 72 3e
       -2.2070253 -0.64120424 0.19057249 0.23668052
000140 38 e6 50 be 9c 47 80 3e 1e 02 8a be 93 84 f3 3e
       -0.20400321 0.25054634 -0.2695474 0.47562084
000150 06 9c 77 be 38 68 0e 3f d0 bb 36 bf e7 80 07 c0
       -0.24180612 0.55627775 -0.7138033 -2.1172426
000160 32 5b cc bf b9 0d 24 c0 70 6c 0a c0 28 5c a9 bf
       -1.5965331 -2.5633376 -2.1628685 -1.3231249
000170 5d c3 e6 bf 31 1b 00 bf f6 75 00 bf 93 3c 98 be
       -1.802837 -0.5004149 -0.50179994 -0.29733714
000180 79 88 29 3e 23 58 b0 bd d6 2a a7 bc 42 6a 15 be
       0.16555966 -0.08610561 -0.020406168 -0.14591315
000190 14 e6 1f 3e 51 9a 6e bd 17 7c 2a 40 3c 79 9a bf
       0.15615112 -0.058252636 2.6638238 -1.2068248
0001a0 cf 22 5d bf 40 a7 c1 bc 68 3a 86 bf 8e 92 b8 bd
       -0.8638124 -0.023639321 -1.0486574 -0.09012328
0001b0 ba 14 56 bf da 5d 7b 3f 99 66 81 bf 20 eb 3e 40
       -0.83625376 0.9819008 -1.0109435 2.983101
0001c0 2f 34 09 bf 5d 57 3a 3e 5a ad c1 3c 7d f1 57 bd
       -0.5359525 0.18197389 0.02364223 -0.052720536
0001d0 5a dd ae 3d 3c cf 36 be 3a 9f b7 bc d2 97 17 40
       0.08538313 -0.17852491 -0.022414792 2.3686414
0001e0 e0 46 fa 3f 44 3b fb 3f b5 2d 87 3f cb 15 5c 3f
       1.9552879 1.9627461 1.0560824 0.85970753
0001f0 e0 5d 80 3f 23 87 d5 bd 16 a7 a7 3f 60 ce 69 bd
       1.0028648 -0.10426166 1.3097866 -0.05708158
000200 e4 16 08 bf 02 c5 ae be fd 63 6b be b7 15 00 be
       -0.5315993 -0.3413468 -0.22987361 -0.12508284
000210 c3 e0 a3 bb 55 fd e1 bd 78 61 37 bd 3a dc 52 3d
       -0.005001159 -0.110346474 -0.044770688 0.051479556
000220 4f b6 1a be e9 4c 8b 3e 0e e9 54 40 6d 8e 12 40
       -0.15108608 0.27207115 3.3267245 2.289943
000230 0a 56 3e 3f 89 42 06 bf 30 0c 60 be bf 19 76 bf
       0.74350035 -0.52445275 -0.21879649 -0.96133035
000240 29 c6 06 c0 d6 77 ef 3e 26 10 55 3f ce 80 a4 3d
       -2.1058447 0.46771115 0.83227766 0.0803238
000250 85 53 40 be 81 da 4b 3e 9e 19 9e 3e 16 50 17 3e
       -0.1878186 0.19907571 0.3087892 0.14776644
000260 eb 9c 4d 3d e6 07 5c 3e e6 d5 ec 3f a9 59 8a 3f
       0.050198477 0.21487388 1.8502777 1.0808612
000270 d3 63 f7 3d 0d 52 29 3f 78 d0 a6 bf 59 75 00 c0
       0.12079587 0.66140825 -1.303237 -2.0071623
000280 c8 03 03 c0 8f 9c 92 bf cb 32 1c c0 01 9e ba bf
       -2.0471058 -1.1454028 -2.4406002 -1.4579469
000290 2d 0f a5 be a1 e7 78 be 8b 4d 37 be 21 d0 17 be
       -0.3223814 -0.2430711 -0.17900674 -0.14825489
0002a0 34 8a 37 3e 95 ec 82 bd 7b 9f c6 3f 17 2d 89 bf
       0.17923814 -0.06392781 1.551742 -1.0716885
0002b0 af 63 16 c0 fc b5 d9 bf 91 58 e3 bf 74 84 e2 be
       -2.3498342 -1.7008662 -1.7761403 -0.4424168
0002c0 d8 49 e3 bf 36 2b 8c bf 3b 6c c5 bd ed b3 ed bf
       -1.775691 -1.0950687 -0.09639784 -1.8570534
0002d0 a0 78 5f bf 85 f9 0d be bd 20 33 3e c6 62 63 3c
       -0.87293434 -0.13864715 0.17492957 0.01387853
0002e0 fa 87 86 3d b0 74 e0 3c 80 21 ce bd 54 cf 26 41
       0.06568904 0.027399391 -0.10064983 10.425617
0002f0 9d 75 92 c0 42 be af bf 44 81 c8 3f f8 ef d6 be
       -4.576857 -1.3729937 1.5664449 -0.41979957
000300 f6 f4 39 c0 ea ff 4d c0 b0 9b c4 bf 12 bf 31 3f
       -2.9055762 -3.2187448 -1.5360012 0.69432175
000310 8f 88 8c 3f 16 57 4a be 1c 2c 18 3e 2d 3f 31 bd
       1.0979174 -0.19759783 0.14860576 -0.04327314
000320 46 e8 b1 bb 08 dc 7d be 8d 60 f2 bd 93 db 00 3d
       -0.0054293005 -0.24790967 -0.11834822 0.031459402
000330 de fc 3c c0 44 c8 10 40 f2 34 d6 3f 7f 98 91 bf
       -2.9529338 2.2622232 1.6734908 -1.1374663
000340 64 5e 24 3e 4b 73 91 be 5f 4d 5d 3d de 30 84 bf
       0.16051632 -0.28408274 0.054028865 -1.0327413
000350 ed ca bb be 9c 19 bf bf fa 32 57 bf 96 44 8a be
       -0.36678258 -1.492969 -0.8406216 -0.27005452
000360 ca bc 2c be cf a2 91 bd 49 46 38 3d 02 ab 76 3d
       -0.16868892 -0.071111314 0.044988904 0.06022168
000370 23 a8 23 bd 70 5e 45 3f 6a 10 d5 bf 8f 73 2b c0
       -0.03995527 0.77097225 -1.6645634 -2.6789281
000380 e6 05 27 c0 e1 67 94 bf cb f5 8e 3f ae 43 5a 3f
       -2.609735 -1.1594201 1.116876 0.8525952
000390 2a 8f 8b bf 1a b3 ba bf a9 b3 82 3f c2 9d 33 3f
       -1.0903065 -1.4585907 1.0211078 0.70162594
0003a0 ef 7a c6 3e af d8 47 3e 48 15 9c 3d 66 aa 07 3d
       0.38765666 0.19516252 0.076212466 0.03312149
0003b0 07 ed 32 3d 39 bf c5 3d ea 83 9d 40 05 fc 2e 40
       0.04368308 0.096556135 4.922353 2.734132
0003c0 04 e4 62 3f 0a 39 97 3f 38 8a 52 3e 3a 29 ac be
       0.88629174 1.1814282 0.20560539 -0.33625203
0003d0 e5 1e 43 c0 ca c7 18 bf a3 3a 8f bf 54 9f fe bf
       -3.0487607 -0.59679854 -1.118977 -1.9892373
0003e0 18 1e 27 3f d7 6d 97 bd 57 40 1a be f5 a5 9e 3e
       0.65280294 -0.07393997 -0.15063606 0.3098599
0003f0 d9 f0 0f be e0 72 34 3d ad a8 00 3e b1 5f 60 40
       -0.1405672 0.044054866 0.12564345 3.5058405

fc1.bias f4 [128]
000000 b2 86 69 c0 a9 f4 1f c0 a0 f9 91 bf 84 8f f6 bf
       -3.6488461 -2.4993079 -1.1404305 -1.9262547
000010 7f ca 04 be e3 7a ad bf 39 34 cd 3e 53 66 38 c0
       -0.12967871 -1.3553127 0.40078905 -2.8812454
000020 20 c2 24 c0 05 d7 d8 bf 41 41 c2 bf 7a 22 d1 3f
       -2.5743484 -1.6940619 -1.5176164 1.6338646
000030 c7 a0 30 c0 49 d1 31 3f ac 5c d0 bf b2 1b 0c 3f
       -2.759813 0.6945997 -1.6278281 0.5472976
000040 26 d7 03 c0 2d 48 22 bf 72 31 c3 bf 7f 07 8f be
       -2.0600066 -0.6339138 -1.5249465 -0.27935407
000050 ae d5 58 c0 cf f2 12 40 fd 9a 10 3f af ae 40 c0
       -3.388042 2.2960699 0.56486493 -3.0106618
000060 5e db c6 bf 6f fc 9a 3f d6 dd 7b 40 af 16 39 c0
       -1.5535696 1.2108287 3.9354148 -2.8920095
000070 60 fa 24 c0 b5 ad 6a 40 36 fa 20 c0 cf c8 08 40
       -2.5777817 3.6668522 -2.5152717 2.1372564
000080 4a 9f 48 c0 8f 72 3e c0 5c 17 e1 bf 20 1c 4e 3e
       -3.1347222 -2.975742 -1.7585254 0.20127916
000090 80 a9 27 c0 c1 80 39 c0 b2 0d 1b c0 a5 a8 00 c0
       -2.6197205 -2.8984835 -2.422711 -2.0102932
0000a0 23 0e 34 3f 64 94 ea be 35 3e 1e c0 0c bf c6 be
       0.7033407 -0.45816338 -2.4725468 -0.38817632
0000b0 90 94 b9 bf 4a e9 2d c0 db d3 d1 bf 60 82 81 c0
       -1.4498463 -2.7173638 -1.6392778 -4.047165
0000c0 72 e8 6b c0 a0 b8 8d bf 68 23 2a 40 17 25 4e 3f
       -3.6860623 -1.1071968 2.658411 0.80525345
0000d0 b2 ba 1e 40 fb c6 d6 be 74 4e f4 3e 92 59 5f 40
       2.480145 -0.41948685 0.47716105 3.489842
0000e0 69 8f 1a c0 cf 93 25 c0 4a d4 ea bf fe fe 6b bf
       -2.415003 -2.5871465 -1.8346035 -0.9218596
0000f0 19 17 70 40 02 e3 0b 40 ed a1 6f 40 1a 70 4e 3f
       3.7514098 2.1857305 3.7442582 0.80639803
000100 a2 e5 12 c0 03 91 de 3e 4d ce 0c c0 b6 6a 53 c0
       -2.2952657 0.4347001 -2.2000916 -3.303388
000110 67 98 94 c0 cb a2 8a c0 a5 8a bc 3e 75 13 98 3f
       -4.643604 -4.332372 0.36824527 1.1880938
000120 11 dd 24 c0 2a 6e b5 bf fa d3 29 c0 8e fa 64 40
       -2.5759928 -1.4174244 -2.653563 3.5777926
000130 81 14 24 40 88 42 0a c0 5c c9 02 c0 b7 9b 3a 40
       2.5637515 -2.1603107 -2.04354 2.915754
000140 5f 1d 2d c0 a4 34 df bf 27 bd 0a c0 bc d9 a8 3f
       -2.7049177 -1.743794 -2.167795 1.3191447
000150 d9 cf 28 c0 8b 21 35 bf d6 e4 69 40 e3 e5 25 c0
       -2.637686 -0.7075431 3.654592 -2.5921562
000160 5e 85 a2 bf 91 06 f6 bf be cb 7f 3f 03 5f a8 3f
       -1.269695 -1.9220754 0.9992026 1.3153995
000170 9f 01 1f c0 71 dc ba bf 90 9a aa 3f 5a d1 f2 3f
       -2.484474 -1.4598523 1.3328419 1.8970139
000180 9e 75 0b c0 9b d3 38 c0 4e f1 cc bf 3d 12 1f 3f
       -2.1790538 -2.8879154 -1.601114 0.62137204
000190 f2 6b e5 3e 13 4d e6 bf 22 02 e5 bf 6d 18 81 40
       0.44808918 -1.7992271 -1.7891276 4.0342317
0001a0 f2 6d f0 3e 81 e3 87 bf a7 ae 1e bf ef cf b1 3e
       0.46958882 -1.0616304 -0.6198525 0.34728953
0001b0 78 10 a0 bf b2 ad 6b c0 1f 26 53 c0 25 91 14 3f
       -1.2505026 -3.6824765 -3.2992017 0.5803397
0001c0 3f ef 84 bf 10 7f d8 bf 5a 7a 39 40 23 97 74 c0
       -1.0385512 -1.6913776 2.8980927 -3.8217247
0001d0 47 d7 d8 bf e2 55 45 40 af 2e 03 40 fb f6 fc bf
       -1.6940697 3.0833669 2.0497243 -1.9762872
0001e0 74 8e 46 c0 cf e2 12 3f 09 7e d5 3d fe ac 29 c0
       -3.1024446 0.5737733 0.1042443 -2.6511836
0001f0 75 92 4f c0 a4 76 35 c0 da ea 06 bf 7e 72 3f 40
       -3.243314 -2.8353662 -0.52702105 2.991363

fc2.weight f4 [64, 128]
000000 ac d7 0c be b5 c7 13 be b0 e0 cc 3c e2 73 b6 bd
       -0.13754147 -0.14431651 0.025009483 -0.08908822
000010 75 dd be 3c 77 ce d9 bb 3b cc e8 3c 72 42 e8 3c
       0.023298958 -0.006646927 0.028417697 0.028351996
000020 15 38 1a be 96 60 fc 3c cf c4 61 bb 8e 2a 9e bd
       -0.15060456 0.030807775 -0.0034449582 -0.077229604
000030 f7 19 0b bc 86 78 34 bd 4b f9 6f bd 25 c7 6b bd
       -0.008490077 -0.044060253 -0.058587354 -0.057562966
000040 87 98 47 3b 2d 37 06 3c 4b 26 5b 3d 75 3a 84 bd
       0.0030455904 0.008191866 0.053503316 -0.06456462
000050 ce 9d 88 bd 34 89 8f bd 88 33 fe bb 6e 95 71 3d
       -0.06670724 -0.07008591 -0.007757608 0.058980398
000060 a0 47 a1 bd 5c 4d 5f bc a3 e1 5f bc fe 56 88 bd
       -0.078749895 -0.013629284 -0.013664636 -0.066572174
000070 f5 56 05 be 31 e8 30 be ec 73 34 bd f9 96 ef 3c
       -0.13021453 -0.17276074 -0.044055864 0.029246794
000080 20 3d b7 bd 6c 27 a1 3c 81 84 92 bd 02 6f d5 bd
       -0.089472055 0.019672118 -0.07154179 -0.10421564
000090 ef 84 31 bd d4 c7 ee bc 0f 8b 25 bc fa fa 1c 3d
       -0.043339666 -0.02914802 -0.010103955 0.038325287
0000a0 1b 60 04 bd 7d 1a 87 3d 81 8f 89 bc 95 8a 66 bc
       -0.032318216 0.06596849 -0.01679206 -0.0140711265
0000b0 f9 31 95 3c 91 05 9d bd a3 9a 3a bd d6 29 4a 3c
       0.018212305 -0.07667077 -0.04555763 0.012339076
0000c0 d1 58 c0 bc 1c d5 3e bd 40 d2 00 bd c0 f8 93 bd
       -0.023479851 -0.046589956 -0.03145051 -0.0722518
0000d0 3e 16 be 3b 8f b5 84 3c d9 96 16 bc 56 0a 15 3d
       0.0058009913 0.016199855 -0.009191238 0.03638681
0000e0 99 fd 9d bd 31 e8 fd bc 0a b9 47 3c 62 29 cd bc
       -0.077143855 -0.030994507 0.012190113 -0.025044147
0000f0 0c 55 b0 bd 2d b1 cd bc 4b 39 af bd 53 29 8c 3c
       -0.086099714 -0.025108898 -0.0855585 0.017109549
000100 4a 54 4a 3d 8c 77 3c bd aa af da bd df 06 c8 bd
       0.04939679 -0.046012446 -0.106780365 -0.097669356
000110 8a 2d 92 3c 23 7d 9d bd af aa a3 bd af 89 00 3d
       0.01784398 -0.076898836 -0.0799154 0.031381305
000120 e4 07 01 bd 38 28 da bd 5e d1 f9 3c 49 06 62 bc
       -0.031501666 -0.10652202 0.030495342 -0.013795444
000130 7a 1b 4d 3d b7 05 3b bb 7a 07 73 bc ad 40 c0 bd
       0.05007503 -0.0028537342 -0.0148333255 -0.09387336
000140 2f 6b 59 3c a6 77 06 bd bf 38 91 bd c0 2a f8 bd
       0.0132701835 -0.03282895 -0.070909016 -0.12117529
000150 b9 69 18 bd 83 42 1d bd c5 a9 60 bd 0a 9f 91 bd
       -0.0372102 -0.03839351 -0.054849405 -0.071104124
000160 f4 24 70 bd ec 3f c7 bc 02 73 2f bd a7 3e 0b be
       -0.05862899 -0.024322473 -0.04283429 -0.13598119
000170 8c 4c 44 3d 07 65 45 3d ee f3 d2 bd 1a f7 8f bd
       0.047924563 0.04819205 -0.10300432 -0.07029553
000180 31 07 0d 3d 55 17 78 bd 02 f2 d3 bd 78 52 be 3c
       0.034430686 -0.060569126 -0.10348894 0.023232684
000190 83 5f 90 bd 10 73 8b bd 42 ba cc bd ce ba ee bd
       -0.070494674 -0.06809056 -0.09996463 -0.11656724
0001a0 48 c1 3b bd 05 48 9a 3c 27 d3 3f bd c2 04 4b 3d
       -0.045838624 0.01883317 -0.04683223 0.049565084
0001b0 d3 ca 8a bb 0a 17 cb bd 46 cf b1 bc 1d 4b b4 bd
       -0.0042356043 -0.09916504 -0.021705281 -0.08803389
0001c0 cd 14 86 bd 74 f6 30 3d 15 43 01 be 3c 18 66 ba
       -0.06546936 0.043203786 -0.12623246 -0.0008777415
0001d0 9f dc c1 bc 16 eb ce bd ba c0 00 be 8f 75 60 ba
       -0.02366477 -0.10103433 -0.1257352 -0.00085624395
0001e0 96 42 0d bc b4 84 50 bd 15 de c3 bd 3e a6 e8 bd
       -0.008621832 -0.050907806 -0.09563843 -0.11359833
0001f0 9d a6 1a bc e7 e8 ff 3c 15 ab 8f bc 73 ba b7 bc
       -0.009439138 0.031238986 -0.017537633 -0.022427773
000200 1e 46 02 3f e3 d0 3a bf d9 d7 5e 3e c5 a2 e6 3e
       0.5088824 -0.72974986 0.21762027 0.45046058
000210 07 b0 13 3f 8e 99 7b bf 13 80 3b 3e 1e ee d2 3e
       0.5769047 -0.9828118 0.18310575 0.41197294
000220 20 86 00 3f 11 fa e3 3e 57 48 13 3e 55 4f ba be
       0.5020466 0.44526723 0.14383064 -0.3638865
000230 00 b0 5f 3f e7 2c 3d bf 3b f3 e1 3d 62 b5 88 bf
       0.8737793 -0.7389664 0.11032721 -1.0680354
000240 19 f7 a2 bf 0d e4 15 bf da aa 39 3d 7a c8 78 3e
       -1.2731658 -0.585511 0.045328952 0.24295226
000250 1a 34 82 3e e8 8f 47 3f 88 74 c2 bf 0d 25 19 3f
       0.25430375 0.7795396 -1.5191813 0.5982216
000260 0c 9b f3 bf a8 ea 7c bb c9 30 05 3e 24 f1 66 3d
       -1.9031692 -0.0038592014 0.13006891 0.056382313
000270 d1 d3 7e 3e 59 c3 44 bf 7e 9c b5 3f 58 84 ac be
       0.24885489 -0.76860577 1.4188383 -0.3369472
000280 c5 a5 88 be d2 55 1a 3f b3 84 7c bf 0d 15 55 3f
       -0.26688972 0.602872 -0.9863998 0.83235246
000290 70 33 97 bf 0c 5c 5d 3f 88 65 42 3f 1e ee ff be
       -1.1812572 0.8646858 0.75936174 -0.49986356
0002a0 5e 42 ad 3f 43 5f 56 3e 89 df 26 3f 84 ca 81 c0
       1.3535879 0.20934777 0.6518484 -4.055971
0002b0 42 b0 3d bd 91 8c 67 be ba 67 a3 bf 8b 1e 2b bf
       -0.04631067 -0.22612216 -1.276603 -0.6684348
0002c0 7b ab 92 3f 39 16 68 3f c0 e2 ad 3f ef 8b 9b be
       1.1458582 0.9065891 1.3584824 -0.30380198
0002d0 60 7f 38 3f df 83 00 3d 92 8e 3b 3f 49 51 7e bd
       0.7206936 0.031375762 0.7326442 -0.06208924
0002e0 6f 82 4d be 18 c4 02 c0 7a ad 89 3e 17 c4 49 3c
       -0.20069288 -2.0432186 0.26890165 0.012314818
0002f0 b4 2d 81 3f fa 04 f6 3e 1e 78 e1 bd 01 ce 7b 3f
       1.0092072 0.48050672 -0.11009239 0.9836121
000300 e7 df bf bd eb 4b d4 3e 9f cb 00 bf 7c e1 30 be
       -0.09368878 0.4146417 -0.503107 -0.17273515
000310 31 b3 f3 bf 9f fa f3 bf 7a 01 73 bf 3d a1 c8 be
       -1.903906 -1.9060858 -0.9492413 -0.39185515
000320 a8 61 82 bd ed e3 84 be 7e 10 f8 3e ef e0 b5 be
       -0.06366283 -0.25955144 0.48450083 -0.35523173
000330 0d c1 c2 bc c2 ed 08 3f 39 da a2 bf 46 7d 26 3f
       -0.023773694 0.5348779 -1.2722846 0.650349
000340 90 f1 42 3f c8 45 83 3f e4 70 da bf 49 32 4f c0
       0.76149845 1.025567 -1.7065701 -3.2374442
000350 de de c0 bd 77 1c 33 3d 57 1d a8 be e8 b9 93 bf
       -0.094175085 0.043728318 -0.32834885 -1.1541109
000360 9f 0b b9 be a9 c8 73 3f d1 2d 9b bf cb fd 95 3f
       -0.3614168 0.9522806 -1.2123357 1.1718076
000370 a6 41 a8 3f 52 96 6e bf cb 72 ca bf f4 c4 ac be
       1.3145034 -0.9319812 -1.5816282 -0.33744013
000380 af fb a1 3e a0 88 15 c0 58 ca a7 bf c8 8a 11 bf
       0.31637332 -2.336464 -1.3108625 -0.5685239
000390 0f d6 2f 3f b9 9f a2 be 48 1c b8 3e ec 07 29 bf
       0.68686 -0.31762484 0.35959077 -0.6602771
0003a0 4c 70 b7 3e d4 e0 fb 3e 57 27 1e be 1a 97 b5 bf
       0.35827863 0.49194968 -0.15444694 -1.4186738
0003b0 7e 36 22 be b3 ea d4 be 8b dd a3 bf 8a 4f 86 3d
       -0.158411 -0.4158531 -1.2801985 0.065581396
0003c0 16 90 3f 3f a0 5b ce bf 8f c4 8a 3d e8 5e 34 40
       0.7482923 -1.6121712 0.06775772 2.8182926
0003d0 69 df c4 3d 5f 06 16 40 a9 66 5c bf 8a 52 81 bf
       0.096129246 2.3441389 -0.86094147 -1.0103314
0003e0 41 cb 59 3e a0 95 85 bf bb 4f ff 3e c2 af e2 bf
       0.21268941 -1.0436287 0.49865517 -1.7709887
0003f0 ea ee 64 3f 41 7e 95 be c8 a4 73 3f 12 bd 93 bf
       0.89427054 -0.29197887 0.9517331 -1.1542075

fc2.bias f4 [64]
000000 98 01 00 be 48 5f 1b c0 22 ea 50 40 ab c5 22 bf
       -0.12500608 -2.4276905 3.2642903 -0.6358287
000010 5d 08 6f bf c1 44 de 3f 21 23 b7 bf 0a d9 1e 40
       -0.93372136 1.7364732 -1.4307595 2.481997
000020 c8 b5 58 40 ae 3c ab bd fb 0e 16 be 6d d5 48 bf
       3.386095 -0.08361183 -0.14654152 -0.7845066
000030 4a 11 08 40 df c9 41 be 76 74 31 3e 7f b4 bc 3e
       2.1260552 -0.18924664 0.17329583 0.36856458
000040 12 be 88 bf 93 92 71 40 28 37 85 bc 32 6e d6 3f
       -1.0683005 3.7745712 -0.016261652 1.6752379
000050 7f ce 68 bd 22 08 2e be 32 97 a7 be a6 49 87 bf
       -0.056837555 -0.1699529 -0.3273254 -1.0569351
000060 28 c9 ff bf c6 75 88 bd 3a f1 dc bf 9b bc 5a 40
       -1.9983263 -0.066630885 -1.7261117 3.4177616
000070 6c 2f 8d 40 ae 3a e9 bd 49 e7 14 c0 0b 9e 9f bd
       4.412039 -0.113881454 -2.3266165 -0.07793816
000080 ba bb ab be 94 d6 80 40 41 b2 67 40 b8 9c 51 40
       -0.33541662 4.0261936 3.6202548 3.2751904
000090 5b 8c d3 bf f4 44 1c 40 af 81 4f 40 a1 cd 35 c0
       -1.6527208 2.4417086 3.2422903 -2.8406756
0000a0 ab ca ae be cb 5a 36 bd e4 33 dc bf 57 1b cc bf
       -0.34138998 -0.04452018 -1.7203336 -1.5945843
0000b0 78 21 f2 bf 97 ab 98 40 1d 02 c3 bf d4 e5 dd bf
       -1.8916464 4.770946 -1.523502 -1.7335763
0000c0 cd 13 42 40 18 08 88 3f 48 97 29 40 b9 53 0f bf
       3.0324585 1.062747 2.6498585 -0.55987126
0000d0 0c c4 3f 40 2c 03 01 be 27 ee 08 be cd 11 22 3f
       2.9963408 -0.12598866 -0.13372098 0.6330841
0000e0 40 1a 7e 40 eb 73 67 c0 92 d8 a0 40 3a 28 2d bd
       3.9703522 -3.61645 5.026437 -0.04227469
0000f0 ac ad 6d 3d 91 23 f1 bd 0b cb f4 3f 71 d3 8b 3c
       0.058026955 -0.11774362 1.9124464 0.017068597

final.weight f4 [6, 64]
000000 b8 98 6c 3d c3 f5 1d bc 24 4c e9 3c af 68 85 be
       0.05776283 -0.009641114 0.02847869 -0.2605643
000010 60 4f 90 bc c1 a9 20 3e c8 b1 7b be 35 fb 2f 3e
       -0.017615974 0.15689756 -0.24579537 0.17185672
000020 dd b8 9b 3d 50 12 63 bd 0c 53 9d 3c f1 a7 53 be
       0.07603619 -0.055437386 0.019204639 -0.20669533
000030 7b d4 4f bc 80 5b 9d 3e 48 9f 89 3e 40 74 c6 bd
       -0.012684937 0.3073387 0.26879334 -0.09690142
000040 97 76 e5 3d d7 69 38 3e 81 fc 32 bd b6 56 b4 bc
       0.1120426 0.18009125 -0.043697838 -0.022014003
000050 9e e5 fb 3d 25 39 03 bc 35 dc ab 3d 1e 20 0e be
       0.122996554 -0.00800923 0.083916105 -0.13879439
000060 4c bc 90 bb c6 66 53 bd a7 ca 0c bd af a1 9e 3d
       -0.004416978 -0.051611684 -0.03437295 0.077456824
000070 05 a2 d6 3e 64 36 e4 3e 00 63 10 be b7 f3 bc bd
       0.41920486 0.44572747 -0.14100266 -0.092261724
000080 f5 44 bc be c5 76 88 3d 77 96 e2 bc a6 b1 fe 3d
       -0.3677136 0.066632785 -0.027659638 0.124362275
000090 36 38 91 bd 01 6c df bd 24 ed f4 3d f9 7c 1b bd
       -0.070907995 -0.10909272 0.119592935 -0.03796098
0000a0 8c e2 70 3c 2a 79 9b bd 36 31 9d 3d 40 11 6f be
       0.0147024505 -0.075914696 0.07675402 -0.23346424
0000b0 2b 83 e6 ba 4e e7 7b 3f 48 0d a0 bd b6 2b 10 be
       -0.0017586699 0.9839982 -0.07815033 -0.14079174
0000c0 43 6e da 3d 6f f4 35 3e 27 0f 17 bc de bc dd 3d
       0.10665562 0.17769025 -0.009219921 0.10827039
0000d0 3b be d9 bc ed 4f 9c 3d 5e 03 f3 3b 60 36 91 ba
       -0.026579967 0.07632432 0.007416173 -0.0011078827
0000e0 bb b3 96 3e af b6 c3 bd 6e 6f 57 3f 4c e5 50 bc
       0.29433998 -0.095563285 0.84154403 -0.012749981
0000f0 d0 56 a5 3d 2b 16 88 3c d7 70 4d 3e 4a 2e c2 3d
       0.08073199 0.016612133 0.20062576 0.09481485
000100 65 63 d5 3c 2d 4d bf bd a4 b5 16 3e 9e d2 7f bd
       0.026048372 -0.09340892 0.14717728 -0.06245672
000110 d5 c5 10 be a7 df 23 bd 53 1f 08 bd 35 76 33 bc
       -0.14137967 -0.040008213 -0.033232998 -0.010953476
000120 02 09 44 3e 5e 5a e1 3d 25 1c 10 3d 72 d4 34 be
       0.19144061 0.11003564 0.03518309 -0.17659166
000130 ab c7 a6 bd 95 3e 5b 3d 3d 30 4d 3d a9 2d 91 3d
       -0.081435524 0.05352648 0.05009483 0.07088787
000140 75 55 22 be cb ad e0 3b 7d 80 ab 3d da fb 54 3e
       -0.15852912 0.0068566552 0.083741166 0.20799199
000150 e0 d9 d6 bb 7a e7 88 3e 0f 1a 16 be be d3 85 3c
       -0.0065567344 0.26739103 -0.14658378 0.016336318
000160 22 50 e6 bd 2a cf 58 bd 00 db 1c be f5 87 07 3e
       -0.11245753 -0.052931942 -0.15317917 0.13235457
000170 dd 8a 1b 3f 8a 21 26 3e 61 3a 02 be bd 6a c9 3c
       0.60758764 0.16223732 -0.12717582 0.02458703
000180 2e e0 6a 3e 20 ba ee 3d f3 57 d2 3d f5 57 df 3d
       0.2293708 0.11656594 0.10270681 0.10905448
000190 4b 5a 08 be 18 73 c5 3d d9 57 12 3c 83 bb 18 be
       -0.13315694 0.09641093 0.008932077 -0.1491528
0001a0 10 49 45 be 72 11 c6 3d e7 15 c5 bd 84 25 9a 3c
       -0.19266152 0.09671296 -0.09623318 0.018816717
0001b0 ee 7f 46 be 65 f2 3d 3f 2a 5d ff bd 73 e2 a7 bd
       -0.19384739 0.7419799 -0.124689415 -0.08197489
0001c0 97 7b de 3d 31 7b 1f 3d 2b 21 09 3e 36 55 f7 bd
       0.10863417 0.038935844 0.13391559 -0.120767996
0001d0 27 fc aa bd 3f 9f c7 bc 0f b9 5f 3d 12 a4 6a 3e
       -0.083488755 -0.024367927 0.054619845 0.2291415
0001e0 58 d4 2b 3e 3c 7d 81 be bd 60 6e 3f 8a 0f 87 bc
       0.16780221 -0.2529086 0.9311636 -0.016486902
0001f0 68 aa 81 3c 5a a1 90 3d b3 d6 f1 3c d4 60 2c 3d
       0.015828326 0.07062025 0.029521322 0.04208453
000200 54 18 e8 bd 30 3f d6 bd cc fe 1d 3e 56 bc 86 bd
       -0.11332765 -0.10461271 0.15429229 -0.06578891
000210 96 2e 0c be 30 a4 e0 bc ea 8f 2d bd f3 9b c5 bc
       -0.13689646 -0.02742204 -0.042373575 -0.024122214
000220 3d 42 3d 3e c6 89 8b 3d 8b 9c f6 3b fa 23 40 be
       0.18482299 0.068133876 0.0075259856 -0.18763724
000230 0c 43 67 bd f5 9a 78 3d f1 fe 24 3d 60 71 87 3d
       -0.056460425 0.060694654 0.040282194 0.066134214
000240 fe 2f 19 be 3b d0 61 3c 5a 30 9d 3c 1a 0e 60 3e
       -0.14959714 0.013782556 0.019188095 0.2188038
000250 56 9a 47 3d cd aa 8b 3e 47 16 a1 be c7 03 f9 3c
       0.04873117 0.27278748 -0.3146231 0.030397309
000260 af d1 04 be ff 00 78 bc 01 64 14 be fd 40 00 3e
       -0.12970613 -0.015136956 -0.14491273 0.12524791
000270 f5 2f 1d 3f 58 ad 5b be 7c 47 05 be f9 4a d0 bd
       0.614013 -0.21452844 -0.1301555 -0.1017055
000280 18 4c 8e be 70 75 e0 3d 16 3e d5 3d ec 70 d7 3d
       -0.2779243 0.109598994 0.104122326 0.10519585
000290 b9 d9 47 be f0 60 a2 3d 7e 62 2b bc 41 78 11 be
       -0.19516648 0.079286456 -0.010460494 -0.1420603
0002a0 1a fd 49 3e aa 00 09 3d 9e cc dc bd 45 45 8b 3c
       0.19725457 0.0334479 -0.10781215 0.017000804
0002b0 2d 55 43 be 91 7b 3d 3f 0a f3 fc bd fa 23 96 bd
       -0.1907546 0.7401667 -0.123510435 -0.07331081
0002c0 8a b0 06 3e d2 f0 8f 3d 42 37 ed 3d 9a 84 ce bd
       0.13153282 0.07028355 0.11582805 -0.100838855
0002d0 40 0f ab 3d 9f 8f 38 3d 66 1e 15 3d e6 fe 87 3e
       0.08352518 0.045058843 0.036405943 0.2656166
0002e0 b2 57 30 3e 50 a9 83 be c2 56 6e 3f d8 dc 26 bd
       0.17220953 -0.25715113 0.9310113 -0.040737957
0002f0 40 36 11 bd 31 2d ce bb f0 e4 f2 3c 58 85 65 3c
       -0.035452127 -0.0062920083 0.029650182 0.014008842
000300 f0 a5 a5 bd 1c a9 c4 bd 59 47 1b 3e 11 04 8c bd
       -0.08088291 -0.096025676 0.15163936 -0.06836713
000310 e5 ea 5c be 97 73 da bc 6b 94 8e bc d3 6b 84 bc
       -0.2157398 -0.026666446 -0.017404756 -0.016164696
000320 04 fd 40 3e d8 3e a7 3d fe 1c 57 bc 54 dc 59 be
       0.18846518 0.08166283 -0.013129471 -0.21275455
000330 72 e7 bf 3d 24 41 71 3d b2 bf 7a 3d 78 0f 4f 3d
       0.093703166 0.058900014 0.06121797 0.05055186
000340 0d 5a 18 be 74 27 d4 3b 7e 88 4c 3d 2a 85 42 3e
       -0.14878102 0.0064744297 0.049934857 0.1899611
000350 08 91 60 bd 5e 9e 87 3e a9 ca a1 be 57 3a 8c 3c
       -0.054825813 0.26488012 -0.3159993 0.017117662
000360 c7 6a df bd 6a f2 b4 ba 79 b4 18 be fe 55 04 3e
       -0.10909038 -0.0013805155 -0.14912595 0.12923428
000370 0b 99 1b 3f f4 12 ff 3d 20 00 03 be bd 19 a6 bd
       0.607804 0.12454787 -0.12793016 -0.08110378
000380 61 88 70 be 6e 6c 05 3e ce 8c b9 3d 36 7a cb 3d
       -0.23489524 0.13029644 0.090600595 0.09935419
000390 2b 88 11 be 99 77 b0 3d a5 93 cc bb f0 97 29 be
       -0.142121 0.086165614 -0.0062431865 -0.16561866
0003a0 a7 46 88 3c 11 65 35 3b 5a 09 c6 bd a2 d0 81 3c
       0.016635252 0.0027678648 -0.096697524 0.015846554
0003b0 33 ce 59 be 53 6c 3c 3f c5 ca c2 bd 12 50 99 bd
       -0.21270065 0.7360279 -0.095113315 -0.07485975
0003c0 85 8e 15 3e 98 25 30 3d 22 2a 0c 3e f2 54 e6 bd
       0.14605148 0.043004602 0.13687947 -0.11246671
0003d0 1d 41 1d 3e 72 f7 10 bd aa 76 93 bc 49 21 6b 3e
       0.1535687 -0.035392232 -0.01800092 0.22961916
0003e0 45 02 37 3e 25 31 86 be dc d3 6d 3f 37 e4 ce bd
       0.1787196 -0.2620937 0.92901397 -0.10102122
0003f0 86 a2 6f bd 7b bc a1 3b 10 30 10 3d 88 de c2 bd
       -0.058504604 0.0049357987 0.035202086 -0.09515101

final.bias f4 [6]
000000 d2 6f 60 40 c1 05 8a 40 4d 1b 7c 40 8b 50 68 40
       3.506825 4.3132024 3.9391663 3.629916
000010 37 4d 49 40 37 17 23 40
       3.1453378 2.548292
