D2QN_AAAI/checkpoint_d2qn_cheetah_50.pth (torch, 45655 bytes, 6 tensors)

fc1.weight f4 [128, 17]
0	0xc0fdb69e	-7.928542
1	0x4100d5f3	8.052234
2	0x3fbc2e8c	1.4701705
3	0xbf96b1a1	-1.1772958
4	0x3f169609	0.58822685
5	0xbfedfa06	-1.8591926
6	0xbf8bd80d	-1.0925308
7	0x3e0cc42a	0.13746706
8	0x3ee1e757	0.4412181
9	0xbfb9107a	-1.4458153
10	0x3fc2befe	1.5214536
11	0x3e220184	0.1582089
12	0x3e066023	0.13122611
13	0x3d60190f	0.054711398
14	0xbd9a5da5	-0.075373925
15	0x3c8c6ce8	0.017141774
16	0xbca9278e	-0.020648744
17	0xc060a062	-3.509789
18	0xbf15b917	-0.5848555
19	0x40099929	2.1499732
20	0x409b5ae6	4.854846
21	0x3f203327	0.6257805
22	0xbff946b0	-1.9474697
23	0x3f6952f0	0.9114218
24	0xc05515ec	-3.329463
25	0xbf578ff8	-0.84204054
26	0xbf0463ec	-0.5171497
27	0xbf44823a	-0.7676121
28	0xbe3ef04c	-0.18646353
29	0xbd11fd85	-0.035642166
30	0x3d144c37	0.036205497
31	0xbcbaabc6	-0.022786986
32	0x3db61cbb	0.08892199
33	0xbd67cf97	-0.056594457
34	0xc15d5c4d	-13.835034
35	0xbfaa6647	-1.3312463
36	0xbf89dc61	-1.0770379
37	0x3e624569	0.2209679
38	0xbe81881c	-0.25299156
39	0xbf1436cc	-0.57896113
40	0xbfb7d271	-1.4361097
41	0xbe8f77d9	-0.28021124
42	0xbe616e95	-0.2201484
43	0xbdc6bbab	-0.097037636
44	0xbdb4863a	-0.08814664
45	0x3bff27c7	0.0077867243
46	0x3c9bf2f9	0.019036757
47	0xbc5ca4cb	-0.013467024
48	0xbd82e16e	-0.063906536
49	0xbdaf79d3	-0.08568158
50	0xbb4682df	-0.0030290408
51	0x3fdc660f	1.7218646
52	0x3e3500ae	0.1767604
53	0x3f19fdc1	0.6015282
54	0x3e9b7995	0.30366197
55	0xbd9998b2	-0.074998274
56	0xbf8901dc	-1.0703692
57	0xbfae44a6	-1.36147
58	0xbf2df0c4	-0.67945504
59	0xbf796e46	-0.9743389
60	0xbf0c8369	-0.54888016
61	0x3dc9ee7e	0.09859942
62	0xbdcb41a1	-0.09924627
63	0x399d86a3	0.00030045686
64	0x3df069be	0.11738919
65	0x3b73e270	0.0037213825
66	0x3e07e3ee	0.13270542
67	0xbd06694a	-0.032815255
68	0x411f4dfa	9.956537
69	0x3e47391b	0.19455378
70	0xc0bb1e80	-5.847473
71	0x3e5aa4f7	0.21351992
72	0xbf805e5c	-1.0028796
73	0xbff07fc8	-1.8788996
74	0xc0a0423b	-5.008085
75	0xc02182c8	-2.5236073
76	0xc00e867a	-2.2269578
77	0xbf1e21ef	-0.6177053
78	0x3f3f8485	0.74811584
79	0x3ec64fa0	0.38732624
80	0xbde64549	-0.11243684
81	0xbefcf27c	-0.4940375
82	0x3e21ad97	0.15788876
83	0x3f0439b1	0.5165053
84	0xbdffc0f9	-0.124879785
85	0x3f48745e	0.7830256
86	0xbf49f00c	-0.7888191
87	0xc0028c3b	-2.039809
88	0xbfc38475	-1.5274798
89	0xc01fb4f5	-2.4954197
90	0xc0061ee1	-2.0956347
91	0xbf90a7e3	-1.1301235
92	0xbfccc67b	-1.5998071
93	0xbee4b4ad	-0.44669095
94	0xbec55e31	-0.38548425
95	0xbeb97e28	-0.36229062
96	0x3e204626	0.1565176
97	0xbe316ec8	-0.17327416
98	0xbca3316e	-0.01992103
99	0xbd96bfb5	-0.07360784
100	0x3e1d0195	0.15332635
101	0x3a275f28	0.0006384724
102	0x40b15f56	5.5428877
103	0xbfc4a777	-1.5363606
104	0xbf7c1178	-0.98464155
105	0xbecef822	-0.40423685
106	0xbf1eb8af	-0.62000555
107	0x3f4f65d2	0.8101474
108	0xbf70af41	-0.94017416
109	0x3fa5893f	1.2932509
110	0xbf86d9b9	-1.0535194
111	0x409515a9	4.658894
112	0xbeb17547	-0.34659788
113	0x3e575e05	0.2103196
114	0x3d92dc61	0.0717094
115	0x3d693f26	0.05694499
116	0x3e87feb0	0.265615
117	0x3bfe2df7	0.0077569443
118	0xbe109782	-0.14120296
119	0x402d9159	2.7119963
120	0x404b5d6f	3.1775777
121	0x401983ed	2.398677
122	0x3fec476c	1.8459296
123	0x40002383	2.0021675
124	0x3ffcdfeb	1.9755834
125	0x3f0658af	0.5247907
126	0x3faf2027	1.3681687
127	0xbe9cd30a	-0.3062976
128	0xbe431398	-0.19050443
129	0xbeb413f6	-0.3517148
130	0xbe8fe143	-0.2810155
131	0xbe5618b5	-0.20907862
132	0x3e1d3872	0.15353563
133	0xbd6a9928	-0.057274967
134	0x3d908369	0.070563145
135	0xbd0c10d4	-0.034195736
136	0x3ffe8887	1.9885415
137	0x3ecd482b	0.40094122
138	0x408a07af	4.313438
139	0x3f94c318	1.1622038
140	0x3f0f6ab9	0.5602222
141	0x3ee732bb	0.45155892
142	0x3ed0423f	0.40675542
143	0xbe5a7613	-0.21334104
144	0xc044433c	-3.0666037
145	0x3f5bc4d3	0.85847205
146	0x3f83a9f2	1.0286238
147	0x3cf28f6e	0.029609408
148	0xbe077ee5	-0.13232
149	0x3d7ce03d	0.061737288
150	0x3eb998d6	0.36249417
151	0x3e911f07	0.28343984
152	0x3e118630	0.14211345
153	0xc096e72b	-4.7157187
154	0x3fb3ff19	1.4062225
155	0x40402637	3.0023324
156	0xbf871820	-1.0554237
157	0x3f6d9a68	0.9281373
158	0xbf5d6a9a	-0.86490786
159	0xc023208f	-2.5488622
160	0xc02f58a4	-2.7397852
161	0xbe1bc67f	-0.15212439
162	0xc024b076	-2.5732703
163	0xc00679a4	-2.1011744
164	0xbf056c8d	-0.5211876
165	0xbe958e87	-0.29210302
166	0xbd1cba2a	-0.038263477
167	0xbddc90d0	-0.10769808
168	0x3c7445c8	0.014909215
169	0xbd6ba2d2	-0.057528324
170	0xbf36cdbd	-0.7140768
171	0xbe04e7fe	-0.12979123
172	0xc0c9c590	-6.3053665
173	0x3fe988ed	1.8244911
174	0xc0604761	-3.5043566
175	0x3f51f821	0.8201924
176	0xbfe5fda1	-1.7968026
177	0xbf18ccba	-0.5968739
178	0xbf18100b	-0.5939948
179	0xbf645f5c	-0.89208007
180	0xbf9b939a	-1.215442
181	0xbdf48b17	-0.11940592
182	0xbe6fbe49	-0.23412432
183	0x3f15bdea	0.5849291
184	0xbe3182ce	-0.17335054
185	0xbe66d223	-0.22541098
186	0xbe4c98b1	-0.19980122
187	0x4171e0ad	15.1173525
188	0xc0e60e03	-7.1892104
189	0xc02cf92f	-2.702709
190	0x400d4fa2	2.2079854
191	0xbf9e5c25	-1.237187
192	0xc0b3b03c	-5.615263
193	0xc088d3be	-4.2758474
194	0xbfd89bb0	-1.6922512
195	0x3ee845db	0.45365795
196	0x3f8f4df5	1.1195666
197	0x3eb1cd97	0.34727165
198	0x3dee957b	0.11649605
199	0x3dd1a665	0.10236815
200	0x3c67d837	0.014150671
201	0xbe6fbfb7	-0.23412977
202	0xbe908434	-0.28225863
203	0xbdc8eda7	-0.098109536
204	0xc0cb0c70	-6.3452682
205	0x406c0d67	3.688318
206	0x3fbe6f94	1.4877801
207	0xbf6f372e	-0.9344357
208	0xbf0dc5cd	-0.55379945
209	0xbeb4dfd1	-0.35327008
210	0x3f7fd60f	0.99936
211	0xbf6c92ff	-0.924118
212	0xbf7c8099	-0.98633724
213	0xbfe8a365	-1.8174864
214	0xbf6886a3	-0.9083044
215	0xbe3e048c	-0.18556422
216	0xbe57d2ad	-0.2107646
217	0xbdd97168	-0.10617334
218	0xbcd1db41	-0.025617244
219	0xbc09a481	-0.008401037
220	0xbca764e0	-0.020433843
221	0xbdd60fb9	-0.104522176
222	0xc019c3b6	-2.4025702
223	0xc01dbd5b	-2.4646823
224	0xc07cd8fd	-3.950744
225	0xc041c9bb	-3.0279377
226	0x3f563f41	0.8369027
227	0x3f0a2ed5	0.5397771
228	0xbfaac4bc	-1.3341289
229	0xbfe1cd13	-1.7640709
230	0x3f9402f2	1.1563399
231	0x3f4a3185	0.7898181
232	0x3eec5c17	0.4616401
233	0x3e9d00cb	0.30664667
234	0xbd622eda	-0.055220462
235	0x3d147d42	0.036252268
236	0x3d864df3	0.065578364
237	0x3cdb1e76	0.026747923
238	0x4084a856	4.145549
239	0x405edf3d	3.4823754
240	0x4046b478	3.104765
241	0xc001cc33	-2.0280883
242	0xbfd5dde3	-1.670834
243	0x3e766ccd	0.24064942
244	0xc096539d	-4.6977067
245	0xbece33ed	-0.4027399
246	0x3e6ec05f	0.23315571
247	0xc052d185	-3.294038
248	0x3fbff963	1.4997982
249	0x3c145214	0.009052772
250	0x3c692ac9	0.014231392
251	0x3e826878	0.25470328
252	0xbe8c68f8	-0.27423835
253	0x3cdd498f	0.027012615
254	0xbc655a2a	-0.013998548
255	0x413afffc	11.687496

fc1.bias f4 [128]
0	0xc0c0589f	-6.010818
1	0xc06b7fd8	-3.679678
2	0xbfe4d3dc	-1.7877154
3	0xbfffa028	-1.9970751
4	0x3f819c1b	1.0125765
5	0xbfcb1b69	-1.586774
6	0x3e210ce4	0.15727574
7	0xc0a50076	-5.1563063
8	0xc03a884b	-2.9145687
9	0xc08723f6	-4.22314
10	0xc0304e0a	-2.7547631
11	0x4017bf90	2.371067
12	0xc0a3fe04	-5.124758
13	0x400eb5c0	2.2298431
14	0xc01ddb02	-2.4664922
15	0x40140ce3	2.3132865
16	0xc03d75fe	-2.9603267
17	0xbffd54b5	-1.9791476
18	0xbfe48d10	-1.7855549
19	0x40005d11	2.0056803
20	0xc09682de	-4.703475
21	0x4096d4dc	4.713484
22	0x3fdef6fe	1.7419126
23	0xc0a46b6f	-5.1381145
24	0xc01c21f4	-2.4395723
25	0xbfea633e	-1.8311536
26	0x40d8f5bb	6.7799964
27	0xc0b15991	-5.5421834
28	0xc03338a9	-2.8003333
29	0x40bc3cc1	5.8824162
30	0xc05a4738	-3.4105968
31	0x4071444f	3.7697942
32	0xc0b10679	-5.53204
33	0xc094260d	-4.629645
34	0xc0433806	-3.0502944
35	0xbffbf8aa	-1.9685261
36	0xc0ad643a	-5.4184847
37	0xc084b913	-4.147592
38	0xc063b3da	-3.5578523
39	0xc04cdeba	-3.2010942
40	0x401bd8ad	2.4350998
41	0x3e5990ed	0.21246691
42	0xc0a27b67	-5.077564
43	0x3fc6e344	1.5538106
44	0xc009c71c	-2.1527777
45	0xc0151568	-2.3294315
46	0xbf81a3e2	-1.0128138
47	0xc09a41cd	-4.8205323
48	0xc0c77c7f	-6.2339473
49	0xc0467223	-3.1007164
50	0x3fc55a1e	1.5418127
51	0x3fe114d3	1.758448
52	0x3fea3370	1.8296947
53	0x3ee12b1e	0.43978208
54	0x3fba0619	1.4533111
55	0x40a29a1b	5.0813117
56	0xc076b003	-3.854493
57	0xc03ac29d	-2.9181283
58	0xc03dbce0	-2.964653
59	0xbf911f6a	-1.1337712
60	0x408accea	4.337514
61	0x3f09b387	0.5378956
62	0x40c75411	6.229012
63	0x3f2c6e69	0.6735597
64	0xc0ace478	-5.4028893
65	0x3fb107ff	1.3830565
66	0xc01017d1	-2.2514536
67	0xc09508b4	-4.6573124
68	0xc0f69662	-7.7058573
69	0xc0b5c4e2	-5.6802835
70	0x3db311f1	0.087436564
71	0x3fa013cf	1.2506045
72	0xc08730f1	-4.2247243
73	0xbf52e783	-0.8238451
74	0xc0a81c72	-5.2534723
75	0x408a67e9	4.3251843
76	0x408b3664	4.3503895
77	0xc07ac0dd	-3.9180214
78	0xc08204b9	-4.0630765
79	0x4055eb7c	3.3424978
80	0xc0ac47f0	-5.3837814
81	0xbff3cfa6	-1.9047744
82	0xc03f2d5a	-2.987143
83	0x3fb81b3f	1.4383315
84	0xc06df78e	-3.7182345
85	0xbf5955df	-0.84896654
86	0x404ce1d8	3.2012844
87	0xc0860a52	-4.18876
88	0xc013547f	-2.3020322
89	0xbff2ed6c	-1.8978705
90	0x40118587	2.2737749
91	0xbf358a53	-0.7091419
92	0xc07abcf5	-3.917783
93	0xc0844e8f	-4.1345897
94	0x3ee3df88	0.44506478
95	0x3fc523da	1.5401566
96	0xc0382196	-2.87705
97	0xc06a2698	-3.6586056
98	0xbfe8bac4	-1.8181996
99	0x3fb9bed0	1.4511356
100	0x3f39bec2	0.725567
101	0xc00ea98c	-2.2290983
102	0xbfe89ba4	-1.8172498
103	0x40c7c00e	6.242194
104	0xbf0a3043	-0.5397989
105	0xbf9bf5bd	-1.2184368
106	0x3f3db542	0.741047
107	0xbf18221b	-0.5942704
108	0xbe520090	-0.20508027
109	0xc0d3a097	-6.6133533
110	0xc0cbd334	-6.3695316
111	0x3fe52974	1.7903275
112	0xc0278609	-2.6175559
113	0xbfdef517	-1.7418545
114	0x40256dff	2.5848386
115	0xc0cc908b	-6.3926444
116	0xc01a29b8	-2.4087963
117	0x409f1d04	4.972292
118	0x402c85c8	2.6956654
119	0xc0192267	-2.3927248
120	0xc04d82ae	-3.211101
121	0x3f4576f6	0.77134645
122	0x4031df7e	2.7792659
123	0xc0869f20	-4.2069244
124	0xc09b3f8c	-4.851507
125	0xc07c8dfc	-3.946166
126	0xbf7f9ac5	-0.99845535
127	0x409b7b85	4.858828

fc2.weight f4 [64, 128]
0	0xbe0cd7ac	-0.13754147
1	0xbe13c7b5	-0.14431651
2	0x3ccce0b0	0.025009483
3	0xbdb673e2	-0.08908822
4	0x3cbedd75	0.023298958
5	0xbbd9ce77	-0.006646927
6	0x3ce8cc3b	0.028417697
7	0x3ce84272	0.028351996
8	0xbe1a3815	-0.15060456
9	0x3cfc6096	0.030807775
10	0xbb61c4cf	-0.0034449582
11	0xbd9e2a8e	-0.077229604
12	0xbc0b19f7	-0.008490077
13	0xbd347886	-0.044060253
14	0xbd6ff94b	-0.058587354
15	0xbd6bc725	-0.057562966
16	0x3b479887	0.0030455904
17	0x3c06372d	0.008191866
18	0x3d5b264b	0.053503316
19	0xbd843a75	-0.06456462
20	0xbd889dce	-0.06670724
21	0xbd8f8934	-0.07008591
22	0xbbfe3388	-0.007757608
23	0x3d71956e	0.058980398
24	0xbda147a0	-0.078749895
25	0xbc5f4d5c	-0.013629284
26	0xbc5fe1a3	-0.013664636
27	0xbd8856fe	-0.066572174
28	0xbe0556f5	-0.13021453
29	0xbe30e831	-0.17276074
30	0xbd3473ec	-0.044055864
31	0x3cef96f9	0.029246794
32	0xbdb73d20	-0.089472055
33	0x3ca1276c	0.019672118
34	0xbd928481	-0.07154179
35	0xbdd56f02	-0.10421564
36	0xbd3184ef	-0.043339666
37	0xbceec7d4	-0.02914802
38	0xbc258b0f	-0.010103955
39	0x3d1cfafa	0.038325287
40	0xbd04601b	-0.032318216
41	0x3d871a7d	0.06596849
42	0xbc898f81	-0.01679206
43	0xbc668a95	-0.0140711265
44	0x3c9531f9	0.018212305
45	0xbd9d0591	-0.07667077
46	0xbd3a9aa3	-0.04555763
47	0x3c4a29d6	0.012339076
48	0xbcc058d1	-0.023479851
49	0xbd3ed51c	-0.046589956
50	0xbd00d240	-0.03145051
51	0xbd93f8c0	-0.0722518
52	0x3bbe163e	0.0058009913
53	0x3c84b58f	0.016199855
54	0xbc1696d9	-0.009191238
55	0x3d150a56	0.03638681
56	0xbd9dfd99	-0.077143855
57	0xbcfde831	-0.030994507
58	0x3c47b90a	0.012190113
59	0xbccd2962	-0.025044147
60	0xbdb0550c	-0.086099714
61	0xbccdb12d	-0.025108898
62	0xbdaf394b	-0.0855585
63	0x3c8c2953	0.017109549
64	0x3d4a544a	0.04939679
65	0xbd3c778c	-0.046012446
66	0xbddaafaa	-0.106780365
67	0xbdc806df	-0.097669356
68	0x3c922d8a	0.01784398
69	0xbd9d7d23	-0.076898836
70	0xbda3aaaf	-0.0799154
71	0x3d0089af	0.031381305
72	0xbd0107e4	-0.031501666
73	0xbdda2838	-0.10652202
74	0x3cf9d15e	0.030495342
75	0xbc620649	-0.013795444
76	0x3d4d1b7a	0.05007503
77	0xbb3b05b7	-0.0028537342
78	0xbc73077a	-0.0148333255
79	0xbdc040ad	-0.09387336
80	0x3c596b2f	0.0132701835
81	0xbd0677a6	-0.03282895
82	0xbd9138bf	-0.070909016
83	0xbdf82ac0	-0.12117529
84	0xbd1869b9	-0.0372102
85	0xbd1d4283	-0.03839351
86	0xbd60a9c5	-0.054849405
87	0xbd919f0a	-0.071104124
88	0xbd7024f4	-0.05862899
89	0xbcc73fec	-0.024322473
90	0xbd2f7302	-0.04283429
91	0xbe0b3ea7	-0.13598119
92	0x3d444c8c	0.047924563
93	0x3d456507	0.04819205
94	0xbdd2f3ee	-0.10300432
95	0xbd8ff71a	-0.07029553
96	0x3d0d0731	0.034430686
97	0xbd781755	-0.060569126
98	0xbdd3f202	-0.10348894
99	0x3cbe5278	0.023232684
100	0xbd905f83	-0.070494674
101	0xbd8b7310	-0.06809056
102	0xbdccba42	-0.09996463
103	0xbdeebace	-0.11656724
104	0xbd3bc148	-0.045838624
105	0x3c9a4805	0.01883317
106	0xbd3fd327	-0.04683223
107	0x3d4b04c2	0.049565084
108	0xbb8acad3	-0.0042356043
109	0xbdcb170a	-0.09916504
110	0xbcb1cf46	-0.021705281
111	0xbdb44b1d	-0.08803389
112	0xbd8614cd	-0.06546936
113	0x3d30f674	0.043203786
114	0xbe014315	-0.12623246
115	0xba66183c	-0.0008777415
116	0xbcc1dc9f	-0.02366477
117	0xbdceeb16	-0.10103433
118	0xbe00c0ba	-0.1257352
119	0xba60758f	-0.00085624395
120	0xbc0d4296	-0.008621832
121	0xbd5084b4	-0.050907806
122	0xbdc3de15	-0.09563843
123	0xbde8a63e	-0.11359833
124	0xbc1aa69d	-0.009439138
125	0x3cffe8e7	0.031238986
126	0xbc8fab15	-0.017537633
127	0xbcb7ba73	-0.022427773
128	0x3f9e4765	1.2365538
129	0xbfd76449	-1.682748
130	0x3c3a4a6e	0.0113702845
131	0x3ee6a2c5	0.45046058
132	0xbfb3bcd7	-1.4042004
133	0xbf740b05	-0.95329314
134	0x3e73743d	0.2377481
135	0xbf99361a	-1.1969635
136	0x3fcbc025	1.5918013
137	0x3fb53cec	1.4159217
138	0x3efb8f42	0.49132735
139	0xc130a3b3	-11.039966
140	0xbebf8aa9	-0.37410477
141	0x3f0669ba	0.52505076
142	0xbf5761fc	-0.8413389
143	0xbef7666c	-0.4832033
144	0xbff6639b	-1.9249147
145	0x3d50b4ae	0.05095356
146	0xc016ab03	-2.3541877
147	0xbeac3c72	-0.33639866
148	0x3f0033f2	0.5007926
149	0xbeb9c3cf	-0.36282203
150	0xbf6ad06c	-0.91724277
151	0xbf6209ff	-0.882965
152	0xbfd8e173	-1.6943802
153	0xbf0cff9b	-0.55077523
154	0x3ec7063d	0.38871947
155	0x400bb4ad	2.1829026
156	0x3fb5d6a8	1.4206133
157	0xbfba612b	-1.4560903
158	0x3ef8c52f	0.4858794
159	0x3ef50cf0	0.47861433
160	0x3f1521fe	0.5825499
161	0x3f0b4129	0.543963
162	0x3e995f69	0.29955605
163	0x3f3e47f2	0.7432853
164	0xbfa57d1c	-1.2928805
165	0xbf352d1b	-0.7077195
166	0x402d4fa5	2.707986
167	0xbe954c18	-0.29159617
168	0x3fee5123	1.8618511
169	0x3f912fa9	1.134267
170	0xbf3c6c25	-0.73602515
171	0xc02ab1ba	-2.6670976
172	0x3debf33b	0.11521002
173	0xbf89c6b7	-1.0763768
174	0x3dc563eb	0.096381985
175	0x3fd0179b	1.6257204
176	0xbee9a14d	-0.45630875
177	0x3f98495a	1.1897385
178	0x3e9f2f62	0.31090838
179	0x3f3359d2	0.7005893
180	0xbdbdfdda	-0.09276934
181	0xbfe0b0a7	-1.755391
182	0x402c8bf7	2.6960428
183	0x3e0793e7	0.13240014
184	0x3fa2be03	1.2714237
185	0xbf899371	-1.074812
186	0x3e8ec186	0.27882022
187	0xbc82667e	-0.015918013
188	0x3ff456ec	1.9089026
189	0x3f3d0446	0.73834646
190	0x3e8813b4	0.26577532
191	0x3ea0ccb6	0.31406182
192	0xc11d1cc7	-9.819526
193	0x3f843977	1.0330037
194	0xbee6abda	-0.45052987
195	0x3dc4ff3f	0.09618997
196	0xbf86907f	-1.0512847
197	0xc0280398	-2.6252193
198	0xbf5d23ab	-0.8638255
199	0x3d33e4b9	0.0439193
200	0xbff93336	-1.9468753
201	0x3ebbc1c0	0.36671257
202	0x3fa56f2e	1.2924554
203	0xbe90537e	-0.281887
204	0xbf2628fb	-0.6490628
205	0x3e9a3c96	0.30124348
206	0x3ea779af	0.32710025
207	0x3f9c5abd	1.2215191
208	0xc001cd7f	-2.0281675
209	0x3f8345c8	1.025567
210	0xc0274efd	-2.614196
211	0xbff15c2a	-1.8856251
212	0xbfb7a964	-1.4348569
213	0xbecccda8	-0.40000653
214	0x3ebe006a	0.3710969
215	0xc0fe9dc1	-7.956757
216	0x3e005f08	0.12536252
217	0x3f80c073	1.0058731
218	0xbf62c52c	-0.8858211
219	0x3f6e27dc	0.9302957
220	0x3f6897bf	0.90856546
221	0x3e97affe	0.2962646
222	0xbe68cee9	-0.2273518
223	0x3f0f626d	0.5600956
224	0x3e8010e9	0.250129
225	0xbf9a6796	-1.2062862
226	0xbee45d9c	-0.44602668
227	0xbfe194d4	-1.7623544
228	0x3ded38fd	0.11583135
229	0xbec4d13a	-0.38440877
230	0xbf551082	-0.83228314
231	0xbee6de09	-0.45091274
232	0x3ea0e890	0.3142743
233	0xbeb678ae	-0.35638946
234	0xbf757328	-0.9587884
235	0xc10e070e	-8.876722
236	0x3e1dc724	0.15407997
237	0xbe7fac73	-0.24968128
238	0x3f99982c	1.1999564
239	0x3cbac7f2	0.02280042
240	0xbe6df83a	-0.23239222
241	0x3e5b9ceb	0.21446578
242	0x3eac958f	0.33707854
243	0x4018e57e	2.389007
244	0xbf27a7df	-0.65490526
245	0x3ff32db6	1.8998325
246	0xbf83e224	-1.0303388
247	0xbed565f9	-0.4167936
248	0xbf34b219	-0.70584255
249	0xbeec8e9a	-0.46202546
250	0xbf9753d1	-1.1822454
251	0xbf8871f5	-1.0659777
252	0xbdca8428	-0.09888488
253	0x3f64e44e	0.89410865
254	0xbe9264e9	-0.28592613
255	0x3f2def4d	0.6794327

fc2.bias f4 [64]
0	0xbe000198	-0.12500608
1	0xc081d0cc	-4.056738
2	0x40c02ed2	6.0057154
3	0xbf39547a	-0.72394526
4	0xbf7adb0e	-0.979905
5	0x3fdd94c4	1.7311025
6	0xc00b42ee	-2.17596
7	0x405714cf	3.360645
8	0x40d0846b	6.5161643
9	0xbe0ab01a	-0.1354374
10	0xbe160efb	-0.14654152
11	0xbfc81a79	-1.5633079
12	0x4005e9c1	2.0923922
13	0xbebe81b9	-0.37208346
14	0x3fb9547c	1.4478908
15	0x3e280c9c	0.1641106
16	0xc01a0bf3	-2.4069793
17	0x40998607	4.7976108
18	0xbc853728	-0.016261652
19	0x403e0ea6	2.969644
20	0xbd68ce7f	-0.056837555
21	0xbea2ba2b	-0.3178266
22	0xbeb7da97	-0.35908958
23	0xbfa759c0	-1.3074265
24	0xc064f46d	-3.5774186
25	0xbd8875c6	-0.066630885
26	0xc03eb77a	-2.9799485
27	0x40e4bb98	7.1478996
28	0x40e4d9ca	7.1515856
29	0xbde93aae	-0.113881454
30	0xc0a5e83c	-5.184599
31	0xbdece902	-0.1156788
32	0xbeabbbba	-0.33541662
33	0x40ee316d	7.4435334
34	0x40cc5568	6.3854256
35	0x40b11f86	5.535098
36	0xc0114a7d	-2.2701714
37	0x405a5234	3.4112673
38	0x4083829a	4.1096926
39	0xc09af680	-4.8425903
40	0xbeaecaab	-0.34138998
41	0xbd365acb	-0.04452018
42	0xc01148de	-2.2700725
43	0xc023b271	-2.5577662
44	0xc04dddbc	-3.2166586
45	0x4104cb78	8.299675
46	0xc038159c	-2.876319
47	0xc04be09c	-3.185584
48	0x40c8abc4	6.2709675
49	0x4004f556	2.077474
50	0x4042e457	3.0451868
51	0xbf297a0e	-0.66201866
52	0x403d1411	2.9543498
53	0xbe1120f8	-0.14172733
54	0xbe08ee27	-0.13372098
55	0x3fdaee0c	1.7103896
56	0x40b882e2	5.765977
57	0xc0cbab59	-6.3646665
58	0x4115a50f	9.3527975
59	0xbd2d283a	-0.04227469
60	0x3cd72b20	0.02626568
61	0xbdf12391	-0.11774362
62	0x407aadfb	3.916869
63	0xbc69e7b4	-0.014276434

final.weight f4 [6, 64]
0	0x3d6c98b8	0.05776283
1	0xbdb3e04b	-0.08783015
2	0xbae36f89	-0.0017351966
3	0xbe3f6ee8	-0.18694651
4	0xbcb74621	-0.022372307
5	0x3e04308f	0.12909149
6	0xbe64111b	-0.2227215
7	0x3e0f5ba7	0.13999806
8	0x3d1e89fa	0.038705803
9	0xbcc58716	-0.024112266
10	0x3c9d530c	0.019204639
11	0xbdd54a43	-0.10414555
12	0xbda4a728	-0.08039695
13	0x3daefb95	0.08544079
14	0x3e6c6f81	0.2308941
15	0xbe0f507c	-0.13995546
16	0x3d8572d0	0.06516039
17	0x3e021cb6	0.12706265
18	0xbd32fc81	-0.043697838
19	0xbd0d95c1	-0.034566645
20	0x3dfbe59e	0.122996554
21	0xbc779c5b	-0.015112962
22	0x3dabdc35	0.083916105
23	0xbe3f2d25	-0.18669565
24	0xbd2687fb	-0.040657025
25	0xbd5366c6	-0.051611684
26	0x3bab9f10	0.0052374676
27	0x3d3429be	0.04398512
28	0x3b1ef58d	0.0024255246
29	0x3ee43664	0.44572747
30	0xbdec13b6	-0.11527197
31	0xbc8c3ac4	-0.017117865
32	0xbebc44f5	-0.3677136
33	0x3d0c31a2	0.03422702
34	0xbb95df1b	-0.0045737154
35	0x3dd3a668	0.10334474
36	0xbdb1885f	-0.08668589
37	0xbdb13333	-0.086523436
38	0x3da8464a	0.082165316
39	0xbb7f2ae5	-0.003893548
40	0x3c70e28c	0.0147024505
41	0xbd9b792a	-0.075914696
42	0x3d8160d2	0.06317295
43	0xbe2cdabf	-0.1688032
44	0x3c5b61f9	0.013390058
45	0x3f40ba45	0.75284225
46	0xbe4f0566	-0.20216903
47	0xbdd985d2	-0.10621227
48	0x3d799d9d	0.060941327
49	0x3dd1c46a	0.10242541
50	0xba13317e	-0.000561498
51	0x3da078a2	0.07835509
52	0x3ce3010e	0.027710464
53	0x3c967540	0.018366456
54	0x3bf3035e	0.007416173
55	0x3c07cb4f	0.008288219
56	0x3de41f3f	0.11138772
57	0xbda39325	-0.0798705
58	0x3f93e8d1	1.1555425
59	0xbc50e54c	-0.012749981
60	0x3d48ab7e	0.048991673
61	0x3c88162b	0.016612133
62	0x3e3d81c5	0.18506534
63	0x3dc22e4a	0.09481485
64	0x3cd56365	0.026048372
65	0xbd5d04a4	-0.053959504
66	0x3e04b9b9	0.12961473
67	0xbd029457	-0.03187975
68	0xbe2e535a	-0.17023984
69	0xbd6f97e9	-0.058494482
70	0xbcac45dd	-0.021029407
71	0x3a464be8	0.00075644115
72	0x3e1a97d7	0.15096985
73	0x3d2e4c03	0.04255296
74	0x3d101c25	0.03518309
75	0xbe44d6d2	-0.19222572
76	0x3d2bfba9	0.04198805
77	0x3cc74e06	0.024329197
78	0x3cd910c4	0.026497252
79	0x3c91fe1a	0.01782136
80	0xbe332ae5	-0.17496832
81	0xbd160c23	-0.03663267
82	0x3dab807d	0.083741166
83	0x3e3d3c41	0.18480016
84	0xbbd6d9e0	-0.0065567344
85	0x3e5263dc	0.20545906
86	0xbe161a0f	-0.14658378
87	0xbc0fc970	-0.008776054
88	0xbddc0778	-0.10743612
89	0xbd58cf2a	-0.052931942
90	0xbe3c2429	-0.18373169
91	0x3de410ff	0.11136054
92	0x3d9738ae	0.07383858
93	0x3e26218a	0.16223732
94	0xbdb4eb58	-0.08833951
95	0x3d80e383	0.062933944
96	0x3e6ae02e	0.2293708
97	0x3dc64fff	0.09683227
98	0x3db1d29b	0.08682748
99	0x3da86c84	0.08223823
100	0xbd3c6f9f	-0.046004888
101	0x3d051ea9	0.032499943
102	0xbb86ae95	-0.0041101673
103	0xbe034c37	-0.12822042
104	0xbe454910	-0.19266152
105	0x3dc61172	0.09671296
106	0xbdabc6aa	-0.083875015
107	0xbc4c497c	-0.012468692
108	0xbdec6a0c	-0.11543664
109	0x3ee84b0a	0.4536975
110	0xbd96b735	-0.07359163
111	0xbde880bd	-0.1135268
112	0x3de17bf3	0.110099696
113	0x3da0654b	0.0783182
114	0x3dc5ec0c	0.09664163
115	0xbdd2c5af	-0.102916114
116	0xbd7497f2	-0.05971522
117	0xbd8d69d5	-0.069049515
118	0x3d5fb90f	0.054619845
119	0x3e3d4d18	0.1848644
120	0x3c6f8b92	0.0146206785
121	0xbe88f2b5	-0.2674767
122	0x3f9ea4df	1.2394065
123	0xbc870f8a	-0.016486902
124	0x3c81aa68	0.015828326
125	0x3d90a15a	0.07062025
126	0x3bd6bd4a	0.0065533267
127	0x3d2c60d4	0.04208453
128	0xbde81854	-0.11332765
129	0xbd6b983e	-0.057518236
130	0x3e02b2ef	0.1276357
131	0xbc987fa6	-0.018615555
132	0xbe24968f	-0.16073059
133	0xbd3c48c4	-0.045967832
134	0xbc8ab04f	-0.016929774
135	0x3c0ac884	0.008470658
136	0x3e0f9d61	0.14024879
137	0x3bb2157d	0.0054346905
138	0x3bf69c8b	0.0075259856
139	0xbe4ea2e5	-0.20179327
140	0x3d84a112	0.06476034
141	0x3d5ecfce	0.054397397
142	0x3c9581e7	0.018250419
143	0x3cbfbd6f	0.023405759
144	0xbe41720b	-0.1889116
145	0xbd115f89	-0.0354915
146	0x3c9d305a	0.019188095
147	0x3e2ee9df	0.17081402
148	0x3d479a56	0.04873117
149	0x3e6e860d	0.23293324
150	0xbea11647	-0.3146231
151	0x3b4989f4	0.0030752392
152	0xbe01de3b	-0.1268243
153	0xbc7800ff	-0.015136956
154	0xbe2c0e1a	-0.16802254
155	0x3de79aab	0.113087974
156	0x3dc651f7	0.09683602
157	0xbe5bad58	-0.21452844
158	0xbdcf4c16	-0.10121934
159	0xbd4512b0	-0.048113525
160	0xbe8e4c18	-0.2779243
161	0x3dbfbb63	0.09361913
162	0x3dc6ab65	0.0970066
163	0x3db83c69	0.08995897
164	0xbd878f7d	-0.06619165
165	0x3cb7c024	0.022430487
166	0x3ad08272	0.0015908016
167	0xbe016fe8	-0.12640345
168	0x3e49fd1a	0.19725457
169	0x3d0900aa	0.0334479
170	0xbdc425bb	-0.09577509
171	0xbcaf4204	-0.021393783
172	0xbdf5eb66	-0.12007789
173	0x3ee925b1	0.4553657
174	0xbb9a2cf6	-0.004705067
175	0xbded2ff5	-0.11581413
176	0x3e124a41	0.14286138
177	0x3da11033	0.07864418
178	0x3dacd277	0.084385805
179	0xbe00a8cd	-0.12564392
180	0x3dab0f40	0.08352518
181	0x3b1b6092	0.0023708683
182	0x3d151e66	0.036405943
183	0x3e38c73a	0.18044749
184	0x3c9fc850	0.019504696
185	0xbe8c527b	-0.27406678
186	0x3f9e996c	1.2390571
187	0xbd26dcd8	-0.040737957
188	0xbd113640	-0.035452127
189	0xbbce2d31	-0.0062920083
190	0x3a6fabf0	0.0009142747
191	0xbc8d2724	-0.017230578
192	0xbda5a5f0	-0.08088291
193	0xbd67b36a	-0.056567587
194	0x3e0a401a	0.13501015
195	0xbd0061c1	-0.031343225
196	0xbe3a7048	-0.18206894
197	0xbd5a0094	-0.053223208
198	0xbce57f03	-0.028014665
199	0x3b2cb076	0.0026350296
200	0x3e133a1b	0.14377634
201	0x3d107e81	0.035276894
202	0xbc571cfe	-0.013129471
203	0xbe3dc05a	-0.18530408
204	0xbd4a2998	-0.049356073
205	0x3c3e6737	0.011621288
206	0x3cd38d90	0.025824338
207	0x3c8e1a96	0.017346662
208	0xbe331d03	-0.17491536
209	0xbcef2e67	-0.029196931
210	0x3d4c887e	0.049934857
211	0x3e3549bd	0.1770391
212	0xbd609108	-0.054825813
213	0x3e4ac8af	0.19803117
214	0xbea1caa9	-0.3159993
215	0xbb9e98cc	-0.004839992
216	0xbe037f5e	-0.12841555
217	0xbab4f26a	-0.0013805155
218	0xbe33c35c	-0.17554992
219	0x3dd51d68	0.104059994
220	0x3db88356	0.09009425
221	0x3dff12f4	0.12454787
222	0xbdc30fca	-0.09524496
223	0xbdd37ed5	-0.10326926
224	0xbe708861	-0.23489524
225	0x3db9fafc	0.090810746
226	0x3db14af9	0.08656878
227	0x3da3c5bf	0.079967014
228	0xbd927f53	-0.071531914
229	0x3d1bcc93	0.038036894
230	0x3a9131c9	0.0011077459
231	0xbe1046f8	-0.14089572
232	0x3c8846a7	0.016635252
233	0x3b356511	0.0027678648
234	0xbdac31c5	-0.0840793
235	0xbcc3fd99	-0.023924636
236	0xbde1c319	-0.1102354
237	0x3ee849cb	0.453688
238	0xbdb6c1c1	-0.089236744
239	0xbdda6c84	-0.10665229
240	0x3de800e0	0.11328292
241	0x3da65db1	0.08123339
242	0x3dd3f9d6	0.10350387
243	0xbdee8565	-0.11646537
244	0x3e14b248	0.14521134
245	0xbda98407	-0.08277135
246	0xbc9376aa	-0.01800092
247	0x3e4880ce	0.19580385
248	0x3c25fa59	0.010130488
249	0xbe885520	-0.26627445
250	0x3f9f293e	1.2434461
251	0xbdcee437	-0.10102122
252	0xbd6fa286	-0.058504604
253	0x3ba1bc7b	0.0049357987
254	0x3ca3a30b	0.019975206
255	0xbdc2de88	-0.09515101

final.bias f4 [6]
0	0x40e0e9d4	7.0285435
1	0x40f8ed42	7.778962
2	0x40ee1bb7	7.440883
3	0x40dc5cb2	6.8863153
4	0x40c5fc03	6.187013
5	0x40aa2688	5.3172035
