D2QN_AAAI/checkpoint_d2qn_cheetah_10.pth (torch, 45655 bytes, 6 tensors)

fc1.weight f4 [128, 17]
0	0x3f55b7ce	0.8348359
1	0xbfe3a073	-1.778334
2	0xbf63499e	-0.88784206
3	0xc000b766	-2.0111938
4	0xc0ab172f	-5.34658
5	0x3f7e3f98	0.99315786
6	0x3f73b2c8	0.95194674
7	0x3f29b421	0.6629048
8	0xc02ab0ce	-2.6670413
9	0x3fff7b37	1.9959477
10	0xbe98eedc	-0.29869735
11	0x3e9c0818	0.30474925
12	0x3ddb4470	0.10706413
13	0xbe165178	-0.14679515
14	0x3d374142	0.04473997
15	0x3d1f7ba5	0.038936276
16	0x3d07d708	0.033164054
17	0xbf7a8d35	-0.97871715
18	0xc09588da	-4.6729555
19	0xbf9c02c3	-1.2188343
20	0x3f3470b5	0.7048448
21	0x3dd5f8b2	0.104478255
22	0x3ef2b64c	0.47404706
23	0x400718ad	2.110881
24	0x3ff4409b	1.9082216
25	0xbff12f48	-1.8842554
26	0x3f443fae	0.7665967
27	0xbfe9dbdf	-1.8270224
28	0xbe3fff9b	-0.1874985
29	0xbe8f0cca	-0.27939445
30	0xbd0169da	-0.03159509
31	0x3e24ddf0	0.16100287
32	0x3bec2bbd	0.0072073624
33	0x3ca7de79	0.020491825
34	0xc0a2dcf1	-5.0894704
35	0xc0ecb8f0	-7.3975754
36	0xbf4f4a98	-0.80973196
37	0xbeabaa08	-0.3352816
38	0x3d2ff908	0.042962104
39	0x3f88647a	1.0655663
40	0x3f03ed6c	0.5153415
41	0xbec087af	-0.37603518
42	0xbf85961c	-1.0436435
43	0xbf7dc508	-0.9912877
44	0xbfbed7bc	-1.4909587
45	0xbe80fe42	-0.25193983
46	0xbe51ccc4	-0.20488268
47	0x3c852486	0.016252767
48	0xbcb3310e	-0.021873977
49	0xbd5c3f3b	-0.05377124
50	0xbcc10712	-0.023562942
51	0x40821b7d	4.0658555
52	0x406ccff0	3.7001915
53	0xbf601f76	-0.87548006
54	0x3f6082f9	0.8769985
55	0xc015f779	-2.3432295
56	0xc00b6c52	-2.1784863
57	0xc02bb4ad	-2.6829026
58	0x3e0f0987	0.13968478
59	0x3e9c1c01	0.30490115
60	0xbffc285f	-1.969982
61	0x3ecf8427	0.40530512
62	0xbe3e4f97	-0.18585049
63	0xbe2ff5ef	-0.1718366
64	0x3e256ea7	0.16155492
65	0x3e12fdc7	0.14354621
66	0x3e2b5e17	0.16735111
67	0x3d1385e0	0.036016345
68	0x40113b3b	2.2692401
69	0xbfb0cf8e	-1.3813341
70	0xbf997029	-1.1987354
71	0xc01087cc	-2.2582884
72	0xc0003ccf	-2.0037115
73	0xc0403bd0	-3.0036507
74	0xc0928340	-4.5785217
75	0xc086c6ce	-4.211768
76	0xc0212c12	-2.5183148
77	0xbdffbfc3	-0.124877475
78	0xbf11ee65	-0.57004386
79	0x3e0960d5	0.13415845
80	0xbea61aeb	-0.32442412
81	0x3e42d462	0.1902633
82	0xbd47626f	-0.048677858
83	0x3e571690	0.210047
84	0x3c9986dd	0.018741066
85	0xc0c6e814	-6.21583
86	0xbe78732f	-0.24262689
87	0x3f2c43c0	0.6729088
88	0xbef0a813	-0.4700323
89	0xbddb6b00	-0.10713768
90	0x3f562396	0.8364805
91	0x3e70c719	0.2351345
92	0x3f8103f3	1.007933
93	0x3ffa71b0	1.9565945
94	0xbf99853c	-1.1993785
95	0xbeb38fb7	-0.35070583
96	0xbe4e3892	-0.20138767
97	0x3d732075	0.059357125
98	0xbd247a79	-0.04015586
99	0xbe3bc2f4	-0.18336087
100	0xbca99a4b	-0.020703455
101	0xbd5dbe71	-0.054136697
102	0x40d9702f	6.7949443
103	0xc0c24e7d	-6.072081
104	0xbf927025	-1.1440474
105	0xc0808bdd	-4.017073
106	0xbdf74161	-0.12073017
107	0x3f3cc069	0.73731095
108	0xbf035648	-0.5130353
109	0x3c4f1eea	0.012641648
110	0xbff04bbe	-1.8773115
111	0x3f3459f0	0.70449734
112	0x3ecdeef2	0.40221363
113	0x3e539d3a	0.20665446
114	0x3e41f329	0.18940414
115	0x3e36b74d	0.17843361
116	0x3e9e3817	0.30902168
117	0x3c4885f9	0.012238973
118	0x3d7aae9a	0.06120167
119	0x408455d8	4.135479
120	0x401432bc	2.3155966
121	0x40716b5b	3.7721775
122	0xbfad774b	-1.355203
123	0xbf5f5031	-0.8723174
124	0x3f84a821	1.0363809
125	0x3ec7851e	0.38968748
126	0xbe763d5d	-0.24046846
127	0xbd776dcc	-0.060407445
128	0xbfe37178	-1.7769003
129	0xbf9b32bc	-1.2124858
130	0xbe98c822	-0.2984019
131	0xbe83ea99	-0.2576492
132	0xbd456132	-0.048188396
133	0xbcc7bd9e	-0.024382409
134	0x3cb99c2c	0.022657476
135	0xbda3c244	-0.079960376
136	0xbfc8dcaf	-1.5692347
137	0x4003b467	2.057886
138	0x404e12c6	3.2198958
139	0x3fed27d4	1.852778
140	0x3fd730cd	1.6811768
141	0xbffc3c7f	-1.9705962
142	0x3fecea9d	1.8509098
143	0xc011ee82	-2.2801824
144	0xbee83906	-0.45356005
145	0x3ed84d65	0.42246547
146	0x3e2a40e4	0.16626316
147	0x3dfcf38b	0.1235114
148	0x3c2d6cb8	0.010585003
149	0x3d19a78f	0.037513312
150	0x3e0cf656	0.13765845
151	0xbd4babf8	-0.04972455
152	0xbb1a0a96	-0.0023504845
153	0x3d9f7b3a	0.077871755
154	0x3fa6bc5c	1.3026233
155	0xbd9a89fd	-0.075458504
156	0x3e00aa62	0.12564996
157	0xbfac7e19	-1.3475982
158	0xbfdcd937	-1.7253789
159	0x3edcbce9	0.43112877
160	0x3ef2f061	0.4744902
161	0xbfb63895	-1.4236017
162	0xbfb0a163	-1.3799251
163	0xbeabc692	-0.33549935
164	0xbe14e6b4	-0.14541131
165	0x3dce0d0d	0.10061083
166	0xbc4e0fd4	-0.012577016
167	0x3d9befe9	0.076141186
168	0xbe577f9c	-0.21044773
169	0x3c91ca40	0.017796636
170	0x4165299b	14.322658
171	0xc09afb9f	-4.8432155
172	0xc02fbef4	-2.7460299
173	0xbf24c021	-0.64355665
174	0x3e083662	0.13301995
175	0xbf408e6f	-0.75217336
176	0xbf87bd16	-1.060458
177	0xbf8d2242	-1.102608
178	0xbefc6bad	-0.493009
179	0x3fe6af27	1.8022202
180	0xbdda7d09	-0.1066838
181	0x3e0515d9	0.12996615
182	0xbd893f99	-0.067015834
183	0xbd8eca67	-0.06972199
184	0xbd309830	-0.043113887
185	0xbc49a810	-0.012308136
186	0x3bd4e39c	0.0064968597
187	0x4068b247	3.6358812
188	0x4039b39a	2.901587
189	0x40812c72	4.0366755
190	0x3f8869c5	1.0657278
191	0x401ffff8	2.499998
192	0xbe155416	-0.14582857
193	0xbefdb3ae	-0.49551147
194	0x3f7ba6c2	0.9830133
195	0xbf3f1c05	-0.7465213
196	0x3f6b6b7c	0.91960883
197	0xbefbde66	-0.49193114
198	0xbe3f1752	-0.1866124
199	0xbe22ea90	-0.15909791
200	0x3e5eb52c	0.21748799
201	0x3d0f4d6c	0.034985945
202	0x3a106ad9	0.00055090856
203	0xbd06d85c	-0.03292118
204	0xc0532e95	-3.2997181
205	0x40addc5f	5.433151
206	0xbcb272e8	-0.021783307
207	0x3f070731	0.5274535
208	0x3f0978a0	0.53699684
209	0x3e2834dc	0.16426414
210	0x3fc7202b	1.5556692
211	0x3f9f8fd6	1.246577
212	0xbf6e1582	-0.9300157
213	0x3f2d3a01	0.6766663
214	0xbcbc0855	-0.022953192
215	0x3d96ee68	0.07369691
216	0x3d3038ae	0.043022804
217	0x3b9c9734	0.004778767
218	0x3dab10a7	0.083527856
219	0xbd302dd0	-0.04301244
220	0x3d84bcea	0.06481345
221	0xc0fa009f	-7.812576
222	0x40285adb	2.6305454
223	0x3f83b377	1.0289143
224	0xbfd45b38	-1.6590338
225	0x3ddcab66	0.10774879
226	0x3e99c0b7	0.30029842
227	0xc0102043	-2.251969
228	0xbe156dd2	-0.14592674
229	0xbf112e4a	-0.56711257
230	0x3f56db2b	0.83928174
231	0x3fa783b6	1.308707
232	0x3e91b46e	0.2845797
233	0x3e597b8a	0.21238533
234	0x3d78fe0e	0.06078916
235	0x3c8f326e	0.017480101
236	0x3cd88e42	0.026435021
237	0xbc6bad26	-0.0143845435
238	0xc0ec5c93	-7.3863006
239	0x40d3c123	6.6173263
240	0xc025649a	-2.5842652
241	0x3e439998	0.1910156
242	0xc03b74d6	-2.929006
243	0xc04a0f28	-3.157175
244	0xbe4ac6e9	-0.1980244
245	0xc04232d7	-3.034353
246	0xbe68e3aa	-0.22743097
247	0xbf745250	-0.954381
248	0x3f90020e	1.1250627
249	0xbb1ceac1	-0.0023943635
250	0x3e48ba3e	0.19602296
251	0xbdeed3c9	-0.116614886
252	0x3bbf125b	0.0058310456
253	0x3df5c9a8	0.120013535
254	0xbdab7993	-0.08372798
255	0x3f76215b	0.96144646

fc1.bias f4 [128]
0	0x3e5abf7c	0.21362108
1	0xc00112a8	-2.0167637
2	0xbcdc3a7a	-0.026883353
3	0x3d05ecf7	0.03269669
4	0xc0158627	-2.336313
5	0xc07a9606	-3.9154067
6	0x402fc791	2.7465556
7	0xc01d0cd8	-2.453909
8	0xc03fadda	-2.994986
9	0x3ed40c47	0.41415617
10	0x3f952e14	1.1654687
11	0xc087f6bb	-4.2488685
12	0xc0b164b8	-5.543545
13	0xc089b985	-4.3038964
14	0xc0850143	-4.156404
15	0xbff02213	-1.8760399
16	0xc068ed61	-3.6394885
17	0xc08c64b6	-4.387294
18	0xc06c887e	-3.6958308
19	0xbfd7584d	-1.6823822
20	0xbf9ce62e	-1.2257745
21	0xbfa639af	-1.2986354
22	0xbfe29d77	-1.7704304
23	0xc0347d30	-2.8201408
24	0xbfdec378	-1.7403402
25	0x402e2f69	2.7216437
26	0x3f50e7b7	0.8160357
27	0xbfe6e598	-1.8038816
28	0xbfbfcb32	-1.4983885
29	0x40a97f35	5.296778
30	0x3f3216ae	0.69565856
31	0x400e168a	2.2201257
32	0x4061fb47	3.5309618
33	0xc081c8ad	-4.0557466
34	0xc06faaac	-3.744792
35	0xc02c3044	-2.690446
36	0xbff431b7	-1.9077672
37	0xc0836b57	-4.106853
38	0xc07a083e	-3.906753
39	0xc067f20a	-3.624148
40	0x40714e11	3.7703898
41	0xbf360a5c	-0.7110956
42	0xc0a0ae12	-5.021249
43	0xc05b4c2d	-3.4265244
44	0xbf7b0cf3	-0.98066634
45	0x3fe39b9c	1.7781863
46	0xc071ef03	-3.780213
47	0xc08962a0	-4.293289
48	0xc0a0e347	-5.027744
49	0xbf92d77e	-1.1472013
50	0x40aad244	5.338167
51	0xc07dbd64	-3.9646845
52	0x40407aaf	3.007488
53	0xbf258543	-0.64656466
54	0xc0587c7e	-3.3825984
55	0xbfeee7ff	-1.866455
56	0x3fccdd92	1.6005118
57	0x3fd42eaf	1.6576747
58	0xc05ab3a0	-3.4172134
59	0xbfeb9eae	-1.84078
60	0x40ba1c56	5.815959
61	0x3f55efd0	0.8356905
62	0x3f0977e1	0.53698546
63	0xc0088f3e	-2.1337428
64	0xbff168ce	-1.8860109
65	0xc083c8aa	-4.118245
66	0xbec98fe1	-0.39367583
67	0xc00f6cae	-2.2410083
68	0xc026cbcd	-2.606189
69	0xc003149b	-2.0481327
70	0xc0426a75	-3.0377476
71	0x407429f2	3.8150601
72	0xc04c48eb	-3.1919506
73	0xc03f1413	-2.9856002
74	0x3e6a290d	0.22867222
75	0x4095de0b	4.683355
76	0xbea68daf	-0.3252997
77	0xc022ef06	-2.5458388
78	0xc0347e7d	-2.8202202
79	0x3e096025	0.13415582
80	0xc02715f4	-2.610715
81	0x400c69ac	2.1939497
82	0x3eec39c1	0.46137813
83	0x3e53f47b	0.2069873
84	0xc09e1be4	-4.9409046
85	0xbf102efb	-0.56321687
86	0x3fd6c95c	1.67802
87	0xc03d4069	-2.9570563
88	0x40201bfa	2.5017076
89	0xc0728df6	-3.7899146
90	0xc021f4a9	-2.5305579
91	0xbfe42971	-1.7825147
92	0xbf02d0d3	-0.5109989
93	0xbf7ecb6a	-0.99529135
94	0x3fb0aeae	1.3803308
95	0x3f6d8ffd	0.92797834
96	0x3e0fbe4e	0.14037439
97	0xc0ab9460	-5.361862
98	0xc0ce80e7	-6.453235
99	0x3fad27aa	1.352773
100	0x3ff44926	1.9084823
101	0xc085a9ea	-4.1769915
102	0x406b0703	3.672303
103	0x40b425ed	5.6296296
104	0xc024a738	-2.5727062
105	0xbda211b3	-0.07913532
106	0xbed2e7f2	-0.41192585
107	0xc01ec8f7	-2.481016
108	0xc069df54	-3.6542559
109	0xc06971b1	-3.6475642
110	0xc05c1d4d	-3.4392884
111	0xbe9061c7	-0.28199598
112	0xc0004f5d	-2.004844
113	0xc0111f34	-2.2675295
114	0x4059a805	3.40088
115	0xc006826c	-2.1017103
116	0xc0021370	-2.0324364
117	0x4089721d	4.29518
118	0xbfd08e21	-1.6293374
119	0x400fa9f9	2.2447493
120	0xc0182a1b	-2.37757
121	0xc0806052	-4.011758
122	0xc0623801	-3.5346682
123	0xc084272e	-4.1297827
124	0xc09955d1	-4.7917256
125	0xc008f974	-2.1402254
126	0xc01cdf95	-2.4511464
127	0x40577e76	3.3670936

fc2.weight f4 [64, 128]
0	0xbef4a953	-0.47785434
1	0x3eb2b8d8	0.3490665
2	0xbf3bd8f9	-0.7337795
3	0x3ea26abd	0.3172206
4	0xbed26430	-0.41092062
5	0x3ea4886a	0.32135326
6	0x3f34a91a	0.7057053
7	0xbf46b7f2	-0.7762443
8	0xbee8ff42	-0.45507246
9	0x3eda322f	0.42616412
10	0xbee4b0a6	-0.44666022
11	0x3fab21de	1.336971
12	0xc027e5f4	-2.6234102
13	0xbd4bedc5	-0.0497873
14	0xbfa658a1	-1.2995797
15	0x3f0edc94	0.55805326
16	0xbe9d60ef	-0.30738017
17	0x40247f23	2.5702598
18	0x3d5f8e4e	0.05457907
19	0xbf531bdf	-0.824644
20	0xbe044f6e	-0.12920925
21	0xbe20df99	-0.15710296
22	0xbf9fae08	-1.2474985
23	0x3f23c8b2	0.6397811
24	0xbe7e2346	-0.24818143
25	0xbf94a86b	-1.1613897
26	0xbadf574c	-0.0017039566
27	0xc06c71ea	-3.6944528
28	0xbe3fc64b	-0.18727987
29	0x3ed94826	0.42437857
30	0xbfa4b87f	-1.2868804
31	0x3f4901cc	0.78518367
32	0xbf135f60	-0.57567406
33	0xbedaf0d4	-0.42761862
34	0xc01e88be	-2.477096
35	0x3e99c5d8	0.30033755
36	0x3da23b0a	0.07921417
37	0x3f5c80ef	0.8613424
38	0x3f509751	0.8148089
39	0x3f3790f4	0.71705556
40	0x3fefbabe	1.8728864
41	0xbe62957a	-0.22127333
42	0x3e0a2aca	0.13492885
43	0xc0df7ab3	-6.983728
44	0xbf17c461	-0.59284025
45	0xc038af10	-2.885685
46	0xc02ec3a3	-2.7306907
47	0xbf3a0512	-0.72663987
48	0x3f86ad3b	1.0521616
49	0xbf28d1a9	-0.65944916
50	0x3ed90821	0.42389014
51	0xbf98fa50	-1.1951389
52	0xbd8c8d1e	-0.068628535
53	0xc01d6b2b	-2.459666
54	0x3fe1363e	1.7594678
55	0xc0193300	-2.3937378
56	0xbf285d1e	-0.65767086
57	0x3ecc968c	0.39958608
58	0xbd971bd2	-0.07378353
59	0x3ee63741	0.4496403
60	0xbf3f8204	-0.74807763
61	0xbeb9877f	-0.36236188
62	0xbef01a65	-0.46895137
63	0xc02b3bad	-2.6755173
64	0x3fdf2bcb	1.743524
65	0xbf8296e1	-1.0202295
66	0xbe976df6	-0.2957608
67	0x3e393937	0.18088232
68	0xc02d5273	-2.7081573
69	0x3ecddb34	0.402063
70	0xbf045b20	-0.51701546
71	0x3f5c6a28	0.8609948
72	0x3e738024	0.2377935
73	0xc06f4df1	-3.7391322
74	0xbec4a8f8	-0.38410163
75	0xbee56628	-0.44804502
76	0x3f0053ed	0.5012806
77	0xbfd9f0a6	-1.7026565
78	0xbebff864	-0.37494195
79	0xbf94a5e4	-1.1613126
80	0xbea8151e	-0.3282861
81	0xbf3e3439	-0.74298435
82	0xbf19752e	-0.59944427
83	0xbe4c1a56	-0.19931921
84	0xbea1d253	-0.31605777
85	0xbefc0d9c	-0.49229133
86	0xbe3e6cc6	-0.18596181
87	0x3faf1bac	1.368032
88	0xbe28cc96	-0.16484293
89	0xbe9735ef	-0.29533336
90	0xc01e3092	-2.4717145
91	0xbeecdf37	-0.4626405
92	0xbed53ea3	-0.4164935
93	0xbf0c3a2f	-0.5477628
94	0x3eb98147	0.36231443
95	0x3e1f0042	0.15527442
96	0x3f0070a5	0.5017188
97	0x3fc13f8a	1.5097516
98	0xc037d4ee	-2.8723712
99	0x3fafcd5e	1.3734548
100	0x3ce1a346	0.027543675
101	0xbf084934	-0.532367
102	0xbe850d0b	-0.25986513
103	0xbdb5db46	-0.08879714
104	0xbfd8b0f9	-1.6929008
105	0xbff5aad6	-1.919276
106	0x3fa9e52c	1.3273063
107	0xbddeb9d0	-0.10875285
108	0xbefb1863	-0.49042043
109	0xbf30d4dc	-0.690748
110	0xc03b757c	-2.9290457
111	0xbf09aad7	-0.53776306
112	0x40064885	2.0981762
113	0x3f7eadb3	0.99483794
114	0xbf894862	-1.0725214
115	0x3ff94ff1	1.9477521
116	0xbf70e2a6	-0.9409584
117	0x3f20a68a	0.6275412
118	0xbf2f00d7	-0.68360656
119	0xbe811da9	-0.2521794
120	0x3e521cf4	0.20518857
121	0x3e92d9e0	0.2868185
122	0x3f8e7f7c	1.1132655
123	0x3faa0d75	1.3285357
124	0xbfcce223	-1.6006511
125	0xbe434521	-0.1906934
126	0x4076e20c	3.8575468
127	0x3dfc132e	0.12308346
128	0x3f878226	1.0586593
129	0x405b9c3c	3.4314108
130	0x40416d80	3.0223083
131	0xbf904d39	-1.1273566
132	0xbf981a22	-1.1882975
133	0xbec7de75	-0.3903691
134	0xbe9529ba	-0.29133397
135	0xbf890301	-1.0704042
136	0x3fb3b81b	1.404056
137	0xc0a80cbb	-5.251554
138	0xc0037fee	-2.0546832
139	0xbf1671b6	-0.5876726
140	0xc01bed95	-2.4363759
141	0xbf928846	-1.1447837
142	0x3fa1e722	1.2648661
143	0x4045aa13	3.0885055
144	0x3c01ee05	0.007930283
145	0xbfa65066	-1.2993286
146	0xbdf0dfaa	-0.117614105
147	0xbf3f9181	-0.74831396
148	0x3e228634	0.15871507
149	0xbf1f8193	-0.6230709
150	0x3e8c463a	0.2739733
151	0xbee4a085	-0.44653717
152	0xbec6febe	-0.38866228
153	0xc06264b8	-3.5373974
154	0xbf53efad	-0.8278759
155	0x3e3267f9	0.17422475
156	0x3ec4099f	0.3828859
157	0xbf6a28ce	-0.91468513
158	0x3f9f1daa	1.2430928
159	0xc003efd4	-2.061513
160	0x3f0eaba8	0.55730677
161	0x3e8b51fd	0.2721099
162	0xbf5b7764	-0.8572905
163	0xbf1571ed	-0.5837696
164	0xbe3a66cf	-0.18203281
165	0x3f03131f	0.5120105
166	0xbfb6cd03	-1.4281315
167	0xbea6491b	-0.3247765
168	0x3eec7698	0.4618423
169	0xbf0892ac	-0.53348804
170	0xbf051ee8	-0.52000284
171	0xbf2181f5	-0.63088924
172	0xbeee470a	-0.46538574
173	0x3de60d42	0.112329975
174	0x3e54f581	0.20796777
175	0x3f51c687	0.81943554
176	0x3f5d4e48	0.8644757
177	0x3fe458b8	1.7839575
178	0x3f13e099	0.57764584
179	0x3fcbf92f	1.593542
180	0x3e01af3a	0.126645
181	0x3e15a7c7	0.14614783
182	0x3e0aa76e	0.13540432
183	0x3e8b3131	0.27185968
184	0xbfd5f5e8	-1.671567
185	0xbf9632bb	-1.1734232
186	0xbfd7ef3d	-1.6869885
187	0x3f309158	0.68971777
188	0xbfc55ad8	-1.5418348
189	0x3ff13cab	1.8846639
190	0xbe9f76fd	-0.31145468
191	0x3d6e7b34	0.058222964
192	0x3f85e338	1.0459967
193	0x3ebffbe9	0.3749688
194	0xbeed541d	-0.46353236
195	0xbeffa9a2	-0.49934107
196	0x3e34da58	0.17661417
197	0xbf029dec	-0.5102222
198	0xbf3d1e63	-0.7387449
199	0x3fc82f63	1.5639461
200	0xc065f637	-3.5931528
201	0x3e7a14c2	0.24421981
202	0xbf673dfc	-0.90328956
203	0xbecf0978	-0.40436912
204	0x3eab90e7	0.3350899
205	0xbebc4099	-0.36768034
206	0xc03ab4b6	-2.9172797
207	0x3f941c80	1.1571198
208	0x3f44299a	0.7662598
209	0x3f6896f8	0.9085536
210	0x3fd917aa	1.6960347
211	0xbd2bb7e7	-0.04192343
212	0xbf0d43c6	-0.5518154
213	0xc09248b7	-4.5713763
214	0xbe81ab25	-0.25325885
215	0xbfd4633b	-1.6592783
216	0x3ffeb85b	1.9900011
217	0xbf8194b2	-1.0123503
218	0x3f417ade	0.75578105
219	0xbf582ee8	-0.84446573
220	0x3fd926d0	1.696497
221	0x3f83f5b4	1.0309358
222	0xbfa79fb2	-1.309561
223	0x3e0357ab	0.12826411
224	0x3fad6ff1	1.3549787
225	0xbfd3a5f9	-1.6535026
226	0x3e095db9	0.13414659
227	0xbfc73893	-1.556414
228	0xbd9911a0	-0.07474065
229	0x3db21416	0.08695237
230	0xc07b3b0d	-3.9254792
231	0xbf1d559b	-0.6145875
232	0xbfaa1e0a	-1.3290417
233	0xbf6d251b	-0.92634743
234	0xbf935823	-1.1511272
235	0x3f940acb	1.1565794
236	0xbf9aac54	-1.208384
237	0xbffb600b	-1.9638685
238	0xc02a6b0d	-2.6627839
239	0xbf3051b7	-0.68874687
240	0x3f13f9a0	0.5780277
241	0xbf85c512	-1.0450766
242	0x3cbf1570	0.023325652
243	0xbe71f67b	-0.23629181
244	0xbe4391e4	-0.19098622
245	0xbe4a11ea	-0.19733396
246	0x3ffdd4cb	1.9830564
247	0xbf726f92	-0.9470149
248	0x3c98a168	0.018631652
249	0xbebd08d4	-0.36920798
250	0x3f5d9ecd	0.86570436
251	0x3fc59be6	1.5438201
252	0x3cdd8644	0.027041562
253	0xbec22e6d	-0.37926045
254	0xbf3c30c1	-0.7351189
255	0x3d8b53e0	0.06803107

fc2.bias f4 [64]
0	0x40640818	3.562994
1	0xc016684c	-2.3501158
2	0xbf1e4235	-0.61819774
3	0xbf373a52	-0.71573365
4	0xc04311ca	-3.0479608
5	0x3fef46d8	1.8693495
6	0xc0708e65	-3.758691
7	0x4069903a	3.649428
8	0xbf503c4b	-0.81342
9	0xbdec4a2b	-0.11537584
10	0x406f5909	3.7398093
11	0xbf38e2b4	-0.7222092
12	0x40a68ea6	5.204913
13	0x40f85412	7.7602625
14	0xc0055ace	-2.0836673
15	0xbf3908e9	-0.7227922
16	0x3f162f4a	0.5866591
17	0x40a75a60	5.229782
18	0x409ebbd7	4.9604297
19	0x407bb3f2	3.932858
20	0xbd984b7a	-0.07436271
21	0x405bb106	3.4326797
22	0xbe5cbe95	-0.21557076
23	0xc0a5b3cd	-5.1781983
24	0xbeb69fb9	-0.35668734
25	0xbd4752be	-0.048662893
26	0xbff8a572	-1.942549
27	0x40bc2d1b	5.880506
28	0x4052c076	3.292997
29	0x408bd2d0	4.369484
30	0xc01422ca	-2.3146234
31	0xbdaf91b1	-0.0857271
32	0xbe10b514	-0.14131576
33	0x409a6763	4.8251204
34	0x40a77a12	5.233651
35	0x4088e55d	4.2779984
36	0xbf22e6aa	-0.63633215
37	0x3e98f690	0.29875612
38	0x40235dee	2.552608
39	0xc035f64a	-2.8431573
40	0xbfd6e102	-1.6787417
41	0xbd910666	-0.070812985
42	0xc05be813	-3.4360397
43	0xc013a3c1	-2.3068697
44	0xc007507a	-2.114287
45	0x40a6ad7e	5.2086782
46	0xbf382a65	-0.7193969
47	0xc0a596f5	-5.1746774
48	0xbeff3e5e	-0.4985227
49	0xbfa0257c	-1.2511439
50	0x40832477	4.0982013
51	0xbf4b6f85	-0.7946704
52	0xbd80ef6e	-0.062956676
53	0xbe289cfb	-0.16466133
54	0x3fe42b7f	1.7825774
55	0x40b44202	5.6330576
56	0x408ec3a3	4.4613814
57	0xbfc3acce	-1.5287111
58	0x40dc59ba	6.885953
59	0xc0688325	-3.6330044
60	0x3cbe02ea	0.023194749
61	0xbf95b869	-1.1696903
62	0x3dfc49c7	0.123187594
63	0x40b3b24e	5.6155157

final.weight f4 [6, 64]
0	0xbc360cda	-0.0111114625
1	0xbd987885	-0.07444862
2	0xbe19a820	-0.15005541
3	0xbe87f96b	-0.26557478
4	0xbbc4f5d9	-0.0060107526
5	0x3e6d1264	0.23151547
6	0x3d9917b4	0.07475224
7	0x3e1dc687	0.15407763
8	0xbcc92dc4	-0.024557956
9	0xbd631250	-0.055437386
10	0x3dea812e	0.1145042
11	0xbcd4b15c	-0.025963478
12	0xbb7b86ea	-0.0038379976
13	0x3fa96100	1.3232727
14	0xbe6a7fc8	-0.22900307
15	0xbe3308ad	-0.17483778
16	0x3e28587b	0.16440003
17	0x3e35e0b1	0.17761494
18	0xbd2d3c7c	-0.04229401
19	0x3cbf25db	0.02333348
20	0x3dfbe59e	0.122996554
21	0xbd7ea6c4	-0.06217076
22	0xbcd8ce73	-0.02646563
23	0xbe700d67	-0.23442613
24	0x3b3803d2	0.002807845
25	0x3c8362a0	0.016038239
26	0xbd33226f	-0.04373401
27	0x3e127085	0.14300735
28	0xbe25987b	-0.16171448
29	0x3d9f77cc	0.07786521
30	0x3d220f68	0.039565474
31	0xbd33c0e4	-0.043885127
32	0xbd9eb003	-0.07748415
33	0xbcfeb457	-0.031091852
34	0xbcda6001	-0.026657106
35	0x3ce017a1	0.027355017
36	0x3de024f6	0.1094455
37	0xbdcd4ca3	-0.10024383
38	0x3e2c154c	0.16804999
39	0xbd3f3c45	-0.046688337
40	0xbe91a31e	-0.2844476
41	0xbd362d50	-0.044476807
42	0xbd1701ae	-0.036866836
43	0xbe6688fe	-0.22513196
44	0xbe7d386f	-0.24728559
45	0x3e134d49	0.1438495
46	0x3cfc2617	0.030779881
47	0x3ca272d4	0.019830145
48	0xbe27348e	-0.16328642
49	0x3c3aa290	0.011391297
50	0x3e30fe18	0.17284429
51	0x3da5b45d	0.08091042
52	0x3d5760be	0.052582495
53	0x39abc072	0.00032759045
54	0x3b6eb39f	0.003642298
55	0x3e48e05c	0.19616836
56	0x3d2231a9	0.03959814
57	0xbe111ffc	-0.14172357
58	0x3ef45a85	0.4772531
59	0xbdb50539	-0.08838887
60	0x3da556d0	0.08073199
61	0x3d9b9a9f	0.07597851
62	0x3e404df0	0.18779731
63	0x3dc879c4	0.0978885
64	0x3de14d4e	0.11001073
65	0xbe20b414	-0.15693694
66	0x3c6738b4	0.01411264
67	0x3c9b0393	0.018922603
68	0xbe163bd9	-0.14671268
69	0x3caa8412	0.02081493
70	0xbe91a1cc	-0.28443754
71	0x3b77358b	0.0037721123
72	0x3e7cfe3c	0.24706358
73	0x3de15a5e	0.11003564
74	0x3ca78438	0.020448789
75	0xbe2be3f2	-0.16786173
76	0x3e128477	0.14308344
77	0x3fa16774	1.2609696
78	0xbd4e6b79	-0.050395463
79	0xbdd6d0a4	-0.10489014
80	0x3cc625d3	0.024187958
81	0x3d38556e	0.045003347
82	0x3df6b71e	0.120466456
83	0x3e0aa8d1	0.13540961
84	0xbbd6d9e0	-0.0065567344
85	0x3e0150e0	0.12628508
86	0x3d20d341	0.039263967
87	0xbd252311	-0.040316645
88	0xbdb960b9	-0.090516515
89	0xbdbfc3c2	-0.0936351
90	0xbe2508dc	-0.16116661
91	0x3d25bc19	0.040462587
92	0x3c221c7d	0.009894487
93	0x3e1c90ec	0.15289658
94	0xbe1d9a8b	-0.15390985
95	0x3c8460e3	0.01615948
96	0xbdcc3286	-0.09970574
97	0x3e089967	0.13339768
98	0x3db0a819	0.08625812
99	0x3e026de3	0.12737231
100	0xbc609f17	-0.013709805
101	0x3c8bf298	0.017083451
102	0xbd8db790	-0.069197774
103	0xbdd69d02	-0.104791656
104	0xbd855094	-0.0650951
105	0x3d6f23cd	0.05838375
106	0xbe11f951	-0.14255263
107	0xbe4872df	-0.1957507
108	0xbd45641e	-0.048191182
109	0xbd0f4576	-0.034978352
110	0xbe38ca8b	-0.18046014
111	0xbe178930	-0.14798427
112	0x3eb63ef3	0.355949
113	0xbe4db29d	-0.20087667
114	0x3d0323df	0.03201663
115	0xbdec16b6	-0.11527769
116	0x3c611810	0.013738647
117	0xbbe2994e	-0.006915248
118	0x3e535b0c	0.206402
119	0x3d41d559	0.047322605
120	0x3de3c6e7	0.11121922
121	0xbd4f5b48	-0.050624162
122	0x3f2581c0	0.6465111
123	0xbe8270e8	-0.25476766
124	0x3c81aa68	0.015828326
125	0x3d90dd5c	0.07073471
126	0xbca36add	-0.019948417
127	0x3dd07be1	0.10179878
128	0x3de087fd	0.10963438
129	0xbdad91e3	-0.08475091
130	0x3c942b1f	0.018086968
131	0xbbc22f9e	-0.0059260866
132	0xbe15377a	-0.14571944
133	0x3c8391fc	0.016060822
134	0xbe8dcbbd	-0.27694502
135	0x3be959e1	0.00712131
136	0x3e86a4ec	0.262977
137	0x3d8b89c6	0.068133876
138	0x3d1865e7	0.037206557
139	0xbdfa9da8	-0.12237102
140	0x3dfe1122	0.124056116
141	0x3fa14b8a	1.2601178
142	0xbd3ff09c	-0.046860322
143	0xbdba0f5b	-0.0908496
144	0x3d193180	0.037400723
145	0x3d4ff229	0.05076805
146	0x3dec7f99	0.11547775
147	0x3dfcaacf	0.12337267
148	0x3d48c780	0.049018383
149	0x3dff76e5	0.12473849
150	0xbd65e496	-0.0561262
151	0xbd0f98bc	-0.03505777
152	0xbe0b3bc0	-0.13597012
153	0x3c5dff7a	0.01354968
154	0xbe26a5d6	-0.16274199
155	0x3d32d888	0.04366353
156	0x3d1f27e2	0.038856395
157	0x3e272050	0.1632092
158	0xbe249043	-0.16070656
159	0xbdc10973	-0.094256304
160	0xbd34ce87	-0.044142272
161	0x3e1690de	0.147037
162	0x3dbe1c23	0.092827104
163	0x3e031c74	0.12803823
164	0xbd2b53ed	-0.041828085
165	0x3dcb895c	0.099383086
166	0xbd7e91a4	-0.062150612
167	0xbda9cd7b	-0.082911454
168	0xbdec335f	-0.11533236
169	0x3c3809b1	0.011232779
170	0xbe0498e0	-0.12948942
171	0xbe12ec74	-0.14348012
172	0xbd40f77f	-0.04711103
173	0xbcef8456	-0.029237907
174	0xbbe04cb0	-0.0068450794
175	0xbe166222	-0.14685872
176	0xbe933ced	-0.2875742
177	0xbe2c6e7c	-0.16839021
178	0x3d1ec44e	0.03876143
179	0xbdee9de8	-0.11651212
180	0xbcb81013	-0.022468602
181	0xbb90d2ec	-0.004419675
182	0x3e62c0b9	0.2214383
183	0x3d440c0d	0.047863055
184	0x3da1554c	0.07877597
185	0xbd31fa12	-0.043451376
186	0x3f25ea64	0.64810777
187	0xbe8ad68b	-0.27116808
188	0xbd113640	-0.035452127
189	0x3da0c6d8	0.078504264
190	0xbb7ac4e6	-0.0038264333
191	0x3dcee52a	0.10102303
192	0x3ddabb99	0.10680313
193	0xbe0bdef0	-0.13659263
194	0x3c39d774	0.011342872
195	0x3c940171	0.018067094
196	0xbe2b18a4	-0.16708618
197	0x3aee8d30	0.0018200036
198	0xbe8b5c7d	-0.27219
199	0xba73440f	-0.0009279856
200	0x3e89f2a0	0.2694292
201	0x3da73ed8	0.08166283
202	0x3ccdc7a8	0.025119618
203	0xbe3590ff	-0.17731093
204	0x3e185e3d	0.14879699
205	0x3fa183ff	1.2618407
206	0xbd09b0fd	-0.033616055
207	0xbd9d0714	-0.07667366
208	0x3d279a52	0.040918656
209	0x3d5184c6	0.051152013
210	0x3deae5d3	0.11469617
211	0x3e055ba1	0.13023235
212	0xbd609108	-0.054825813
213	0x3dfe8d06	0.12429242
214	0xbd37afd6	-0.044845425
215	0xbd1b24bf	-0.03787684
216	0xbe1763e7	-0.14784203
217	0xbc16406e	-0.009170635
218	0xbe2e9da6	-0.17052326
219	0x3d3ab66e	0.045584135
220	0x3cc5299e	0.024067696
221	0x3e173d5e	0.14769503
222	0xbe156419	-0.14588965
223	0xbdee1ec9	-0.116269656
224	0x3d04b5a3	0.032399785
225	0x3e150979	0.14554395
226	0x3dc14bb1	0.09438265
227	0x3df9e88b	0.12202557
228	0xbd10ad6d	-0.03532164
229	0xbcf89e40	-0.030348897
230	0xbd817f6d	-0.06323133
231	0xbddc1723	-0.107466005
232	0xbbf907c5	-0.007599803
233	0x3c593d8c	0.013259303
234	0xbdfd8ef3	-0.12380781
235	0xbe05a810	-0.13052392
236	0xbd2ddbac	-0.042445824
237	0xbd08f7be	-0.03343939
238	0x3c11b86c	0.008894067
239	0xbe1eff66	-0.15527114
240	0x3d9c624a	0.07635935
241	0xbe39dd86	-0.1815091
242	0x3cf442ac	0.029816948
243	0xbdfa1046	-0.12210135
244	0xbb81829d	-0.003952338
245	0xbce5f320	-0.028070033
246	0x3e6484f4	0.22316343
247	0x3d6952fc	0.056963906
248	0x3ddf9949	0.10917909
249	0xbd5c4bf3	-0.05378337
250	0x3f253106	0.6452793
251	0xbe7e2b44	-0.24821192
252	0xbcc74a69	-0.024327474
253	0x3d5840a7	0.052796032
254	0xbb6ee544	-0.003645257
255	0x3dcb582b	0.09928926

final.bias f4 [6]
0	0x40b13bc3	5.538545
1	0x40cb2dfb	6.349363
2	0x40bfb8aa	5.991292
3	0x40aed8a7	5.463947
4	0x409a21f2	4.8166437
5	0x40777545	3.8665326
