D2QN_AAAI/checkpoint_d2qn_cheetah_10.pth (torch, 45655 bytes, 6 tensors)

fc1.weight f4 [128, 17]
000000 5b f8 c7 3f 56 5e ef bf 8d 0d 7f bf 7a f9 ee be
       1.5622667 -1.8700664 -0.9963005 -0.4667471
000010 77 63 d5 c0 7e ad 61 3f ff 1e 84 3f ae 26 97 3f
       -6.6683917 0.88155353 1.0321959 1.1808679
000020 46 77 16 c0 cc 43 f0 3f 70 88 b8 be b8 85 96 3e
       -2.3510299 1.877069 -0.36041594 0.29398894
000030 33 05 d2 3d f1 f6 1a be 88 6f a4 3c 65 15 13 3b
       0.10254898 -0.15133263 0.020072713 0.0022443172
000040 7b 06 36 3d bd 9a ca bf d0 34 b5 c0 16 34 a5 bf
       0.044439774 -1.5828472 -5.662697 -1.290652
000050 d1 6c 15 3f 0e d4 d3 3d 09 12 11 3f 70 f1 2e 40
       0.58369166 0.103431806 0.56668144 2.7334862
000060 6b 5d 1d 40 e6 02 03 c0 ac d2 89 3f 99 6e 08 c0
       2.4588268 -2.047052 1.0767417 -2.1317503
000070 8c 30 78 be c5 3f 92 be 0e 5a 48 bd 34 7c 54 3e
       -0.24237269 -0.28564277 -0.048914008 0.20750505
000080 47 2b e3 3c 32 83 b3 3c 95 b1 b2 c0 7a cc 02 c1
       0.027730597 0.021913145 -5.5841775 -8.174921
000090 fd 8c a3 bf ec 9b 58 bd af 02 68 be 0f 31 8b 3f
       -1.2777401 -0.052883074 -0.22657274 1.0874346
0000a0 cb a9 2d 3f aa cf 35 bd 0c 6f a1 bf f5 36 8c bf
       0.6783721 -0.044387497 -1.2612014 -1.0954272
0000b0 ab 06 f5 bf bd 83 9f be 9d e2 8f be c4 c7 0c 3c
       -1.914266 -0.31155196 -0.2810258 0.00859255
0000c0 23 53 59 bd 7e 66 88 bd 02 02 f2 bc 66 12 89 40
       -0.0530578 -0.06660174 -0.029541973 4.283496
0000d0 43 58 a2 40 f5 67 dc 3e f3 f3 fd 3e 73 56 a0 bf
       5.073274 0.43048063 0.4960018 -1.2526382
0000e0 53 1b 0a c0 84 78 3c c0 75 98 52 3f 71 32 be bd
       -2.1579177 -2.9448557 0.8226388 -0.09286965
0000f0 d6 88 ed bf 0e 34 40 3e dd 90 6c bd 17 e2 fd bd
       -1.8557384 0.18769857 -0.05775534 -0.12396639
000100 82 28 85 3d 8e 81 67 bb e0 2d 05 3e 0f c7 c6 3d
       0.06501867 -0.0035325023 0.13005781 0.09705936
000110 89 c8 10 40 f0 41 95 bf 70 7a b1 bf 12 c0 19 c0
       2.2622397 -1.1660748 -1.386549 -2.402348
000120 9a 48 0e c0 17 9c 4b c0 e5 27 9f c0 71 fb 8f c0
       -2.2231812 -3.181402 -4.97362 -4.4994435
000130 47 be 35 c0 b4 f4 36 be 10 85 2d bf 20 10 96 3e
       -2.8397386 -0.17866784 -0.6778116 0.29309177
000140 07 d9 83 be 6e 46 27 3e 8a e5 85 bb 77 04 78 3e
       -0.25751516 0.1633546 -0.004086201 0.24220453
000150 8f d6 40 bc 4b f7 e6 c0 d4 61 49 bd eb a5 fa 3e
       -0.011769905 -7.217687 -0.04916556 0.4895471
000160 0c e3 67 bf 7f 77 b4 3e 7c 97 af 3f 12 1b 4c bf
       -0.9058082 0.35247418 1.3718104 -0.79728806
000170 e4 bd b4 3f 18 2e 05 40 ab b6 a9 bf 0a a5 f1 be
       1.412045 2.0809383 -1.3258871 -0.47196227
000180 af da 59 be ea c1 d1 3d 53 82 da bd 7d 7e f6 bd
       -0.21274827 0.10242064 -0.106693886 -0.120358445
000190 1f 76 29 bd 33 17 2f bd 36 9b 11 41 ba b9 ec c0
       -0.041372415 -0.042746734 9.100393 -7.3976717
0001a0 ea 5c 77 bf 02 4c 6d c0 d5 85 4a 3f 92 35 90 3e
       -0.9662615 -3.7077641 0.7911046 0.2816587
0001b0 79 1d 8c bf 8e 33 10 3f 27 94 14 c0 f3 46 f4 3e
       -1.0946494 0.56328666 -2.3215425 0.4771038
0001c0 4a 67 3b 3f 49 1f 81 3e 40 79 9b 3e a7 d7 2d 3e
       0.7320448 0.2521918 0.30365944 0.16976796
0001d0 96 74 b7 3e 5c 6a 02 3d 6e eb 4c bc b6 92 8e 40
       0.35831136 0.031839713 -0.012507303 4.455409
0001e0 d6 a1 99 3f 68 7d 8e 40 00 66 fe bf 56 8e 60 bf
       1.2002513 4.4528084 -1.9874878 -0.8771719
0001f0 d5 29 e3 3f b9 48 99 3e 3d 82 3b bf 9c 41 fb 3e
       1.7747141 0.29938295 -0.732456 0.49073493
000200 33 e7 ee bf 82 ad b2 bf 4a f0 a8 be df 4d 73 be
       -1.8664306 -1.39592 -0.32995826 -0.23760174
000210 9b f8 e9 bd dc d6 88 3c 30 6e f1 bb 8c d4 a6 bd
       -0.11424371 0.016704015 -0.0073678717 -0.08146009
000220 5a 31 6a bf 35 72 0b 40 6d 5a 39 40 a1 ff 09 40
       -0.91481555 2.1788456 2.8961442 2.1562274
000230 2d f2 13 40 f0 97 11 c0 95 ca 16 40 19 68 06 c0
       2.3116562 -2.2748985 2.3561146 -2.1001036
000240 cd bf df bd 8a 9a 40 3f 12 3e e0 3d 56 cb e7 3d
       -0.10925255 0.7523581 0.10949339 0.1131808
000250 d1 d5 89 3b 03 96 d8 3b ca c4 39 3e f9 34 f9 b9
       0.004206397 0.0066096797 0.18141475 -0.0004753245
000260 fa 71 f5 bc f4 1f 6e 3f 4f 6a 14 40 1b dc 0c 3f
       -0.029961575 0.93017507 2.3189886 0.55023354
000270 14 ed 02 3f 39 4e 82 3d 3d b2 28 c0 b4 9a 97 3e
       0.51143 0.06362576 -2.6358788 0.29610217
000280 df 07 af be da 88 f9 bf ae d2 bd bf 0f 02 ae be
       -0.34185693 -1.9494889 -1.4829919 -0.33985946
000290 ae ea 4b be 25 d4 56 3e fc a2 85 3b 81 5d aa 3d
       -0.19913742 0.20979364 0.004078267 0.08318616
0002a0 c1 cf 38 be 28 88 27 3c 7d 05 94 41 9e 20 75 c0
       -0.18048002 0.010225333 18.50268 -3.8301158
0002b0 a4 ca fd bf 3b bf 17 be 5b c5 1d c0 9a 9a 83 bf
       -1.9827466 -0.14819042 -2.4651706 -1.0281556
0002c0 75 16 11 3f a3 43 58 bf 13 fc 4d 3d c1 fd d5 3f
       0.5667489 -0.84478205 0.050289225 1.6718065
0002d0 e1 4d a8 be b7 f0 ca bd e6 a9 f8 3d f6 92 a4 bd
       -0.32871917 -0.09909194 0.121417806 -0.08035843
0002e0 4a ea bb 3c 55 2a 3c be 4d 4d 7d 3d 63 b9 c9 3f
       0.022938866 -0.18375523 0.061841298 1.57597
0002f0 a5 f0 60 40 84 d5 85 40 7c 8b ae 3f 1a b1 2e 40
       3.5146878 4.182314 1.3636317 2.7295594
000300 3a b0 21 be 89 31 bc bf 3c de b5 3f 1a 61 41 bf
       -0.15789881 -1.4702617 1.4208446 -0.7553879
000310 ab e5 1b 3f d2 37 2f bf 09 1a 61 be c8 66 2e be
       0.6089732 -0.6844455 -0.21982588 -0.17031395
000320 f8 6d 1e 3e 4c e7 77 3d 03 13 41 bd 4e cc 99 bb
       0.15471637 0.060523316 -0.04713727 -0.0046935445
000330 46 0c 92 c0 b9 50 c4 40 dc 02 3b be fc e3 64 3e
       -4.563998 6.134854 -0.1826281 0.22352594
000340 ff 40 80 3f 03 04 4e 3e ca d9 f8 3f 7d b5 85 3f
       1.0019835 0.20118718 1.9441464 1.0446011
000350 ed 05 99 bf 34 2c 1d 3f 97 85 46 bd 2d 49 7e 3d
       -1.1954933 0.61395574 -0.048467245 0.062081505
000360 9a cd 01 3d 3e 55 ab 3d df 7d d6 bc a0 21 aa bd
       0.031690218 0.08365868 -0.026183067 -0.08307195
000370 60 8f 82 3c 53 97 0f c1 e5 11 2a 40 a1 61 93 3f
       0.015937507 -8.974444 2.6573422 1.1514169
000380 e2 60 ea bf 2b e1 5a 3c 5b be 5b 3f ee 58 1f c0
       -1.8310816 0.013359348 0.85837334 -2.4898028
000390 fc 12 f4 be b5 07 a0 bf d5 63 42 3f 7c 35 d5 3f
       -0.47670734 -1.2502352 0.7593358 1.6656947
0003a0 87 fa 9f 3e a1 65 8e 3e b7 83 c5 3d 03 d5 eb 3c
       0.31245825 0.27811912 0.09644263 0.028788095
0003b0 b1 6d 19 3d 8e a2 f2 ba a0 2b 1f c1 36 18 f2 40
       0.037458126 -0.001851158 -9.948151 7.5654554
0003c0 98 a7 29 c0 9b 22 af 3e 74 36 36 c0 bd e6 6b c0
       -2.650854 0.3420609 -2.8470736 -3.6859581
0003d0 16 79 83 3b 93 de 24 c0 bd c9 ef 3c a9 7f 71 bf
       0.0040122373 -2.5760849 0.029271001 -0.9433542
0003e0 f2 6c 96 3f 65 0b df 3c 32 0f 30 3e a4 46 aa bd
       1.1751997 0.027227113 0.17193297 -0.08314255
0003f0 64 69 14 3c e6 87 05 3e 23 12 dd bd 21 20 01 40
       0.00905833 0.13040122 -0.10794475 2.017586

fc1.bias f4 [128]
000000 13 83 01 3f bf b6 32 c0 80 51 40 be 34 6c 7a be
       0.5059063 -2.792404 -0.1878109 -0.24455339
000010 f3 93 09 c0 df f9 8f c0 b0 ee 47 40 5e d0 01 c0
       -2.149655 -4.499252 3.1239433 -2.0283427
000020 5b 0f 5f c0 21 cf 1b be 56 7e c5 3f 99 a1 b5 c0
       -3.4853122 -0.15215732 1.542918 -5.6759763
000030 e3 90 d2 c0 d1 d3 a6 c0 e7 76 ac c0 4d 95 06 c0
       -6.5801864 -5.2133565 -5.3895144 -2.1028626
000040 61 ed 68 c0 0d 8e 8f c0 9e 79 88 c0 ea a0 0c c0
       -3.6394885 -4.48609 -4.264846 -2.1973214
000050 a2 b0 a4 bf b1 2b 2d c0 19 ac 21 c0 f4 4d 3c c0
       -1.2866404 -2.7057917 -2.526129 -2.942258
000060 c8 ea d3 bf 20 72 45 40 b7 6d 86 3f 3d 59 e7 bf
       -1.6556025 3.0850906 1.0502232 -1.8074108
000070 eb 8f b7 bf bd 62 c8 40 c5 ae 09 3f ed 2e c3 3f
       -1.4340795 6.262053 0.537823 1.5248696
000080 f2 6d 71 40 f8 f9 9f c0 15 b2 71 c0 b5 4e 6b c0
       3.7723355 -4.999264 -3.7764943 -3.676679
000090 af a5 e2 bf 14 13 9f c0 59 a3 95 c0 3e 86 93 c0
       -1.7706813 -4.971079 -4.67619 -4.610137
0000a0 66 b5 81 40 53 2a 5c bf 34 bd a1 c0 3d 72 63 c0
       4.0533934 -0.8600208 -5.054346 -3.5538476
0000b0 9c f7 86 bf 8c 9e f7 3f 72 55 7b c0 9e cc a3 c0
       -1.0544314 1.934526 -3.9270902 -5.1187277
0000c0 61 70 bb c0 7c fe c0 bf 4d 25 c9 40 78 df 86 c0
       -5.857468 -1.5077662 6.2858033 -4.214779
0000d0 c7 b0 4a 40 3b 47 c5 bf 31 1d 61 c0 44 58 0c c0
       3.1670396 -1.5412363 -3.5174067 -2.1928873
0000e0 e0 18 03 40 b5 9b cd 3f 0e 19 80 c0 94 1e 03 c0
       2.0483932 1.6063143 -4.0030584 -2.0487413
0000f0 47 c6 de 40 45 fb 8a 3f 31 b0 34 3f 68 6c d3 bf
       6.961704 1.0857931 0.70581347 -1.6517458
000100 78 c1 0a c0 ce 21 8b c0 76 63 78 3e ae 6c 0f c0
       -2.1680584 -4.3478765 0.24256691 -2.2410083
000110 fe 72 40 c0 09 92 ff bf 5a 33 6e c0 23 b8 8f 40
       -3.0070186 -1.9966441 -3.7218843 4.4912276
000120 ea 81 82 c0 93 29 86 c0 4e 45 08 40 1e 14 87 40
       -4.0783587 -4.192575 2.12923 4.2212057
000130 bd 6a 63 be 80 55 6f c0 d3 31 42 c0 fb 13 a1 3c
       -0.22208686 -3.7395935 -3.034291 0.019662848
000140 10 b2 56 c0 b7 71 41 40 9f ae 1b 3f 1d bd 2e 3f
       -3.354618 3.0225656 0.60813326 0.68257314
000150 3c c5 b8 c0 f6 d8 1c bf f0 2e 29 40 76 5e 51 c0
       -5.7740765 -0.61268556 2.6434898 -3.2713904
000160 51 ae 2b 40 16 f8 b1 c0 74 41 62 c0 71 29 e4 bf
       2.6825144 -5.561534 -3.535245 -1.7825147
000170 79 6a c0 3e a6 da a0 bf 5d d6 df 3f 46 ef e2 3f
       0.37581232 -1.2566726 1.7487293 1.772927
000180 db 9e 5b 3f f2 f5 cd c0 8f 18 f4 c0 20 23 0b 40
       0.8578927 -6.4362726 -7.627998 2.1740189
000190 c2 cc e8 3f 96 d6 a8 c0 f3 38 6f 40 73 c3 d4 40
       1.8187487 -5.2761946 3.737851 6.6488585
0001a0 37 6c 42 c0 ff a9 f1 3d 2d 58 27 3f 91 28 61 c0
       -3.037855 0.11800002 0.6536892 -3.518101
0001b0 18 81 88 c0 d2 31 6d c0 4b 2f 8d c0 f0 e6 1a c0
       -4.2657585 -3.7061658 -4.412023 -2.4203453
0001c0 ab f4 fb bf 8e d8 15 c0 62 ec 85 40 cd 17 18 c0
       -1.9684042 -2.3413424 4.1851053 -2.3764527
0001d0 02 fc 0f c0 b0 76 a3 40 10 54 e0 bf c7 d5 4b 40
       -2.2497563 5.108238 -1.7525654 3.184923
0001e0 7e 70 3c c0 53 20 99 c0 ac 61 81 c0 11 36 a5 c0
       -2.944366 -4.785196 -4.043173 -5.16285
0001f0 e2 5f cf c0 52 65 0d c0 05 cb 0c c0 fd 97 83 40
       -6.4804544 -2.209309 -2.1998913 4.1123033

fc2.weight f4 [64, 128]
000000 c2 57 03 bf 35 50 a5 3e 62 5e b5 bd 6e 0f 2a bf
       -0.5130578 0.32287756 -0.08855893 -0.66429794
000010 30 64 d2 be 8c 99 2d 3d 1a 40 77 3f b1 98 e6 be
       -0.41092062 0.04238276 0.96582186 -0.4503837
000020 22 41 7f be 1a 9d 6c 3f c8 eb e7 be 8b 15 b8 3e
       -0.2492719 0.9242722 -0.45297074 0.35953936
000030 34 38 1d be 8b 95 8b c0 4c 30 ad bf ee 4d 7b bd
       -0.15353471 -4.3620048 -1.3530364 -0.061353616
000040 ef 60 9d be 23 7f 24 40 2a 96 bc be b2 8c b3 3e
       -0.30738017 2.5702598 -0.36833316 0.3506828
000050 53 d5 24 be 29 18 d4 be 2f 5d 5c bf c9 24 12 3f
       -0.16097002 -0.41424683 -0.86079687 0.5708738
000060 46 23 7e be 1a e6 47 bf f4 86 cf be ea 71 6c c0
       -0.24818143 -0.7808548 -0.4053265 -3.6944528
000070 05 5e ce be 6d cf 79 3e b6 33 af 3f 12 90 67 3f
       -0.40306106 0.24395533 1.3687656 0.9045421
000080 b7 6a ac be 2f 42 a8 3d be 88 1e c0 50 79 ef 3c
       -0.33675167 0.082157485 -2.477096 0.029232651
000090 97 2b 9a 3f 9d 49 4c 3f 7b 0e 25 3f f8 44 0e 40
       1.2044553 0.79799825 0.6447522 2.2229595
0000a0 cf de 07 3f 28 f4 30 bf 2f 84 07 3e be 71 d2 c0
       0.53074354 -0.6912255 0.13234018 -6.5763845
0000b0 61 c4 17 bf 90 87 9c c0 81 6b b4 c0 16 8b 2a bf
       -0.59284025 -4.891548 -5.638123 -0.6661848
0000c0 ad 56 b0 bd 35 6f d1 bd 96 5d 15 3f 3d 20 75 be
       -0.08610282 -0.10226289 0.58345926 -0.23938079
0000d0 d2 64 83 be cc 50 01 c0 54 9c 20 40 fa 9c 23 c0
       -0.25662857 -2.0205564 2.5095415 -2.556456
0000e0 43 1e d7 3e 59 5d c5 be 22 68 40 bf c6 20 73 bf
       0.42015275 -0.3854778 -0.75158894 -0.94971883
0000f0 9a 56 3b bf 47 ef b2 be 3a 00 99 be f0 20 a2 c0
       -0.7317902 -0.3494818 -0.29882985 -5.0665207
000100 a5 1b 59 40 c1 65 00 bf ad dd 3d bf 37 39 39 3e
       3.3923123 -0.50155264 -0.74166375 0.18088232
000110 d2 bc 2b c0 34 db cd 3e 72 28 5a bf 93 ad 17 3d
       -2.6833997 0.402063 -0.85217965 0.037030768
000120 5b 65 55 3f cd 6e b4 c0 b3 93 fc bd f5 c6 75 bf
       0.8335778 -5.6385255 -0.12332859 -0.9600671
000130 f1 b1 e7 bf d7 f2 74 bc 44 88 d5 be 0c 43 b3 bf
       -1.8101178 -0.014950476 -0.41705525 -1.4004836
000140 ef 77 40 3e e8 db d5 3d 7b 9a 34 be 13 5a bf be
       0.18795751 0.104423344 -0.17637055 -0.3737341
000150 23 cd 06 bf 3b ff c5 be 3e 1e 2f 3f b2 ab a1 3f
       -0.52656764 -0.38671288 0.6840552 1.2630522
000160 8d fc c3 be f6 fd 4d c0 a0 56 61 c0 37 df ec be
       -0.38278618 -3.2186255 -3.5209122 -0.4626405
000170 7c 46 7d bf a4 6e 04 3e 1b ab 25 40 bf 37 f8 3e
       -0.98935676 0.12932831 2.5885684 0.4848003
000180 0b 0b fd be 2e 49 25 40 16 d9 fc c0 65 13 e8 3e
       -0.49422488 2.5825915 -7.9014997 0.45327297
000190 9c 10 e0 3e 34 49 08 bf 2e d4 a6 bf db fe 7f bf
       0.43762672 -0.532367 -1.3033502 -0.99998254
0001a0 5f 8d 82 bf 61 28 2d bf e8 d3 b4 3f 8d 11 31 bf
       -1.0199393 -0.6763974 1.4127169 -0.69167405
0001b0 87 cf a2 3f e4 4f c0 bf 86 8e da be ef f4 42 3f
       1.2719582 -1.5024381 -0.42686862 0.7615499
0001c0 aa ad 13 40 40 a0 51 3f b1 86 94 bf 9a 3d 60 3f
       2.3074746 0.8188515 -1.1603605 0.87593997
0001d0 d2 46 65 bf 3a ba 9e 3f a2 27 65 3f 47 0a cd 3f
       -0.8956119 1.2400582 0.895136 1.6018761
0001e0 73 de d4 be 9c ba fe bf 1f ae 3e 3e 8d d2 4b 3f
       -0.41575965 -1.9900699 0.1862111 0.7961815
0001f0 75 2a 2b c0 a8 6b 2a be 5f 0c 66 40 65 70 39 3f
       -2.6744664 -0.1664263 3.594505 0.72437125
000200 de ed f6 3f 3b 6e 98 be 32 7d 80 40 fa 5a 6d bf
       1.9291341 -0.297716 4.0152826 -0.92716944
000210 22 1a 98 bf 20 53 c9 bd d1 bd a3 be 01 d4 ab bf
       -1.1882975 -0.09830308 -0.31980756 -1.3424073
000220 d0 1d 8c 3f d1 8c 79 c0 a3 a2 ea 3e db bb 3f bf
       1.0946598 -3.8992198 0.45827207 -0.7489602
000230 a8 1b 23 c0 71 88 e2 bf 69 2d b9 3f 45 93 51 3f
       -2.548563 -1.7697889 1.4466983 0.8186534
000240 05 ee 01 3c b6 18 a6 bf 18 ac 18 be 3b 4a 33 bf
       0.007930283 -1.2976291 -0.14909399 -0.7003514
000250 29 57 d5 3d e4 0f 16 c0 f0 01 b6 3d 85 a0 e4 be
       0.10417015 -2.34472 0.08887088 -0.44653717
000260 be fe c6 be b5 31 9c bf 94 c1 77 3f f9 67 32 3e
       -0.38866228 -1.2202669 0.9677975 0.17422475
000270 a3 e5 50 be aa 8c 78 bf 27 c3 94 3f e5 b2 4f bf
       -0.204001 -0.97089636 1.1622056 -0.81132346
000280 3d ad e0 3e 3c 14 d2 3e 64 77 5b bf 05 86 26 3f
       0.4388217 0.41031063 -0.8572905 0.6504825
000290 9e e8 0e 3f ad 8a 80 3f e2 e8 a6 bf 87 28 9b be
       0.55823696 1.004232 -1.303982 -0.30304357
0002a0 0c ba e5 3e 2e 40 1c bf ac 3a 0d bf 20 ad 4c bf
       0.44868505 -0.6103543 -0.5516765 -0.7995167
0002b0 0a 47 ee be c8 19 43 bf 62 c7 5f be ac b2 c9 3f
       -0.46538574 -0.76211214 -0.21853402 1.5757651
0002c0 1a 3e b6 3f f1 6f 20 3f e3 8f b1 3e 31 fc 66 3f
       1.4237702 0.6267081 0.3468009 0.90228564
0002d0 8d 99 39 3e 19 bf 3d 3e 1a c8 24 3e 28 86 22 3f
       0.18124981 0.18529929 0.16091958 0.63485956
0002e0 af ae b3 bf d0 05 0d 3f 59 57 a9 bf 1d c6 62 bf
       -1.4037684 0.55086994 -1.3229781 -0.88583547
0002f0 1f 1b b2 bf 3b fd d9 3f 0e df e1 be cc 97 27 3f
       -1.3914527 1.7030405 -0.4411549 0.65466
000300 c5 f9 92 be 51 2d 7c be 7a bb 1d bf a2 a9 ff be
       -0.28706184 -0.24626662 -0.6161419 -0.49934107
000310 f4 16 66 be ec 9d 02 bf 00 3d 45 bf 64 d5 17 40
       -0.22469693 -0.5102222 -0.77046204 2.3723993
000320 d1 01 39 c0 db 9b 19 c0 4d 5e a2 bf ee bb 7d 3b
       -2.8907359 -2.4001377 -1.2685028 0.003871675
000330 42 c0 bb 3e 01 48 82 bf d2 db 34 c0 84 94 dd 3f
       0.3667012 -1.0178224 -2.8259168 1.7310948
000340 40 69 23 3f 9f 64 be 3f 4b e1 ca 3f 65 de b2 be
       0.63832474 1.4874457 1.5850004 -0.349353
000350 b7 8d da bf 19 68 99 c0 e6 16 94 3e 2b 76 2f 3f
       -1.7074498 -4.793957 0.2892372 0.68539685
000360 2d f5 aa 3f c7 fc c9 3d 21 48 a8 3f e8 2e 58 bf
       1.3356072 0.098626666 1.3147012 -0.84446573
000370 eb c6 d2 3f 5a 24 fc 3e da 3b fc bf fc 63 ac 3e
       1.6466955 0.49246484 -1.9705765 0.33670032
000380 1e 1f 7b 3f 21 f5 8a bf aa ab 3f 3f 3c 1e d6 bf
       0.98094356 -1.0856057 0.74871314 -1.6727977
000390 80 9f 15 3f 4a eb 59 3f a0 34 51 c0 a4 c5 38 bf
       0.584465 0.8512465 -3.268837 -0.72176576
0003a0 f6 c5 6b be 36 24 97 bf 80 ce 9a 3e 93 58 dc 3f
       -0.23024735 -1.1807926 0.30235672 1.7214531
0003b0 33 5b 8a bf d6 4e b1 bf 21 89 69 c0 ab 2b c4 bd
       -1.0809082 -1.3852184 -3.6489947 -0.095786415
0003c0 c5 0a 5d 3e 15 39 df 3f 1d cc 61 bf 4e 9c 94 be
       0.2158614 1.7439295 -0.8820208 -0.290255
0003d0 e4 91 43 be b1 81 00 bf e5 d4 9d 3f d8 e3 28 bf
       -0.19098622 -0.50197893 1.2330595 -0.6597266
0003e0 83 fe 18 3f d4 08 bd be d6 ce 4d 3f 6a d7 27 40
       0.59763354 -0.36920798 0.8039373 2.6225228
0003f0 3b 15 b3 3e a6 d5 f0 be 0b 72 93 3e cb 0a 84 bb
       0.34977135 -0.47038 0.28797945 -0.004029607

fc2.bias f4 [64]
000000 37 7b 62 40 f2 11 34 c0 00 88 c6 bf 43 2f 8c bf
       3.5387704 -2.8135953 -1.5510254 -1.0951923
000010 4a d0 71 c0 b7 98 26 40 8b 6a 8a c0 cc 88 91 40
       -3.778338 2.603071 -4.3255057 4.547949
000020 1e 3a 89 bf 2b 4a ec bd c7 d9 98 40 42 5f 0a bf
       -1.0720861 -0.11537584 4.776584 -0.540516
000030 13 e0 c7 40 32 3d 18 41 20 3b 03 c0 4d 88 66 bf
       6.246103 9.51494 -2.0504837 -0.9005173
000040 8e 07 39 3f 42 db cb 40 49 f8 b1 40 3c ce 8f 40
       0.7227715 6.370515 5.5615582 4.493925
000050 7a 4b 98 bd 88 a7 82 40 95 be 5c be 28 45 c3 c0
       -0.07436271 4.0829506 -0.21557076 -6.102192
000060 b9 9f b6 be be 52 47 bd 54 b2 0d c0 97 7e dd 40
       -0.35668734 -0.048662893 -2.2140093 6.921703
000070 46 f8 43 40 5d f7 aa 40 4b 3d 27 c0 b1 91 af bd
       3.0620284 5.3426957 -2.613116 -0.0857271
000080 14 b5 10 be 8d 3b ba 40 62 ce bb 40 6f 54 ab 40
       -0.14131576 5.8197694 5.868943 5.354057
000090 95 d6 8c be 90 f6 98 3e 9d cc 2f 40 03 c0 6e c0
       -0.27507463 0.29875612 2.7468636 -3.7304695
0000a0 13 99 ef bf 66 06 91 bd bb fc 86 c0 01 19 39 c0
       -1.871859 -0.070812985 -4.218351 -2.892151
0000b0 30 af 14 c0 4c c2 b9 40 65 2a 38 bf 8f 0d c4 c0
       -2.3231926 5.804968 -0.7193969 -6.126655
0000c0 c8 c0 07 bf 81 cd ab bf fe 92 9d 40 24 53 37 bf
       -0.53028536 -1.342209 4.9241934 -0.7161124
0000d0 6e ef 80 bd fb 9c 28 be f2 3f 16 40 cc 73 db 40
       -0.062956676 -0.16466133 2.347653 6.8578854
0000e0 cf 59 9f 40 5b b4 ef bf 7e 9d f6 40 f1 30 8a c0
       4.979713 -1.8726915 7.706725 -4.3184743
0000f0 ea 02 be 3c 92 1e bc bf c0 3c df 3e db f6 db 40
       0.023194749 -1.4696829 0.43601036 6.8738837

final.weight f4 [6, 64]
000000 6d 04 a3 bc e3 85 35 bd 6d ac 08 be 67 10 4d be
       -0.019899571 -0.044317137 -0.13347025 -0.20025788
000010 13 70 aa 3b b4 f3 49 3e 00 7a 98 3d 69 e5 1d 3e
       0.0052013486 0.19721872 0.07445145 0.15419544
000020 68 f9 55 bc 50 12 63 bd c5 7a e6 3d 61 a1 13 3c
       -0.013059951 -0.055437386 0.11253885 0.009010644
000030 50 80 0a 3c d7 d3 b0 3f a2 ea 28 be de d9 1d be
       0.008453444 1.3814648 -0.16495755 -0.15415141
000040 ef 50 15 3e 76 13 08 3e b7 ff 24 bd d9 6a 7b 3c
       0.14581655 0.13288674 -0.04028293 0.015345299
000050 9e e5 fb 3d ef cd 1e 3a 73 ce d8 bc 49 4f 5a be
       0.122996554 0.0006057908 -0.02646563 -0.21319307
000060 d2 03 38 3b a0 62 83 3c e2 e4 3d bc be bb 03 3e
       0.002807845 0.016038239 -0.011590214 0.12864587
000070 ea 50 ce bd 73 c3 3a 3d f7 93 03 3d e4 c0 33 bd
       -0.10074027 0.04559655 0.032123532 -0.043885127
000080 03 b0 9e bd ce b8 fc bc 5e 9c 3d bd 72 9d 26 3d
       -0.07748415 -0.03084984 -0.0462917 0.040677495
000090 2f 87 c8 3d a3 4c cd bd 21 b4 de 3d 1a d6 a3 bd
       0.09791409 -0.10024383 0.108742006 -0.07999821
0000a0 cd 29 aa be 50 2d 36 bd e1 a7 ef bc 0b f1 df bd
       -0.33235016 -0.044476807 -0.029254856 -0.10934647
0000b0 d7 38 6a be a7 90 ee 3d 17 26 fc 3c f8 c2 e2 3c
       -0.22873245 0.11648684 0.030779881 0.027680859
0000c0 8e 34 27 be c0 76 77 3b c5 35 2d 3e 98 6f 6f 3d
       -0.16328642 0.003775999 0.16915043 0.058456033
0000d0 be 60 57 3d 72 c0 ab 39 d6 ec c4 3c 50 c2 31 3e
       0.052582495 0.00032759045 0.024038713 0.1735928
0000e0 54 6d da 3c 7d 24 fe bd 0b b3 ab bd 8a 97 8d bd
       0.02666346 -0.12409303 -0.08383759 -0.069136694
0000f0 d0 56 a5 3d c9 1f 6e 3e 35 47 19 3e cc 9f b7 3d
       0.08073199 0.23254313 0.1496857 0.08966026
000100 0e 4a b8 3d 0e 73 ae bd 69 12 8a 3c 7c a9 ac 3c
       0.089985 -0.08518039 0.016854482 0.02107691
000110 22 ca f9 bd d0 50 0b bb d7 8e 81 be df 72 8d bb
       -0.12196757 -0.0021257885 -0.2530429 -0.004316672
000120 73 33 82 3e 5e 5a e1 3d 3f 30 90 3c 13 58 e8 bd
       0.25429878 0.11003564 0.01760113 -0.11344924
000130 3b d2 16 3e ab 0b ae 3f ad f9 4e 3c 15 64 a2 bd
       0.14728634 1.3597311 0.0126327695 -0.079292454
000140 e1 32 15 3c 46 1d ff 3c 7a 45 e5 3d 5d 29 cc 3d
       0.009106369 0.031141888 0.11194892 0.09968827
000150 e0 d9 d6 bb 2c 22 00 3e 41 d3 20 3d 51 3c 03 3b
       -0.0065567344 0.12513036 0.039263967 0.0020024965
000160 b9 60 b9 bd c2 c3 bf bd e7 f7 01 be 16 a5 58 3d
       -0.090516515 -0.0936351 -0.12692223 0.052891813
000170 1e c6 0b 3b 94 ec 1a 3e 94 b2 12 be e3 60 84 3c
       0.0021327804 0.1512931 -0.14325935 0.01615948
000180 86 32 cc bd 5f 01 14 3e e0 72 b1 3d 0c ce ee 3d
       -0.09970574 0.14453648 0.08664489 0.11660394
000190 ab 2b e8 bc 98 f2 8b 3c 86 85 b4 bd b9 02 d2 bd
       -0.028341135 0.017083451 -0.0881453 -0.102544256
0001a0 03 10 a3 bc cd 23 6f 3d f7 2c 08 be df ce 0a be
       -0.019905096 0.05838375 -0.13298403 -0.13555478
0001b0 22 32 c6 bc 38 a7 90 bc 8b ca 38 be d3 14 27 be
       -0.024193827 -0.017657861 -0.18046014 -0.16316538
0001c0 f3 3e b6 3e 65 37 62 be 96 4a 0e 3c a6 f2 0c be
       0.355949 -0.22091444 0.008684775 -0.13764438
0001d0 10 18 61 3c 4e 99 e2 bb 47 65 45 3e f7 34 26 3d
       0.013738647 -0.006915248 0.19276915 0.040577855
0001e0 86 20 e1 3d b8 af 7e bd 46 a1 f8 3d b3 f3 8b be
       0.109925315 -0.062179297 0.121401355 -0.27334365
0001f0 68 aa 81 3c 71 72 df 3c 24 88 3d bc 05 df d1 3d
       0.015828326 0.02727625 -0.011568103 0.10247616
000200 8f a8 c0 3d 4b 1d f4 bd b5 85 3a 3c ac 7d e5 3c
       0.0940715 -0.1191965 0.011384417 0.028014027
000210 2d 27 16 be d8 a1 fd ba 82 b9 85 be 86 42 55 bb
       -0.14663382 -0.0019350601 -0.26118094 -0.0032540872
000220 9f bf 88 3e c6 89 8b 3d 92 a8 39 3c 2d 54 2e be
       0.26708695 0.068133876 0.011331694 -0.17024298
000230 53 70 14 3e bd 4b ae 3f ed ba 51 bb b9 ca d4 bd
       0.14495973 1.3616863 -0.0032002286 -0.10390229
000240 aa 5b 8f 3b e8 84 13 3d 74 b3 05 3e fe e8 d8 3d
       0.004374941 0.03601542 0.13056737 0.10591315
000250 80 c7 48 3d 9e 65 f3 3d 96 e4 65 bd db eb 5a bc
       0.049018383 0.11884616 -0.0561262 -0.013361896
000260 c0 3b 0b be 7a ff 5d 3c ec 4c ee bd 28 2b 59 3d
       -0.13597012 0.01354968 -0.116357654 0.053019673
000270 eb e4 9e 3b 6c 95 12 3e c7 14 09 be 73 09 c1 bd
       0.0048490665 0.14314812 -0.13386832 -0.094256304
000280 87 ce 34 bd 34 b6 0b 3e 43 da 8d 3d 26 00 06 3e
       -0.044142272 0.13643724 0.06926396 0.13085994
000290 26 8b 08 bd 5c 89 cb 3d 14 dc 56 bd ac 51 c5 bd
       -0.033335827 0.099383086 -0.052455977 -0.09634718
0002a0 e9 6e 6b bd b1 09 38 3c 85 4b 06 be e6 1a 0e be
       -0.05747882 0.011232779 -0.13114746 -0.13877448
0002b0 a8 54 bf bc 5c a4 c5 bc b0 4c e0 bb d8 50 2b be
       -0.023355797 -0.024126224 -0.0068450794 -0.16730058
0002c0 ed 3c 93 be a6 46 44 be 7a f4 7e 3c 30 57 fd bd
       -0.2875742 -0.19167575 0.015561217 -0.12370145
0002d0 13 10 b8 bc ec d2 90 bb a4 a2 38 3e 00 c1 2d 3d
       -0.022468602 -0.004419675 0.18030792 0.042420387
0002e0 e0 a0 dd 3d 1e c9 9d bd 47 69 f1 3d 51 b9 8a be
       0.108217 -0.07704376 0.11787658 -0.2709451
0002f0 40 36 11 bd 12 36 67 3d 58 1b 47 bb dc 4c cc 3d
       -0.035452127 0.05644805 -0.0030381288 0.09975597
000300 da 78 95 3d d9 ef af bd 45 20 a5 3b 4f 90 f0 3b
       0.07298441 -0.08590669 0.005039247 0.0073414217
000310 54 06 0a be aa 12 26 3c 60 50 80 be 3e e9 20 bc
       -0.13478976 0.010136286 -0.2506132 -0.009821234
000320 85 77 80 3e d8 3e a7 3d 89 9a 2f 3c 2c 02 e8 bd
       0.25091186 0.08166283 0.010717996 -0.11328539
000330 3b 2c 1e 3e e6 98 ae 3f eb cd c4 ba ad 34 cc bd
       0.1544656 1.3640411 -0.0015014982 -0.099709846
000340 45 a9 b8 3c 4f 0e 05 3d 1e 9e fe 3d 0e dc ec 3d
       0.022541652 0.03248435 0.12432502 0.115654096
000350 08 91 60 bd a2 4b d4 3d d6 af 37 bd 38 cd 4e 3b
       -0.054825813 0.10365988 -0.044845425 0.0031555425
000360 e7 63 17 be 6e 40 16 bc 26 f8 00 be 84 a4 4b 3d
       -0.14784203 -0.009170635 -0.12594661 0.04971744
000370 ae ba 01 bc 82 5f 19 3e 44 67 10 be c9 1e ee bd
       -0.007918043 0.1497784 -0.14101893 -0.116269656
000380 a3 b5 04 3d cf 59 10 3e b7 37 98 3d 54 90 e7 3d
       0.032399785 0.1409676 0.07432502 0.11306825
000390 64 a0 1b bd 40 9e f8 bc c6 ad 63 bd f0 aa a8 bd
       -0.037994757 -0.030348897 -0.055585645 -0.08235729
0003a0 52 82 58 3c 8c 3d 59 3c 01 d2 04 be bb aa 1c be
       0.0132146645 0.013259303 -0.12970735 -0.15299504
0003b0 40 f7 1f bd a3 42 9d bc 6c b8 11 3c 4c e9 21 be
       -0.039054155 -0.019196814 0.008894067 -0.15811652
0003c0 4a 62 9c 3d 8a d6 57 be e1 3b ab 3c 02 db ec bd
       0.07635935 -0.21077934 0.020902576 -0.1156521
0003d0 9d 82 81 bb 20 f3 e5 bc 71 bd 42 3e 45 53 42 3d
       -0.003952338 -0.028070033 0.19017579 0.047442693
0003e0 02 72 e9 3d ba a0 80 bd fb bb f6 3d 4e 5a 84 be
       0.113986984 -0.06280656 0.12047573 -0.25850147
0003f0 69 4a c7 bc c7 a4 75 3d 18 63 7e bc 16 10 ce 3d
       -0.024327474 0.059971597 -0.0155265555 0.10061662

final.bias f4 [6]
000000 fc a6 e2 40 f6 48 f1 40 11 bc e5 40 d4 3b d5 40
       7.082884 7.5401564 7.1792073 6.663553
000010 75 cc be 40 df 34 a1 40
       5.962458 5.037704
