D2QN_AAAI/checkpoint_d2qn_cheetah_0.pth (torch, 45655 bytes, 6 tensors)

fc1.weight f4 [128, 17]
0	0x4067fcdf	3.624809
1	0xc085fb68	-4.1869392
2	0x400ec163	2.2305534
3	0xc06533a2	-3.5812764
4	0xbf255642	-0.64584744
5	0x3fceb11a	1.6147797
6	0xc033f5ff	-2.8118894
7	0x3e6275dd	0.22115274
8	0xbff501e3	-1.9141201
9	0x40529010	3.2900429
10	0xc00e685d	-2.2251198
11	0xbe8b6f7f	-0.27233502
12	0x3e0bf0ca	0.13666072
13	0x3e3e39b3	0.18576698
14	0x3eabcc6c	0.335544
15	0xbe262cfd	-0.16228099
16	0xbe2a30bc	-0.16620153
17	0xc09ff1f4	-4.9982853
18	0xc0c493e6	-6.143054
19	0xbf2f3dfd	-0.6845396
20	0xbed25734	-0.41082156
21	0xbe5b782e	-0.21432564
22	0x3fda199c	1.7039065
23	0x3efba338	0.49147964
24	0x3e2368c6	0.15957937
25	0xbf83636b	-1.0264715
26	0xbe49babc	-0.1970014
27	0xbfc09741	-1.5046159
28	0xbe5cca89	-0.21561636
29	0xbe79a4ac	-0.24379224
30	0x3c806121	0.015671315
31	0x3dd7b689	0.10532863
32	0x3ca007b8	0.01953493
33	0xbcb62986	-0.022236597
34	0xc0ead5a5	-7.3385797
35	0xbf246db4	-0.64229894
36	0xbe0f0b8a	-0.13969246
37	0xbf16eb5e	-0.5895289
38	0xbf3edf32	-0.7455932
39	0xbdc4dbd0	-0.096122384
40	0x3fb479e4	1.4099698
41	0x3d795e30	0.06088084
42	0x3fbb9490	1.4654713
43	0xbdcefdcc	-0.10107002
44	0xbed84d92	-0.4224668
45	0xbd53aa03	-0.051675808
46	0x3b8e4435	0.004341627
47	0x3d023ea6	0.031798027
48	0xbdf744bd	-0.12073658
49	0xbdc346b7	-0.09534972
50	0xbd479bc4	-0.048732534
51	0x40d693e3	6.7055526
52	0x3ccd7bf8	0.025083527
53	0xbe8e56bc	-0.27800548
54	0x3da1fc19	0.07909412
55	0x3e874817	0.26422188
56	0xc03c8a3c	-2.9459372
57	0x3e30106e	0.17193767
58	0xbf4ad9d2	-0.7923862
59	0x3f710d6e	0.9416112
60	0x3f5cfaf9	0.86320454
61	0xbe927fa7	-0.28613016
62	0xbd140606	-0.036138557
63	0xbcafffe8	-0.02148433
64	0x3d80fc62	0.06298138
65	0x3cc2b499	0.023767756
66	0x3c8b9f53	0.017043745
67	0xbcf461c0	-0.029831767
68	0x406c507f	3.692413
69	0xbf5256b0	-0.82163525
70	0xc0025667	-2.0365236
71	0xc0085246	-2.1300216
72	0xc0006b79	-2.0065596
73	0xc04f2a7c	-3.236968
74	0xc00aff14	-2.1718187
75	0xbfd0ed32	-1.6322386
76	0xbe637134	-0.22211152
77	0xbde78636	-0.113048956
78	0x3e578d14	0.21049911
79	0xbcc227d8	-0.02370064
80	0xbe042a15	-0.12906678
81	0x3e8f301f	0.279664
82	0xbe138e49	-0.14409746
83	0x3e688264	0.2270599
84	0x3ae1714d	0.0017199904
85	0xc0cd5efe	-6.4178457
86	0x3ff7befd	1.935516
87	0xbed3addd	-0.41343585
88	0xbfed424d	-1.8535858
89	0x3e861296	0.26186055
90	0xc03b309b	-2.9248416
91	0x40aac460	5.3364716
92	0xbfc4ec24	-1.5384564
93	0xbe6f6306	-0.23377618
94	0xbfa1445a	-1.2598984
95	0xbbdad12b	-0.006677767
96	0xbbe1661c	-0.0068786275
97	0xbca493c3	-0.02008999
98	0xbc78d277	-0.0151868975
99	0xbe12c64b	-0.14333455
100	0x3d0dfc47	0.03466442
101	0x3c94fa75	0.018185833
102	0x3fcef8fa	1.6169732
103	0xc0642307	-3.564638
104	0xbf93b737	-1.1540288
105	0xc0066eeb	-2.10052
106	0x400bc620	2.1839676
107	0x3ffeaa99	1.9895812
108	0xbf8a8a9c	-1.082355
109	0xc011fe55	-2.2811482
110	0xbfce4120	-1.6113625
111	0x4033baff	2.8082883
112	0xbf5b2400	-0.85601807
113	0x3daf2842	0.085526004
114	0x3d9df567	0.077128224
115	0x3e6d3218	0.2316364
116	0xbd0a8bc6	-0.033824705
117	0x3d7d59ec	0.061853334
118	0xbdc9732a	-0.09836419
119	0xbfdbea68	-1.718091
120	0x3e137ddb	0.14403479
121	0x402e87f4	2.727048
122	0xbfae7d7b	-1.3632044
123	0xbfcf0628	-1.6173754
124	0x3e669ef5	0.22521575
125	0xc00c4b5a	-2.192099
126	0xbf6ae0aa	-0.9174906
127	0xbede9911	-0.43476155
128	0xbf95b0d9	-1.1694595
129	0xbff4cd0b	-1.9125074
130	0xbea4ed71	-0.32212403
131	0xbe699431	-0.22810437
132	0xbe438841	-0.19094945
133	0x3d386b56	0.04502424
134	0x3dcf75fc	0.101299256
135	0x3dadb60a	0.08481987
136	0xbd3eca45	-0.046579618
137	0x3fd5c775	1.6701494
138	0x405fae06	3.4949965
139	0x3fa541f3	1.2910751
140	0xbe54cc88	-0.20781147
141	0xbef58d28	-0.47959256
142	0x3f69607a	0.91162837
143	0xbfdbde8a	-1.7177289
144	0xc0199d75	-2.4002354
145	0x3d9d4432	0.07679023
146	0x3f104dfd	0.56369
147	0xbe61a594	-0.2203582
148	0xbde54770	-0.11195266
149	0x3e2b7787	0.16744815
150	0x3e49b47a	0.19697753
151	0x3eba8338	0.36428237
152	0x3da06fb9	0.078338094
153	0xbe941011	-0.28918508
154	0xc0f1b4e5	-7.553332
155	0xc05b145f	-3.4231184
156	0xc0439159	-3.0557463
157	0xc0830847	-4.0947604
158	0x3f9d634d	1.2295929
159	0x3f30de73	0.6908943
160	0x40085696	2.1302848
161	0xbf469e1f	-0.77585024
162	0x3f3c6b1b	0.7360093
163	0xbfaf4f8a	-1.3696148
164	0xbe43eeaa	-0.19134012
165	0xbe1bae52	-0.15203217
166	0x3e4a6e86	0.19768724
167	0x3d2b7612	0.041860647
168	0x3c2c3f13	0.010513085
169	0x3dd01ac4	0.10161355
170	0x3ed59479	0.41714838
171	0x3fbeb740	1.4899673
172	0x403c9c00	2.9470215
173	0x3ed34207	0.41261312
174	0xbf565cb0	-0.8373518
175	0xbf62be9c	-0.88572097
176	0xbf0c7c4b	-0.54877156
177	0xbf8baba8	-1.091176
178	0xbf10d64c	-0.5657699
179	0xbdcca61e	-0.09992622
180	0xbec5c32f	-0.38625476
181	0xbe031331	-0.1280029
182	0x3e17af91	0.14813067
183	0xbdffa791	-0.12483133
184	0x3e46d9ff	0.19419096
185	0x3d9e86fe	0.077405915
186	0xbe19a3ab	-0.1500384
187	0xc0e4f2d7	-7.1546435
188	0xc1194fb7	-9.581962
189	0xbe64686d	-0.2230546
190	0xbfb471ac	-1.409719
191	0xbe2cb802	-0.16867068
192	0xbf00c820	-0.50305367
193	0x3f4a14c5	0.7893794
194	0xbe8447ab	-0.25835928
195	0xbe087611	-0.13326289
196	0xbf9fc319	-1.2481414
197	0xbf5c5e4a	-0.86081374
198	0xbe4f3a5b	-0.20237105
199	0xbe290a90	-0.16507936
200	0xbd57d2ed	-0.05269139
201	0x3c2e524b	0.010639737
202	0x3cc7c064	0.024383731
203	0xbcc537a6	-0.024074387
204	0x3f2f8147	0.68556637
205	0x3f6561a5	0.8960212
206	0x3faae7bd	1.3351971
207	0x40446bd2	3.0690808
208	0x3fa11010	1.2583027
209	0x3ea8b920	0.3295374
210	0xbf9c59a6	-1.2214859
211	0x3f068b59	0.5255638
212	0xbec04c3a	-0.37558156
213	0x3e761558	0.2403158
214	0xbe697ce9	-0.22801556
215	0x3d7167c9	0.058936868
216	0x3b6b38eb	0.003589208
217	0x3d333c7d	0.043758858
218	0xbe0459ef	-0.12924932
219	0xbcfbe5f6	-0.030749302
220	0x3d6d5fa5	0.05795254
221	0x3f70fc49	0.94134957
222	0x3f1853f0	0.5950308
223	0x3f6b1216	0.9182447
224	0x3fd0a410	1.6300068
225	0x3e2b9160	0.16754675
226	0xbf5b0b44	-0.85564065
227	0xbfef4b00	-1.8694763
228	0xbfd3cfc8	-1.6547785
229	0xbed88f5f	-0.42296883
230	0x403b2c9d	2.924598
231	0x3fb3ea46	1.405587
232	0x3ea9e9de	0.3318624
233	0x3ea62647	0.32451078
234	0x3d8c0eac	0.06838736
235	0xbde02e79	-0.10946364
236	0x3dc4e42c	0.09613833
237	0xbd53fe04	-0.05175592
238	0xc0fee969	-7.9659925
239	0x4063da78	3.5602093
240	0x3d698389	0.057010207
241	0xbfe8d3e8	-1.8189669
242	0x3e23ed3e	0.1600847
243	0xbfa8ab19	-1.3177215
244	0x3ea68ac7	0.32527754
245	0xc00b07d9	-2.172354
246	0x3eafd338	0.34340835
247	0xbf98fc28	-1.1951952
248	0x3f7c90d9	0.9865852
249	0x3d716a55	0.058939297
250	0x3d9426d0	0.072339654
251	0xbd74d022	-0.059768803
252	0xbd93bf2b	-0.07214197
253	0x3df3a492	0.11896624
254	0x3d76b39b	0.06022988
255	0x40427586	3.038423

fc1.bias f4 [128]
0	0xc0048d9f	-2.0711439
1	0xbf7cb988	-0.987206
2	0xc03648a0	-2.8481827
3	0x4099f618	4.8112907
4	0xbfe14119	-1.7597991
5	0xc098e4c8	-4.7779274
6	0xbef9a2c1	-0.48756984
7	0xc008a181	-2.1348574
8	0xc02c2828	-2.689951
9	0xbf0efca0	-0.55854225
10	0xbf1bce41	-0.60861593
11	0xbeba2349	-0.36355045
12	0xc0122b4b	-2.2838924
13	0xc02a6610	-2.6624794
14	0xc07f6cc2	-3.991013
15	0x3ff295ee	1.8952005
16	0xc035904b	-2.836932
17	0xc0848c3d	-4.142119
18	0x3f5c0d00	0.85957336
19	0xbf384b94	-0.71990323
20	0xc0506640	-3.2562408
21	0x3ee32ebc	0.44371593
22	0x3fbd0900	1.4768372
23	0xbfe1192b	-1.7585806
24	0xbf57d8dc	-0.84315276
25	0x3f3f64de	0.74763286
26	0x40b29e96	5.5818586
27	0xc0060746	-2.094194
28	0xbfd73856	-1.6814067
29	0x3fa56cb9	1.2923805
30	0xc0097a60	-2.1480942
31	0xc0305110	-2.7549477
32	0xc0c1d499	-6.057202
33	0xc005c0f6	-2.0899024
34	0xc04d3306	-3.2062392
35	0xbfff5dcc	-1.99505
36	0xc04160d7	-3.0215356
37	0xc00147f5	-2.020017
38	0xc07c9237	-3.9464242
39	0xc00c0edf	-2.1884077
40	0xbf9367ae	-1.1516016
41	0x3fa66d89	1.3002177
42	0xc0546332	-3.3185544
43	0xc008891e	-2.133369
44	0xc014c2fd	-2.3244011
45	0xbfd98cdb	-1.6996111
46	0xc056b697	-3.3548944
47	0xc0b1e090	-5.5586624
48	0xc03f6e6b	-2.9911144
49	0xc0012c11	-2.0183146
50	0xbfedfd4d	-1.8592926
51	0xbfeb21ea	-1.8369725
52	0x3f96451a	1.1739838
53	0xbf86ef05	-1.0541693
54	0xbf67f423	-0.906069
55	0x40622e58	3.5340786
56	0xc01611ce	-2.3448367
57	0xc02e2217	-2.7208307
58	0xbfa71361	-1.3052789
59	0xc08f998f	-4.487495
60	0x40991be3	4.784654
61	0xbeb7c9c8	-0.35896134
62	0xbfb8cdec	-1.4437842
63	0xbc653fdb	-0.013992275
64	0xbfe817ef	-1.8132304
65	0x3f285638	0.6575656
66	0xc05c20f7	-3.439512
67	0xc0a109ad	-5.032431
68	0xc02f7093	-2.741246
69	0xbfba058b	-1.4532942
70	0x3feca634	1.8488221
71	0x4078d61a	3.8880677
72	0x3f32be38	0.698215
73	0x3fb75791	1.4323598
74	0xbe52edf7	-0.20598589
75	0x3fca8cbc	1.5824199
76	0x40320fd5	2.7822163
77	0xc04063bc	-3.0060873
78	0xc01da3b7	-2.4631174
79	0x3c95d49e	0.01828986
80	0xc0131a7f	-2.2984922
81	0xbfecf2ec	-1.8511634
82	0xc0969c0d	-4.706549
83	0xc0472d2a	-3.1121316
84	0xc04cdfae	-3.2011523
85	0xc04b5b2e	-3.1774402
86	0x407fb263	3.9952629
87	0xc0bc8b66	-5.8920164
88	0x3f4e1b6b	0.80510587
89	0xc057815b	-3.3672702
90	0x3e795643	0.24349312
91	0x3e93e874	0.28888285
92	0xc0a646fc	-5.196165
93	0xbfeee99b	-1.8665041
94	0x3f473fba	0.77831614
95	0xbffdfb0d	-1.984224
96	0x3d2e8569	0.0426077
97	0xc0630d10	-3.5476723
98	0xbf90d10a	-1.1313794
99	0x3f835722	1.0260966
100	0xbf6db786	-0.9285816
101	0xc04494d7	-3.0715845
102	0x3f051c8d	0.5199669
103	0x40a96680	5.293762
104	0x3f59c45a	0.85065234
105	0xbdfb1e8e	-0.12261687
106	0x3e9e4708	0.30913568
107	0xc0461b69	-3.095423
108	0xc04333b8	-3.0500317
109	0xc0a49306	-5.142947
110	0xbfb7aa14	-1.4348779
111	0xbfeae761	-1.8351861
112	0xc0155b09	-2.3336813
113	0xc0371977	-2.8609293
114	0x4037a6d4	2.8695574
115	0xc0689a76	-3.6344275
116	0x3f6cb4cf	0.9246339
117	0x3fd85087	1.6899575
118	0x3e363f65	0.1779762
119	0xbfd90a41	-1.6956254
120	0xc0648d37	-3.571119
121	0x3fff461c	1.9943271
122	0xc019b08a	-2.4014
123	0xbe85eabb	-0.26155648
124	0xc0c2f428	-6.092304
125	0xc080e354	-4.02775
126	0xbf9758af	-1.1823939
127	0x4041e3d0	3.0295296

fc2.weight f4 [64, 128]
0	0xbf98bf1b	-1.1933321
1	0xbf8ed18a	-1.1157696
2	0xbf853607	-1.0407113
3	0x3e1289b6	0.14310345
4	0x3ee6a248	0.45045686
5	0x40208a5d	2.508445
6	0xbf8b1415	-1.0865504
7	0x3f97268b	1.1808637
8	0x3ebe6924	0.3718959
9	0x3fd79296	1.684161
10	0xbdbe80cd	-0.093019105
11	0x3f054ee0	0.5207348
12	0xbfc53604	-1.5407109
13	0xbed568ef	-0.4168162
14	0x40129d72	2.2908597
15	0x3f146125	0.5796073
16	0x3faa15f4	1.328795
17	0x3f6d0d68	0.9259858
18	0xbf3250ad	-0.6965435
19	0xc0f46c0a	-7.6381884
20	0xbf26e038	-0.6518588
21	0x3e3d0f29	0.18462814
22	0xbf6340d7	-0.8877081
23	0xbf1a9e99	-0.6039825
24	0x3dd0fb9d	0.102042414
25	0x3f276221	0.6538411
26	0xbd840033	-0.064453505
27	0x3f2397cb	0.6390349
28	0xbfbe4a80	-1.4866486
29	0x3e797075	0.24359305
30	0x3e47ad03	0.19499592
31	0x3e9e15e0	0.30876064
32	0x407a6aaf	3.9127614
33	0x3d833887	0.06407266
34	0xbf573e96	-0.84079874
35	0xbfec90d4	-1.8481698
36	0xbf343725	-0.70396644
37	0xbee38837	-0.4443986
38	0xbf325d19	-0.69673306
39	0x3fa43232	1.2827818
40	0xc01182bc	-2.2736044
41	0x3d96a1ab	0.073550545
42	0x3d2256b5	0.03963347
43	0xbd1a4732	-0.037665553
44	0x3f986bdc	1.1907916
45	0x400ade31	2.1698115
46	0xbf4c2ecb	-0.797589
47	0x3fac76d4	1.3473763
48	0x3f1dd055	0.61646014
49	0xbf6875a4	-0.90804505
50	0xbfe8606f	-1.8154429
51	0xbf9337d2	-1.150141
52	0x3f3bc0d0	0.73341084
53	0xbeff0b26	-0.49813193
54	0x3e8d7071	0.27624848
55	0x3ebcfb9d	0.36910716
56	0xc008cd5d	-2.1375344
57	0xbe8aca0e	-0.2710728
58	0xbb582b35	-0.0032984738
59	0xbf986ad9	-1.1907607
60	0xbe40bea6	-0.18822727
61	0x3d9afce2	0.07567765
62	0xbdab7278	-0.083714426
63	0xbef22219	-0.4729164
64	0xbf49f1bb	-0.78884476
65	0x3e875e14	0.26438963
66	0xc0156b73	-2.3346832
67	0x3d8a1280	0.0674181
68	0x3e1f211f	0.15539978
69	0x3f181508	0.5940709
70	0xc0c02ee9	-6.0057263
71	0x3e9cf5bb	0.30656227
72	0x40a5839b	5.172315
73	0xbfd9ad93	-1.7006096
74	0xc0113594	-2.2688951
75	0xbed31644	-0.41227925
76	0x3ef1c778	0.47222495
77	0x3f02e580	0.5113144
78	0xbf9177dd	-1.1364704
79	0xbf4cdd2d	-0.8002499
80	0xbfb095ee	-1.3795755
81	0xbedf4872	-0.4360996
82	0x3e5ed62b	0.21761386
83	0xbfb1d6be	-1.3893659
84	0x3fe95b59	1.8231002
85	0x3f2a04ac	0.6641338
86	0x3e942c23	0.28939924
87	0x4072ddbe	3.794784
88	0xbfbde9b3	-1.4836944
89	0xbf113efd	-0.5673674
90	0xc00989fb	-2.1490467
91	0x3f7863e4	0.9702742
92	0x3e0044a1	0.1252618
93	0x3e241230	0.16022563
94	0x3f7856f1	0.9700766
95	0xbf692ce2	-0.9108411
96	0x3f20c4b8	0.6280017
97	0x3f9bd229	1.2173511
98	0xbe46d012	-0.1941531
99	0xc06116e3	-3.517022
100	0xc10259cf	-8.146926
101	0x3f5c9b34	0.8617432
102	0xc026324b	-2.5968196
103	0x3f53d6b2	0.82749474
104	0xbff108e7	-1.8830842
105	0xbf470465	-0.7774108
106	0x3df10caa	0.117699936
107	0x3c0bc3b9	0.008530551
108	0xbff510c5	-1.9145743
109	0x3fe18ddc	1.7621417
110	0xbefd24fb	-0.49442276
111	0xbd228b47	-0.039683606
112	0xbeb088bc	-0.3447932
113	0xbf0d66a9	-0.5523477
114	0xbe83063e	-0.255907
115	0xbe954cae	-0.29160064
116	0xbf396f39	-0.7243534
117	0x3fe9f217	1.8277005
118	0xbf832ddd	-1.0248371
119	0xbdc86d05	-0.09786419
120	0xbf3da5bc	-0.74081016
121	0xc08e02dd	-4.4378495
122	0xbea22df6	-0.3167569
123	0x3ea594ab	0.32339987
124	0xbef39c13	-0.47580013
125	0xc0b465f9	-5.637448
126	0x3f31a0bd	0.6938589
127	0x3f1a66c5	0.60313064
128	0x3d4ec54f	0.050481137
129	0x3e15eb27	0.14640485
130	0x3e3ddf3b	0.18542187
131	0xbe881837	-0.26580974
132	0xbe567acc	-0.20945281
133	0x3f0231a1	0.5085698
134	0xbd9f5edd	-0.077817656
135	0x3e6139bf	0.21994685
136	0xbed74027	-0.42041132
137	0xbe285b31	-0.16441037
138	0xbed55aa0	-0.41670704
139	0xbe7eae1b	-0.24871103
140	0xbf1533a6	-0.58281934
141	0x3eadc097	0.33935997
142	0x3d9df183	0.0771208
143	0xbe79e169	-0.24402393
144	0x3de7eb76	0.113242075
145	0xbe4e858f	-0.20168136
146	0xbe2e29f1	-0.17008187
147	0xbf387ff1	-0.72070223
148	0x3e95c6bd	0.29253188
149	0xbe459c11	-0.19297816
150	0x3db6d136	0.089266226
151	0x3e061ffb	0.13098137
152	0xbe0ced04	-0.1376229
153	0xbc248e9e	-0.010043768
154	0xbe9d7acc	-0.3075775
155	0xbdf5623c	-0.11981627
156	0xbeeab4c3	-0.45841035
157	0xbe94c3cf	-0.2905564
158	0xbe79f0e7	-0.24408303
159	0xbe2c89ca	-0.16849437
160	0x3e26207b	0.16223328
161	0xbee83fe8	-0.45361257
162	0xbea4cdd9	-0.321883
163	0xbeb3af9f	-0.35094926
164	0xbf7a4c42	-0.9777261
165	0xbe1e3ae1	-0.15452148
166	0x3e699965	0.22812422
167	0xbdaadcad	-0.08342872
168	0xbe9372e2	-0.28798586
169	0x3ea55a92	0.32295662
170	0x3e9a63b2	0.30154186
171	0x3e32eb9f	0.17472695
172	0x3a76a087	0.0009408076
173	0x3e3f61dd	0.18689676
174	0xbe96051a	-0.29300767
175	0x3ec65ff8	0.38745093
176	0xbe03da29	-0.1287619
177	0xbf5a10c3	-0.85181826
178	0xbe984266	-0.29738158
179	0xbf371aa5	-0.7152503
180	0xbe88e742	-0.26738936
181	0x3ed868b4	0.42267382
182	0x3f0ea0fe	0.55714405
183	0x3e5f888b	0.21829431
184	0x3d804590	0.06263268
185	0x3e30b186	0.1725522
186	0xbea285f2	-0.31742817
187	0xbd8d63a9	-0.06903774
188	0xbed228f3	-0.41046867
189	0xbe6f5af9	-0.23374547
190	0xbe3a5c69	-0.18199314
191	0xbe820f9c	-0.25402534
192	0x3d61abc4	0.05509545
193	0xbcd0066a	-0.025393683
194	0xbdc04496	-0.09388082
195	0xbdf6f743	-0.1205888
196	0xbead32bc	-0.3382777
197	0xbd3385cd	-0.043828774
198	0xbe71b981	-0.2360592
199	0xbeeeb1fe	-0.46620172
200	0x3d0251a1	0.03181613
201	0x3daf46f6	0.085584566
202	0xbe1d05ea	-0.15334287
203	0xbdbb0bcd	-0.0913311
204	0xbd369896	-0.04457911
205	0x3e1996b0	0.14998889
206	0x3e992894	0.2991377
207	0xbe292bcb	-0.16520612
208	0x3e1e85be	0.15480706
209	0xbe9fe14c	-0.31226575
210	0xbf01fa28	-0.50772333
211	0x3c9ba2e5	0.018998573
212	0xbdb9b469	-0.09067614
213	0xbc91e7e0	-0.017810762
214	0xbe499e0b	-0.19689195
215	0x3d9f945c	0.07791969
216	0xbe5b267c	-0.214014
217	0xbf024c16	-0.5089735
218	0xbe3f6d4f	-0.18694042
219	0xbe6f7c79	-0.23387326
220	0xbec4523d	-0.38343993
221	0x3e012638	0.12612236
222	0xbe39a8d6	-0.18130812
223	0xbf0d6d42	-0.5524484
224	0xbe941d2b	-0.28928503
225	0x3dc04f98	0.09390181
226	0xbd5f0938	-0.05445215
227	0xbf037e35	-0.5136445
228	0xbe9b90bb	-0.30383858
229	0x3e87e04d	0.26538315
230	0x3dab3439	0.0835957
231	0xbe49b3ec	-0.19697541
232	0xbe73f725	-0.23824747
233	0xbe5b5880	-0.21420479
234	0xbeb67eec	-0.3564371
235	0xbe39efdf	-0.1815791
236	0xbe88ae5c	-0.26695526
237	0xbefc47e1	-0.4927359
238	0x39fa1ce1	0.00047705232
239	0xbe15688a	-0.1459066
240	0x3e77cd32	0.2419937
241	0xbde59fc2	-0.11212112
242	0xbeb943be	-0.36184496
243	0x3e2d3a95	0.16916879
244	0xbe492634	-0.1964348
245	0x3cb66b97	0.0222681
246	0xbe377e49	-0.17919268
247	0xbd76c063	-0.060242068
248	0xbd113337	-0.035449233
249	0xbe9bfdac	-0.30466974
250	0x3df4d822	0.119552866
251	0xbddd9bac	-0.10820708
252	0x3ec9fa5e	0.39448828
253	0xbd96efc7	-0.07369953
254	0x3e97aef5	0.2962567
255	0xbe2f482d	-0.17117377

fc2.bias f4 [64]
0	0xc03603ec	-2.8439894
1	0xbef5ef47	-0.48034117
2	0xbdc9e85f	-0.098587744
3	0xc03cadbe	-2.9481044
4	0xbe81e2b3	-0.2536827
5	0x3f29f05c	0.66382384
6	0xbee9c06c	-0.4565462
7	0x4082c5f6	4.086665
8	0x3ff7e155	1.9365641
9	0xbdde1ce4	-0.10845354
10	0x40cb7311	6.357796
11	0xbfd28810	-1.6447773
12	0x403ef62d	2.9837754
13	0x40e57f65	7.171801
14	0xbe7379b8	-0.23776901
15	0xc0682fdb	-3.6279209
16	0xbff97a65	-1.9490477
17	0x406c8500	3.6956177
18	0x40d77416	6.7329206
19	0x4056e26f	3.3575704
20	0x402f7409	2.7414572
21	0xbd21f4f4	-0.039540246
22	0xbf919d9c	-1.1376224
23	0xbf846a74	-1.0344987
24	0xbffc5a66	-1.9715087
25	0xc0378969	-2.8677619
26	0xc0037b72	-2.0544095
27	0x40d82b2b	6.7552695
28	0x409f51f5	4.9787545
29	0x4027d76f	2.622524
30	0xc08a291a	-4.3175173
31	0xc007f270	-2.1241722
32	0xbe069551	-0.13142897
33	0x40951037	4.6582294
34	0x402d23b4	2.7053041
35	0x408b0e02	4.34546
36	0xbf7aabfc	-0.9791868
37	0x40aac302	5.3363047
38	0x40997f84	4.796816
39	0x3f022a92	0.5084621
40	0xc07f397e	-3.987884
41	0xbd4a4f69	-0.049392138
42	0xbfe1a16d	-1.7627388
43	0xbfa6ac2d	-1.3021294
44	0xc0858f4f	-4.1737437
45	0x40c6a2c3	6.2073684
46	0xc01d35dd	-2.4564126
47	0x3fcdef61	1.6088678
48	0xbe2e6b61	-0.1703315
49	0xbf782d35	-0.9694398
50	0x401ab3f9	2.4172347
51	0xbfff2571	-1.9933301
52	0x40275b84	2.6149607
53	0xbe12b07f	-0.1432514
54	0x3ffe9ac3	1.989098
55	0x401fc45b	2.4963596
56	0x4095e53d	4.684233
57	0xc082bde6	-4.085681
58	0x40a7bc8e	5.241767
59	0xbd4f393c	-0.050591692
60	0x3d1395cd	0.036031533
61	0x4061e95a	3.5298676
62	0x3fc54f68	1.5414858
63	0x3bb27e5b	0.0054471917

final.weight f4 [6, 64]
0	0xbd130e86	-0.035902523
1	0x3d1411a4	0.036149636
2	0xbc249267	-0.010044671
3	0xbe6eb60d	-0.23311634
4	0xbdafdb94	-0.08586803
5	0xbd274b10	-0.04084307
6	0xbe00bb0a	-0.1257135
7	0x3e3a38e4	0.18185765
8	0xbd18330b	-0.037158053
9	0xbdb2917d	-0.08719156
10	0x3f014663	0.50498027
11	0x3d1073de	0.03526675
12	0xbdd1e1f5	-0.10248176
13	0x3f96bd44	1.1776509
14	0x3e873d79	0.26414087
15	0xbdfcf371	-0.1235112
16	0xbd8af79e	-0.067855105
17	0x3e58c9f5	0.2117079
18	0x3f566013	0.8374035
19	0x3e77bcdb	0.24193136
20	0x3e0305fb	0.1279525
21	0xbe7a5e39	-0.24450006
22	0x3d87fc06	0.066398665
23	0xbe8b69bf	-0.27229115
24	0xbc3acb3f	-0.011400997
25	0xbe28f353	-0.16499071
26	0xbe8dff21	-0.2773371
27	0x3f39d739	0.7259403
28	0x3de72c4d	0.112877466
29	0x3d2dddb4	0.04244776
30	0xbe19f7d3	-0.15035944
31	0xbe293d3a	-0.16527262
32	0xbd7aa9ca	-0.06119708
33	0x3c0a2ce0	0.008433551
34	0xbdd63da6	-0.10460977
35	0x3d351e9c	0.044218644
36	0x3dd2f895	0.103013195
37	0xbb07d7bb	-0.002072795
38	0x3dd32379	0.103095
39	0xbd6f4db9	-0.05842373
40	0xbd85acb1	-0.06527079
41	0xbc66fa55	-0.01409777
42	0xbe4affa9	-0.19824089
43	0xbd603342	-0.054736383
44	0xbc3eb044	-0.011638705
45	0x3ecc217c	0.39869297
46	0xbe028b75	-0.12748511
47	0x3deb57de	0.11491369
48	0x3b312e8c	0.00270358
49	0xbe26e403	-0.16297917
50	0xbd8e58a8	-0.069505036
51	0x3dd8959b	0.1057541
52	0x3e362ccc	0.17790526
53	0xbd1427a3	-0.036170613
54	0x3e34773c	0.1762361
55	0x3da5ec10	0.08101666
56	0x3d21b248	0.039476663
57	0x3d6d18e1	0.057885054
58	0xb8a8e5fe	-8.053704e-05
59	0xbd1b454d	-0.037907887
60	0x3d759c7c	0.05996369
61	0x3c98baa2	0.018643681
62	0xbdb0a988	-0.086260855
63	0x3d70dedb	0.05880628
64	0xbe59824d	-0.21241112
65	0x3e32c405	0.17457588
66	0x3d39aee9	0.045332823
67	0xbd3f2d8e	-0.046674304
68	0xbaaca7bc	-0.0013172547
69	0x3e6cdcae	0.23131058
70	0x3e4c5390	0.19953752
71	0xbbc38286	-0.0059664873
72	0x3e59c3ce	0.212661
73	0x3e0d1d23	0.13780646
74	0x3f247f68	0.64256907
75	0xbe446328	-0.1917845
76	0x3d7a988b	0.061180633
77	0x3f80a07d	1.0048977
78	0xbce36528	-0.027758196
79	0xbda4d003	-0.080474876
80	0xbe714bf8	-0.23564136
81	0x3bcf3d2e	0.006324432
82	0x3f33fd85	0.70308715
83	0x3d4bc47a	0.04974792
84	0xbca26060	-0.019821346
85	0xbd29cdd3	-0.041456055
86	0xbe01e2bb	-0.12684147
87	0x3d00c933	0.03144188
88	0xbdfc3009	-0.123138495
89	0xbd95c7f2	-0.07313527
90	0x3c54dccf	0.012992098
91	0x3f6fde89	0.93698937
92	0x3db82267	0.08990937
93	0x3e1ced78	0.15324962
94	0xbd77fe1d	-0.060545076
95	0xbe14e325	-0.14539774
96	0xbd83c108	-0.06433302
97	0x3e128bbd	0.14311118
98	0x3d8dd33b	0.06925055
99	0x3e0c7e92	0.13720158
100	0xbe591ab4	-0.21201593
101	0x3dfacfad	0.12246642
102	0x3df31eb0	0.118710876
103	0x3e3a3f08	0.18188107
104	0xbe04f964	-0.1298576
105	0x3dddc814	0.108291775
106	0xbd8a86d1	-0.067639954
107	0xbdf5fdcb	-0.12011298
108	0xbe94cb1c	-0.2906121
109	0x3e28b495	0.16475137
110	0xbd8984ba	-0.06714769
111	0xbd45c2cd	-0.04828148
112	0x3cbc2758	0.02296798
113	0xbdff418b	-0.12463673
114	0x3e61d8bb	0.22055332
115	0xbd875975	-0.066088594
116	0x3cd66519	0.026171254
117	0xbb526df9	-0.0032109006
118	0x3dba7284	0.09103873
119	0x3e1fcd4b	0.15605657
120	0x3e13bc29	0.14427246
121	0xbe88bcb9	-0.26706484
122	0x3dbca649	0.09211404
123	0xbc86254f	-0.016375212
124	0x3c4f5fad	0.012657088
125	0x3e106594	0.14101249
126	0x3e005985	0.12534149
127	0x3d89d4f2	0.06730069
128	0xbe57b755	-0.2106603
129	0xbef34990	-0.4751706
130	0xbcb594fa	-0.022165764
131	0xbd1b4e62	-0.03791655
132	0xbe226c06	-0.1586152
133	0x3e84defd	0.25951377
134	0xbe157ce9	-0.1459843
135	0xbbd45946	-0.006480369
136	0x3e73b5d2	0.23799828
137	0x3d8825bf	0.066478245
138	0x3f25d6fe	0.6478118
139	0xbe487937	-0.1957749
140	0x3d7f77f0	0.06237024
141	0x3f80e38f	1.0069445
142	0xbcac764e	-0.021052506
143	0xbd988ab6	-0.07448332
144	0xbe2a3238	-0.1662072
145	0x3bce1382	0.0062889466
146	0x3f340c3b	0.7033116
147	0x3d7229df	0.059121963
148	0xbca03acb	-0.019559285
149	0xbd0b2b9a	-0.03397713
150	0xbdf775f1	-0.120830424
151	0x3d482609	0.0488644
152	0xbdf5f308	-0.12009245
153	0xbd7a1bb4	-0.061061576
154	0x3c3faece	0.0116993915
155	0x3f70073a	0.93761027
156	0x3db67bb2	0.08910312
157	0x3e1cbad3	0.15305643
158	0xbd2c1aeb	-0.04201786
159	0xbe149e7a	-0.14513579
160	0xbddf2ff1	-0.10897816
161	0x3e0c1826	0.13681087
162	0x3d87991d	0.06621001
163	0x3df455b4	0.11930409
164	0xbe49cff9	-0.19708242
165	0x3e02ca75	0.12772544
166	0x3dceb745	0.1009355
167	0x3e42b555	0.19014485
168	0xbdfd541d	-0.12369559
169	0x3dd07c9d	0.10180018
170	0xbd8db68f	-0.06919586
171	0xbe2360bc	-0.1595487
172	0xbe93105c	-0.2872342
173	0x3e34a777	0.17642008
174	0xbda1d16c	-0.07901272
175	0xbd09470f	-0.033515032
176	0xbd966edd	-0.07345364
177	0xbe0c1535	-0.13679965
178	0x3e65fab7	0.22458921
179	0xbdaa82d0	-0.08325732
180	0x3cf1a45f	0.029497324
181	0x3d263ef6	0.040587388
182	0x3df00b7f	0.11720943
183	0x3e0e8e95	0.13921578
184	0x3e1a77e8	0.15084803
185	0xbe869750	-0.26287317
186	0x3dddb934	0.1082634
187	0xbd358ef8	-0.0443258
188	0x3c9b5928	0.018963411
189	0x3e0ec5ef	0.13942693
190	0x3e00a52e	0.12563011
191	0xbc806d7f	-0.015677212
192	0xbe58b84d	-0.21164055
193	0x3e1047d4	0.140899
194	0x3d100cec	0.035168573
195	0xbd60d680	-0.054892063
196	0x3be3e504	0.006954791
197	0x3e7f4046	0.24926862
198	0xbdda34cd	-0.10654602
199	0xba809eea	-0.0009812985
200	0x3e507aef	0.20359395
201	0x3c9bd049	0.019020217
202	0x3f25848b	0.6465537
203	0xbe467e3f	-0.19384097
204	0x3d9c239f	0.07623982
205	0x3f806c52	1.0033057
206	0xbc7673eb	-0.015042285
207	0xbda4cae8	-0.08046514
208	0xbe6f5d9b	-0.23375551
209	0xbb9d3ed1	-0.004798748
210	0x3f36b89e	0.71375453
211	0x3d809840	0.062790394
212	0xbc7c302b	-0.0153923435
213	0xbd2170c4	-0.039414182
214	0xbdf78df9	-0.12087626
215	0x3c6b800b	0.01437379
216	0xbe0844cd	-0.13307495
217	0xbda2a023	-0.079407
218	0x3ae6cc5c	0.0017608511
219	0x3f70bed6	0.9404119
220	0x3dd5d650	0.104412675
221	0x3e287619	0.164513
222	0xbd8d4499	-0.068978496
223	0xbe11c615	-0.14235719
224	0xbd01b5e6	-0.031667612
225	0x3e14f1b6	0.1454533
226	0x3d8f4727	0.06995993
227	0x3e0e2509	0.13881315
228	0xbe4fe520	-0.20302248
229	0x3df8f2c2	0.121556774
230	0x3dd4fe34	0.10400048
231	0x3e45d320	0.19318819
232	0xbe075278	-0.13215053
233	0x3dd5467d	0.10413835
234	0xbd895c81	-0.06707097
235	0xbe35a592	-0.17738941
236	0xbe8e95a4	-0.27848542
237	0x3e2d18e7	0.1690403
238	0xbd7f9adb	-0.06240354
239	0xbd3c5c03	-0.045986187
240	0xbd5fc366	-0.054629706
241	0xbe1719b1	-0.14755894
242	0x3e7476fb	0.23873512
243	0xbdad3fe7	-0.08459454
244	0x3d044f21	0.032302026
245	0xbccdb756	-0.025111835
246	0x3deb94d4	0.11502996
247	0x3e146a69	0.14493717
248	0x3e00974a	0.12557712
249	0xbe86ea6f	-0.26350734
250	0x3dc203cf	0.09473383
251	0xbdca9cb2	-0.098931685
252	0xbc175726	-0.009237086
253	0x3dfeb863	0.12437513
254	0x3df92ee7	0.12167149
255	0xbdbd8a4e	-0.09254895

final.bias f4 [6]
0	0x40b6ecfe	5.7164297
1	0x40c7f346	6.2484465
2	0x40b9e1fc	5.808836
3	0x40aaab1b	5.333387
4	0x4095dd9c	4.683302
5	0x4073d11a	3.8096375
