D2QN_AAAI/checkpoint_d2qn_cheetah_50.pth (torch, 45655 bytes, 6 tensors)

fc1.weight f4 [128, 17]
000000 71 f7 e6 c0 c6 e2 d4 40 fd dd a0 3f 70 12 5a bf
       -7.2177052 6.6526823 1.2567745 -0.85184383
000010 d4 f7 de 3e a6 0a d6 bf ee 4c 6b bf bf 90 bc bd
       0.43548453 -1.6722 -0.9191426 -0.092072956
000020 e4 57 d4 3e d2 70 9a bf a5 b3 9c 3f 24 5f 08 3e
       0.41473305 -1.206568 1.2242323 0.13317543
000030 8a 03 d2 3d 5c 39 27 3d 95 fb 4e bd ca 80 33 3c
       0.10254581 0.040826187 -0.050532896 0.010955999
000040 30 67 7f bc ea 96 c6 bf c4 a5 26 bf ea b5 b6 3f
       -0.015588567 -1.5514805 -0.6509669 1.4274266
000050 ca 3b 93 40 37 2d 95 3f 26 e3 e1 bf 3a bf 83 3f
       4.6010485 1.1654423 -1.7647445 1.0292733
000060 97 db 10 c0 24 71 69 bf 0b 8e 8c 3e 6e 4a 05 bf
       -2.2634027 -0.91188264 0.2745212 -0.52066696
000070 72 af ab bd 15 09 e8 3b 9d 0a 66 bd 12 03 2e be
       -0.08383073 0.007081161 -0.056162465 -0.16993359
000080 35 ea 03 3e fb f7 10 be e0 5d 33 c1 05 0a a8 bf
       0.12882312 -0.14157097 -11.210419 -1.3128058
000090 bc 8e ce be 08 2c 51 be b8 a2 8b be de 50 11 be
       -0.40343273 -0.20426953 -0.27272582 -0.14191005
0000a0 1a 5e 76 bf 2f da 21 bf e8 d6 31 be ea 04 e0 bd
       -0.9623734 -0.63223547 -0.17367136 -0.10938437
0000b0 2c 3f 14 be 87 df 1f bc a6 f6 3a 3c af 11 fe bb
       -0.14477223 -0.009757883 0.011411345 -0.007753573
0000c0 f6 6e ee bc 45 1b 9b bd 4f 68 dc bc 98 aa d8 3f
       -0.029105645 -0.075735606 -0.026905207 1.6927061
0000d0 6f 58 7d 3e c5 7d 07 3f 24 a1 8f 3e 22 20 a3 bd
       0.24740766 0.52926284 0.28052628 -0.07965113
0000e0 10 0c 89 bf 24 fc ad bf d8 ca 2e bf 79 21 85 bf
       -1.0706806 -1.3592572 -0.68278265 -1.040084
0000f0 bc 4e 0c bf 9c 23 e5 3d b9 0e f8 bd e6 0d 3f bb
       -0.5480764 0.111884326 -0.12112183 -0.0029152571
000100 73 22 ec 3d 2a f7 0a bc 52 af fd 3d 86 94 24 bd
       0.11530008 -0.00848178 0.12386955 -0.040180705
000110 e1 9f 21 41 8c 19 86 c0 8a f4 90 c0 34 45 6a c0
       10.101533 -4.1906185 -4.529851 -3.6604738
000120 a1 ed b9 c0 ad 1d 9e bf b3 0b 40 c0 dc 33 1c c0
       -5.8102574 -1.2352806 -3.000714 -2.4406652
000130 59 f5 f1 bf 84 aa d9 bf 79 67 20 3f 19 c6 b1 3e
       -1.8902999 -1.7005162 0.62657887 0.3472145
000140 2b 61 bc 3d 5a 72 81 be f6 c1 e2 be e5 d4 9f 3e
       0.09198221 -0.25282556 -0.44288605 0.31217113
000150 95 3b e3 3c ea 59 40 3f 63 e0 41 bf 14 93 04 c0
       0.027738372 0.751372 -0.7573301 -2.071477
000160 22 82 c7 bf 72 bc 21 c0 08 18 08 c0 2b b4 94 bf
       -1.5586588 -2.5271268 -2.1264668 -1.1617483
000170 6a d3 d0 bf a2 f3 f4 be 25 5f b5 be d6 43 a9 be
       -1.6314518 -0.47842127 -0.35424152 -0.33059567
000180 0a cb 40 3e 7a 6e 11 be dc 99 41 3c 7e c8 d7 bd
       0.18827453 -0.142023 0.011816468 -0.10536288
000190 3c 7e 3d 3e f1 a6 fe bc b6 fe 76 40 a8 c2 03 c0
       0.18505186 -0.031085463 3.8592963 -2.0587559
0001a0 7a b7 7c 3d 03 25 84 bf 52 ef 88 bf 33 fa 20 3f
       0.061698414 -1.0323795 -1.0698035 0.62881774
0001b0 1a 59 a9 bf f5 e5 61 3f 31 6c d1 bf 14 ba 81 40
       -1.3230317 0.8824151 -1.6361142 4.0539646
0001c0 a3 55 b0 be bc de 58 3e 57 7c f1 3c 76 4f 6d 3d
       -0.34440336 0.21178716 0.029478235 0.057937108
0001d0 94 a2 86 3e f7 e1 e3 bd dc ca a0 bd fe 43 31 40
       0.26295912 -0.11127084 -0.07851192 2.769775
0001e0 c9 19 3d 40 89 74 08 40 3f 47 e1 3f 9a 8a b2 3f
       2.9546988 2.1321127 1.7599868 1.3948548
0001f0 5b 7c ba 3f 60 90 c0 bd 8a 55 8e 3f a2 ea d4 be
       1.45692 -0.09402537 1.1119854 -0.4158526
000200 48 ba 9b be e9 85 88 be 57 b5 8c be 67 13 0c be
       -0.3041556 -0.26664665 -0.274821 -0.13679276
000210 7c f2 88 3d f4 e0 17 bd 12 f0 21 3d 8a c6 04 3d
       0.06686875 -0.037079766 0.03953559 0.032415904
000220 c0 85 23 3e 53 99 2d 3f 51 15 6b 40 69 a6 10 40
       0.1596899 0.6781208 3.673176 2.2601569
000230 3b a1 3f 3f 52 c5 0d bd eb e8 4e bf ae 10 22 bf
       0.74855393 -0.034612007 -0.80824155 -0.633067
000240 fb 15 3e c0 95 d9 46 3f 74 80 97 3f 3e 52 08 3e
       -2.9700916 0.77675754 1.1836076 0.13312623
000250 aa b7 00 be 1e 61 ea 3d 5a 66 8d 3e 02 40 37 3e
       -0.12570062 0.11444305 0.2761715 0.17895511
000260 48 e3 b2 3d 31 1a e7 bf fb c3 ee 3f c6 2a 0b 40
       0.08734757 -1.8054868 1.8653558 2.1744857
000270 33 11 07 bf 81 82 50 3f b8 be 48 bf 08 27 fe bf
       -0.5276062 0.81449133 -0.78416014 -1.9855661
000280 2d bd 26 c0 aa 58 7d bf 61 92 26 c0 82 a9 e2 bf
       -2.6052964 -0.98963416 -2.6026843 -1.770798
000290 56 16 e1 be 6c 5c 8f be e0 35 00 be 5a 3c 6a bc
       -0.43962353 -0.280002 -0.12520552 -0.0142966155
0002a0 27 b2 ae 3d 74 dd 94 bc 2e 8c 0f 3f ca b2 e2 bf
       0.085300736 -0.018172003 0.5607327 -1.7710812
0002b0 85 69 4a c0 5b d8 91 be 24 d0 30 c0 13 57 97 bd
       -3.1626904 -0.2848538 -2.762704 -0.07389655
0002c0 4a 62 19 c0 26 63 57 bf 82 7c af bf f6 5f d3 bf
       -2.396624 -0.84135664 -1.3709872 -1.651366
0002d0 e6 0d a6 bf 8a 62 11 bd f1 20 3c be 3c ad 20 3f
       -1.2972991 -0.035494365 -0.18371941 0.62764335
0002e0 29 c6 bc be c3 04 25 be 1e 5f b6 be 0a 1e 63 41
       -0.36869934 -0.16115098 -0.35619444 14.194834
0002f0 78 9b fd c0 3f 2f 39 bf f9 d0 00 40 ad 2e 9d bf
       -7.925228 -0.72337717 2.0127547 -1.2279869
000300 51 34 63 c0 6c c5 5c c0 3a 1f c6 bf 6e 93 ef 3e
       -3.5500681 -3.4495497 -1.547828 0.46792167
000310 13 98 88 3f 2e 33 77 be 3f 98 dd bd d1 18 83 3d
       1.0671409 -0.24140617 -0.10820054 0.06401218
000320 15 81 60 be 1b c9 3d bd 81 e7 eb bd ac ae 54 3d
       -0.21924241 -0.046334367 -0.11518765 0.051924393
000330 3f 5f a4 c0 fb 54 26 40 a7 b0 fc 3f f4 71 99 bf
       -5.1366267 2.5989368 1.974141 -1.1987901
000340 27 79 7e 3d 92 94 e4 be b9 f5 dc 3e c6 5d d7 bf
       0.06212726 -0.446446 0.43156222 -1.6825492
000350 39 da af be 57 b6 f9 bf e6 80 6f bf f0 8e 83 be
       -0.34346178 -1.9508771 -0.9355606 -0.2569499
000360 71 7a 53 be 76 85 ab bd b7 8b bb bc d6 20 8f 3c
       -0.20652176 -0.08375065 -0.02289377 0.017471712
000370 82 b5 25 bd 6b 5d 76 3d dd 4f 03 c0 88 21 2b c0
       -0.040456302 0.060147684 -2.0517495 -2.6739216
000380 32 bc 82 c0 2f 22 e6 bf 4e 01 78 3f a6 55 a8 3f
       -4.085473 -1.7979182 0.9687699 1.3151138
000390 81 19 95 bf 68 8e ad bf 41 51 8b 3f 43 76 40 3f
       -1.1648408 -1.3559084 1.0884172 0.75180453
0003a0 85 1d df 3e 81 56 8f 3e db bc 2f bd a7 50 d5 3d
       0.4357721 0.27995685 -0.042904716 0.10415774
0003b0 c6 d6 6e 3d 3a bb 5a 3c fa e7 af 40 fd 91 13 40
       0.058310293 0.013350302 5.4970675 2.3057854
0003c0 0e 0e c3 3f 28 23 07 be e2 32 e9 be 6a 23 f8 3e
       1.5238664 -0.13197005 -0.45546633 0.4846452
0003d0 6d a5 56 c0 30 23 99 3c 32 ee 93 3e df e0 3d c0
       -3.3538468 0.018693537 0.28892666 -2.96685
0003e0 ac b8 a4 3f 01 88 bd 3b 80 8f ae bd d2 f8 a0 3e
       1.2868857 0.005784035 -0.08523464 0.31439835
0003f0 23 cd a5 be df 59 9d 3d dc 9a 86 3c 2c 9b 01 41
       -0.3238307 0.07683157 0.016431265 8.100384

fc1.bias f4 [128]
000000 0b d4 9e c0 52 1a 52 c0 80 11 b6 bf 84 8f f6 bf
       -4.963384 -3.2828565 -1.422409 -1.9262547
000010 f3 5e c4 3e f4 0a c7 bf 1f bb 87 3e c6 33 80 c0
       0.3835369 -1.5550218 0.2650995 -4.00632
000020 41 83 29 c0 4c b6 45 c0 d8 3a 0c c0 4d af 0b 40
       -2.648636 -3.0892515 -2.1910915 2.1825745
000030 74 8d 7c c0 f9 95 aa 3f df e4 24 c0 48 4c 02 40
       -3.9461336 1.3327018 -2.5764692 2.0359058
000040 eb 14 32 c0 54 d7 a3 bf e9 0f b7 bf c9 34 74 3f
       -2.7825267 -1.2800088 -1.430173 0.95393044
000050 93 a9 83 c0 92 70 77 40 f7 8f cf 3f 17 75 80 c0
       -4.11445 3.8662457 1.621581 -4.014293
000060 fd 7f 0c c0 b2 e8 8d be 1e 97 ac 40 73 5b 8f c0
       -2.1953118 -0.27716595 5.393447 -4.479913
000070 72 78 3b c0 a3 1f 9d 40 98 08 3f c0 6e af 47 40
       -2.9292264 4.910112 -2.9848995 3.1200824
000080 33 23 92 c0 0e d9 64 c0 44 f9 32 c0 23 08 4f bd
       -4.566797 -3.575748 -2.796464 -0.05054487
000090 dd be 84 c0 fc ae 60 c0 a0 ed 4c c0 0b 4f 28 c0
       -4.1482987 -3.5106802 -3.2020035 -2.6298244
0000a0 6e d8 dc 3f 22 58 92 bd 94 cb 70 c0 97 c2 68 3f
       1.7253549 -0.07145716 -3.7624254 0.9092192
0000b0 ca 5c e2 bf 1e 16 48 c0 6b 3e 9b bf 98 8e 8f c0
       -1.7684567 -3.12635 -1.2128423 -4.4861565
0000c0 e7 f0 aa c0 a0 f2 04 c0 e6 16 0a 40 2f ed a2 3f
       -5.341907 -2.0773087 2.1576476 1.2728633
0000d0 b8 f4 0e 40 5b d0 06 bf 5a 68 a6 3f 2b dc 91 40
       2.2336864 -0.52661675 1.3000596 4.558126
0000e0 6a e6 4b c0 f9 59 31 c0 56 31 dc bf f8 cb 80 bf
       -3.1859384 -2.7711165 -1.7202556 -1.0062246
0000f0 11 d0 92 40 93 b4 be 3f 20 58 a2 40 3d 00 56 3f
       4.5878987 1.4898857 5.0732574 0.83594114
000100 b9 fe 80 c0 65 51 82 3f bb 97 10 c0 e6 da 83 c0
       -4.031094 1.018109 -2.259261 -4.120471
000110 54 16 cf c0 2a 12 9b c0 dc 9d 26 3e bb d1 85 3f
       -6.4714756 -4.8459673 0.16271156 1.045463
000120 35 2f 5b c0 b2 1b ad bf fa 17 82 c0 dc 0e 95 40
       -3.4247563 -1.3524077 -4.065427 4.658064
000130 2f a9 4b 40 24 24 56 c0 27 2a 3c c0 8c 4f 4e 40
       3.1822011 -3.3459558 -2.9400728 3.2236052
000140 d1 e5 83 c0 36 bf ef bf 35 51 2d c0 b6 85 d4 3f
       -4.1218038 -1.8730228 -2.7080815 1.6603305
000150 a8 44 61 c0 10 67 18 bf d0 78 89 40 67 9a 40 c0
       -3.5198154 -0.5953226 4.2959976 -3.009424
000160 db 5b 2c c0 6a e2 09 c0 b7 01 ca 3f 7f dd 39 3f
       -2.6931064 -2.1544442 1.5781773 0.726036
000170 74 2d 6a c0 2d 81 39 c0 49 0b df 3f 3a f0 e7 3f
       -3.6590242 -2.8985093 1.7425319 1.8120186
000180 2f 3a 33 c0 00 0c 54 c0 36 38 d4 bf f1 e3 ea 3f
       -2.8004262 -3.3132324 -1.6579654 1.8350812
000190 21 f3 b1 3e 16 80 0b c0 d5 4a df bf f6 90 a7 40
       0.34755805 -2.1796927 -1.7444712 5.2364454
0001a0 ee c4 d0 3e a4 02 98 bf e6 5f fc 3e 51 6a 29 be
       0.40775245 -1.1875806 0.49291915 -0.16544463
0001b0 71 78 84 bf d2 36 a8 c0 d9 e5 aa c0 7b 4f 3e 3f
       -1.0349256 -5.256692 -5.3405576 0.7434003
0001c0 6a c0 fb bf 60 cd a6 bf e4 9d 43 40 25 8f a2 c0
       -1.9668095 -1.3031425 3.0565119 -5.0799737
0001d0 07 de f7 bf d0 a2 82 40 66 ea 14 40 f8 2b f9 bf
       -1.9364632 4.0823746 2.3268065 -1.9466543
0001e0 4a 1a 6b c0 28 1b a4 3e 68 4e cd 3f 32 69 5b c0
       -3.6734796 0.3205197 1.6039553 -3.4282956
0001f0 5c bb 83 c0 52 36 65 c0 05 51 3e bf af 4e 7d 40
       -4.116621 -3.5814404 -0.74342376 3.9579275

fc2.weight f4 [64, 128]
000000 ac d7 0c be b5 c7 13 be b0 e0 cc 3c e2 73 b6 bd
       -0.13754147 -0.14431651 0.025009483 -0.08908822
000010 75 dd be 3c 77 ce d9 bb 3b cc e8 3c 72 42 e8 3c
       0.023298958 -0.006646927 0.028417697 0.028351996
000020 15 38 1a be 96 60 fc 3c cf c4 61 bb 8e 2a 9e bd
       -0.15060456 0.030807775 -0.0034449582 -0.077229604
000030 f7 19 0b bc 86 78 34 bd 4b f9 6f bd 25 c7 6b bd
       -0.008490077 -0.044060253 -0.058587354 -0.057562966
000040 87 98 47 3b 2d 37 06 3c 4b 26 5b 3d 75 3a 84 bd
       0.0030455904 0.008191866 0.053503316 -0.06456462
000050 ce 9d 88 bd 34 89 8f bd 88 33 fe bb 6e 95 71 3d
       -0.06670724 -0.07008591 -0.007757608 0.058980398
000060 a0 47 a1 bd 5c 4d 5f bc a3 e1 5f bc fe 56 88 bd
       -0.078749895 -0.013629284 -0.013664636 -0.066572174
000070 f5 56 05 be 31 e8 30 be ec 73 34 bd f9 96 ef 3c
       -0.13021453 -0.17276074 -0.044055864 0.029246794
000080 20 3d b7 bd 6c 27 a1 3c 81 84 92 bd 02 6f d5 bd
       -0.089472055 0.019672118 -0.07154179 -0.10421564
000090 ef 84 31 bd d4 c7 ee bc 0f 8b 25 bc fa fa 1c 3d
       -0.043339666 -0.02914802 -0.010103955 0.038325287
0000a0 1b 60 04 bd 7d 1a 87 3d 81 8f 89 bc 95 8a 66 bc
       -0.032318216 0.06596849 -0.01679206 -0.0140711265
0000b0 f9 31 95 3c 91 05 9d bd a3 9a 3a bd d6 29 4a 3c
       0.018212305 -0.07667077 -0.04555763 0.012339076
0000c0 d1 58 c0 bc 1c d5 3e bd 40 d2 00 bd c0 f8 93 bd
       -0.023479851 -0.046589956 -0.03145051 -0.0722518
0000d0 3e 16 be 3b 8f b5 84 3c d9 96 16 bc 56 0a 15 3d
       0.0058009913 0.016199855 -0.009191238 0.03638681
0000e0 99 fd 9d bd 31 e8 fd bc 0a b9 47 3c 62 29 cd bc
       -0.077143855 -0.030994507 0.012190113 -0.025044147
0000f0 0c 55 b0 bd 2d b1 cd bc 4b 39 af bd 53 29 8c 3c
       -0.086099714 -0.025108898 -0.0855585 0.017109549
000100 4a 54 4a 3d 8c 77 3c bd aa af da bd df 06 c8 bd
       0.04939679 -0.046012446 -0.106780365 -0.097669356
000110 8a 2d 92 3c 23 7d 9d bd af aa a3 bd af 89 00 3d
       0.01784398 -0.076898836 -0.0799154 0.031381305
000120 e4 07 01 bd 38 28 da bd 5e d1 f9 3c 49 06 62 bc
       -0.031501666 -0.10652202 0.030495342 -0.013795444
000130 7a 1b 4d 3d b7 05 3b bb 7a 07 73 bc ad 40 c0 bd
       0.05007503 -0.0028537342 -0.0148333255 -0.09387336
000140 2f 6b 59 3c a6 77 06 bd bf 38 91 bd c0 2a f8 bd
       0.0132701835 -0.03282895 -0.070909016 -0.12117529
000150 b9 69 18 bd 83 42 1d bd c5 a9 60 bd 0a 9f 91 bd
       -0.0372102 -0.03839351 -0.054849405 -0.071104124
000160 f4 24 70 bd ec 3f c7 bc 02 73 2f bd a7 3e 0b be
       -0.05862899 -0.024322473 -0.04283429 -0.13598119
000170 8c 4c 44 3d 07 65 45 3d ee f3 d2 bd 1a f7 8f bd
       0.047924563 0.04819205 -0.10300432 -0.07029553
000180 31 07 0d 3d 55 17 78 bd 02 f2 d3 bd 78 52 be 3c
       0.034430686 -0.060569126 -0.10348894 0.023232684
000190 83 5f 90 bd 10 73 8b bd 42 ba cc bd ce ba ee bd
       -0.070494674 -0.06809056 -0.09996463 -0.11656724
0001a0 48 c1 3b bd 05 48 9a 3c 27 d3 3f bd c2 04 4b 3d
       -0.045838624 0.01883317 -0.04683223 0.049565084
0001b0 d3 ca 8a bb 0a 17 cb bd 46 cf b1 bc 1d 4b b4 bd
       -0.0042356043 -0.09916504 -0.021705281 -0.08803389
0001c0 cd 14 86 bd 74 f6 30 3d 15 43 01 be 3c 18 66 ba
       -0.06546936 0.043203786 -0.12623246 -0.0008777415
0001d0 9f dc c1 bc 16 eb ce bd ba c0 00 be 8f 75 60 ba
       -0.02366477 -0.10103433 -0.1257352 -0.00085624395
0001e0 96 42 0d bc b4 84 50 bd 15 de c3 bd 3e a6 e8 bd
       -0.008621832 -0.050907806 -0.09563843 -0.11359833
0001f0 9d a6 1a bc e7 e8 ff 3c 15 ab 8f bc 73 ba b7 bc
       -0.009439138 0.031238986 -0.017537633 -0.022427773
000200 4f b5 af bc c3 ec 14 bd b4 4f 22 be c5 a2 e6 3e
       -0.02144876 -0.036358606 -0.15850717 0.45046058
000210 e9 bf c7 3e 05 0b 74 bf f7 8c 08 3f 6a 2c 4b be
       0.39013603 -0.95329314 0.53340095 -0.19841161
000220 b1 e4 6a 3f ea 7e 55 bd 05 e6 10 3f 87 2a 3c c0
       0.91755205 -0.052122988 0.5660098 -2.9400957
000230 71 3a 7c 3f 09 58 05 bf a5 79 c5 be 4c a1 a7 bf
       0.98526675 -0.52087456 -0.3856937 -1.3096099
000240 a4 e0 ff bf f7 c8 8b bd c8 07 25 bf 4a 86 19 bf
       -1.999043 -0.068254404 -0.64465 -0.59970534
000250 40 65 64 bf 84 55 d1 3e 53 b4 e6 bf 91 46 22 3f
       -0.89216995 0.40885556 -1.802378 0.63388926
000260 1c a6 2d c0 bc 4c 68 3c f1 a0 2f 3e 9e 5c fb be
       -2.7132635 0.014178451 0.17151238 -0.490941
000270 0a 6d 55 3f 64 18 5f bf 9e 4e 8f 3f e4 c0 1d bf
       0.83369505 -0.8714659 1.1195867 -0.6162245
000280 85 7f 1b be 68 c3 37 3f e1 ab 3d 3e 91 f2 9b 3f
       -0.15185364 0.7178254 0.18522598 1.21834
000290 4f d8 85 3f 7e 55 ba 3f 91 71 94 3f d2 b1 54 bf
       1.0456637 1.455734 1.1597158 -0.8308383
0002a0 1c d4 38 bf d4 55 51 3e ad 69 27 3f 86 c2 1f c0
       -0.72198653 0.20442897 0.65395623 -2.4962478
0002b0 2b 38 45 be 9f 69 68 be 6d e9 de be 2c b9 92 3f
       -0.19259708 -0.22696541 -0.43537465 1.146276
0002c0 f8 c6 88 3f e1 82 1e 3f 2e a9 a3 3f 1b 17 9b bd
       1.068572 0.61918455 1.2786005 -0.075727664
0002d0 89 49 45 3f ef 4e 23 c0 b8 03 07 40 05 00 02 3f
       0.7706533 -2.5516927 2.109602 0.5078128
0002e0 bf 5b ba be a5 40 58 bf 7a c8 2e 3e e5 bd b4 bf
       -0.36398122 -0.8447364 0.17068663 -1.4120451
0002f0 1a 11 02 40 7b e6 5b 3f 96 af f4 3b 5d f6 33 3f
       2.0322938 0.8589856 0.0074672205 0.70297796
000300 f8 00 9f c0 99 d5 6b 3f 9f cb 00 bf b6 21 05 3f
       -4.9688683 0.921228 -0.503107 0.52004564
000310 04 97 21 bf cc 95 d8 bf 68 93 7e bf de 8f 2b be
       -0.63121057 -1.6920714 -0.99443674 -0.167541
000320 28 57 ab bf 5b 82 ec 3d 31 89 a5 3f 22 b6 48 bf
       -1.3385973 0.11548301 1.2932492 -0.7840291
000330 ff c3 03 bf fb 4d 69 3f 4c 2b ce bf 07 eb 98 3f
       -0.5147094 0.91134614 -1.6106963 1.1946725
000340 9a 1b 46 bf c8 45 83 3f 24 1a 9f bf 6f c3 3d c0
       -0.77385867 1.025567 -1.2429852 -2.9650533
000350 cc 8a a9 bf b6 ec 94 be b6 72 d0 be f0 25 5f c0
       -1.3245482 -0.29086846 -0.40712517 -3.4866905
000360 03 2b b9 be d4 14 6c 3f 9b 39 8b bf b6 eb c0 3f
       -0.36165628 0.9221928 -1.0876955 1.5071933
000370 3e 9e 84 3f b0 e9 be 3f de 8d 05 bf 8f ce 40 be
       1.0360792 1.4915066 -0.521696 -0.18828796
000380 cc 17 5f 3e c7 54 9f bf d7 5a 1d bf ad db e8 be
       0.21786422 -1.2447747 -0.61466736 -0.454801
000390 b4 e4 5b be 03 e4 d5 be dc 47 b0 be 2b f5 37 bf
       -0.21473962 -0.41775522 -0.34429824 -0.7185847
0003a0 07 1e 41 3f 00 72 a0 bf 00 43 e8 3c 5c 02 89 c0
       0.75436443 -1.253479 0.02835226 -4.281538
0003b0 02 f5 35 3e 28 6d af bf 9e dd b7 3f b6 56 1b 3f
       0.17769244 -1.3705187 1.4364507 0.60679185
0003c0 f0 93 47 3f 92 92 4b be de 9d 9a 3e 4f 3f 79 40
       0.7796011 -0.19880131 0.30198568 3.894489
0003d0 71 43 fc be a8 59 0b 40 75 b8 4f bf 98 8b 5f bf
       -0.49270204 2.1773472 -0.81140834 -0.8732238
0003e0 37 30 e2 bf 8d 1c 6c bf 44 78 2c bf 20 2c c1 be
       -1.7670964 -0.92231065 -0.6737101 -0.37728977
0003f0 78 a8 1e bc ae 97 71 3e 1c 31 5e 3f 59 ab 3d 3e
       -0.009683721 0.23593017 0.86793685 0.18522395

fc2.bias f4 [64]
000000 98 01 00 be 3a cf 50 c0 08 75 98 40 72 09 ec be
       -0.12500608 -3.262648 4.764286 -0.46100956
000010 fa f2 81 bf 83 25 d8 3f bc 90 e6 bf 43 9a 32 40
       -1.0152276 1.6886448 -1.801292 2.7906654
000020 4c b6 a2 40 76 73 d4 bd fb 0e 16 be a2 21 83 bf
       5.084753 -0.10373585 -0.14654152 -1.0244639
000030 c1 e9 05 40 f3 5a 1d be 3c 3f 72 3f 10 b7 a2 3e
       2.0923922 -0.15366726 0.9462774 0.3178029
000040 4f b3 d6 bf 17 5b 87 40 28 37 85 bc 7f 64 1f 40
       -1.6773471 4.2298694 -0.016261652 2.4905088
000050 7f ce 68 bd 55 e4 7c be 32 97 a7 be 8e 24 c3 bf
       -0.056837555 -0.24696477 -0.3273254 -1.5245531
000060 c8 5f 42 c0 c6 75 88 bd e7 89 21 c0 ed 3f ad 40
       -3.037096 -0.066630885 -2.524042 5.4140534
000070 33 46 bb 40 ae 3a e9 bd ac 39 78 c0 0b 9e 9f bd
       5.8523192 -0.113881454 -3.87852 -0.07793816
000080 ba bb ab be 1e 4b c0 40 a5 8a a0 40 8f 03 90 40
       -0.33541662 6.0091696 5.0169244 4.5004344
000090 9d c8 f6 bf 78 06 4e 40 aa 98 6a 40 b8 cd 80 c0
       -1.9279972 3.2191448 3.6655679 -4.025112
0000a0 ab ca ae be cb 5a 36 bd 3e f1 10 c0 b9 eb fd bf
       -0.34138998 -0.04452018 -2.2647243 -1.9837562
0000b0 01 fc 23 c0 05 33 d7 40 25 38 06 c0 38 b1 25 c0
       -2.562256 6.724978 -2.0971768 -2.5889416
0000c0 6f a7 96 40 18 28 c6 3f 06 2a 3e 40 b2 ce 26 bf
       4.7079387 1.5480986 2.971315 -0.6515914
0000d0 7d 30 3e 40 2c 03 01 be 27 ee 08 be f4 a5 a1 3f
       2.9717095 -0.12598866 -0.13372098 1.262877
0000e0 06 a6 9c 40 de 75 a5 c0 4e c2 e7 40 3a 28 2d bd
       4.8952665 -5.170638 7.242469 -0.04227469
0000f0 20 2b d7 3c 91 23 f1 bd 44 cc 3f 40 b4 e7 69 bc
       0.02626568 -0.11774362 2.9968424 -0.014276434

final.weight f4 [6, 64]
000000 b8 98 6c 3d 92 d4 a1 bd c1 b8 2d 3c 07 56 6b be
       0.05776283 -0.07901873 0.010603131 -0.22982036
000010 58 de 26 3c 2d a5 0b 3e f1 dc 81 be a9 7c e7 3d
       0.010184847 0.13637228 -0.25363877 0.11303074
000020 28 e4 6b 3d 48 87 fa 3b 0c 53 9d 3c 9b d5 c6 bd
       0.057590634 0.0076455213 0.019204639 -0.09708711
000030 28 a7 a4 bd 17 03 98 3e 20 d6 7c 3e 11 9a 20 be
       -0.08039695 0.29689857 0.24691057 -0.15683772
000040 66 1f b8 3d 49 54 0b 3e 81 fc 32 bd 62 0a d6 3a
       0.08990364 0.13606371 -0.043697838 0.0016329999
000050 9e e5 fb 3d e8 9e 0f 3c 35 dc ab 3d 67 26 2c be
       0.122996554 0.008765914 0.083916105 -0.16811524
000060 14 86 71 bd c6 66 53 bd 9e 07 20 bc cb 92 16 3d
       -0.058965757 -0.051611684 -0.009767441 0.036761086
000070 f5 fd 0a bb 64 36 e4 3e 05 23 14 be b7 f3 bc bd
       -0.00212085 0.44572747 -0.14466484 -0.092261724
000080 f5 44 bc be 6e 85 a5 3d 6c 72 0e bd 78 e1 b0 3d
       -0.3677136 0.0808209 -0.03477709 0.08636755
000090 1b 6c 16 be 20 e8 97 bd ed 9c f4 3d fa f8 5e bb
       -0.14689676 -0.07417321 0.11943994 -0.0034022913
0000a0 8c e2 70 3c 2a 79 9b bd 46 96 95 3d 83 1e 39 be
       0.0147024505 -0.075914696 0.07304053 -0.18078046
0000b0 3f e8 10 3b 14 70 84 3f 22 af b5 bd 15 60 e6 bd
       0.0022111086 1.0346704 -0.088712946 -0.11248795
0000c0 f1 5d 86 3d 39 62 1e 3e 8b cd 80 bb 29 49 a9 3d
       0.06560887 0.15467156 -0.0039307526 0.08265907
0000d0 09 64 a3 bb ed 4f 9c 3d 5e 03 f3 3b 1f 14 24 3c
       -0.0049862904 0.07632432 0.007416173 0.010014563
0000e0 90 63 1a 3e 1a ca 9c bd 84 af 74 3f 4c e5 50 bc
       0.15077043 -0.07655735 0.95580316 -0.012749981
0000f0 7e ab 48 3d 2b 16 88 3c 66 13 6f 3e 4a 2e c2 3d
       0.048991673 0.016612133 0.23347244 0.09481485
000100 65 63 d5 3c 37 b4 88 bd fb b5 14 3e bf d9 88 bd
       0.026048372 -0.06674998 0.14522545 -0.06682157
000110 39 d2 39 be 4f ea 6a bd 9a 35 2b bc e5 96 ba bc
       -0.181466 -0.05735236 -0.010449791 -0.02277703
000120 e7 13 12 3e 03 4c 2e 3d 25 1c 10 3d df db 00 be
       0.14265405 0.04255296 0.03518309 -0.12583874
000130 a9 fb 2b 3d d3 13 a6 3d 1f 5f e3 3c 08 71 13 3d
       0.04198805 0.0810925 0.027755318 0.035996467
000140 28 f5 2e be 06 51 ca bc 7d 80 ab 3d d8 52 60 3e
       -0.17085707 -0.024696838 0.083741166 0.21906602
000150 e0 d9 d6 bb 9c 2d 6b 3e 0f 1a 16 be 13 c1 9e bc
       -0.0065567344 0.22966617 -0.14658378 -0.019379174
000160 94 b5 d4 bd 2a cf 58 bd 50 2a 3a be b0 c3 e7 3d
       -0.10386196 -0.052931942 -0.18180203 0.11316621
000170 c2 d4 ab 3d 8a 21 26 3e e8 3d fa bd bd 6a c9 3c
       0.0839019 0.16223732 -0.12218839 0.02458703
000180 2e e0 6a 3e 84 a2 d5 3d 2c 6e be 3d c3 d7 c3 3d
       0.2293708 0.10431388 0.09298357 0.09562638
000190 b1 2d d2 bd d3 d4 89 3d 7d 24 85 bb 80 ab 14 be
       -0.10262621 0.06730046 -0.0040631876 -0.14518547
0001a0 10 49 45 be 72 11 c6 3d 74 36 9a bd 0f 69 04 bb
       -0.19266152 0.09671296 -0.07529917 -0.0020204221
0001b0 8e ca 20 be 5b f6 33 3f f1 39 e7 bd 34 fc ee bd
       -0.15702268 0.70297784 -0.11290348 -0.11669198
0001c0 35 b2 08 3e fe 54 c6 3d 3d a0 ea 3d f0 bb e3 bd
       0.1334923 0.0968418 0.11456344 -0.111198306
0001d0 7b ac 0c bd 3f 9f c7 bc 0f b9 5f 3d b4 e9 34 3e
       -0.034344178 -0.024367927 0.054619845 0.17667276
0001e0 47 2d 7c 3c 15 f8 82 be 28 a6 8f 3f 8a 0f 87 bc
       0.015391654 -0.25579897 1.1222582 -0.016486902
0001f0 68 aa 81 3c 5a a1 90 3d e4 03 04 3d d4 60 2c 3d
       0.015828326 0.07062025 0.032230273 0.04208453
000200 54 18 e8 bd 61 56 82 bd 5b 92 10 3e 6f f3 00 bd
       -0.11332765 -0.06364132 0.1411833 -0.031482156
000210 69 16 6c be b9 da 88 bd 22 b3 12 bd 1f 77 9b bc
       -0.23055424 -0.06682343 -0.035815366 -0.0189777
000220 ee c6 11 3e 7d 15 b2 3b 8b 9c f6 3b 16 45 37 be
       0.14236042 0.0054346905 0.0075259856 -0.17897448
000230 12 a1 84 3d 2a 82 b7 3d d0 bb d6 3c 38 d6 1a 3d
       0.06476034 0.08960374 0.026212603 0.03780195
000240 a2 7b 2f be c7 dc 9c bc 5a 30 9d 3c 6e 7c 69 3e
       -0.17137006 -0.019148244 0.019188095 0.22801372
000250 56 9a 47 3d 44 5f 62 3e 47 16 a1 be 3f d5 3f bb
       0.04873117 0.22106653 -0.3146231 -0.0029271392
000260 12 cd c6 bd ff 00 78 bc 6d a0 3e be fa 2d dd 3d
       -0.09707083 -0.015136956 -0.18615885 0.10799785
000270 ef fe ba 3d 58 ad 5b be 11 b7 e5 bd f9 4a d0 bd
       0.09130656 -0.21452844 -0.11216558 -0.1017055
000280 18 4c 8e be 2e 03 db 3d b7 61 ac 3d 54 eb b9 3d
       -0.2779243 0.10693966 0.08417075 0.090780884
000290 10 72 f5 bd 89 52 8c 3d 01 76 b0 ba 91 69 11 be
       -0.11984646 0.0685168 -0.0013462902 -0.14200427
0002a0 1a fd 49 3e aa 00 09 3d e9 11 b7 bd 9d b4 bb bb
       0.19725457 0.0334479 -0.08938963 -0.005728318
0002b0 5f b9 1c be e5 0b 34 3f c1 ec d4 bd b5 b3 e2 bd
       -0.15305088 0.7033065 -0.1039672 -0.11069433
0002c0 70 e3 e4 3d 9c 8b fd 3d 8b 1e e8 3d ea af ce bd
       0.11176193 0.12380144 0.113339506 -0.10092147
0002d0 40 0f ab 3d 9f 8f 38 3d 66 1e 15 3d d1 1b 3e 3e
       0.08352518 0.045058843 0.036405943 0.18565299
0002e0 32 55 95 3c 82 51 82 be 9c c8 8f 3f d8 dc 26 bd
       0.0182291 -0.2545281 1.1233096 -0.040737957
0002f0 40 36 11 bd 31 2d ce bb fd a6 1b 3d 24 27 8d bc
       -0.035452127 -0.0062920083 0.03800105 -0.017230578
000300 f0 a5 a5 bd 7f 50 8b bd 52 7b 0e 3e 4a ff 53 bd
       -0.08088291 -0.06802463 0.1391423 -0.051757134
000310 62 a2 5c be 69 96 8d bd 65 ea bd bc dc 54 94 bc
       -0.21546319 -0.06913454 -0.023183057 -0.01810687
000320 b1 6b 10 3e 81 7e 10 3d fe 1c 57 bc f1 ff 76 be
       0.14103581 0.035276894 -0.013129471 -0.24121071
000330 98 29 4a bd fb 6e f7 3d d6 1c 38 3d 95 e6 2d 3d
       -0.049356073 0.12081715 0.044949375 0.04245623
000340 8a dc 2e be 8f 59 ad bc 7e 88 4c 3d 8f 73 62 3e
       -0.17076316 -0.021160869 0.049934857 0.22114395
000350 08 91 60 bd 06 92 65 3e a9 ca a1 be a6 ca 65 ba
       -0.054825813 0.22418985 -0.3159993 -0.00087658537
000360 10 e4 db bd 6a f2 b4 ba 62 29 3a be 01 52 d5 3d
       -0.10736859 -0.0013805155 -0.18179849 0.10416032
000370 ca af b6 3d f4 12 ff 3d 3b fb f4 bd bd 19 a6 bd
       0.08920248 0.12454787 -0.11961981 -0.08110378
000380 61 88 70 be da ee e6 3d 9e 11 b9 3d b3 ef b3 3d
       -0.23489524 0.11276026 0.09036563 0.087859534
000390 7e 4c 17 be 3d 46 8f 3d 87 5c 24 3c 59 4f 18 be
       -0.14775273 0.06995819 0.010031826 -0.14874019
0003a0 a7 46 88 3c 11 65 35 3b 11 bc be bd 8c e9 14 bc
       0.016635252 0.0027678648 -0.093132146 -0.009088885
0003b0 ca 73 32 be 02 b0 34 3f 3c 75 fa bd 7b 69 da bd
       -0.17426983 0.70581067 -0.12229392 -0.1066465
0003c0 9c 32 fa 3d a8 95 d1 3d 4e 77 f8 3d 1f d8 c1 bd
       0.12216684 0.10233623 0.121321306 -0.0946505
0003d0 49 36 35 3e 72 f7 10 bd aa 76 93 bc 81 ec 3f 3e
       0.1769649 -0.035392232 -0.01800092 0.18742563
0003e0 1b 67 9e 3c 81 14 84 be a5 e1 8f 3f 37 e4 ce bd
       0.019336274 -0.25796893 1.1240736 -0.10102122
0003f0 86 a2 6f bd 7b bc a1 3b fa c3 07 3d 88 de c2 bd
       -0.058504604 0.0049357987 0.033145882 -0.09515101

final.bias f4 [6]
000000 ff 0f a7 40 33 2b c8 40 6d eb bb 40 57 2e ac 40
       5.2207026 6.2552733 5.8724885 5.3806567
000010 cd 44 94 40 6e 89 73 40
       4.6333985 3.805263
