D2QN_AAAI/checkpoint_d2qn_cheetah_20.pth (torch, 45655 bytes, 6 tensors)

fc1.weight f4 [128, 17]
3.848707 3.1528304 0.004277223 0.9581728 -0.45244086 -0.60192907 2.108937 0.16285752
-0.40300295 -1.025902 -0.20396867 -0.1024551 -0.057588667 -0.022918442 -0.0319657 0.02911795
0.01841476 0.28435996 0.057081714 -0.29310054 0.22597195 2.3425946 -1.3341635 2.0174654
0.44478607 -1.3446585 2.229101 -0.99755186 0.03283703 -0.1996903 0.068796374 0.07602807
-0.028928308 -0.044477563 -5.602209 -4.7209144 -1.7742339 -1.0184494 -1.4198494 0.99657786
0.79862905 1.1029338 0.21810775 -0.6792256 -0.050629828 -0.15952428 -0.06622513 0.11452627
0.09103346 0.040124163 0.01355253 -0.6539789 0.067826554 -1.3944681 -1.3106395 0.30294973
0.2607299 -0.4920242 -1.8965592 1.6285256 1.4990463 -0.5788457 -0.3357505 -0.15450834
0.58934027 0.13752797 -0.28968158 -0.032615434 -0.1860389 -4.035677 -1.6356419 -1.512266
-0.7705456 0.4377846 -0.35714644 1.6291414 -1.7489905 -0.11162792 -0.41515058 -0.11555401
-0.24176082 0.36085352 0.024897838 -0.120441675 -0.049376298 -2.3478537 -1.7543546 -1.990154
-2.0943022 -1.4483445 -1.7253019 2.2039368 -2.4704282 0.46187446 -1.892984 -0.49223638
-0.13483596 -0.30425885 0.06592954 -0.84024286 0.75246096 0.07708595 1.6807864 -1.5785412
-3.2385027 -1.630574 -4.1006727 0.27255824 0.5732864 1.9968488 -0.26416576 0.76938576
0.38122475 0.34235957 0.18391202 -0.19693401 -0.17605203 0.06424448 -0.11957549 3.0855453
2.188708 2.117007 0.19587518 -0.13630043 0.38897923 0.1398235 0.10991994 -0.27071068
-0.33033314 -0.14029714 -0.13477586 -0.11829443 -0.2713129 -0.005113561 0.019673921 0.13257696
-2.650793 0.3751529 1.9609505 2.1026711 0.2748312 0.44585878 -0.67031276 -1.3052686
-2.208765 -0.05955467 0.85469425 0.10393881 -0.06833062 0.021732073 0.044213522 0.11474715
0.050652128 5.2786274 -3.697576 -0.24809322 0.18644294 -0.67069435 1.1189581 -1.81205
0.06550577 -0.563653 0.8151549 -0.33466703 -0.0069007874 0.037601776 -0.02952884 -0.002276855
-0.055536307 -0.03734864 1.1350442 -0.036638442 -0.057203393 -0.35196468 -0.4815403 -0.64394677
-1.7871579 -0.09174773 0.39073044 -1.0468816 0.34997728 -0.14514187 0.05911369 0.23910113
-0.36136445 0.030699499 0.13145217 -3.031743 -3.7893577 0.26812485 0.9180799 0.44266257
-0.9914377 -0.7209543 -0.37302336 -0.040396202 -0.5176216 0.14928128 0.05846745 -0.031631228
0.03314063 -0.134919 -0.054172397 -0.048628107 -1.203219 2.454739 1.01092 -0.298078
0.9934497 -1.1589134 2.359207 -0.50723875 -0.51164144 0.46877176 -0.3528264 0.09592364
-0.0075857677 -0.07400235 0.050097644 0.059774008 0.015665865 -2.4572918 -2.4643164 -1.2022549
-0.7118041 -0.12726563 -0.37732416 -2.0929925 -1.1139622 0.6831224 -0.9518864 1.3965263
0.2980984 -0.16890208 0.30680773 -0.36004403 -0.11103909 0.2549233 -0.37746224 -0.051733725
-0.779168 -1.0585601 -1.1325717 -0.8575927 -0.60569495 -1.2049345 -0.10656483 -0.64045024
-0.00017336909 -0.05796921 -0.01946233 0.026871368 -0.11418968 0.22333246 -0.12045601 5.813763
00000000: 3751 7640 f9c7 4940 f227 8c3b d04a 753f
00000010: 54a6 e7be 0618 1abf d3f8 0640 1fc4 263e
00000020: 6756 cebe c250 83bf 2add 50be fbd3 d1bd
00000030: 18e2 6bbd 75bf bbbc 77ee 02bd c488 ee3c
00000040: 8dda 963c a197 913e 84ce 693d 4611 96be
00000050: 3165 673e 12ed 1540 dfc5 aabf 271e 0140
00000060: 00bb e33e c51d acbf 97a9 0e40 8f5f 7fbf
00000070: 1f80 063d 9d7b 4cbe 1de5 8c3d 9bb4 9b3d
00000080: 0ffb ecbc 1b2e 36bd 4c45 b3c0 bb11 97c0
00000090: 191a e3bf 8d5c 82bf a0bd b5bf ba1f 7f3f
000000a0: f472 4c3f ef2c 8d3f a357 5f3e bbe1 2dbf
000000b0: 3961 4fbd 555a 23be 0aa1 87bd c08c ea3d
000000c0: c06f ba3d 3c59 243d 6e0b 5e3c 296b 27bf
000000d0: a6e8 8a3d ee7d b2bf 09c3 a7bf 3a1c 9b3e
000000e0: 647e 853e 99ea fbbe 74c2 f2bf 8773 d03f
000000f0: c0e0 bf3f 3b2f 14bf 7de7 abbe 6f37 1ebe
00000100: 01df 163f 22d4 0c3e 2551 94be c397 05bd
00000110: fb80 3ebe 4424 81c0 b75c d1bf ef91 c1bf
00000120: 7a42 45bf 4e25 e03e e6db b6be b587 d03f
00000130: ecde dfbf 2e9d e4bd 9e8e d4be 95a7 ecbd
00000140: 2690 77be cbc1 b83e 8df6 cb3c 20aa f6bd
00000150: cd3e 4abd 3c43 16c0 b18e e0bf 5ebd febf
00000160: 0c09 06c0 5a63 b9bf b1d6 dcbf 4d0d 0d40
00000170: 7f1b 1ec0 cf7a ec3e 4d4d f2bf 6806 fcbe
00000180: 7012 0abe d1c7 9bbe 1106 873d 281a 57bf
00000190: 48a1 403f 3ddf 9d3d 0224 d73f a30d cabf
000001a0: a143 4fc0 a6b6 d0bf b638 83c0 c18c 8b3e
000001b0: e6c2 123f be98 ff3f bc40 87be 77f6 443f
000001c0: e42f c33e c149 af3e 6f53 3c3e 12a9 49be
000001d0: fc46 34be 9c92 833d ffe3 f4bd 9379 4540
000001e0: cb13 0c40 0b7d 0740 8193 483e 5792 0bbe
000001f0: 4928 c73e e42d 0f3e b51d e13d 979a 8abe
00000200: 6d21 a9be 0eaa 0fbe af02 0abe 5a44 f2bd
00000210: 86e9 8abe a98f a7bb 342b a13c 41c2 073e
00000220: 98a6 29c0 0a14 c03e 6d00 fb3f 2a92 0640
00000230: adb6 8c3e 9a47 e43e 9e99 2bbf 0b13 a7bf
00000240: 685c 0dc0 99ef 73bd 3ecd 5a3f dfdd d43d
00000250: edf0 8bbd 7607 b23c 3d19 353d 8e00 eb3d
00000260: 9b78 4f3d 84ea a840 16a5 6cc0 260c 7ebe
00000270: e6ea 3e3e a0b2 2bbf 053a 8f3f 41f1 e7bf
00000280: e427 863d 904b 10bf fead 503f 7a59 abbe
00000290: 0020 e2bb 5204 1a3d 77e6 f1bc 4a37 15bb
000002a0: 0a7a 63bd e3fa 18bd 2149 913f 3112 16bd
000002b0: 1b4e 6abd b734 b4be 738c f6be b2d9 24bf
000002c0: 97c1 e4bf 3ce6 bbbd d20d c83e 3700 86bf
000002d0: 3930 b33e 12a0 14be 3221 723d edd6 743e
000002e0: c304 b9be 847d fb3c 669b 063e 1408 42c0
000002f0: d684 72c0 a947 893e 4907 6b3f aba4 e23e
00000300: dcce 7dbf 7690 38bf ebfc bebe 7d76 25bd
00000310: d982 04bf 31dd 183e 917b 6f3d bf8f 01bd
00000320: 78be 073d 3528 0abe e0e3 5dbd 442e 47bd
00000330: 1503 9abf 721a 1d40 d465 813f ae9d 98be
00000340: b852 7e3f 4657 94bf 3ffd 1640 66da 01bf
00000350: effa 02bf da02 f03e a9a5 b4be 9d73 c43d
00000360: 0892 f8bb 8b8e 97bd 3033 4d3d 97d5 743d
00000370: b355 803c 4544 1dc0 5cb7 1dc0 7de3 99bf
00000380: cb38 36bf ec51 02be a230 c1be 97f3 05c0
00000390: 5096 8ebf 1ce1 2e3f d4ae 73bf 60c1 b23f
000003a0: 5aa0 983e abf4 2cbe e715 9d3e b157 b8be
000003b0: 7668 e3bd 4f85 823e bb42 c1be bee6 53bd
000003c0: 8e77 47bf e67e 87bf 1cf8 90bf 328b 5bbf
000003d0: d30e 1bbf 4b3b 9abf a93e dabd 8cf4 23bf
000003e0: 69ca 35b9 1f71 6dbd 776f 9fbc 5821 dc3c
000003f0: 47dc e9bd 44b1 643e a4b1 f6bd 590a ba40

fc1.bias f4 [128]
-1.2181811 -3.133878 -1.4558403 -2.0734715 0.4773832 -3.3775215 -0.34242755 -3.2169802
-2.444006 3.8312438 0.7236717 0.8886783 -2.9220843 -2.0664363 -1.6575667 1.9584514
-2.3807755 -2.3200939 -2.305274 0.30462435 -2.9529266 2.3937943 1.0481398 -1.0121546
0.21888116 1.0239042 3.924018 -2.8649476 -1.3948371 3.7096539 -1.1396433 2.8621676
-3.8124259 -3.0820456 -2.3411005 0.15115912 -2.4034638 -3.691461 -2.5396893 0.6050235
1.4282131 1.0741401 -0.84784836 -1.6840917 -0.031792745 -0.33872834 -1.9958795 -1.9258788
-3.0253057 -2.9898643 -1.3165356 -3.2996535 0.66750246 1.7461934 -3.2079372 -1.5667647
-1.7942605 0.26891187 -1.4580123 -0.96056217 3.8637109 -0.7675609 -1.570296 2.916367
-2.5622663 -2.882036 -1.6197513 -2.7870345 -3.3733716 -1.669441 -3.0615702 0.66947407
-1.4616168 -3.1459596 -2.7351716 3.2654898 1.9946167 -1.5919344 -3.442225 3.1955416
1.0389609 1.9791152 -1.915837 0.0063265297 -1.9986379 0.15102455 0.064785436 -1.6044048
2.47579 -4.271809 0.35967162 1.7474161 -2.594024 1.0873343 3.8637843 0.5902733
2.4025362 -3.450743 -2.673404 0.57408696 2.0467849 -1.32598 1.0401964 4.12327
-0.95266336 -1.3586223 -0.80368406 -1.6185856 -0.28634226 -3.0755525 -1.2105744 0.4257247
-1.0230912 -2.2862566 2.7500298 -2.5529318 -2.0079165 0.61644316 -0.7681299 1.8695124
-1.6727418 1.7637633 0.70313764 -3.1121542 -1.8158929 -1.8128182 -1.3212514 3.9776073
00000000: 5ced 9bbf 7591 48c0 fa58 babf c2b3 04c0
00000010: 926b f43e 5029 58c0 aa52 afbe 01e3 4dc0
00000020: 986a 1cc0 1933 7540 8c42 393f 6c80 633f
00000030: 6e03 3bc0 7e40 04c0 252b d4bf 89ae fa3f
00000040: a05e 18c0 6b7c 14c0 9c89 13c0 b9f7 9b3e
00000050: c0fc 3cc0 ed33 1940 7229 863f 488e 81bf
00000060: 6222 603e 4b0f 833f 1c23 7b40 4d5b 37c0
00000070: 068a b2bf f86a 6d40 d5df 91bf c12d 3740
00000080: c9fe 73c0 3c40 45c0 97d4 15c0 75c9 1a3e
00000090: 5ad2 19c0 e640 6cc0 458a 22c0 d2e2 1a3f
000000a0: b0cf b63f 6c7d 893f 970c 59bf 5190 d7bf
000000b0: 1c39 02bd cd6d adbe fb78 ffbf 3283 f6bf
000000c0: 9c9e 41c0 f059 3fc0 3d84 a8bf 862d 53c0
000000d0: 71e1 2a3f 4483 df3f d84e 4dc0 bf8b c8bf
000000e0: 54aa e5bf d1ae 893e 26a0 babf 67e7 75bf
000000f0: 0a47 7740 df7e 44bf 76ff c8bf c2a5 3a40
00000100: 2cfc 23c0 4773 38c0 0354 cfbf c65e 32c0
00000110: 52e5 57c0 3eb0 d5bf c4f0 43c0 a762 2b3f
00000120: 4216 bbbf 6757 49c0 0d0d 2fc0 c9fd 5040
00000130: 9a4f ff3f 82c4 cbbf 6a4d 5cc0 c183 4c40
00000140: acfc 843f a653 fd3f 263a f5bf c74e cf3b
00000150: 5ed3 ffbf 2ea6 1a3e 3aae 843d 235d cdbf
00000160: 5873 1e40 a9b2 88c0 e126 b83e 55ab df3f
00000170: 7d04 26c0 c52d 8b3f 3e48 7740 271c 173f
00000180: 27c3 1940 f9d8 5cc0 0d19 2bc0 5df7 123f
00000190: 86fe 0240 b6b9 a9bf 2825 853f d4f1 8340
000001a0: bfe1 73bf 56e7 adbf 3dbe 4dbf d02d cfbf
000001b0: 749b 92be dad5 44c0 1af4 9abf 96f8 d93e
000001c0: a7f4 82bf 0752 12c0 7d00 3040 3c63 23c0
000001d0: b481 00c0 38cf 1d3f 29a4 44bf 2f4c ef3f
000001e0: 671c d6bf ffc2 e13f d400 343f 892d 47c0
000001f0: 2e6f e8bf 6d0a e8bf c41e a9bf 1e91 7e40

fc2.weight f4 [64, 128]
-1.1232344 0.6030785 0.8360115 -0.30139703 -0.41230425 -0.10597025 -0.012726985 0.64547235
0.2204476 0.4568076 -0.36289194 0.23382318 -0.59656686 0.90405583 0.13535586 0.33944604
0.07549055 -0.112150036 0.5290893 0.46252185 -1.27869 -0.23061132 0.47885382 0.5579844
0.2485329 0.014733582 0.37926057 -0.7108422 -0.88107085 0.09638481 0.5020847 -0.8603965
0.90236723 -1.7902417 1.1669672 -0.05252723 0.13319121 1.5293424 -0.14904663 -1.4168061
0.1631768 -0.07948884 -0.490836 -0.46659327 -0.05041403 1.0679471 0.5620359 0.06575693
-0.57281965 -0.730709 0.59309816 -0.09605698 0.14085229 -0.04089128 0.5513606 0.20358427
-0.5321792 0.3908172 -2.488144 -1.2443455 -0.43998358 1.1581628 0.123701185 0.6921649
0.12680759 -0.32913736 -0.34505764 -2.5395324 0.60386604 -0.40374973 -3.0988188 0.25177616
-1.38012 0.6627734 -0.02284832 -0.018502617 0.09872116 -0.6473094 0.8576932 -0.16442
-0.13172252 -1.1327164 -0.2378127 0.6758598 0.1896932 0.958303 0.0434092 -0.8656921
-0.09675712 -0.29397786 -1.0647255 -0.37797806 -0.3795715 -1.5215254 0.26522195 -0.32436818
-0.39714068 0.3356042 -0.029163772 0.7324819 -1.288376 -1.8370198 -0.35187867 0.5476688
-0.54242325 -0.74162215 -0.50146776 0.43478525 -0.9616704 -0.09872448 0.33703327 0.47271228
-0.9166992 0.60073286 -0.039412457 -0.045839764 -0.8330113 0.18584609 0.20582274 0.5032939
-0.1689108 -0.15858936 0.8804746 2.093683 -2.039425 -0.16645156 0.3811728 -0.6066336
-0.21616034 0.030977212 -0.98348 -0.22034283 0.90902114 -1.4222003 -1.6193169 -0.59784436
-0.9566841 3.0099761 -0.19541307 -1.1346656 -0.14808913 -0.18457976 -0.2860338 3.3985653
0.44402808 -0.23081458 -0.070475146 -0.43015185 -1.0495409 0.6252732 -0.5144738 -0.14705916
0.6866255 -1.4506288 -0.2805096 -0.9414073 -0.42480078 -0.22723843 0.2636646 -1.2009574
0.5901065 0.96800166 -0.8074302 -0.6881608 0.31151316 1.583559 0.6816301 -0.42677963
-0.33058527 -0.95037407 0.5285246 0.16764438 -1.4090074 -1.4956224 -2.7787004 0.07722617
1.3542728 -1.791214 -1.0500178 0.9610591 0.4513476 -0.4759853 0.119814955 -0.0015976717
-0.89426947 -0.8018709 -19.570936 1.2841992 -1.7248363 -0.27205703 -1.1809772 -0.18066701
-0.24347936 -0.29084796 0.5811384 -4.054923 1.2453206 -0.52272075 0.119511865 -0.34750277
1.2999594 0.1750044 0.5376052 0.7916805 -0.84274447 -0.5031922 -0.29255712 -0.41293886
-0.2107444 -1.4633303 -0.96435875 -0.47173676 0.06850976 0.7973628 -0.059596226 -1.6595343
-0.17884602 1.2579043 -0.72120166 1.4682205 -0.12414662 -0.33301616 -0.2676635 -0.103383034
0.05278084 1.6778086 1.3465444 -0.9123865 -0.83106524 -1.8123535 -3.0267048 -0.19058219
-0.17169976 -0.6721499 1.3476824 -0.009469572 -0.30991393 -0.26033357 -0.4876646 0.6760102
2.332185 -0.07731909 -0.6916186 -0.090020366 0.31908754 -0.13019776 -2.1254094 -2.027058
0.45246163 -0.14063238 -0.9473273 1.355938 0.72012466 -0.070400335 -0.48698413 0.6445511
00000000: 25c6 8fbf 5a63 1a3f da04 563f b650 9abe
00000010: 8b19 d3be ee06 d9bd d884 50bc ad3d 253f
00000020: 04bd 613e b0e2 e93e f9cc b9be 586f 6f3e
00000030: 9bb8 18bf 3470 673f ba9a 0a3e dfcb ad3e
00000040: ca9a 9a3d ebae e5bd 6572 073f aacf ec3e
00000050: 1dac a3bf 6025 6cbe 542c f53e 11d8 0e3f
00000060: 697f 7e3e 1f65 713c 712e c23e c1f9 35bf
00000070: dc8d 61bf 6665 c53d 9f88 003f f242 5cbf
00000080: 8a01 673f a426 e5bf 2e5f 953f cb26 57bd
00000090: 4763 083e 7ec1 c33f ae9f 18be e759 b5bf
000000a0: d217 273e 0ccb a2bd db4e fbbe 50e5 eebe
000000b0: f17e 4ebd 7eb2 883f 96e1 0f3f 92ab 863d
000000c0: 4fa4 12bf bf0f 3bbf 48d5 173f 86b9 c4bd
000000d0: 953b 103e 9d7d 27bd f825 0d3f 6578 503e
000000e0: e53c 08bf 3119 c83e c03d 1fc0 b746 9fbf
000000f0: 8745 e1be ae3e 943f 0c57 fd3d b831 313f
00000100: d9d9 013e b184 a8be 65ab b0be b387 22c0
00000110: f796 1a3f 49b8 cebe 0c53 46c0 cee8 803e
00000120: c6a7 b0bf 84ab 293f 662c bbbc cd92 97bc
00000130: 522e ca3d 12b6 25bf c891 5b3f b75d 28be
00000140: 45e2 06be dafc 90bf 2c85 73be 2605 2d3f
00000150: ef3e 423e 5853 753f d8cd 313d ff9d 5dbf
00000160: 9928 c6bd 4484 96be ed48 88bf 5786 c1be
00000170: 3257 c2be 58c1 c2bf 2ccb 873e 9613 a6be
00000180: 0656 cbbe 50d4 ab3e dde8 eebc ef83 3b3f
00000190: 81e9 a4bf 7723 ebbf 7129 b4be 0634 0c3f
000001a0: 40dc 0abf f3da 3dbf 3160 00bf 2c9c de3e
000001b0: 0830 76bf 0f30 cabd a08f ac3e 5807 f23e
000001c0: ccac 6abf a1c9 193f f56e 21bd 7ac2 3bbd
000001d0: 3b40 55bf 704e 3e3e 32c3 523e ded7 003f
000001e0: f4f6 2cbe 4065 22be c966 613f e7fe 0540
000001f0: f085 02c0 4772 2abe 1529 c33e 574c 1bbf
00000200: 2359 5dbe ecc3 fd3c 58c5 7bbf 8da1 61be
00000210: 9cb5 683f a90a b6bf c745 cfbf 540c 19bf
00000220: 40e9 74bf 73a3 4040 5d1a 48be b93c 91bf
00000230: ada4 17be 7a02 3dbe 0673 92be 1882 5940
00000240: a657 e33e a85a 6cbe 4655 90bd dd3c dcbe
00000250: 5b57 86bf e811 203f 8eb4 03bf ad96 16be
00000260: b0c6 2f3f 34ae b9bf f49e 8fbe 1200 71bf
00000270: 7d7f d9be 31b1 68be 0cff 863e f9b8 99bf
00000280: 3811 173f f5ce 773f bfb3 4ebf 4e2b 30bf
00000290: a77e 9f3e 10b2 ca3f 4f7f 2e3f dc82 dabe
000002a0: 7942 a9be b74b 73bf 634d 073f f8aa 2b3e
000002b0: 5b5a b4bf 8e70 bfbf 3ad6 31c0 c128 9e3d
000002c0: d058 ad3f 8046 e5bf fc66 86bf f807 763f
000002d0: 0817 e73e 58b4 f3be 8b61 f53d f768 d1ba
000002e0: d8ee 64bf 6947 4dbf 4791 9cc1 a460 a43f
000002f0: 70c7 dcbf 0f4b 8bbe 432a 97bf c600 39be
00000300: a752 79be 06ea 94be 7cc5 143f eec1 81c0
00000310: aa66 9f3f 07d1 05bf a3c2 f43d e2eb b1be
00000320: 1265 a63f 5a34 333e 7fa0 093f 93ab 4a3f
00000330: 1abe 57bf 34d1 00bf 0cca 95be b96c d3be
00000340: 61cd 57be 684e bbbf 37e0 76bf 7b87 f1be
00000350: d84e 8c3d f81f 4c3f 2c1b 74bd 9f6b d4bf
00000360: 6923 37be 0203 a13f aca0 38bf a6ee bb3f
00000370: 9540 febd 1881 aabe 310b 89be 7cba d3bd
00000380: b930 583d 6fc2 d63f 915b ac3f 2992 69bf
00000390: b1c0 54bf 33fb e7bf 88b5 41c0 fa27 43be
000003a0: 10d2 2fbe 0412 2cbf db80 ac3f 4426 1bbc
000003b0: 0aad 9ebe 714a 85be 2daf f9be 010f 2d3f
000003c0: 8542 1540 7959 9ebd eb0d 31bf 995c b8bd
000003d0: 715f a33e 9052 05be b506 08c0 51bb 01c0
000003e0: 0da9 e73e ef01 10be 0b84 72bf 608f ad3f
000003f0: 175a 383f 0d2e 90bd fc55 f9be 4d01 253f

fc2.bias f4 [64]
3.3694816 -1.1806111 -0.17760529 -0.16000617 -0.3476076 3.2624953 -2.469171 2.4219122
2.3247564 -0.12829839 3.8440259 -3.1138988 3.6307554 3.058042 0.56018096 -1.9209658
-1.4183196 -0.21735138 5.126614 0.97714424 -0.105589546 -0.23650478 -0.41210675 -1.3890392
-2.7884247 -1.838309 0.47271475 3.9221654 3.6779802 2.864252 -1.7308552 -1.5594125
-0.122403756 1.9255131 3.4898207 1.6961361 -2.4323893 2.9981623 2.306629 -2.1525033
-1.1639743 -0.045603525 1.5765018 -0.19523288 -1.642308 4.672961 -2.8624623 -0.20720531
-0.7844058 -0.8977097 -0.12357972 2.584999 3.9605684 -0.11975449 -0.11112961 -0.019839637
2.7185652 -2.9410832 4.754427 -0.034181453 0.024645044 2.1068232 2.1511567 0.0030565113
00000000: 96a5 5740 441e 97bf 29de 35be a8d8 23be
00000010: a0f9 b1be b9cc 5040 e606 1ec0 9c00 1b40
00000020: cfc8 1440 a760 03be 8504 7640 1e4a 47c0
00000030: 4c5e 6840 f6b6 4340 0568 0f3f 35e2 f5bf
00000040: 7f8b b5bf 5c91 5ebe 390d a440 2026 7a3f
00000050: 553f d8bd 4f2e 72be a8ff d2be 09cc b1bf
00000060: 8d75 32c0 b64d ebbf ab07 f23e c204 7b40
00000070: 0764 6b40 e84f 3740 aa8c ddbf d49a c7bf
00000080: d2ae fabd 3777 f63f 3959 5f40 fd1a d93f
00000090: 44ac 1bc0 e4e1 3f40 cf9f 1340 9dc2 09c0
000000a0: 1cfd 94bf c3ca 3abd d0ca c93f 21eb 47be
000000b0: 2637 d2bf e688 9540 9532 37c0 a12d 54be
000000c0: d2ce 48bf 4ed0 65bf 5d17 fdbd a070 2540
000000d0: f479 7d40 d841 f5bd ec97 e3bd bc86 a2bc
000000e0: f9fc 2d40 b53a 3cc0 4424 9840 da01 0cbd
000000f0: 67e4 c93c 31d6 0640 8dac 0940 c04f 483b

final.weight f4 [6, 64]
-0.026989555 -0.26988402 0.19033131 -0.17917012 -0.100289546 0.006265461 -0.14994527 0.16417806
0.029191652 -0.009443446 -0.0030734753 -0.13290827 0.105881274 0.22633617 0.19079712 -0.14035629
-0.13385265 0.2510637 0.91229326 -0.27501547 0.011623622 -0.23683305 -0.106691316 -0.23790218
-0.016136015 -0.028121738 -0.03975596 0.11273393 -0.033386443 0.06554247 0.031767856 -0.17809416
-0.07932243 0.02182493 -0.04025473 0.06622781 -0.17002165 0.11082125 0.13489157 0.030718783
0.051013865 -0.07019311 0.18121438 -0.1565512 0.070532165 0.9378248 -0.071159534 0.14388931
-0.036215886 0.07432764 -0.121273644 0.2029391 0.307747 -0.015793744 -0.0075798957 -0.030980328
-0.13454199 -0.15321535 0.7619547 -0.032711484 0.048970427 -0.034145184 0.1927053 0.122506686
0.17879368 -0.029954819 0.07404482 0.051053498 0.089845695 0.107638896 -0.109737955 -0.0191317
0.19676398 0.088573866 0.05534737 -0.12634167 0.12648936 0.04218328 0.03899473 -0.102303095
-0.11859366 -0.2946801 1.0387359 0.06423583 0.008636976 0.014842342 0.050595418 -0.124206215
-0.14829068 -0.12586798 0.30370063 0.059142634 0.12674755 0.21707624 -0.20697495 -0.074985944
-0.110491164 0.13619831 0.121193446 0.09932853 -0.0579103 0.08674449 -0.04646569 -0.22667208
-0.1040005 0.02642158 0.03830179 -0.05244684 -0.14957035 0.6890402 -0.15078002 -0.05449263
-0.1471586 -0.12781353 -0.1717693 0.06487285 0.11527462 -0.0023427238 0.009999109 0.15387787
0.1054658 -0.1905933 0.7595146 -0.015086028 0.015828326 0.11439155 0.027383901 -0.0015766637
0.17500338 -0.03465526 0.07906264 0.039018963 0.037958294 0.11147137 -0.1159208 -0.018452473
0.19813207 0.05335604 0.065720946 -0.117920004 0.12095437 0.033872522 0.028864738 -0.08280704
-0.13402064 0.13433059 1.0410223 0.061779328 0.11858747 0.008237818 -0.32278186 -0.08796467
-0.13742693 -0.13548662 0.29704446 0.04754151 0.117279135 0.2087591 -0.21467161 -0.07183618
-0.11500697 0.15789339 0.12348088 0.10508728 -0.07020081 0.08065433 -0.044252694 -0.22121584
-0.09967041 0.07106032 0.026954176 -0.3229847 -0.1453094 0.6964017 -0.15147038 -0.04319306
-0.11202485 -0.12836489 -0.17460366 0.03914396 0.12722383 0.012042537 0.09174863 0.064254716
0.16160361 -0.20072821 0.7534366 -0.035976324 -0.035452127 0.12426854 0.013415949 0.0202497
0.18192439 -0.033685043 0.09488955 0.032073162 0.05108451 0.094528854 -0.11491523 -0.029623324
0.1842971 0.03166348 0.07073906 -0.12190259 0.124949574 0.028468225 0.027091812 -0.08587568
-0.11882478 -0.28125706 1.034313 0.0670421 -0.007335524 0.014922057 -0.10718092 -0.08052847
-0.1440858 -0.13916804 0.30534157 0.060498726 0.13079697 0.21575119 -0.204004 -0.07970584
0.00043635795 0.14344205 0.121152885 0.12612455 -0.06463545 0.08654375 -0.04765609 -0.22110164
-0.09717736 0.043061107 0.033316415 -0.20606756 -0.15075243 0.69069815 -0.14389165 -0.04374947
-0.1560976 -0.13137504 -0.15394963 0.061024114 0.11163613 -0.033881694 -0.015980808 -0.027487349
0.108182244 -0.19706577 0.75135696 -0.10091591 -0.057706848 0.11083294 0.014262632 -0.12269579
00000000: 3319 ddbc 3d2e 8abe 36e6 423e 5f78 37be
00000010: 9b64 cdbd 7f4e cd3b 418b 19be 4b1e 283e
00000020: 5523 ef3c afb8 1abc 5c6c 49bb 1b19 08be
00000030: 48d8 d83d abc4 673e 5260 433e 8fb9 0fbe
00000040: ab10 09be 6c8b 803e 0d8c 693f d4ce 8cbe
00000050: 0171 3e3c 5d84 72be fa80 dabd a19c 73be
00000060: ad2f 84bc 8f5f e6bc 25d7 22bd 0ce1 e63d
00000070: 39c0 08bd 213b 863d 031f 023d 515e 36be
00000080: cc73 a2bd 32ca b23c 25e2 24bd 72a2 873d
00000090: 281a 2ebe 40f6 e23d 0421 0a3e f5a5 fb3c
000000a0: eaf3 503d 68c1 8fbd 4390 393e f54e 20be
000000b0: 2b73 903d 4915 703f 17bc 91bd b857 133e
000000c0: 1c57 14bd 1739 983d 515e f8bd 44cf 4f3e
000000d0: 0491 9d3e e261 81bc c660 f8bb 75ca fdbc
000000e0: 60c5 09be 7ce4 1cbe 770f 433f 7afc 05bd
000000f0: 3795 483d d2db 0bbd 8a54 453e c9e4 fa3d
00000100: b115 373e cf63 f5bc d0a4 973d 791d 513d
00000110: 0501 b83d c871 dc3d 4bbe e0bd 15ba 9cbc
00000120: 7f7c 493e 3766 b53d edb3 623d b65f 01be
00000130: 6d86 013e 60c8 2c3d f0b8 1f3d 4984 d1bd
00000140: 3ce1 f2bd 4fe0 96be 4cf5 843f 138e 833d
00000150: 1a82 0d3c 4b2d 733c 243d 4f3d d45f febd
00000160: 83d9 17be 89e3 00be a67e 9b3e 8c3f 723d
00000170: 1cca 013e 3c49 5e3e 3ef1 53be 3b92 99bd
00000180: 3149 e2bd 9277 0b3e 4534 f83d c26c cb3d
00000190: 5a33 6dbd 18a7 b13d cf52 3ebd ba1c 68be
000001a0: 37fe d4bd 1272 d83c 56e2 1c3d 7fd2 56bd
000001b0: f828 19be f064 303f 1466 1abe aa33 5fbd
000001c0: beb0 16be 8de1 02be 4be4 2fbe 0fdc 843d
000001d0: 1a15 ec3d 6288 19bb 4ed3 233c 2992 1d3e
000001e0: 74fe d73d e42a 43be 8c6f 423f 632b 77bc
000001f0: 68aa 813c 1e46 ea3d 3454 e03c 0ea8 ceba
00000200: 1634 333e adf2 0dbd 98eb a13d 59d2 1f3d
00000210: 287a 1b3d 1a4b e43d e267 edbd a429 97bc
00000220: 22e3 4a3e dd8b 5a3d b498 863d 0b80 f1bd
00000230: edb6 f73d eabd 0a3d be75 ec3c bd96 a9bd
00000240: b53c 09be f58d 093e 3840 853f 520c 7d3d
00000250: fddd f23d eaf7 063c aa43 a5be d226 b4bd
00000260: a5b9 0cbe 01bd 0abe 3616 983e e3ba 423d
00000270: 0b30 f03d f2c4 553e e0d2 5bbe d91e 93bd
00000280: c688 ebbd ceae 213e 8be3 fc3d 0038 d73d
00000290: 71c5 8fbd 192e a53d 5042 35bd 6886 62be
000002a0: 0020 ccbd 1388 913d 01cf dc3c 405e a5be
000002b0: fdcb 14be 6247 323f 0d1b 1bbe 35eb 30bd
000002c0: 496d e5bd 1672 03be 4dcb 32be 6b55 203d
000002d0: f746 023e 104e 453c b5e6 bb3d fa97 833d
000002e0: 6b7b 253e b28b 4dbe 39e1 403f e95b 13bd
000002f0: 4036 11bd 8180 fe3d 92ce 5b3c b3e2 a53c
00000300: 634a 3a3e 54f9 09bd 7455 c23d 265f 033d
00000310: fe3d 513d 5898 c13d ad58 ebbd 9dac f2bc
00000320: 61b8 3c3e 91b1 013d a4df 903d 11a8 f9bd
00000330: 90e5 ff3d 3236 e93c a6ef dd3c 97df afbd
00000340: 685a f3bd ed00 90be 5e64 843f 5e4d 893d
00000350: d65e f0bb a57b 743c ac81 dbbd 1cec a4bd
00000360: 3a8b 13be 1182 0ebe bb55 9c3e 83cd 773d
00000370: a4ef 053e e1ed 5c3e 6de6 50be d13c a3bd
00000380: f9c6 e439 79e2 123e 011f f83d cb26 013e
00000390: 975f 84bd d93d b13d 0833 43bd 7868 62be
000003a0: ec04 c7bd d860 303d cb76 083d 6003 53be
000003b0: d85e 1abe 98d1 303f 5558 13be a532 33bd
000003c0: 0dd8 1fbe 2e87 06be f9a4 1dbe 6cf4 793d
000003d0: 7ca1 e43d 88c7 0abd 2fea 82bc 262d e1bc
000003e0: a78e dd3d 9ccb 49be ee58 403f 00ad cebd
000003f0: 045e 6cbd 61fc e23d d0ad 693c ee47 fbbd

final.bias f4 [6]
3.4736733 4.2864904 3.9269316 3.6330423 3.0686028 2.4073653
00000000: aa50 5e40 ee2a 8940 d952 7b40 c483 6840
00000010: fd63 4440 4612 1a40
