D2QN_AAAI/checkpoint_d2qn_cheetah_20.pth (torch, 45655 bytes, 6 tensors)

fc1.weight f4 [128, 17]
0	0xbfc37bcc	-1.5272155
1	0x3eb9b476	0.36270493
2	0xbf94ecc2	-1.1634753
3	0xbf297aba	-0.6620289
4	0xbf8e3bfb	-1.1112055
5	0xbef67d4b	-0.48142466
6	0x3d898ca1	0.06716276
7	0xbf164f29	-0.5871454
8	0xbe47519d	-0.19464727
9	0xbeb97837	-0.3622453
10	0x3caab1b1	0.020836683
11	0x3e03ba5f	0.12864064
12	0xbd45e088	-0.048309833
13	0xbe0bf6f5	-0.13668425
14	0xbd9d6c4b	-0.07686671
15	0x3d2b1297	0.041765776
16	0x3d7055a1	0.058675412
17	0x3f0cca5b	0.5499627
18	0xbf9829b7	-1.188773
19	0x3eb455ab	0.3522161
20	0x3ec83a3d	0.39106932
21	0x3d00b052	0.031418152
22	0xbed45dad	-0.4147772
23	0x3d8776b4	0.06614438
24	0xbf24f1d0	-0.64431477
25	0xbfb49964	-1.4109311
26	0x3f74e655	0.9566396
27	0xbf32ad94	-0.6979611
28	0xbdfeaa99	-0.12434883
29	0xbd719b2b	-0.05898587
30	0xbe210afd	-0.15726848
31	0x3e00ef63	0.12591319
32	0xbb5a5121	-0.0033312517
33	0x3db99fc0	0.09063673
34	0xc009223a	-2.142714
35	0xbf0f79a1	-0.56044966
36	0xbe8c2716	-0.2737357
37	0xbeb0c4c0	-0.34525108
38	0xbe300112	-0.17187908
39	0x3d8b4539	0.068003125
40	0x3f0fd3de	0.5618266
41	0xbddfa9fc	-0.10921094
42	0x3f05dc30	0.52289104
43	0xbec25abe	-0.37959856
44	0xbde3c6ca	-0.111219004
45	0xbd86a51f	-0.06574463
46	0xbd83f42b	-0.06443056
47	0x3d97b8ad	0.07408271
48	0xbe35ee6f	-0.17766736
49	0x3d92563e	0.07145356
50	0x3d8ba238	0.0681805
51	0x3f8cfe8f	1.1015185
52	0x3e6423ad	0.22279234
53	0xbf73d40f	-0.9524545
54	0xbf00cd77	-0.50313514
55	0xbf1abca6	-0.60444105
56	0xbf27da04	-0.6556704
57	0xbe25e407	-0.16200267
58	0xbdb5dc84	-0.08879951
59	0x3f1ab173	0.60427016
60	0x3f2aa76c	0.66661716
61	0x3cdb94f6	0.026804429
62	0xbbb20bb2	-0.005433523
63	0x3d988cf5	0.074487604
64	0xbc0500eb	-0.008117895
65	0x3e057e77	0.13036524
66	0x3c0485df	0.008088558
67	0xbcc8d4ff	-0.024515627
68	0xbdd44a0f	-0.10365688
69	0xbb7e1e1d	-0.0038775273
70	0xbd03c7ad	-0.032172848
71	0xbe253e24	-0.16136986
72	0xbeb59a8a	-0.35469466
73	0xbec4d78b	-0.38445696
74	0xbef95315	-0.486962
75	0xbf422462	-0.75836766
76	0xbede600b	-0.4343265
77	0xbda98648	-0.08277565
78	0xbe46cb01	-0.19413377
79	0x3c12ce1c	0.008960273
80	0xbda91acd	-0.08257065
81	0x3d5deb1f	0.054179307
82	0x3ccdd341	0.025125148
83	0xbd581f6b	-0.052764338
84	0x3c940d7e	0.01807284
85	0xc01f90f0	-2.4932213
86	0xbe9ba553	-0.3039957
87	0xbe44edf6	-0.192314
88	0xbe5ba52c	-0.21449727
89	0xbeb1e8d5	-0.3474795
90	0x3e4bd367	0.19904862
91	0x3f0b593d	0.5443304
92	0x3eb59675	0.35466352
93	0x3ead4746	0.3384344
94	0xbee91125	-0.45520893
95	0xbe2408f3	-0.16019039
96	0xbd36aff4	-0.044601396
97	0xbd2a6b11	-0.041606013
98	0xbcc1274c	-0.023578309
99	0xbd3368f3	-0.04380126
100	0x3c25e8b9	0.010126286
101	0x3d01b792	0.031669207
102	0xbf32b598	-0.6980834
103	0xbf6c84ce	-0.92390144
104	0xbfebd1e4	-1.8423429
105	0xbfe50f1f	-1.789524
106	0xbfba36ef	-1.4548014
107	0x3e2d441d	0.16920514
108	0x3d633148	0.05546692
109	0x3e143035	0.14471515
110	0xbde040d7	-0.10949867
111	0x3e487690	0.19576478
112	0x3eb6271c	0.35576713
113	0x3e86a4a4	0.26297486
114	0x3daa0d88	0.08303362
115	0xbdf93fea	-0.12170394
116	0xbd3c3dc0	-0.045957327
117	0x3d32dcbb	0.043667536
118	0xbdef4377	-0.1168279
119	0x3dbf68c9	0.09346158
120	0xbef80634	-0.48442233
121	0xbe505261	-0.20343925
122	0xbdbf7c9d	-0.0934994
123	0xbd449957	-0.0479978
124	0xbf4116af	-0.7542524
125	0xbea0395f	-0.3129377
126	0xbf3bca0a	-0.7335516
127	0xbf45e4f6	-0.7730249
128	0x3e8c74e0	0.2743292
129	0xbea3eff7	-0.32019016
130	0x3b103067	0.0022001506
131	0xbcfe9858	-0.031078503
132	0xbdbe40a7	-0.09289675
133	0xbe3d57fd	-0.18490596
134	0x3e8066f7	0.25078556
135	0x3d32f10f	0.043686923
136	0x3f8d5a71	1.1043226
137	0xbd3e9497	-0.046528425
138	0x3cd53130	0.026024431
139	0xbd02ff7e	-0.031981938
140	0x3d3a9d87	0.045560386
141	0xbe41f63a	-0.18941584
142	0x3e89adbd	0.26890364
143	0xbf470349	-0.7773939
144	0xbf8f164b	-1.1178678
145	0x3f67ae30	0.90500164
146	0xbe1a7d3a	-0.15086833
147	0x3da9d5db	0.08292743
148	0x3d59b615	0.053152163
149	0xbdf9bd6b	-0.12194332
150	0xbd99c7fb	-0.07508846
151	0x3c8da666	0.017291259
152	0x3d5d08ff	0.053963657
153	0x3f853361	1.0406305
154	0xbdd8be7d	-0.10583208
155	0xbeed4ec1	-0.46349147
156	0xbe0f96b0	-0.14022326
157	0xbebaa605	-0.36454788
158	0xbe529d73	-0.20567875
159	0x3bf7d33d	0.0075630234
160	0xbdbf3f4a	-0.09338243
161	0x3e044068	0.12915194
162	0xbda676d0	-0.081281304
163	0xbdc2bec8	-0.09509045
164	0xbd2c5e9c	-0.042082414
165	0x3c5c5b78	0.013449542
166	0xbcafe93c	-0.02147352
167	0x3daa5a2c	0.0831798
168	0x3c997146	0.01873077
169	0x3d888acf	0.06667101
170	0x3ef8cc87	0.48593542
171	0xbe085228	-0.1331259
172	0x3f1facc1	0.62372977
173	0x3ef43510	0.47696733
174	0xbb7c7f07	-0.0038527863
175	0x3e6ccdce	0.23125383
176	0xbe98ed50	-0.29868555
177	0xbe356e36	-0.17717823
178	0x3d573eaf	0.052550014
179	0xbe1eaf25	-0.154965
180	0x3d6fb228	0.058519512
181	0xbceec833	-0.029148197
182	0x3dc8d468	0.09806138
183	0x3ce13a58	0.02749364
184	0x3d393d36	0.04522439
185	0x3cb75c12	0.02238277
186	0xbd726c5c	-0.05918537
187	0x3eacf141	0.33777812
188	0x3ee8be90	0.45457888
189	0x3f85fd80	1.0467987
190	0x3f215eb1	0.6303511
191	0x3ef24863	0.47320852
192	0xbf0f3ec9	-0.5595518
193	0x3d9a55ef	0.07535922
194	0xbf012037	-0.5043978
195	0xbeccebe8	-0.40023732
196	0xbe9d068f	-0.30669066
197	0xbecd0c54	-0.40048468
198	0xbe0e5058	-0.13897836
199	0x3db83c24	0.08995846
200	0xbc4cf83b	-0.012510355
201	0x39d0bdf3	0.00039814375
202	0x3d78bed1	0.06072885
203	0xbe10d0df	-0.14142178
204	0x3f2e294d	0.6803177
205	0x3eb95e6b	0.36204848
206	0xbdb19304	-0.08670619
207	0x3e7398cd	0.23788758
208	0xbd01307b	-0.031540375
209	0xbf2e78f9	-0.6815334
210	0xbf30b96f	-0.6903295
211	0xbf342eb1	-0.70383745
212	0xbf1fba32	-0.62393486
213	0xbe55c656	-0.2087644
214	0xbe58c176	-0.2116755
215	0x3dd4ebe1	0.10396553
216	0xbd9282ae	-0.071538314
217	0x3c33c07c	0.010971185
218	0x3d7b47a6	0.061347626
219	0xbdd2bc1a	-0.10289784
220	0x3d4816de	0.048849933
221	0x403be6cc	2.9359617
222	0x3f87ee07	1.0619515
223	0x3e68e266	0.22742614
224	0x3f0d4f67	0.55199283
225	0x3dde02f0	0.10840404
226	0xbf7617a7	-0.9612984
227	0xbf337258	-0.7009635
228	0xbf02ab90	-0.51043034
229	0xbe5ffc40	-0.2187357
230	0xbc4b7a4a	-0.012419293
231	0xbe09342b	-0.13398807
232	0xbb2b9170	-0.0026179217
233	0xbb3ec7b4	-0.0029110732
234	0xbaff6024	-0.0019483608
235	0xbcb5d43b	-0.022195926
236	0x3bef232c	0.007297894
237	0xbd424d90	-0.04743725
238	0xbfb3e8a8	-1.4055376
239	0x3fde80f5	1.7383105
240	0x3eaf70aa	0.34265643
241	0xbcfbff28	-0.030761316
242	0xbdcc9a6d	-0.09990392
243	0xbe86f022	-0.26355082
244	0xbd369134	-0.04457207
245	0xbe4dcd78	-0.20097911
246	0x3e59a9ac	0.21256131
247	0xbec017f9	-0.3751829
248	0x3e89abd4	0.26888907
249	0x3cbad542	0.022806767
250	0x3b4ad2b0	0.0030948333
251	0x3cf65969	0.030071931
252	0xbd161770	-0.036643445
253	0x3c424c8a	0.011859069
254	0x3b85e276	0.004085834
255	0xbe143f08	-0.1447717

fc1.bias f4 [128]
0	0xbec46c9d	-0.38364115
1	0xbf394f0c	-0.7238624
2	0xbf8013e9	-1.0006076
3	0x3f436c7f	0.76337427
4	0x3d966873	0.07344141
5	0xbf713ce8	-0.9423356
6	0x3d8057e7	0.06266766
7	0xbf6cbfce	-0.9248017
8	0xbf80e345	-1.0069357
9	0x3fce35d6	1.611018
10	0x3fa5e131	1.2959348
11	0xbf8008b0	-1.0002651
12	0xbf99c026	-1.2011764
13	0x3dfae592	0.12250818
14	0xbfad59a1	-1.3542978
15	0xbe402888	-0.18765461
16	0xbf39de14	-0.7260449
17	0xbef7582c	-0.48309457
18	0xbf07f639	-0.5311008
19	0xbee5dbbf	-0.44894215
20	0xbf26f20e	-0.65213096
21	0x3e284585	0.1643277
22	0x3f3ec607	0.74520916
23	0xbf55b6c9	-0.83482033
24	0xbdfbea27	-0.123005204
25	0xbe129349	-0.14313997
26	0x3fe7ae26	1.8100021
27	0xbf26f549	-0.65218025
28	0xbf823c02	-1.0174563
29	0x3fdea9e4	1.7395597
30	0xbf227503	-0.63459796
31	0x3f99ee9d	1.2025944
32	0xbfa8439c	-1.3145633
33	0xbf079f31	-0.5297728
34	0x3ed0a89f	0.40753648
35	0x3df63cde	0.12023328
36	0xbf80855b	-1.0040697
37	0xbf991cc9	-1.196191
38	0xbf262864	-0.6490538
39	0xbf4d7715	-0.8025983
40	0x3f653b09	0.89543205
41	0xbf3ca9eb	-0.73696774
42	0xbf4ff622	-0.81234944
43	0xbf68f0aa	-0.90992224
44	0x3f1af0cb	0.6052367
45	0xbf14695d	-0.5797327
46	0x3efa2526	0.48856467
47	0xbf5a600f	-0.85302824
48	0xbf77784e	-0.96667945
49	0xbf22614f	-0.6342973
50	0x3fb9e68e	1.4523485
51	0xbf483700	-0.78208923
52	0x3fd362f9	1.6514579
53	0xbc5745e4	-0.013139222
54	0xbf4f51ae	-0.8098401
55	0xbf54d904	-0.8314364
56	0xbeeb4352	-0.459498
57	0xbf4276b3	-0.7596237
58	0xbf68ffab	-0.9101512
59	0xbeaff8d0	-0.34369516
60	0x3fd6a6f7	1.6769704
61	0x3f998286	1.1992958
62	0x3fd832ec	1.689054
63	0x3ef8a378	0.48562217
64	0xbf45597c	-0.7708967
65	0xbf487e82	-0.78318036
66	0xbf7925dc	-0.97323394
67	0xbfb21780	-1.3913422
68	0xbf7c0f1d	-0.9846056
69	0xbf16522a	-0.5871912
70	0xbfa33e56	-1.2753398
71	0x3f2f068d	0.6836937
72	0xbf7d7018	-0.98999166
73	0x3f37136a	0.71514
74	0xbf0e8866	-0.5567688
75	0x3fc41962	1.5320246
76	0x3f01fd4e	0.5077714
77	0x3e8bc0a6	0.27295417
78	0xbf4b7d1d	-0.7948778
79	0x3fc6493b	1.5491098
80	0xbf7a58d6	-0.977918
81	0x3eeb15bc	0.4591502
82	0x3e115da5	0.14195879
83	0xbf0d9216	-0.55301034
84	0xbdfebf11	-0.12438787
85	0xbeb0e5e6	-0.345504
86	0x3fd5629b	1.6670717
87	0x3dbc5ab5	0.091969885
88	0xbe230c62	-0.15922692
89	0xbf4cbd5d	-0.79976445
90	0x3d0f58a7	0.034996655
91	0x3f2ed3a7	0.68291706
92	0x3eb7039b	0.35744938
93	0xbe9fd99c	-0.3122071
94	0x3fba0c91	1.4535085
95	0x3f2ae470	0.6675482
96	0x3fc50faf	1.5395411
97	0xbf58013f	-0.843769
98	0xbfa635f4	-1.2985215
99	0x3f68e320	0.90971565
100	0xbd39a9ea	-0.04532806
101	0xbdb4e43a	-0.08832593
102	0xbf40458f	-0.7510614
103	0x3fc109a2	1.5081065
104	0x3f887b84	1.0662694
105	0xbf4b8f53	-0.7951557
106	0xbf3604e7	-0.7110123
107	0x3ee8e5f9	0.45487955
108	0xbf5141c4	-0.81740975
109	0xbf8774a2	-1.0582469
110	0xbf79d0e1	-0.9758435
111	0x3e855d1e	0.26047605
112	0xbe1ec09c	-0.15503162
113	0xbf9005ed	-1.1251808
114	0x3f9022ab	1.126058
115	0xbf591a3d	-0.8480566
116	0x3f87f1dd	1.0620686
117	0x3f73332f	0.94999975
118	0x3dbde292	0.092717305
119	0x3d7f69c5	0.06235673
120	0xbf7fbb91	-0.9989558
121	0xbd2fa08b	-0.042877715
122	0xbc87a6cc	-0.016559027
123	0xbf530b46	-0.82439077
124	0xbf4ce120	-0.80031013
125	0xbfa7cd33	-1.3109497
126	0x3dc4c455	0.0960776
127	0x3f9dceb7	1.2328709

fc2.weight f4 [64, 128]
0	0xbe0c7d84	-0.13719755
1	0xc0734a2d	-3.8014023
2	0x3e4cb8a0	0.19992304
3	0x3ea4c156	0.32178754
4	0x3d46a285	0.048494834
5	0x3e7903aa	0.24317804
6	0x3e140f8e	0.14459059
7	0x3eaddc3c	0.33957088
8	0x3f1e30b3	0.6179306
9	0xbec45900	-0.38349152
10	0xbe208128	-0.15674269
11	0x3deb530c	0.11490449
12	0x3d5808e8	0.05274287
13	0xbcd23ecc	-0.02566471
14	0x3ec83f63	0.3911086
15	0xbe496343	-0.19666772
16	0xbe3f4dc7	-0.18682013
17	0x3dcbf9ea	0.09959777
18	0x3f4f51a2	0.80983937
19	0xbc48b011	-0.012249009
20	0xbeff221a	-0.49830705
21	0xbdb6b6d5	-0.08921591
22	0xbe97ca04	-0.29646313
23	0x3d90f05a	0.070770934
24	0xbe5767d0	-0.21035695
25	0x3eb523ad	0.3537878
26	0x3c467cd1	0.0121147195
27	0x3e8d5792	0.27605873
28	0x3d2ed2de	0.042681567
29	0xbe27fca0	-0.16404963
30	0x3e593b83	0.21214108
31	0xc01061bc	-2.2559652
32	0x3e64a2bc	0.22327703
33	0xbf9309c7	-1.1487359
34	0xbed49c98	-0.41525722
35	0xbe2c7fbc	-0.16845602
36	0xbed0b1a1	-0.4076052
37	0x3d944489	0.072396345
38	0xbe8b1d54	-0.27170813
39	0x3f1fb53b	0.6238591
40	0xbe3c934b	-0.18415563
41	0xbe305253	-0.17218904
42	0xbd5217b7	-0.051292147
43	0x3f56bef7	0.8388514
44	0xbe956c27	-0.29184076
45	0x3ed76729	0.42070892
46	0xbe2b2516	-0.16713366
47	0x3ee5bca3	0.4487048
48	0x3f521ecf	0.8207826
49	0xbe6e51ee	-0.23273441
50	0xbca79cf4	-0.020460583
51	0xbf2825c6	-0.6568264
52	0xbd60fed0	-0.054930508
53	0xbedb7697	-0.42863914
54	0x3e8002d6	0.25002164
55	0x3ed64bc1	0.4185467
56	0xbe73f5d7	-0.23824249
57	0x3f05765e	0.5213374
58	0x3f1a76fb	0.603378
59	0xc0615316	-3.5206962
60	0xbdddcbb2	-0.108298674
61	0xbe8dc878	-0.27692008
62	0xbe05f7a7	-0.13082753
63	0xbdaccc12	-0.08437361
64	0x3f0cd4d2	0.5501224
65	0xbef0d4df	-0.47037408
66	0xbf45ff09	-0.7734228
67	0xbf1b8495	-0.6074918
68	0x3da854c5	0.082192935
69	0xbed6a846	-0.41925257
70	0xbdfac0ac	-0.122437805
71	0x3eb316d1	0.34978345
72	0x3f279c4e	0.6547288
73	0x3c32db5c	0.010916557
74	0xbd29900c	-0.04139714
75	0xbcb9e48e	-0.022691991
76	0x3d97a6d1	0.074048646
77	0xbe4453aa	-0.1917254
78	0x3d826104	0.063661605
79	0xbc78a332	-0.015175628
80	0xbc74b473	-0.014935601
81	0xbf2e4abb	-0.6808278
82	0xbf53daa6	-0.82755506
83	0xbf4d36d7	-0.80161804
84	0xbf577a6a	-0.84171164
85	0xbef917ec	-0.48651063
86	0xbda4e167	-0.080508046
87	0x3e40152e	0.1875808
88	0x3e9ce074	0.30639994
89	0xbeadddc5	-0.3395826
90	0xbf011faa	-0.5043894
91	0xbe9dfa59	-0.30855063
92	0xbab668b7	-0.0013916706
93	0xbe447103	-0.19183736
94	0xbec9b408	-0.39395165
95	0xbe8444d6	-0.25833768
96	0xbcb4bb3e	-0.02206194
97	0x3e4fc481	0.20289804
98	0x3f2d155d	0.6761072
99	0xbf199c60	-0.60004234
100	0xbec64165	-0.38721767
101	0xbe9752e2	-0.29555422
102	0xbe090850	-0.13382077
103	0xbdb51267	-0.088414006
104	0xbe7f6334	-0.24940187
105	0xbf39a06a	-0.725104
106	0xbf30e71f	-0.6910266
107	0xbdce659a	-0.10077973
108	0xbf005b43	-0.50139254
109	0x3edb0357	0.42775986
110	0xbe5ae53a	-0.21376505
111	0xbf5380eb	-0.8261859
112	0xbed7a90a	-0.42121154
113	0xbe7ab8ff	-0.24484633
114	0x3d999cf9	0.07500643
115	0x3f2e542e	0.680972
116	0xbedff37b	-0.43740448
117	0xbe8794e0	-0.2648077
118	0xbebe8eea	-0.3721841
119	0x3db5e259	0.08881063
120	0x3da240bf	0.079225056
121	0x3e21b7ee	0.1579282
122	0x3f34a95a	0.7057091
123	0x3e2903a5	0.16505297
124	0x3f5e82cd	0.86918336
125	0x3f058821	0.5216084
126	0xbefc8404	-0.4931947
127	0x3ddfadfb	0.10921856
128	0x3ef9617f	0.48707196
129	0x3f818d2d	1.0121208
130	0x3e7c43de	0.24635264
131	0xbe11ea5f	-0.14249562
132	0x3d4b8fd8	0.049697727
133	0x3e1a0a5e	0.15043017
134	0x3ecdf2f0	0.4022441
135	0xbd71eaf7	-0.05906197
136	0x3e355ecb	0.17711942
137	0x3cb0036f	0.021486012
138	0xbda889fb	-0.08229443
139	0xbe989651	-0.29802182
140	0xbe451c88	-0.19249165
141	0xbeff4637	-0.49858257
142	0xbf97a060	-1.1845818
143	0x3f6058f5	0.8763574
144	0x3d50dac6	0.05098989
145	0xbca0f6f8	-0.019649014
146	0x3f909583	1.1295627
147	0xbeb1cd45	-0.3472692
148	0x3e471b2c	0.19443959
149	0x3d538766	0.051642798
150	0x3e6b1053	0.22955446
151	0xbe904b5e	-0.281825
152	0xbe59585e	-0.21225116
153	0xbf05f292	-0.5232326
154	0xbdc04be3	-0.09389474
155	0xbd1a28e1	-0.03763664
156	0x3d3dec5a	0.04636798
157	0xbdcfd305	-0.10147671
158	0xbfe75dda	-1.8075516
159	0x3ea04e3e	0.31309694
160	0xbfdf898e	-1.7463853
161	0xbf4194c2	-0.7561761
162	0xbe3a20bb	-0.18176548
163	0x3dd5fe7d	0.104489304
164	0xbc291347	-0.0103195375
165	0xbce41091	-0.02783993
166	0xbe03b8da	-0.12863484
167	0xbefade7f	-0.48997876
168	0x3db255b2	0.08707751
169	0xbd7548a3	-0.059883725
170	0x3f3d4d94	0.739465
171	0xbdcc155e	-0.09965013
172	0x3e853acc	0.2602142
173	0xbdeb12ba	-0.11478181
174	0x3ec125e8	0.37724233
175	0x3efc8f9e	0.4932832
176	0xbfd14f91	-1.6352407
177	0x3ee6027a	0.44923764
178	0xbf0730ce	-0.52808845
179	0xbcba2ab8	-0.022725448
180	0x3dbd4e60	0.092434645
181	0x3e04f8d9	0.12985553
182	0x3e35d563	0.17757182
183	0xbdd0cdd0	-0.101955056
184	0x3e8bbbae	0.27291626
185	0xbf2d4d16	-0.6769575
186	0xbe00d38a	-0.12580696
187	0x3eb638cc	0.35590208
188	0x3df920d0	0.121644616
189	0x3dc08761	0.094008215
190	0x3e01c5e9	0.12673153
191	0x3f237215	0.6384595
192	0xbda624db	-0.081124984
193	0x3e5f5c17	0.21812473
194	0xbcad54fd	-0.02115869
195	0x3e8cc1ed	0.27491704
196	0xbfb99a00	-1.4500122
197	0x3ecfe791	0.4060636
198	0xbf5b9a88	-0.8578267
199	0xbf0ba94a	-0.5455519
200	0xbeb58fcc	-0.3546127
201	0x3e38fc47	0.18064986
202	0xbfbe0df3	-1.4848007
203	0xbda4dfc1	-0.0805049
204	0xbd6fbc0d	-0.05852895
205	0x3f0cfdde	0.5507487
206	0xbec8d675	-0.39226118
207	0xbd9b4d97	-0.075831585
208	0x3ef74147	0.4829199
209	0x3e2d4995	0.169226
210	0x3ebc67ca	0.36797935
211	0x3f0234a7	0.5086159
212	0x3d8dc753	0.06922784
213	0x3eee4303	0.465355
214	0x3e3da325	0.18519266
215	0xbe991509	-0.2989886
216	0xbc0f2ab7	-0.008738211
217	0x3e9b550e	0.3033833
218	0xbdf136f2	-0.11778058
219	0x3e948d55	0.29014078
220	0x3c34434d	0.011002374
221	0x3c2488b5	0.010042359
222	0x3e864d0c	0.26230657
223	0xbed14b2d	-0.40877667
224	0x3dc7ae5a	0.09750052
225	0x3afc5e8c	0.0019254251
226	0xc000f2b5	-2.0148137
227	0x3f13af22	0.57689106
228	0xbd20aeda	-0.03922925
229	0xbf4e4c15	-0.8058484
230	0x3eb4710b	0.35242495
231	0xbd38c0e9	-0.04510585
232	0xbcd830a4	-0.026390381
233	0x3eac99a0	0.33710957
234	0xbe9457a7	-0.28973123
235	0xbd50368f	-0.05083328
236	0xbf4a7e21	-0.7909871
237	0xbd8ceeef	-0.068815105
238	0xbd492715	-0.049109537
239	0xbf0e14d7	-0.5550055
240	0xbd6d96a8	-0.058005005
241	0xbe506b89	-0.20353521
242	0xbd4ed2c1	-0.05049396
243	0x3f092e40	0.53586197
244	0x3e03a882	0.1285725
245	0x3f02d4a8	0.5110574
246	0x3e532e24	0.2062307
247	0x3ec165bb	0.37772927
248	0x3e2b0133	0.16699676
249	0x3e0ba8e6	0.13638648
250	0x3f1f5316	0.62236154
251	0xbeeb37b5	-0.4594094
252	0xbf0f8b58	-0.56071997
253	0xbf1aeb8d	-0.6051567
254	0x3ec40c93	0.38290843
255	0xbbd3f8bd	-0.006468861

fc2.bias f4 [64]
0	0x3e4b976a	0.19881979
1	0xbefb4bfa	-0.49081403
2	0x3fc18e7f	1.5121611
3	0x3e8700dd	0.26367846
4	0xbeb00e21	-0.3438578
5	0x3fb5381f	1.4157752
6	0xbef5613b	-0.47925743
7	0x3fbfcc97	1.4984311
8	0x3fa0b13a	1.2554085
9	0xbdab3cae	-0.08361183
10	0x3fc840ed	1.5644814
11	0xbf038cd5	-0.5138677
12	0x3f3db274	0.7410042
13	0x3fb86435	1.4405581
14	0x3ad4d747	0.0016238474
15	0xbdc4e431	-0.096138366
16	0xbed1759b	-0.40910038
17	0xbd882a2f	-0.06648671
18	0x3f856eca	1.0424435
19	0x3f76db15	0.9642804
20	0x3f66e54e	0.9019364
21	0xbe3860a9	-0.18005623
22	0xbecbfcb6	-0.3984124
23	0xbf1d03a7	-0.613337
24	0x3b2ba838	0.0026192795
25	0xbc6aecaf	-0.014338656
26	0xbf04f00a	-0.5192877
27	0x3fd51bfb	1.6649164
28	0x3fd50388	1.6641703
29	0x3f2d4098	0.6767669
30	0xbf01bac5	-0.5067561
31	0xbea9dd0a	-0.33176452
32	0xbf39956f	-0.7249364
33	0x3fc3cb23	1.5296367
34	0x3fc24c87	1.5179604
35	0x3d85feac	0.065427154
36	0xbf4959ac	-0.78652453
37	0x3fad11c2	1.3521044
38	0x3f8ca9d2	1.0989325
39	0xbf0b523e	-0.54422367
40	0xbf3d9727	-0.74058765
41	0xbf0286d9	-0.5098701
42	0x3f5166c9	0.8179746
43	0xbda658c5	-0.081224
44	0xbefb55af	-0.4908881
45	0x3fe01440	1.750618
46	0xbf3df7e6	-0.7420639
47	0x3e086ff6	0.1332396
48	0xbe0e6680	-0.13906288
49	0x3f8071f8	1.003478
50	0x3fb51b12	1.4148886
51	0xbe0b277a	-0.13589278
52	0x3fc0d68e	1.5065477
53	0xbdcbeee6	-0.09957676
54	0xbde92157	-0.11383312
55	0x3f7d1c66	0.9887146
56	0x3fc359d3	1.5261787
57	0xbee56b9b	-0.4480866
58	0x3fe184df	1.7618674
59	0xbd2c0efa	-0.04200647
60	0x3d69a58a	0.057042636
61	0x3fd3a70c	1.6535354
62	0x3f31f2c2	0.69511044
63	0x3fd922c7	1.6963738

final.weight f4 [6, 64]
0	0x3e5182b6	0.20460019
1	0xbeb1f9f2	-0.34761006
2	0x3e909c37	0.28244182
3	0x3e8cfac4	0.2753507
4	0xbefcb5a2	-0.49357325
5	0x3eb8c59f	0.36088273
6	0xbeaaf5b0	-0.3339057
7	0x3eabdcf4	0.3356701
8	0x3ea789a3	0.32722196
9	0xbd631250	-0.055437386
10	0x3e96f5f4	0.29484522
11	0xbe98e71a	-0.29863816
12	0x3ea7bf64	0.32763207
13	0x3ec4f86f	0.3847079
14	0x3e2f94b4	0.1714657
15	0xbe000d20	-0.12505007
16	0xbe62e590	-0.22157884
17	0x3f143ab4	0.57902074
18	0x3e815342	0.25258833
19	0x3efab075	0.4896275
20	0x3d9df0a3	0.077119134
21	0xbf121fa1	-0.5707951
22	0xbe004953	-0.12527971
23	0xbea93c57	-0.33053848
24	0x3e40aaa3	0.18815093
25	0x3c6327e1	0.013864488
26	0xbe8d06a1	-0.2754412
27	0x3eccd3bb	0.40005288
28	0x3eaa39b0	0.33247137
29	0x3e0bf188	0.13666356
30	0xbec2b472	-0.38028294
31	0xbf10dd71	-0.5658789
32	0xbe902b31	-0.28157952
33	0x3e76d41c	0.24104351
34	0x3e2a63e4	0.16639668
35	0x3d537034	0.051620677
36	0x3b6cedbb	0.003615244
37	0x3dab8b76	0.083762094
38	0x3e9889b5	0.29792562
39	0xbe80ddb8	-0.25169158
40	0xbe4d9919	-0.20077933
41	0xbe840b15	-0.25789705
42	0x3f094d8d	0.5363396
43	0x3e6373a1	0.22212078
44	0xbeab5403	-0.33462533
45	0x3ede5386	0.43423098
46	0xbf3e45ab	-0.74325055
47	0x3dcf390a	0.10118301
48	0x3d0e4100	0.034729958
49	0x3e806a33	0.25081024
50	0x3ea6ee65	0.32603756
51	0x3e6694c9	0.22517695
52	0x3eabc277	0.33546802
53	0x3bd2fca3	0.006438808
54	0xbcdeba01	-0.027188303
55	0xbde96839	-0.11396832
56	0x3ea831c9	0.32850483
57	0x3e6d5cea	0.23179975
58	0x3edbea7c	0.42952335
59	0xbce96a2a	-0.028493006
60	0x3da556d0	0.08073199
61	0x3ecc1251	0.39857724
62	0x3dc57e2a	0.096432045
63	0x3ec7672a	0.38945895
64	0xbe8e3869	-0.27777413
65	0xbe71c285	-0.2360936
66	0x3ea5c757	0.32378647
67	0xbe0c1265	-0.13678892
68	0x3e9bfc19	0.30465773
69	0x3e84529a	0.2584427
70	0x3ef24450	0.47317743
71	0x3e6f8e0d	0.23394032
72	0x3ee57a0d	0.4481968
73	0x3de15a5e	0.11003564
74	0x3eb5146a	0.35367137
75	0xbe3dafd4	-0.18524104
76	0x3ea88df9	0.32920817
77	0x3ec69eb6	0.38792962
78	0xbeaf4434	-0.34231722
79	0x3ebc08c3	0.36725435
80	0xbe1bbe37	-0.1520928
81	0x3d0966a2	0.033545144
82	0x3ea44740	0.3208561
83	0x3eccb0d1	0.3997865
84	0x3e5d90de	0.21637294
85	0xbe4dbb22	-0.20090917
86	0x3d2907e2	0.041267283
87	0xbd178199	-0.03698883
88	0xbe05071b	-0.12990992
89	0x3c431297	0.011906288
90	0xbed11569	-0.40836647
91	0x3ed1dd13	0.4098898
92	0x3eb1d4bc	0.34732616
93	0x3e14ebaa	0.14543024
94	0xbe1d6a63	-0.15372615
95	0xbec51c53	-0.38498172
96	0x3c13e1b1	0.009025977
97	0x3e84d6a4	0.25945008
98	0x3eaec286	0.34132785
99	0x3d1b01b8	0.037843436
100	0xbdcd7133	-0.10031357
101	0x3e6319c0	0.22177792
102	0x3dda98c2	0.106736675
103	0x3d213d64	0.039365187
104	0xbe69d274	-0.22834188
105	0xbe81f97b	-0.2538565
106	0x3e44a00a	0.19201675
107	0xbe23df14	-0.16003066
108	0xbdd8b841	-0.10582019
109	0x3edeb1ba	0.4349497
110	0xbeea2810	-0.4573369
111	0xbe94cdc6	-0.29063243
112	0x3ba51150	0.005037464
113	0x3e81d679	0.25358942
114	0x3e7092b4	0.23493463
115	0xbee4458f	-0.4458432
116	0x3eb9f354	0.36318457
117	0xbc833b3b	-0.016019454
118	0xbc111228	-0.008854426
119	0x3e54a455	0.20765813
120	0x3e9b3fe1	0.30322173
121	0xbe18df9e	-0.14929053
122	0x3ec47b7e	0.38375467
123	0xbd399709	-0.045310054
124	0x3c81aa68	0.015828326
125	0x3ec49f50	0.38402796
126	0xbe17be89	-0.14818777
127	0x3ec636e0	0.3871374
128	0xbe511d63	-0.20421366
129	0xbe7935f2	-0.24336985
130	0x3eab0b0f	0.33406875
131	0xbe0e342b	-0.13887088
132	0x3e85cc1c	0.26132286
133	0x3e8bbc16	0.27291936
134	0x3f063940	0.52431107
135	0x3e851261	0.25990584
136	0x3ee47521	0.44620612
137	0x3d8b89c6	0.068133876
138	0x3eb7df8b	0.35912737
139	0xbe6ab5ac	-0.22920865
140	0x3eabc1d2	0.3354631
141	0x3ebc05fb	0.36723313
142	0xbea7e89d	-0.32794657
143	0x3ec0a3f0	0.37625074
144	0xbe2c8fdb	-0.16851752
145	0x3ccf650a	0.025316734
146	0x3ea0964a	0.3136466
147	0x3ee27807	0.442322
148	0x3e8001c8	0.2500136
149	0xbe7761d9	-0.2415842
150	0x3e3b08ec	0.18265122
151	0xbde9ef0d	-0.114225484
152	0xbe5d501e	-0.21612594
153	0xbcfd9a03	-0.030957228
154	0xbecc339a	-0.3988312
155	0x3ed087a3	0.40728483
156	0x3ead7a61	0.3388243
157	0x3e2007b2	0.15627936
158	0xbdce4ee6	-0.100736424
159	0xbeb383bf	-0.35061452
160	0x3bd80dad	0.006593427
161	0x3e8badd3	0.27281055
162	0x3eb2c12a	0.34912997
163	0xbd9b5925	-0.07585362
164	0xbe1371cd	-0.1439888
165	0x3e8f43ff	0.27981564
166	0x3df1afea	0.11801131
167	0x3db8a86a	0.090164974
168	0xbe696508	-0.22792447
169	0xbe901e0c	-0.28147924
170	0x3e330810	0.17483544
171	0xbe47ff81	-0.19531061
172	0xbda7ad6b	-0.08187374
173	0x3ecb1a22	0.39668375
174	0xbef9e70f	-0.48809096
175	0xbe8af932	-0.27143246
176	0xbd6e2236	-0.058138095
177	0x3e8688ac	0.26276147
178	0x3e6e714f	0.23285411
179	0xbe92e9b3	-0.28693923
180	0x3ec23485	0.37930694
181	0x3cceb292	0.025231633
182	0x3dbab446	0.09116416
183	0x3e5373cf	0.20649646
184	0x3eaea0d0	0.34107065
185	0xbe4a0094	-0.19726783
186	0x3ec73d28	0.38913846
187	0xbc5e91ad	-0.0135845365
188	0xbd113640	-0.035452127
189	0x3ec0f370	0.37685728
190	0xbe2aa5a1	-0.16664745
191	0x3eb0580e	0.3444218
192	0xbe7309fd	-0.23734279
193	0xbe8e26d8	-0.2776401
194	0x3ea32c62	0.318698
195	0xbdc52e07	-0.0962792
196	0x3dda922c	0.10672411
197	0x3e8a9ca0	0.2707262
198	0x3efa00fb	0.48828873
199	0x3e7804e6	0.24220619
200	0x3eeeed0d	0.4666523
201	0x3da73ed8	0.08166283
202	0x3ec26dbf	0.37974355
203	0xbe944707	-0.2896044
204	0x3e93dfda	0.28881723
205	0x3eb76e96	0.35826558
206	0xbe9c362c	-0.3051008
207	0x3ec04c27	0.375581
208	0x3dc85ad4	0.09782949
209	0x3cdea914	0.027180232
210	0x3ea24c87	0.3169901
211	0x3ee314c9	0.44351795
212	0x3e6641d7	0.22486053
213	0xbdf655ba	-0.1202807
214	0x3e24503d	0.16046233
215	0x3d590ac0	0.052988768
216	0xbe3d0d04	-0.18461996
217	0x3d646381	0.055758957
218	0xbec16801	-0.3777466
219	0x3eb841f2	0.35987812
220	0x3eb47461	0.3524504
221	0x3df7e837	0.12104838
222	0xbe2857ca	-0.16439739
223	0xbe93de70	-0.28880644
224	0x3c68dd1c	0.014212873
225	0x3e8c8e74	0.27452433
226	0x3eac1017	0.33606026
227	0x3de0fba3	0.10985496
228	0xbd69ad0c	-0.057049796
229	0x3e987912	0.2977987
230	0x3e077a47	0.13230239
231	0xbcdea827	-0.02717979
232	0xbe498035	-0.19677813
233	0xbe8aa890	-0.27081728
234	0x3e1ebdac	0.15502042
235	0xbe81dc04	-0.2536317
236	0x3ce672f7	0.028130991
237	0x3ed95770	0.42449522
238	0xbea5fa6f	-0.32417628
239	0xbe7d02a0	-0.24708033
240	0xbcc6435a	-0.024202038
241	0x3ea45493	0.32095775
242	0x3e78c2cb	0.24293058
243	0xbe330ac5	-0.17484577
244	0x3ebf012a	0.37305576
245	0xbcb80821	-0.022464814
246	0xbcf03420	-0.02932173
247	0x3e866655	0.26249948
248	0x3ec0e3d9	0.37673834
249	0xbe4e9972	-0.20175722
250	0x3eae67d2	0.34063584
251	0xbd8dbe8d	-0.0692111
252	0xbd7d94ae	-0.06190937
253	0x3ec1a770	0.37823057
254	0xbddce654	-0.10786119
255	0x3ea2d460	0.31802654

final.bias f4 [6]
0	0x3fa878b7	1.3161839
1	0x3fad054d	1.3517243
2	0x3f72d199	0.9485107
3	0x3f517885	0.81824523
4	0x3ef1d16e	0.47230095
5	0x3e9d598c	0.3073238
