D2QN_AAAI/checkpoint_d2qn_cheetah_0.pth (torch, 45655 bytes, 6 tensors)

fc1.weight f4 [128, 17]
00000000: ad44 18bf eb9a f93f b85f b8bf 9f7f 51bf
00000010: 8334 9dbf ad7e a2bf c148 ae3e 622f a53b
00000020: c10a e93e e219 a5bf 6df2 0d3f fc47 a93d
00000030: ee74 d33c 36ca 0fbe 6e9f 45be c7ff 683c
00000040: c84a 5e3d ea71 60bf 5a9f c0c0 c6a8 513d
00000050: a9f1 653c 05ac 753f 21bf 063f 9be5 ad3f
00000060: e2d0 623f bdbf 80be 3e57 7b3f 4667 00bf
00000070: c4de 3e3b bddb ecbd 8ec6 863d cce2 26bd
00000080: cac0 46bd 7f25 8abd 45eb 62c0 e6a2 6c3e
00000090: 6c4a a0bf e294 eebd f92d 3dbe 19d8 26be
000000a0: 7509 883f 85f2 a0bb 60a3 ac3e 91b2 14bf
000000b0: 9d5d 913e bdd6 2bbe a5b3 c73d 6579 bd3d
000000c0: cc1a 9c3c c971 85bd 2915 1dbd 9245 333f
000000d0: 320d 4ebf 36ee ebbf ce24 7cbf a562 6fbf
000000e0: 45c7 64bf 7366 943d 400d aabe 302e e43e
000000f0: 49a5 733e 0843 74bd db3d a4bd c114 dc3b
00000100: d97f 15bb 06f3 533d 2a74 2b3d 977a eb3c
00000110: 4f1e aebd 574a e43e 4d91 17be 281b 14be
00000120: ae86 933d 3aec bb3e 565f 9d3e 5554 403e
00000130: 0d44 883e b794 a8be 28d6 b1bd c778 bfbd
00000140: c9b6 4abe eedf 693e 50a7 f43d e89c 25be
00000150: f667 67bd afbc 6fc0 d833 b43f 1b89 0dbe
00000160: c3b4 bfbd 3014 8e3e 25ea 23bf e2ef 563d
00000170: 3635 ac3e 102a 9bbd 53b3 84bd 5c94 1a3f
00000180: 9635 f53d fbf6 713d c045 80bb 58ed 38bd
00000190: bd1d 7cbd ddd3 48bc fdd4 413f a0ec a5bf
000001a0: ffba 4cc0 9092 37c0 bb60 b1bf 26b1 003e
000001b0: 8eef a23e 33c5 90be 5f21 4bbe 99ad 3c3f
000001c0: d3e4 683e af25 b83e 9fef 303e 413f 13bd
000001d0: d48e c83c 4d97 503d 42c2 c83c 845e 403f
000001e0: 266c ea3b 05a3 4a3f 5e19 ea3e cf81 0a3f
000001f0: 3a0a 70bf a6b0 893d dbef b9be 2a5d dfbf
00000200: 51dd 903e e986 8abe f1fe f5bd 6812 c2bd
00000210: 8c74 7bbe cebc 3a3e 5e66 673e 3d65 673e
00000220: 5231 9440 6721 ee3e 1664 19bf 7686 90bd
00000230: 6dbe 4b3d 59f8 983d d34b 873f 5657 f6be
00000240: aa72 4abf ba97 823f ef19 303e 4cdd 143e
00000250: 0983 443e a5a9 27be 7ee1 1abe 53e5 1e3e
00000260: 6d68 133d 875c 8fc0 5cab 4cc0 54e8 8dbf
00000270: fddd 63bf 1ca6 423e 884e 073d 30d9 6f3f
00000280: 073f be3e bf6f 4d3e ead8 febd 5ea6 05be
00000290: f8cc dc3b c24d 77bd 103b 023d bf22 da3d
000002a0: d48d 7a3c 0bc0 423d fd72 a53e 31b4 21be
000002b0: c0db df3e 072c 1c3e aa15 1ebe 194b aa3e
000002c0: cdb5 a3bd 70df aebd 70e3 7a3e 77c2 35be
000002d0: 8b60 8c3d be3c 9bbd 1730 a93d 0499 ce3c
000002e0: 98e7 9e3d 51b2 80bc 2765 09be fc08 0cbf
000002f0: 84e7 3fbf 2514 d8bd d707 0e3f 1aed 64bd
00000300: 64df a1bb 4b97 cdbe 9201 11c0 b44c 67bf
00000310: c601 bf3e dbea 13bd 6c39 89bd 24da c2bd
00000320: 5d02 013e d22a 9f3c 4125 583e afa9 c3be
00000330: 0a49 39c0 a756 5240 d7a9 323f 22ab 4bbf
00000340: 0847 a23e 236f b5bf 6121 b1bc 0cad dcbe
00000350: 5b7d 9b3e 98da 20bf 5bb6 143f 82a8 603d
00000360: 3cd9 623d f828 933c 361e 51bd 509b 713c
00000370: 5b00 42bc a647 56c0 17bb 02bf fee8 4abf
00000380: 212a d6bf f5fd 89bf 2ada 0c3f d86b 943e
00000390: 514c d6be 65ab c8be 9e12 d7be b107 6b3f
000003a0: 730a 0b3e f208 e73d 4c86 5e3d f5f4 433d
000003b0: 941e ca3d b97e 203e 6d53 b6bf bfd6 d03e
000003c0: 3cb0 23bd e425 06bd 742d b8be 80fd 89bf
000003d0: 232f a6bf b544 9bbf 1a42 40be b7ba 80bf
000003e0: 11ce 01bf 68b0 b5bd c1ed e2bd 08ad 2cbe
000003f0: 0a40 753d 8241 3a3d 2d01 983d fa3e 48be
-0.5947979 1.9500402 -1.4404211 -0.8183536 -1.228165 -1.2694908 0.34039882 0.005041049
0.45516017 -1.2898524 0.5544804 0.08265683 0.025812592 -0.14041981 -0.19299099 0.014221138
0.054270536 -0.8767382 -6.019452 0.051186346 0.014034667 0.95965606 0.5263539 1.3585695
0.8859998 -0.25146285 0.98179996 -0.5015758 0.0029124478 -0.11565349 0.0658084 -0.040743634
-0.0485237 -0.06745433 -3.5456097 0.23109016 -1.2522712 -0.11649491 -0.18474568 -0.16293372
1.0627886 -0.004911723 0.33718395 -0.5808497 0.28391734 -0.16781135 0.09751061 0.0925167
0.019055746 -0.065158434 -0.038350258 0.7002803 -0.80488884 -1.8432071 -0.9849366 -0.93509895
-0.8936656 0.07246103 -0.33213234 0.44566488 0.2379352 -0.05963424 -0.080196105 0.0067163412
-0.00228118 0.051745437 0.04185883 0.028744979 -0.08501875 0.44587967 -0.14801522 -0.14463484
0.072034225 0.36703664 0.30736798 0.1878217 0.2661442 -0.3292596 -0.08683425 -0.09349208
-0.1979629 0.22839329 0.11945975 -0.16173136 -0.05649563 -3.7458913 1.4078321 -0.13821833
-0.093606494 0.27749777 -0.6402915 0.052474864 0.33634347 -0.07576382 -0.06479516 0.6038263
0.11973111 0.05907343 -0.003914565 -0.045148224 -0.061551798 -0.012257543 0.7571562 -1.2962837
-3.1989133 -2.8683205 -1.3857645 0.12567577 0.3182339 -0.2827545 -0.19836949 0.7370239
0.2274354 0.3596625 0.17278908 -0.035948996 0.024482168 0.05092554 0.024506692 0.7514422
0.0071540056 0.79155 0.4572248 0.5410432 -0.93765604 0.06723146 -0.36315808 -1.7450306
0.2829385 -0.27056053 -0.12011517 -0.09476167 -0.24556178 0.18236086 0.22597644 0.22597213
4.6310205 0.4650986 -0.59918344 -0.070568964 0.04974215 0.074692436 1.0570015 -0.48113507
-0.79081213 1.0202553 0.17197393 0.14537543 0.19190611 -0.16373308 -0.15125081 0.15517168
0.03598826 -4.480045 -3.197959 -1.1086526 -0.890106 0.19008678 0.033033878 0.93690777
0.3715746 0.20062159 -0.12443717 -0.13051745 0.0067383014 -0.06037689 0.031794608 0.106511585
0.0152926035 0.047546428 0.32314292 -0.15791394 0.43722343 0.1525117 -0.15437952 0.3326042
-0.0799366 -0.08538711 0.24500823 -0.17749964 0.068543516 -0.07579945 0.082611255 0.025219448
0.07759017 -0.015710028 -0.13417493 -0.5470121 -0.7496264 -0.10550717 0.5548071 -0.05589018
-0.0049399603 -0.4015449 -2.2657208 -0.90351415 0.3730604 -0.036112648 -0.067004055 -0.09514263
0.12598558 0.019429598 0.21107961 -0.38215396 -2.895083 3.2865388 0.69790405 -0.79558
0.31694818 -1.4174541 -0.021622362 -0.43100774 0.30369076 -0.6283355 0.5809075 0.0548482
0.055382952 0.017963871 -0.051054202 0.014746502 -0.011840905 -3.348123 -0.51066726 -0.7926177
-1.6731607 -1.0780627 0.5502039 0.28988528 -0.418551 -0.39193264 -0.4200639 0.9180861
0.13578205 0.11281003 0.054327294 0.04784103 0.098691136 0.15673341 -1.424421 0.40788838
-0.039962992 -0.03275098 -0.35972178 -1.0780487 -1.2983135 -1.2130343 -0.18775216 -1.0056981
-0.5070506 -0.088715374 -0.11080504 -0.16862881 0.059875526 0.04547263 0.07422099 -0.19555274

fc1.bias f4 [128]
00000000: e06d 48bf 890b 01bf ab4a febf 39bb e33f
00000010: c4f8 e43f c9ef 07c0 80cc c2be ff23 afbf
00000020: 3077 c3bf b736 43be af06 ee3f d687 bfbd
00000030: b8f0 f6bf ac05 bbbf ba98 f8bf 2ecb 47bf
00000040: 5c13 c4bf 147a b0bf e261 24bf a1f0 81bf
00000050: 0d78 d23e 9774 c1bf 2f1d 31be c898 b6bf
00000060: e56b ea3e 462d 0240 33e3 bf3f bba6 87bf
00000070: d237 68bf 39c6 0340 0152 33bf 946b 743f
00000080: 7dfb fbbf b179 fabf 5b33 f63f 178f bb3e
00000090: f119 bdbf 3d30 39bf 5c0d e63d d0a2 c3bf
000000a0: 4398 183f 7e27 29bf 32b6 9abf 21fe 94bf
000000b0: 137d 69be 6e68 ffbd 95f0 57bf d60e 96bf
000000c0: a443 debf 6492 d7bf 1975 e23e 55c5 50bf
000000d0: 23f5 0040 40f1 81be 72b7 59bf f2d8 213f
000000e0: 92b5 22bf 4f2a 213f 7ded c4bf 4046 1dbf
000000f0: 37ec 0740 986e c93e 636d 0940 9bc7 923c
00000100: 2d5d b3bf 4a71 a5bf d182 9ebf fdba 06c0
00000110: 81bd debf 4ba0 90bf 24c1 29bf c07d ebbe
00000120: 0d52 9dbf 4e3a 6abf 61f1 92bf 8360 0740
00000130: c4d1 d63f 5187 6a3e 34c7 dcbf f5e6 fc3f
00000140: 3cba 30bf 594a f63e 1cb1 523f 9ea7 bb3f
00000150: b7be aabf e377 82bf c8f4 0740 d8f4 42bf
00000160: 450d e83e 1eed dfbf cb6d 0040 73d8 a93f
00000170: 139a acbf c851 18bf a5b8 e73f 4518 973f
00000180: 0ff1 fb3f 5ab6 d2bf 9155 f1bf c739 0e3f
00000190: 806b 0abf 9fc1 ddbf c4b0 083f cdae f83f
000001a0: 5e12 68bc d651 9fbf ea0c 14bf 8a04 a1be
000001b0: ecc9 e5bf 4258 f2bf a764 40bf 9de4 bd3f
000001c0: 380d 413f a155 e3bf 2503 cc3f a6c4 c4bf
000001d0: a8d6 dd3f 35b3 0a3f 7a27 ce3d 48f1 29bf
000001e0: e642 e6bf d60f f43f da37 873f c44b 7cbe
000001f0: 0dee b5bf 0472 69bf dc4f 933c 44e4 92bc
-0.78292656 -0.50408226 -1.9866537 1.7791511 1.7888417 -2.1240103 -0.38046646 -1.368286
-1.5270748 -0.19063841 1.859579 -0.093520805 -1.9292212 -1.4611106 -1.9421608 -0.780444
-1.5318408 -1.3787255 -0.6421186 -1.0151559 0.41107216 -1.5113705 -0.17296289 -1.4265375
0.45785442 2.0340133 1.4991211 -1.0597757 -0.90710175 2.0589736 -0.70047003 0.9547665
-1.9686123 -1.9568387 1.9234422 0.36632606 -1.4773542 -0.7233923 0.11233017 -1.5284061
0.5960733 -0.66075885 -1.2086852 -1.1640054 -0.22801618 -0.1247109 -0.84351474 -1.1723278
-1.7364392 -1.684155 0.44229963 -0.81551105 2.014962 -0.25379372 -0.8504554 0.6322166
-0.63558304 0.6295518 -1.5384976 -0.6143532 2.1237924 0.3934219 2.1473014 0.017917445
-1.401281 -1.2925198 -1.2383672 -2.1051629 -1.7401582 -1.1298918 -0.66310334 -0.45994377
-1.2290665 -0.91495216 -1.1479913 2.1152656 1.6782765 0.22903182 -1.7248292 1.9757982
-0.6903417 0.48103598 0.823015 1.4660528 -1.3339452 -1.0192837 2.1243153 -0.7615485
0.45322624 -1.7494237 2.0067012 1.326918 -1.348452 -0.5949979 1.8103224 1.1804281
1.968294 -1.6461899 -1.8854238 0.5555691 -0.5407028 -1.7324713 0.5339472 1.9428345
-0.014164535 -1.2446849 -0.57832205 -0.31448776 -1.7952247 -1.8933184 -0.75153583 1.4835392
0.75410795 -1.7760507 1.593846 -1.5372512 1.7331133 0.541797 0.10066123 -0.6638379
-1.7989166 1.9067333 1.056392 -0.24638277 -1.4213272 -0.911896 0.017982416 -0.017931111

fc2.weight f4 [64, 128]
00000000: a78f 033f 5d36 a8bf 6902 423f 651c 1ac0
00000010: 796e 5e3d d9a4 07be 3ad6 933f e592 09c0
00000020: 2db6 b73f 53a7 ddbf 0294 fdbc c2aa 0abf
00000030: 5302 1e3f c289 acbf 861f 73bf e3a6 3f3f
00000040: b4d2 2e3d 2d0b 963f 3283 b93f f693 52bf
00000050: 821a 60bf 1bb4 8abf 19a5 fabf 4214 f5be
00000060: 7bca fe3e 8899 fdbe cc47 0abe 89db 6bbf
00000070: 20d7 05bf 209b 10bd ef8f 73bf 2aa7 0cbf
00000080: 46cf 433e 0df0 963e 14d9 553e 7a10 d8bf
00000090: 8f56 893f e95c 9fbf 1e89 de3e 9cee 843f
000000a0: 156b a5be 5e91 acbf b04c 133f bd50 64bf
000000b0: 6bcd e63e 06e5 abbf d844 7dbe b18e 353e
000000c0: a748 673f 9f94 e3be 7061 3abe 767c b0bf
000000d0: cec9 ea3b afb4 b2bf cfaa 373e 696c bfbd
000000e0: ac34 6c3f c495 12be 15f3 73bf ee53 12bf
000000f0: 6339 0abf f8af 19bf 4304 a2be 18ba 5a3d
00000100: d3ce 183f 1d1b 763c a994 16bf 2599 743e
00000110: c73f 833e 8842 0c3e cc75 903e 710f f5be
00000120: ebde 423d 0079 8cbf c0d8 88bf 74ce c1bd
00000130: dda4 8dbe 9b30 af3d 6495 903f 1819 08bf
00000140: 0c12 79bf 0904 c5c0 1605 383f 1cd2 98be
00000150: 4cac 7ebf 372c 11bd 07ed 18be 25d0 043e
00000160: 96ba 803f 1a0b 7dbf 0c1c 0ebf e65c 81bf
00000170: 875a 983f f38e d33e 45e8 1abe 6ea7 3bc0
00000180: e28d ba3d 84c0 ec3f ec34 b53f 1369 91be
00000190: ad10 64bf dcba 0bbe cb2b 43c0 3578 c73e
000001a0: 9dd0 63bf 7a8e 973e ada6 e9be b112 d3be
000001b0: 8bfe bbbd 2c74 2b3e 6e1c f23e 9f30 37bf
000001c0: fce6 35bf 5d2c d83e cf45 3dbf 3944 263e
000001d0: 127f 3d3e 16f9 fc3e ab9d ef3d 6241 0fbe
000001e0: 5e4e 313f 92f2 d6bf 581d 0fbf 7175 703f
000001f0: 5fdc 73bd 8e2c 33bf ca13 c23e a253 b6bd
00000200: 000b 88bf 60ff e5bf 1e0a 983e c22a 153f
00000210: d17c b23e d729 913e ab71 103d c102 3bbe
00000220: fde4 c0be 1b42 3ebf 90ac debd 8f75 df3e
00000230: c804 79bf 29df f63e 1212 e3be b409 87bf
00000240: de68 83bf 2c0d 82be fd1b 3e3f cbb3 a9bf
00000250: 92ed 073f e182 89bf b711 b4bd 85a6 383f
00000260: 01a9 743b 5f08 b0be 2373 0ebe cb2e d5bd
00000270: b1a2 d1bf 61ef cbbc 65c1 20bf 817b 9b3d
00000280: 0037 a8bf 1b55 17bf d584 333e 5be0 09be
00000290: ba4d d03e 21a5 43be 4ebd 31be 5f2e 06c0
000002a0: 583f 09bf 847b 42bf fc13 8ebf d789 eebe
000002b0: f804 183f 8eeb 88c0 5aa4 893e 5850 223f
000002c0: ca19 c9be 4e04 663e 9559 03c0 96c3 d6be
000002d0: c614 bd3b 878f d0bf f396 5b3e 2ed1 55bf
000002e0: bfc6 1c3e 5093 e3be 59c9 ac3e 6276 2f3e
000002f0: 4a9b 03bf cb6d ef3d 3c14 aabd 6ea1 88bf
00000300: 6531 143f 4ed0 b0bf 97a4 9e3e 9dea 793e
00000310: abc4 923d 824b 523e cb33 88bf 59d0 56bf
00000320: eb52 233f 7b97 d4bf bb0c 883e 91f9 703e
00000330: 56f7 073e 4aec 453f 520e 69be 12fc 13bd
00000340: 3b03 073e 95f0 8fc0 aedd 25bf 5b48 233d
00000350: 2595 c33d f1db a5bf 0762 4fbe 7307 393f
00000360: 271c 74c0 6bc6 b6be ba35 3dbe 9175 ab3e
00000370: c608 44bf 4a4b b1be a5ea 3a3e 647d a6bf
00000380: 809f 0d3e 3e1c 8e3f 6abe f03d fc98 21bd
00000390: d70c 1e3f 4f49 853d 402f 103f 19ff 2c3e
000003a0: 452c b03d f05e dabe c741 02c0 392f 5a3f
000003b0: 14e8 cbbf fe31 083f 0188 803f 2b3b 133e
000003c0: 9f1f 79bf 34e4 5cbf e2d9 9b3e 0735 ebbe
000003d0: 9af0 f1bc 91c0 80bf 9d6a 51bf 69b4 843f
000003e0: 6def 6dbe 044d b3be cfce ab3f 471d 923e
000003f0: 51a2 05c1 ec69 dc3e 5980 583f a0e8 053f
0.5139107 -1.314159 0.7578493 -2.407983 0.054304574 -0.13246478 1.1549752 -2.1495907
1.4352471 -1.7316688 -0.030954365 -0.54166806 0.61722296 -1.347954 -0.94969976 0.74864024
0.04268141 1.172216 1.4493163 -0.8225702 -0.8754045 -1.0836214 -1.9581634 -0.47867018
0.49763855 -0.49531198 -0.13503951 -0.9213186 -0.5228138 -0.03530419 -0.951415 -0.5494257
0.19122037 0.2948002 0.2088359 -1.6880028 1.072954 -1.2450229 0.43463987 1.0385318
-0.3230826 -1.3481863 0.5753889 -0.89185697 0.45078596 -1.3429267 -0.24733293 0.17730214
0.90345234 -0.44449326 -0.18201232 -1.3787982 0.0071651703 -1.396139 0.17936252 -0.093468495
0.9226787 -0.14314944 -0.9529279 -0.57159317 -0.53993815 -0.6003413 -0.31643876 0.05340013
0.5969059 0.015021113 -0.5882059 0.23886545 0.25634596 0.13697255 0.28214872 -0.47863343
0.047575872 -1.0974426 -1.0691147 -0.09463206 -0.27664843 0.08554193 1.129559 -0.5316329
-0.9729316 -6.1567426 0.7188276 -0.298478 -0.99481654 -0.035442557 -0.14934169 0.12970026
1.0056942 -0.98845065 -0.55511546 -1.0106475 1.1902627 0.4132 -0.15127666 -2.932094
0.09109093 1.8496251 1.4156775 -0.28400478 -0.89087945 -0.136455 -3.049548 0.38958898
-0.88990194 0.29600888 -0.45634976 -0.41225198 -0.091794096 0.16743535 0.47287315 -0.71558565
-0.7105558 0.42221346 -0.73934644 0.16236962 0.18505505 0.49408787 0.11699995 -0.13989785
0.69260204 -1.6792777 -0.5590415 0.939292 -0.059536334 -0.6998986 0.37905723 -0.089026704
-1.0628357 -1.7968559 0.2969522 0.5826837 0.34860852 0.28352234 0.035264652 -0.1826277
-0.37674704 -0.7431962 -0.108727574 0.43644378 -0.9727292 0.48217133 -0.44349724 -1.0549836
-1.0266378 -0.25400674 0.74261457 -1.3257993 0.5309688 -1.0743066 -0.08792441 0.7212909
0.003733218 -0.34381387 -0.13911109 -0.10409316 -1.6377774 -0.024894418 -0.62795097 0.07591916
-1.3141785 -0.59114236 0.1753114 -0.13464491 0.406843 -0.1910596 -0.1735737 -2.0965803
-0.5361228 -0.7596972 -1.1099849 -0.46589538 0.5938258 -4.278754 0.26883203 0.63403845
-0.39277488 0.2246258 -2.0523427 -0.41946095 0.0057702987 -1.6293801 0.21444301 -0.8352231
0.1531019 -0.44448328 0.33747366 0.17135003 -0.5140883 0.11690863 -0.08304641 -1.0674264
0.5788787 -1.381357 0.30984947 0.24405904 0.07166418 0.20536616 -1.0640806 -0.83911663
0.637984 -1.6608728 0.26572213 0.23532702 0.13277945 0.77313673 -0.22759369 -0.036129065
0.13184826 -4.498118 -0.6479138 0.039863925 0.095499314 -1.2957746 -0.20252238 0.7227699
-3.8142183 -0.35698256 -0.18477526 0.33488134 -0.7657589 -0.34627753 0.18253572 -1.3007016
0.13830376 1.1102369 0.117550686 -0.039452538 0.6173834 0.06508123 0.563221 0.16894187
0.08602194 -0.42650557 -2.0352647 0.85228306 -1.59302 0.5320128 1.0041505 0.1437804
-0.97313875 -0.8628571 0.3043967 -0.45938894 -0.029533673 -1.0058767 -0.81803304 1.0367557
-0.23235865 -0.35019696 1.3422488 0.28537962 -8.352128 0.43049562 0.84570843 0.5230808

fc2.bias f4 [64]
00000000: a8a0 edbe 1579 b9be c308 abbd cfa1 d4be
00000010: 3331 19bf cf99 d83f 2680 47bf 2539 f63f
00000020: eb60 c13f ae3c abbd db8a 0440 3783 583e
00000030: 5d8f fb3f fe52 d73f 233b fd3e 9450 c5bf
00000040: ac82 46be 848e 0040 acd7 0c40 248a bf3d
00000050: dc72 c63f caee 5cbf 46e0 94bf 661e c7be
00000060: 183c 9abe 30b6 6cbf 47e9 ecbe dc7f 0c40
00000070: 61eb 0640 f830 36be aa4e 15bf 7e6d 6bbf
00000080: f133 d7bd e1f7 a83f 0400 ef3f 9cf0 d03f
00000090: d4bb 3cbf a6c7 963f e612 fe3f f4cd 5abf
000000a0: b8b7 92bd e7d8 3abd 3ff8 86bf 2991 81bf
000000b0: b29a a0bf e003 1340 59d9 c0bf d714 d5bd
000000c0: dffc e63e c159 83be 49b9 ec3f ab25 88be
000000d0: e9d2 a13f 4e21 b8bd 5495 00be dcfa 3c3e
000000e0: ae95 bb3f 1cc3 c6bf e8ee 0540 e320 20bd
000000f0: 0e9d 5b3d a142 943f 30c1 443f 78de 863e
-0.46411633 -0.3622519 -0.083512805 -0.415297 -0.598407 1.6921939 -0.77929914 1.9236189
1.5107702 -0.08361183 2.070975 0.21143804 1.9653126 1.6822202 0.4945918 -1.5415215
-0.19385785 2.0086985 2.2006636 0.0935252 1.5503802 -0.86301863 -1.1630943 -0.3889038
-0.30123973 -0.92465496 -0.46271726 2.195304 2.1081164 -0.17792118 -0.58323157 -0.91963947
-0.10507954 1.3200647 1.867188 1.6323428 -0.737241 1.1779678 1.9849517 -0.8547051
-0.07163948 -0.04561701 -1.0544509 -1.0122424 -1.2547209 2.2971115 -1.5066329 -0.104043655
0.451148 -0.25654414 1.8494045 -0.26591238 1.264249 -0.08990727 -0.12556964 0.1845507
1.4655054 -1.5528293 2.0927067 -0.039093863 0.053616576 1.1582834 0.7685728 0.26341605

final.weight f4 [6, 64]
00000000: ddbf cbbd 5673 82bc 9836 eabc 8609 403e
00000010: dce4 79be a91e 103e 9cca 73be a313 973e
00000020: 5858 183e 5012 63bd 7444 d63e 63a2 4f3e
00000030: c970 a63e 2cb5 973e 0f38 423e 7e63 48be
00000040: bc78 abbb 185d dd3e fb4d c23e 2a9e e2bd
00000050: 530a 5a3e 1d90 b2be 7848 51be 73c8 bcbd
00000060: ff1e ff3d cc4e f2bd 9d2b 15be 8fd8 f13e
00000070: 7175 b83e e1f5 89be 2433 f1bd 9122 4cbe
00000080: 3959 20be ae58 9bbb 5896 d53d 5ea0 073e
00000090: ef69 4e3e c25e 82be 8a44 1f3f 241e 71be
000000a0: b731 ee3e d275 83bd 6802 cbbe db1c 193d
000000b0: ed76 0bbe 222f 0f3f b613 4abe bc90 a13e
000000c0: 02a1 d43e 76a8 d13d 4941 a53e c1ef 103e
000000d0: 416f 0e3e a958 80bc ca2f 48bc 8a3c 27bf
000000e0: 6857 803e 8fb6 c4be 7148 a63e 15f5 58bd
000000f0: d056 a53d dcd0 4c3e afd4 af3c bd7d ad3e
00000100: 3300 5ebe 7537 4abe b967 213d b948 44be
00000110: 2f76 b8be 4f84 523d f153 1fbe b96f 1a3e
00000120: f417 493e 5e5a e13d 5cd0 e33e 9fbd ce3c
00000130: 6f60 b13e 2aea c03e be83 b53d 57f5 3cbe
00000140: 9633 8bbc cdef a93e 7796 153f 4751 453d
00000150: c3e2 be3d 86e2 83be 400e 00be 63ee 81be
00000160: 4803 d0bd 9369 dbbd b196 42be 1e69 003f
00000170: 6401 c73e 9b33 013e ac0b 0abe 4729 42bc
00000180: 9275 c9bc 4621 873b 3b27 723e a46e 143e
00000190: daed e4be 4cd4 c53d 6c7e b33e b572 ae3e
000001a0: d165 01be 2756 da3c 7d2f 3abe 9893 0cbe
000001b0: 0005 24be 3216 163f 8981 36be fc7e 64be
000001c0: 1f01 c53e 0c30 99be 1001 813e ccbd ecbd
000001d0: fd4f 8dbc 0e24 00bd c0b2 113c c70e 833e
000001e0: 855a 1c3e fb5a 8ebe 1ae2 d63e 3cf8 8fbc
000001f0: 68aa 813c 2f10 d73d d5fe 80be 4d4b 173e
00000200: 00f1 87be bf87 65be 22bb f9bc f3fe 4ebe
00000210: 2bd6 53be 0105 7f3d a600 47be cfe3 103e
00000220: b87e 5b3e c689 8b3d 4627 eb3e d761 3f3d
00000230: e7ab ca3e a539 c83e 6a52 923d 0e87 31be
00000240: 2601 373d 0eda c53e a3b9 033f 385f 15be
00000250: d12e c83d 5dc4 8dbe 1aba 1ebe ec09 90be
00000260: dde2 09be cb23 72bd a6a5 66be 3255 063f
00000270: dee3 c53e 6cf4 0c3e f2ac 28be 4552 3bbc
00000280: d190 13bd 7a42 2c3d 9f20 8f3e 76f5 143e
00000290: c6b4 e6be d1b7 3a3e 46b3 c53e 90a8 943e
000002a0: c8c2 1ebe 0988 913d c9f6 41be eb79 24be
000002b0: 19f0 423b cabc f13e 57fa 2fbe f1b9 78be
000002c0: c39e 9f3e 5876 77be cbd9 523e 2c51 f23c
000002d0: f169 e7bb 53f2 553c 8d8c 9b3d 1de4 773e
000002e0: 999f 123e 901b 79be ad3a 063f d8fc 3dbd
000002f0: 4036 11bd 9e09 bb3d 9f37 8abe 228d 243e
00000300: 6f5d 77be 229b 5bbe 9ab0 1a3c 8b17 3fbe
00000310: d9c8 81be 4bfc 783d 2e94 10be e5ba 3c3e
00000320: 11ee 643e d83e a73d 9ce5 f13e f0e2 5c3d
00000330: de13 c73e e620 cc3e 7ef6 fa3c 1427 19be
00000340: e526 85bc 5f39 af3e ef57 103f 7bba 0a3e
00000350: 1582 ab3d 0bf2 80be 68f4 acbd 4da9 d7bd
00000360: 956c dfbd dba0 07be 98b6 bdbe 8ec8 e43e
00000370: d81e ee3e f4db fc3d d462 18be 1df7 f93b
00000380: 89ee 613d da88 0fbc 1d45 8e3e 4e00 433e
00000390: 8de9 9dbe 78f7 863e 3e99 b83e e329 aa3e
000003a0: 7fe0 debd d860 303d afe4 3bbe 5cdc 4bbe
000003b0: c6c1 d43d 4ae5 033f 80af 21be 014f 69be
000003c0: 8044 a13e aa75 55be f625 4a3e 55b9 6c3d
000003d0: 4171 dfbb a4b9 10bd 9479 55bc cacd 0f3e
000003e0: 71d7 973d 02d2 6abe 237b db3e 7653 9abd
000003f0: 61c4 62bd 5ab2 023d d18a 58be f2ca 113e
-0.099487044 -0.015924137 -0.028590485 0.18753633 -0.24403709 0.14074196 -0.23807758 0.2950717
0.1487745 -0.055437386 0.418491 0.2027679 0.32507923 0.2963041 0.18966697 -0.19569203
-0.0052328985 0.43235087 0.3795012 -0.11065324 0.21293001 -0.34875575 -0.20437801 -0.0921792
0.12457084 -0.118314356 -0.14567418 0.47235534 0.360271 -0.26945403 -0.117773324 -0.19935061
-0.15659036 -0.004740796 0.104290664 0.13244769 0.20157598 -0.2546292 0.6221396 -0.23546654
0.46522304 -0.06418957 -0.39650273 0.037381034 -0.13619585 0.55931294 -0.19734082 0.31555736
0.4152909 0.102372095 0.3227637 0.14153959 0.13909627 -0.015667276 -0.012218425 -0.6532675
0.25066686 -0.3842053 0.32477143 -0.052968103 0.08073199 0.20001549 0.02146372 0.33884993
-0.21679763 -0.19747718 0.03940556 -0.19168366 -0.36027667 0.05139571 -0.15559365 0.15081681
0.19638044 0.11003564 0.44494903 0.025236903 0.34643885 0.37678653 0.088630185 -0.18452965
-0.016992372 0.33190766 0.58432716 0.048173215 0.09320595 -0.2575876 -0.12505436 -0.25377187
-0.10156876 -0.10713496 -0.19002797 0.50160396 0.38868248 0.12617342 -0.13481015 -0.011850662
-0.024592195 0.0041238395 0.23647778 0.14495331 -0.44712716 0.09659633 0.3505739 0.3407189
-0.12636496 0.026652409 -0.18182178 -0.13728178 -0.16017532 0.5862762 -0.17822851 -0.22314066
0.38477418 -0.2991947 0.25196123 -0.115596384 -0.017250055 -0.031284384 0.008892715 0.25597212
0.15268905 -0.27803788 0.41969377 -0.017574422 0.015828326 0.10501134 -0.2519442 0.14774819
-0.26551056 -0.22415064 -0.03048474 -0.20214443 -0.20687167 0.06226063 -0.19433841 0.14149402
0.21435058 0.068133876 0.459284 0.046724167 0.39584276 0.3910648 0.071446255 -0.17336676
0.04467883 0.38642925 0.51455134 -0.14587104 0.097745545 -0.27688876 -0.1550068 -0.2813257
-0.13465448 -0.059116166 -0.22524127 0.5247375 0.3865041 0.13765115 -0.16472223 -0.011433189
-0.03602678 0.042055584 0.27954575 0.14546761 -0.45059794 0.18234183 0.38613337 0.29034853
-0.1550399 0.07106025 -0.18941797 -0.16062133 0.002974516 0.47214347 -0.17185341 -0.24289681
0.31175813 -0.24166238 0.20590894 0.029579721 -0.0070621897 0.013058263 0.07595167 0.24208112
0.14318694 -0.2432692 0.5243328 -0.04638371 -0.035452127 0.09132694 -0.2699556 0.16069463
-0.24156736 -0.21445897 0.009441519 -0.18661325 -0.25348547 0.06078748 -0.14119026 0.1843067
0.2235644 0.08166283 0.4724549 0.053927362 0.38882345 0.3986885 0.030635115 -0.14956313
-0.016253898 0.34223458 0.56384176 0.13547699 0.083744206 -0.25184664 -0.08445054 -0.105303384
-0.10909382 -0.13244955 -0.3705337 0.4468426 0.46507907 0.1234664 -0.1488145 0.007628335
0.055159125 -0.008760655 0.27787104 0.19043085 -0.30842248 0.2636068 0.36054415 0.33235082
-0.10882663 0.043061107 -0.18348955 -0.19908279 0.10388522 0.5152174 -0.15789604 -0.22784044
0.31497574 -0.20845667 0.19741043 0.057793934 -0.006818921 -0.03533329 -0.013029475 0.14043346
0.07414139 -0.22931674 0.42867383 -0.0753545 -0.055363063 0.03190837 -0.21146704 0.14237574

final.bias f4 [6]
00000000: 3c93 f33f 5f94 e83f db61 a73f cbcd 903f
00000010: 0884 503f 91f7 263f
1.9029307 1.8170279 1.3076738 1.1312803 0.81451464 0.65221506
