D2QN_AAAI/checkpoint_d2qn_cheetah_0.pth (torch, 45655 bytes, 6 tensors)

fc1.weight f4 [128, 17]
00000000: 1ece 4140 2ccd 66c0 d507 583f 9a3e 02c0
00000010: ab17 3fbf 1986 473f 660d 0dc0 5ee5 d73e
00000020: 7010 1fc0 13c5 ef3f 834a cdbf e5af bfbe
00000030: 0dce 5fbd c460 f43e 8f25 7a3d dd29 8abe
00000040: 8a70 20be 1c09 57c0 86d0 abc0 36b2 88bf
00000050: ce22 a6be f1d9 c2bd bdfa a33f b134 583f
00000060: f4e4 b63e 9f60 55bf 1dad 2bbe 4c51 9abf
00000070: 3f1d 1bbe b435 60be fc57 87ba e85f 6a3d
00000080: 877f 133d d430 2dba 2891 9cc0 138e 05bf
00000090: b08b 83bf 9526 03be d107 f7be 845c 1c3e
000000a0: 1f78 bc3f 5192 eebc 56f8 a93f 795b 1cbe
000000b0: 7db4 babe 67c4 61bd 06a5 343d a3f9 1dbc
000000c0: d64a cebd 33f7 aabd 0c33 313c 2e6e 9a40
000000d0: 21ef 85be 0db4 05bf db68 cd3e 121c f33d
000000e0: 2bc1 06c0 e2e3 c5bd 5daf 82bf 5a5a 303f
000000f0: bf8c 2d3f d64e 47be 6ecb e3bc 4723 84bb
00000100: 8ae7 923c 515f 6e3d 333f ff3c 2d47 27bb
00000110: 01e0 6a40 f694 4cbf e5c6 03c0 c4c2 09c0
00000120: f6db 01c0 4d3c 4ec0 666f 0cc0 10ce d3bf
00000130: 6178 7abe 12cb 0abe 4a94 6e3e 9632 3dbd
00000140: 6931 1bbe 7196 963e 7195 2abe 3e7b 513e
00000150: 3e22 aabc 5c9f 99c0 ca5e 433f 649b 27bf
00000160: 6a4a 64bf 500e f3be 4748 c6bf e657 0540
00000170: ce56 a3bf 2d2e a0be c014 d4bf 5c3b 7bbc
00000180: 7812 06be dc72 e4bd a5c4 783d d95f 423d
00000190: c974 423e 3bac 293d d19c 893f 07c1 8bc0
000001a0: 3a46 a2bf 4e06 15c0 6bb4 e33e 290b bf3f
000001b0: 9d75 50bf 3a52 87be 9df6 2ac0 559c a23f
000001c0: c610 87be f2ce 5a3e fec6 803d 4c4f 5e3e
000001d0: 2da3 0abd 24c3 643d e8bd 3e3e 1e4d 143f
000001e0: 9293 823e 759a e03f 5eb6 2b3f 5da3 a63e
000001f0: b701 4cbf 497b 38bf a324 e3bf 0301 22be
00000200: 25fa b0bf 2d03 03c0 4b34 f1be 3afc c4be
00000210: d4c5 d03d cda1 0cbc 5b06 96bd c7df a13d
00000220: 3ca3 3abd 675e 0b40 1b7a d03f b1c6 ac3f
00000230: c8b6 6cbd dd43 02be 1f02 373f e868 09c0
00000240: a7e1 e4bf 73a7 95be 67ad ce3e 750b 26be
00000250: b2b0 14be 3f93 df3d 0e75 023e b769 a83e
00000260: 0ed8 0d3d a323 7e3f d112 d7c0 3418 81c0
00000270: e47f 3ec0 7899 e2bf 9d73 903f 1ba0 643f
00000280: 7675 9f3c 9ade 84bf 0e1c dd3e a778 78bf
00000290: 9ac7 093d cb8f 23be 4220 ae3d 509e e73c
000002a0: cc83 95bd c45c 133e 4883 dd3f 4b44 0e3d
000002b0: e15f 043f a030 a2be 8094 84be 8af7 06bf
000002c0: a27e 5bbf ce0c 65be 2136 383f 288a 0abf
000002d0: 7ef9 8fbe bdfa 39be 4ebf 013d 2dea 33bd
000002e0: 8f8b ec3d d2ef 693d d2b6 25be b371 6dc0
000002f0: 455f f0c0 fcdd c73d bafd 03c0 0570 55bf
00000300: 5764 be3d 1ae2 6e3f a736 85be 0159 0ebe
00000310: 2ced 83bf bd35 2bbf 5ff3 00be e4dd 03be
00000320: 6ece adbd 70d3 403b 967f d53c 3b86 05bd
00000330: e9d0 713e 72d3 973f 5567 913f b1a8 0740
00000340: cbb1 a23f 9a33 be3e 1843 6abe 3765 e03e
00000350: c480 31be 73ad 60be 58b0 42bd b7f7 9e3d
00000360: 4228 c13d 9c58 2ebd a19d 9bbd 0f98 1ebe
00000370: 34b7 093d badb a63e 70c0 563e 5d61 963c
00000380: 3051 423e 4d4c 333f 0787 6bbf 66da dc3d
00000390: 8c58 40bf 2ffd 2cbf 8e8b e63f ab97 bb3f
000003a0: d4cd 833e 8130 b03e 639f b63c 1d27 58be
000003b0: 970f 783d 83a3 af3c 6ede b3c0 a915 3d40
000003c0: ac29 c9bf 0251 40bf a63c aabf fbea 7abe
000003d0: d913 3fbe ac5e 2cc0 11e9 d33e 43f0 97bf
000003e0: 0940 7e3f d4a0 653d 8184 ff3d 6200 d8bd
000003f0: 3ba6 c2bc 9410 143e d2e4 f23c 6717 903f
3.0282054 -3.6062727 0.8438695 -2.035071 -0.7464549 0.7793899 -2.2039428 0.4216718
-2.4853783 1.8732017 -1.6038364 -0.37438884 -0.054639865 0.47730076 0.061070975 -0.26985064
-0.1566793 -3.359931 -5.3692045 -1.0679386 -0.3244843 -0.09514225 1.2810894 0.844554
0.35721552 -0.8335056 -0.16765256 -1.205606 -0.15147875 -0.21895486 -0.0010325904 0.05722037
0.03601029 -0.0006606702 -4.8927193 -0.52169913 -1.0277004 -0.12807687 -0.4824815 0.15269667
1.4724158 -0.029122503 1.3278911 -0.15269269 -0.36465827 -0.055118944 0.04410269 -0.009642038
-0.100728676 -0.08347931 0.010815393 4.8259497 -0.26159003 -0.5222786 0.4011906 0.11870588
-2.10554 -0.09662606 -1.0209767 0.68887866 0.67792886 -0.19463667 -0.027806964 -0.0040325257
0.017932672 0.05819637 0.031158065 -0.0025524602 3.669922 -0.79914796 -2.0590146 -2.1525126
-2.0290504 -3.2224305 -2.1942992 -1.654726 -0.24459983 -0.13554028 0.23298755 -0.04619082
-0.15155567 0.29411653 -0.1665857 0.2045717 -0.020768281 -4.800703 0.7631651 -0.6547148
-0.89176047 -0.47471857 -1.5490807 2.08349 -1.2760866 -0.3128523 -1.6568832 -0.015333977
-0.13092983 -0.1115472 0.06073441 0.04745469 0.18989863 0.041424017 1.0750982 -4.367313
-1.2677681 -2.3285098 0.44473585 1.4925281 -0.81429464 -0.2642992 -2.671302 1.2703959
-0.26379985 0.21368006 0.06287955 0.21709937 -0.033847023 0.055850163 0.18627131 0.5793017
0.25503212 1.7547137 0.67075145 0.3254651 -0.79690117 -0.7206312 -1.7745556 -0.15820698
-1.3826338 -2.0470688 -0.4711021 -0.38473684 0.10193983 -0.008583498 -0.07325431 0.0790401
-0.04556583 2.1776369 1.6287264 1.3498136 -0.0577915 -0.127212 0.7148761 -2.147028
-1.7881364 -0.29229316 0.4036667 -0.16215308 -0.14520529 0.10916757 0.12739965 0.32893154
0.034629874 0.9927313 -6.721047 -4.0342045 -2.9765558 -1.7703085 1.1285282 0.893068
0.01946519 -1.0380433 0.43185467 -0.970591 0.03363762 -0.15972821 0.085022464 0.028273731
-0.07300529 0.14390856 1.7305689 0.034733098 0.517088 -0.31677723 -0.25894547 -0.52721465
-0.857401 -0.22368166 0.71957594 -0.5411706 -0.28120035 -0.18162055 0.031676583 -0.0439245
0.11550056 0.057113476 -0.16183022 -3.7100646 -7.5116296 0.09759137 -2.0623612 -0.83374053
0.09296482 0.93313754 -0.2601826 -0.1390114 -1.0306754 -0.66878873 -0.12592839 -0.12877613
-0.08486639 0.0029422902 0.026061814 -0.032598715 0.23614849 1.1861403 1.135966 2.119671
1.2710508 0.37148744 -0.22877157 0.4382722 -0.17334276 -0.21941166 -0.047531456 0.077620916
0.09431507 -0.042564973 -0.07598425 -0.15487693 0.03362198 0.32589513 0.20971847 0.018356973
0.18976283 0.700383 -0.9200291 0.10783844 -0.7513511 -0.6757383 1.8011339 1.465566
0.25742972 0.34412006 0.022292798 -0.2110867 0.060561743 0.021440273 -5.620902 2.954447
-1.5715842 -0.7512361 -1.3299758 -0.245037 -0.18659915 -2.6932783 0.41388753 -1.1870197
0.9931646 0.05606158 0.12476445 -0.10546948 -0.023760905 0.14459449 0.029650126 1.1257142

fc1.bias f4 [128]
00000000: 2033 81bf 3901 02bf 127b fabf 93a8 7b40
00000010: 2f60 debf 2c33 31c0 3799 91be ae60 40c0
00000020: 1e40 0bc0 808c 113f 790e e23f 55a2 1a3f
00000030: e0ff 2ac0 18be 40c0 ca06 4ac0 e82b c63e
00000040: 3234 0bc0 1e8a 44c0 2896 ad3d 4b00 47bf
00000050: 7ade 28c0 2a86 ce3e 82c1 663f 745a 78bf
00000060: dcd8 57bf eefc 513f d70f 7e40 a117 cebf
00000070: f191 93bf 8d4a 4a40 b332 00c0 6adf 26c0
00000080: 54ad 8bc0 3f36 fdbf 1e6f c4bf dbe8 61bf
00000090: 5243 09c0 313f e5bf 1edc 1ec0 3141 fcbf
000000a0: 8b70 03bf 8919 8c3f c4c2 34c0 01ed b3bf
000000b0: fdc2 14c0 57f5 89bf 79d9 23c0 1997 80c0
000000c0: 8750 1ac0 1c96 eebf 33d7 2abf b267 1ac0
000000d0: 019a f53f 909a 11bf 1074 34bf 335e 3f40
000000e0: e43f 19c0 1722 2ec0 2cf2 b4bf 953b 4fc0
000000f0: 85ad 7140 67c2 833f 2c2f 8dbf fede 06be
00000100: 5be5 26bf 4a23 ae3f b83e 50c0 c4ca 61c0
00000110: d3f2 24c0 74fb 7cbf 2c77 ae3f 97b5 2640
00000120: be9f ca3e f475 a23f 5df7 e0bf bb64 df3f
00000130: b390 0440 a3e4 f0bf d62f edbf 5ea9 4a40
00000140: 4746 cdbf 1d2f 81bf dc7e 57c0 120d c2bf
00000150: cf31 26c0 22a7 0dc0 d34a 6740 adf1 77c0
00000160: 21ca 883f a0fb 4fc0 a724 ec3e 051e 233f
00000170: 8e8b 73c0 309d adbf 3c8e c93f 43b5 a6be
00000180: ddec 723e aa0e 35c0 f995 c3bf 9ef0 1f3f
00000190: 72d8 a6bf 2858 42c0 811d 323f 2715 8440
000001a0: fb6e 2b3f e21a 43bf a38b b4be bfa1 b7bf
000001b0: f2be 01c0 8520 61c0 14aa b7bf 35de d3bf
000001c0: 15a9 9ebf 8242 10c0 d9d4 2240 f7cc 34c0
000001d0: 230f 3a3f 67b8 913f a43e e63c 7f3a 0dbe
000001e0: c6c6 2ec0 6cf4 e03f c08c 06c0 5d42 8fbf
000001f0: cc81 98c0 dcd0 46c0 1b82 54bf 0ac0 3740
-1.0093727 -0.50783116 -1.9568808 3.932164 -1.7373103 -2.7687483 -0.28437206 -3.0059009
-2.1757884 0.5685501 1.7660667 0.6040395 -2.6718674 -3.0116024 -3.1566644 0.38705373
-2.1750607 -3.07093 0.08475906 -0.7773482 -2.638579 0.40336734 0.9013902 -0.9701302
-0.84315276 0.82026565 3.9697168 -1.6100961 -1.1528913 3.1608002 -2.0030944 -2.607386
-4.364908 -1.978218 -1.534641 -0.88245934 -2.144734 -1.790991 -2.482185 -1.9707395
-0.513436 1.0945293 -2.8243876 -1.4056703 -2.3244011 -1.0777997 -2.5601485 -4.0184445
-2.411165 -1.863956 -0.6673462 -2.412579 1.9187623 -0.5687647 -0.704896 2.9901245
-2.3945246 -2.7208307 -1.4136405 -3.2380116 3.7762158 1.0293702 -1.1030021 -0.13171002
-0.6519372 1.3604519 -3.253828 -3.5280008 -2.5773208 -0.98821187 1.3630118 2.6048334
0.39575 1.2692246 -1.7575489 1.7452615 2.0713317 -1.8819774 -1.8530223 3.1665874
-1.6037072 -1.0092503 -3.367118 -1.5160239 -2.59679 -2.213326 3.613942 -3.8741257
1.0686685 -3.249733 0.46121714 0.6371768 -3.8053927 -1.3563595 1.5746531 -0.32560167
0.23723169 -2.82902 -1.5280143 0.6247653 -1.3034804 -3.0366306 0.6957627 4.127582
0.6696622 -0.76212895 -0.35262784 -1.4346236 -2.0272794 -3.5176098 -1.4348779 -1.6552187
-1.239535 -2.2540593 2.5442412 -2.82501 0.72679347 1.13844 0.028106041 -0.13791846
-2.7308822 1.7574592 -2.1023407 -1.1192127 -4.7658443 -3.1064978 -0.83011025 2.8710961

fc2.weight f4 [64, 128]
00000000: 5f06 24bf d2b6 4bbf c75a 71bf e123 fd3e
00000010: 48a2 e63e f1ed d03f 6a6b 8bbe 1e61 a5be
00000020: ecc6 9f3e d42a b73f 6f30 2ebd 9bbc c33f
00000030: 4873 50bf ad29 fe3d 3277 123f ea51 e63e
00000040: a9f4 873f 357d 9b3e 9dd9 38c0 1070 60c0
00000050: 0a5e 0b3e 0d4c c9bc 98f5 c2bf 652b a0bc
00000060: 9dfb d03d 5877 d43e 7715 2abd c146 663f
00000070: 81f5 dcbf 4191 6d3e 6d43 203e ad3f f03e
00000080: 2726 8140 779d 893d f3a4 4abd c2a2 88bf
00000090: 33b4 bbbe 6b56 92bf e7a1 053e fce6 2a3f
000000a0: 3d4f 81bf d3be 2abe 890a 7cbf eeb4 563d
000000b0: dc6b 983f d4bc a33f 5200 52bf 3531 2240
000000c0: 54d3 063e be02 8cbf eda5 05c0 cb49 07c0
000000d0: 3d3c 333f 7f72 c3be c7f9 11bf 3c53 cb3e
000000e0: db19 0fc0 0eca 8abe d04d 213e 2bcc c23e
000000f0: e83b a8be 0ac7 9f3f f05f b23e c999 05c0
00000100: 7070 a5bd fd7e 78be 106f 7dbf d02c 2f3f
00000110: 23be 94be 5a8f 3c3f d58f 9ebf 36e4 54be
00000120: 9cfb ca3f 39fd 14bf db36 0ec0 70cd 963e
00000130: 5c4b a2be 0362 693f ef72 91bf 71ef ecbe
00000140: 7394 89bf eca2 e7be 90be da3e 66ea 8ebf
00000150: a112 36bd 9508 ac3e 0437 aa3e 7851 0140
00000160: 4167 b1bf fd3e 11bf 262f 7abf 3d0e 763f
00000170: fab2 3ebd d606 963d b019 ac3f 7eed 89bd
00000180: 249d e2bf 5146 1c3f 525b 53bf 1105 0fc0
00000190: afbc 9cc0 977b 543f a480 36c0 9cbb 363f
000001a0: 68b8 b9bf 7bb4 a8be c79e a33c ff3b 133f
000001b0: a40e 87bf 9285 593f fb24 fdbe ebb7 b13d
000001c0: 6a11 283f 0f04 d9be a99b 0e3f 4178 103f
000001d0: b77e 59bf ab83 973f 7b39 25bf 61b8 df3c
000001e0: 6cb6 473e 289f a5c0 0549 28c0 786a 573d
000001f0: d3f5 8d3e 5270 25c0 0d0f 6c3f 8262 013f
00000200: 4fc5 4e3d ea82 743e 37bd 403e 9a0c 61be
00000210: cc7a 56be 813b 173e dd5e 9fbd 37f1 833e
00000220: 8ffe 713c 315b 28be 2b91 b5be 1e13 1fbe
00000230: 5f10 90be 964e b43e 6d64 f6bc 69e1 79be
00000240: 5d83 4e3d 8f85 4ebe f129 2ebe 4307 45be
00000250: 98ea 823d 718d 19be 36d1 b63d fb1f 063e
00000260: 04ed 0cbe ec70 24bc a50a 19be f730 b4bd
00000270: b8f0 adbe 5aad 85be e7f0 79be ca89 2cbe
00000280: 228c 253e e83f e8be d9cd a4be 9faf b3be
00000290: 1e16 05bf 8ce0 173c 6599 693e 312f 64bd
000002a0: e272 93be ee29 9f3e 2fdb d63e 4b2b 5b3e
000002b0: 87a0 763a dd92 f53d 50e9 d4ba 9ea8 3e3e
000002c0: add9 e3bd 4166 3dbf c2c0 f5be a063 28bf
000002d0: 0f48 71be b468 d83e a631 e83e 3805 803e
000002e0: 66a4 3bbe 86b1 303e 1c7a 2cbe 1a50 8dbd
000002f0: 38ad 8bbe e349 0dbe 695c 3abe 9c0f 82be
00000300: d257 873d 141c 083d 9644 c0bd f7e9 b5bd
00000310: 7168 40be cd85 33bd 81b9 71be feb1 eebe
00000320: a151 023d f646 af3d ea05 1dbe 66bb efbc
00000330: c9e1 6dbc b096 193e 7b57 ae3e 313d 61be
00000340: 1d02 833e 7020 b0be 28fa 01bf c550 98bd
00000350: b74e 71bd e0e7 91bc 620a bdbd 19e6 bb3c
00000360: eb62 05be 164c 02bf 4f6d 3fbe 797c 6fbe
00000370: a8b6 23be 3826 013e 985e 07bc dc7c 15bf
00000380: 2b1d 94be 0e2c 0d3e 259f fa3d 357e 03bf
00000390: bb90 9bbe 4de0 873e 9f6b 4c3d dece 40be
000003a0: 25f7 73be acc1 06be 812c 79be dfef 39be
000003b0: ea77 bfbd c550 cebd e11c fa39 8a68 15be
000003c0: c072 7abd a7f0 8fbd 22e7 9ebe 7705 563e
000003d0: 3426 49be 976b b63c 497e 37be 63c0 76bd
000003e0: 9e1e e43c 61f2 f2bc 22d8 f43d 90a0 a5bd
000003f0: 10ba cf3e 19a0 cd3b f5ae 973e f3e9 74be
-0.6407222 -0.79575837 -0.9427914 0.49441436 0.45045686 1.6322614 -0.27230388 -0.32300657
0.31206453 1.4309945 -0.04252666 1.5291933 -0.81425905 0.12410293 0.5721313 0.4498437
1.0621539 0.30368963 -2.888282 -3.5068398 0.13610092 -0.024572397 -1.5231199 -0.019551942
0.102042414 0.41497302 -0.041524377 0.8995171 -1.7262422 0.23199941 0.15650721 0.4692358
4.0359073 0.06719487 -0.049473714 -1.067467 -0.3666092 -1.1432623 0.13050042 0.66758704
-1.0102307 -0.16674356 -0.98453575 0.05241864 1.1907916 1.2792001 -0.8203174 2.5342534
0.13166553 -1.0938337 -2.0882523 -2.113879 0.7001379 -0.3817329 -0.57021755 0.3971194
-2.235953 -0.2710728 0.1575234 0.38046393 -0.32858205 1.2482617 0.3483882 -2.0875113
-0.080780864 -0.24267192 -0.9899759 0.68427753 -0.29051313 0.7365624 -1.2387644 -0.2079018
1.5858035 -0.5819889 -2.222098 0.2945361 -0.3169812 0.9116518 -1.13632 -0.4627643
-1.0748428 -0.45241487 0.42723513 -1.1165283 -0.04445136 0.33600298 0.332451 2.0205975
-1.3859636 -0.5673674 -0.9772819 0.96115476 -0.046557404 0.073255226 1.3445339 -0.06734751
-1.7704206 0.61044794 -0.8256122 -2.2346842 -4.8980327 0.83001083 -2.8516016 0.7138002
-1.4509401 -0.32950196 0.019973172 0.5751342 -1.0551343 0.8496944 -0.49442276 0.08677658
0.6565157 -0.4238591 0.5570627 0.5643349 -0.84958977 1.1837057 -0.64540833 0.027309598
0.19503182 -5.1756783 -2.6294568 0.05259177 0.27726611 -2.5849805 0.92210466 0.50540936
0.050481137 0.23878065 0.1882218 -0.21977463 -0.20945281 0.14768793 -0.077817656 0.2576997
0.014770164 -0.16441037 -0.35462317 -0.15534636 -0.2813749 0.35216206 -0.030077184 -0.24402393
0.050418247 -0.20168136 -0.17008187 -0.19241051 0.063924015 -0.14995362 0.089266226 0.13098137
-0.1376229 -0.010036688 -0.14945467 -0.08798402 -0.33972716 -0.2610882 -0.24408303 -0.16849437
0.16166738 -0.45361257 -0.321883 -0.35094926 -0.51986873 0.009269845 0.22812422 -0.055709068
-0.28798586 0.31086677 0.419641 0.21403234 0.0009408076 0.119909026 -0.0016243849 0.1861901
-0.11125503 -0.7398415 -0.47998625 -0.65777016 -0.23562644 0.42267382 0.4535038 0.25003982
-0.18324432 0.1725522 -0.16843456 -0.06900044 -0.27280593 -0.13797717 -0.18199314 -0.25402534
0.06608547 0.033229902 -0.09388082 -0.08882516 -0.18789841 -0.043828774 -0.2360592 -0.46620172
0.03181613 0.085584566 -0.15334287 -0.029264163 -0.014519163 0.14998889 0.34051117 -0.21995999
0.2558755 -0.34399748 -0.50772333 -0.074372806 -0.05891296 -0.017810762 -0.09230496 0.022936868
-0.13026015 -0.5089735 -0.18694042 -0.23387326 -0.15987647 0.12612236 -0.008262299 -0.58393645
-0.28928503 0.13786337 0.12237386 -0.5136445 -0.30383858 0.26538315 0.049907323 -0.18828914
-0.23824747 -0.13159817 -0.24333383 -0.1815791 -0.09349044 -0.10073999 0.00047705232 -0.1459066
-0.06114459 -0.07028323 -0.31035715 0.20900522 -0.1964348 0.0222681 -0.17919268 -0.060242068
0.02784663 -0.02965659 0.119552866 -0.080872655 0.40571642 0.0062751886 0.2962567 -0.2391737

fc2.bias f4 [64]
00000000: bb7e 14c0 3ffd aabe 5fe8 c9bd 7840 10c0
00000010: b3e2 81be e862 243f e0af e4be d9c9 3840
00000020: b12c cf3f ae3c abbd 6754 8b40 f0e3 a2bf
00000030: b2d0 2040 e607 9840 1a3d 00be ee8b 19c0
00000040: 977c a4bf 524c 3c40 1264 9240 9c24 1f40
00000050: 1655 0540 e0d7 b3bd a42c 01bf 9441 63bf
00000060: 4f58 cdbf ed45 f5bf 2a53 abbf 78d6 8f40
00000070: 9329 7740 cb11 f33f 31a5 2fc0 bb67 cfbf
00000080: 83d3 c5bd c543 3f40 0259 2540 dfeb 4740
00000090: 0397 54bf c781 6d40 26f5 5340 e42d 103d
000000a0: b551 21c0 694f 4abd 7b34 a8bf 8621 88bf
000000b0: 32fd 31c0 1859 8f40 e737 f8bf a413 b83f
000000c0: 2c10 15be d1a3 3fbf d2b6 2440 be69 e0bf
000000d0: 6463 d83f 7fb0 12be 632d 873f c8b3 ee3f
000000e0: dfcb 5240 476f 32c0 f1f8 8640 3c39 4fbd
000000f0: cd95 133d cf32 2240 bf4b c73f 5b7e b23b
-2.320235 -0.33396336 -0.098587744 -2.2539349 -0.2536827 0.6421342 -0.44665432 2.8873198
1.6185514 -0.08361183 4.354053 -1.2725811 2.5127378 4.750964 -0.12523308 -2.3991656
-1.2850522 2.9421582 4.5747156 2.4866095 2.0833182 -0.08781409 -0.5045874 -0.8877194
-1.6042575 -1.9161965 -1.3384755 4.4949303 3.8619125 1.8989805 -2.7444575 -1.6203531
-0.09659483 2.9885113 2.5835576 3.1237714 -0.83042926 3.711046 3.3118377 0.035200015
-2.520612 -0.049392138 -1.3141016 -1.063523 -2.7810788 4.4796257 -1.939206 1.4380994
-0.1455695 -0.7485934 2.5736585 -1.753227 1.6905332 -0.1432514 1.0560726 1.8648615
3.2936933 -2.7880418 4.2178884 -0.050591692 0.036031533 2.534351 1.5569991 0.0054471917

final.weight f4 [6, 64]
00000000: dafc 88bd 68f0 41bd 6792 24bc 3bea 8dbe
00000010: 94db afbd af76 9e3d 0342 21be 0f98 413e
00000020: 71ec f5ba 5012 63bd f3e8 1c3f b24f e83c
00000030: af35 b6bd ef8a 663f 0cd9 7f3e cc56 ebbd
00000040: 6bf4 aebd b9b4 4d3e 8bcd 3f3f 839b 813e
00000050: b6c0 203e b702 8bbe f9e2 023e cba6 78be
00000060: 365a 16bd 253b 07be 2162 9cbe ad9f 263f
00000070: ccf8 603d df58 1d3d b110 0bbe 2745 50be
00000080: be5f bebd 539b b6bc bf82 11be 908b 713d
00000090: 4d2c 883d 090e 8b3c 8de2 f33d 384f dbbd
000000a0: bf9b 9dbd 55fa 66bc 3c21 37be 68da 76bd
000000b0: 66b6 32bc 3b1e 3e3f 2265 8cbd c736 fb3d
000000c0: 3f90 3e3d acd3 0dbe f49a c63a 632d 273e
000000d0: 1b06 643e a327 14bd 0b39 2d3e a396 5e3d
000000e0: c45c de3d 9576 1e3d fd68 a43e 4d45 1bbd
000000f0: 7c9c 753d 526c ba3b 7615 b0bd dbde 703d
00000100: 3f94 26be eb86 86bd e9ae 393d 9f77 a3bd
00000110: bca7 acba 1a2e 703e 04c8 323e b416 e6ba
00000120: bc49 873e 5e5a e13d 7d64 233f 60b0 48be
00000130: d5e5 993d 5440 483f fc04 2bbd ee90 bebd
00000140: b028 47be 20f5 29bc c1ce 2a3f 3ab3 ce3d
00000150: 33ca 9dbc 7af3 473c e25d 60bd 47df c6bc
00000160: ec29 f6bd 9bca c9bd 2951 1f3b e11b 383f
00000170: ee3e 693d 8711 1c3e ee42 9ebd b736 17be
00000180: 16bb 8abd 9b67 f63d 91c6 8d3d 8d31 083e
00000190: f0ad 17be d5c4 243e 05aa 953d f7de 803e
000001a0: bc04 fabd 14c8 dd3d 4207 86bd 2e9f 1ebe
000001b0: 89a2 9ebe 0386 153f eba0 05be cd6b 66bd
000001c0: c73d 5e3d a221 f4bd 3402 453e 1028 03be
000001d0: dfcc 1c3d f96d 52bb fa28 0e3e ebd7 153e
000001e0: 1c92 d03d 2f0d 86be b2e1 143f 4f25 86bc
000001f0: ad5f 4f3c 3364 1f3e d304 3c3e f2d4 893d
00000200: b9d2 57be ca4a 89be fa94 b5bc a441 a7bd
00000210: 066c 22be 0f6f 893e e97c 15be 8598 48bc
00000220: 5116 7b3e c689 8b3d 8209 243f 5099 45be
00000230: 35f5 a73d 4090 463f b5b2 2cbd 6dde c7bd
00000240: 36d9 74be 912a e1bc 2e84 2e3f 5b53 dc3d
00000250: 0d86 37bc 4a2f 39bc 9aa2 adbd 2b81 0cbd
00000260: 8211 fcbd 4d66 a7bd f36f 0a3c 9300 383f
00000270: d213 803d 9a89 1e3e ca5e 99bd e721 11be
00000280: f12f dfbd 7bad f93d c2bf 843d f147 023e
00000290: 5a9b 15be 0c0c 1b3e 574f 923d e32f 753e
000002a0: ff57 01be 9d7c d03d 9f68 8abd 0b87 1dbe
000002b0: 5ef4 9ebe 6272 133f b435 eebd 2e2b 38bd
000002c0: ff5a 2dbd f690 cabd 2762 323e 89b8 08be
000002d0: 1975 133d f63e 263d dc09 093e be25 093e
000002e0: 3638 d93d d746 84be 1700 153f f88e 35bd
000002f0: 2859 9b3c 5863 163e 3bec 3c3e 7f6d 80bc
00000300: 0743 47be 53dd e4bd ec0c 103d ab29 9ebd
00000310: 04e5 e33b b3d5 7f3e cd34 dabd 25dd 97bc
00000320: a0b4 833e d83e a73d 5111 253f b7f2 4fbe
00000330: 6169 923d 9600 443f 12eb 2fbd 509d d5bd
00000340: 3ad6 43be 4837 68bc 0061 2c3f e8ca d83d
00000350: 9d53 84bc 7205 a63c 0a8a 95bd 44d4 fabc
00000360: 1a8c d3bd 2fb3 b5bd cd91 17bb ef5b 393f
00000370: e75c 793d c720 1d3e bb2a adbd e99b 0ebe
00000380: 4685 9c38 6464 d93d a39e 7a3d 399d fd3d
00000390: 552f 06be 2044 293e 382c a53d ef2f 7b3e
000003a0: ca30 f8bd 7d46 d53d 6e2c 99bd e1c9 17be
000003b0: 1711 a0be 53a4 123f ae97 a6bd 967f 4ebd
000003c0: 66c3 5fbd 321c cebd 142f 2a3e f751 05be
000003d0: 7da6 343d 56b7 cdbc e944 033e f036 023e
000003e0: e89f 043e 32b3 86be c0e2 123f b29c cabd
000003f0: 2657 17bc bd14 1f3e 3e9c 383e 4e8a bdbd
-0.066888526 -0.04734841 -0.010044671 -0.27717766 -0.08586803 0.07737481 -0.15747838 0.18905662
-0.0018762482 -0.055437386 0.6129295 0.028358314 -0.08896958 0.90055746 0.2498514 -0.114911646
-0.08542713 0.20088471 0.7492301 0.2531396 0.15698513 -0.2715051 0.12781896 -0.24282376
-0.036707126 -0.13206156 -0.30543616 0.65087396 0.05492477 0.038414832 -0.13580586 -0.2033888
-0.09295605 -0.022290861 -0.14210032 0.058970988 0.06649075 0.016974466 0.119084455 -0.10708469
-0.07695722 -0.01409777 -0.17883772 -0.060266882 -0.010907745 0.7426488 -0.06855227 0.12266307
0.046524283 -0.13850278 0.0015152381 0.16325907 0.22267954 -0.036170613 0.16916291 0.054342877
0.108575374 0.038687307 0.3211135 -0.037907887 0.05996369 0.0056891823 -0.08597843 0.05880628
-0.16267489 -0.06568702 0.045332823 -0.079818 -0.0013172547 0.23455086 0.17459112 -0.0017554373
0.26423442 0.11003564 0.6382521 -0.19598532 0.0751454 0.78223157 -0.0417528 -0.09304987
-0.19449115 -0.010373384 0.6672173 0.100927785 -0.019261455 0.012204045 -0.054777034 -0.024276389
-0.12019715 -0.09853097 0.002430985 0.7191754 0.05694478 0.15241061 -0.077276096 -0.14766966
-0.06773965 0.1203148 0.06922639 0.13300152 -0.14812446 0.1609071 0.07307819 0.2517011
-0.12207934 0.108291775 -0.06544353 -0.1549041 -0.3098338 0.5840761 -0.13049667 -0.05625515
0.054258134 -0.119204774 0.19239122 -0.12808251 0.038281318 -0.0032109006 0.13882819 0.14633147
0.10184118 -0.26181933 0.58156884 -0.016375212 0.012657088 0.15565567 0.18361215 0.06730069
-0.21076478 -0.26814872 -0.022165764 -0.08166817 -0.1586152 0.26842543 -0.1459843 -0.012243395
0.24520232 0.068133876 0.6407701 -0.19296765 0.082010664 0.7756386 -0.042162616 -0.09759221
-0.23910984 -0.027486118 0.6817044 0.10758086 -0.011201394 -0.0113027785 -0.084782794 -0.03430287
-0.12308027 -0.08173809 0.008449542 0.71875876 0.062537804 0.15482178 -0.07488783 -0.14173089
-0.10897816 0.12191292 0.064818874 0.12722756 -0.14610043 0.15141314 0.07144039 0.23944049
-0.12631224 0.10180018 -0.06758236 -0.15383546 -0.31045812 0.5759641 -0.11631337 -0.044963054
-0.04232311 -0.0989093 0.17420255 -0.13351645 0.036000345 0.040587388 0.13382667 0.13393304
0.106064245 -0.25835297 0.5820326 -0.0443258 0.018963411 0.14686334 0.1844949 -0.015677212
-0.19459163 -0.11175027 0.035168573 -0.07722791 0.006954791 0.24983864 -0.10654602 -0.018538067
0.25723743 0.08166283 0.6447955 -0.20307432 0.07149006 0.76563394 -0.04294879 -0.104303956
-0.1912469 -0.014173336 0.6733551 0.10585576 -0.016153151 0.020266268 -0.073017195 -0.030618794
-0.103294566 -0.08872067 -0.0023127676 0.72405905 0.060879614 0.15344535 -0.08455416 -0.13926663
7.463484e-05 0.10614851 0.061186444 0.123835035 -0.13103993 0.16529894 0.08065075 0.24530004
-0.12118681 0.10413835 -0.074791774 -0.14823104 -0.3126304 0.5728199 -0.08134399 -0.050414644
-0.054629706 -0.100639716 0.16619521 -0.13019548 0.044104088 -0.025111835 0.12819256 0.1271627
0.12951624 -0.2630859 0.57377243 -0.098931685 -0.009237086 0.15535255 0.18028352 -0.09254895

final.bias f4 [6]
00000000: 6f44 6440 979f 8440 e5fd 7740 d8f7 6040
00000010: b96e 4640 0b11 2140
3.5666769 4.144481 3.8748715 3.5151272 3.100508 2.5166652
