D2QN_AAAI/checkpoint_d2qn_cheetah_10.pth (torch, 45655 bytes, 6 tensors)

fc1.weight f4 [128, 17]
-0.8874582 0.835637 -1.5153232 -1.0485755 -1.382863 -0.45933518 0.2804632 -0.41361928
0.36778325 -0.4442932 -0.14454122 0.102901615 0.031671613 -0.25184777 -0.08514146 0.032530617
0.04171653 1.0234064 -0.29226795 0.33585897 0.48405853 0.27998212 -0.5926076 -0.046894103
-0.6915934 -1.2742997 1.0358658 -0.66997916 -0.0077880016 0.008862575 -0.26713687 0.10190057
-0.0748787 0.12163803 -2.2820773 -0.35879079 -0.121541984 -0.13683584 -0.07967549 0.24953997
0.66481745 0.06793548 0.66064477 -0.23059241 -0.2558805 -0.06332102 -0.022718497 -0.018845987
-0.07740784 0.0053612487 0.011710551 0.49550226 -0.11989885 -0.6835359 -0.48158818 -0.61803174
-0.3578471 -0.2393057 -0.37859783 0.3184622 0.48275125 -0.1994091 -0.060425125 -0.014813241
0.009730688 0.10997998 0.07847031 -0.048011925 -0.7167392 0.33782235 -0.27417016 -0.37496805
-0.15240413 0.21542533 0.3044468 -0.060579624 0.33925647 -0.42433003 -0.056032598 -0.08347967
-0.16288248 0.19958614 0.088391095 -0.07016279 -0.041405648 -2.8144844 -0.7262392 -0.16030905
-0.22487958 -0.23093683 0.11316945 0.097959965 0.14483353 0.20459722 -0.2677392 0.035919562
0.017494876 0.10443876 -0.08625386 -0.15669493 -0.051881533 0.05832069 -0.4296322 -1.0903668
-1.504832 -1.044306 -0.9932161 0.298883 0.085675664 0.5178997 -0.32831854 1.1806833
0.12005904 0.20696846 0.12195873 -0.08504884 -0.117696375 0.12272152 -0.07107423 0.21967083
-0.60683024 -0.573077 -0.71765226 -0.45604917 -0.8991209 -0.44948712 -0.8576975 -0.77679163
-0.2790032 -0.34570733 -0.0077064238 -0.052078895 -0.20644212 0.12781763 0.33486184 -0.15725
-0.23865163 -0.14048839 0.041483477 -0.15129898 0.11793739 0.03942718 0.47195712 -0.65456474
-1.4511026 0.33982465 -0.038199227 0.052061744 0.013151768 0.021830415 -0.32236844 0.25542554
0.037232816 0.67539597 -1.3300164 -0.4192455 0.07638919 -0.34954974 -0.024202501 -0.4545127
-0.065161005 -0.19620097 -0.5635608 -0.52901965 -0.04594879 -0.07551282 -0.011493549 0.15688378
-0.07355305 -0.002124453 1.1828002 -0.2993011 0.5693979 0.42539075 -0.11808076 0.05120055
-0.58373886 -0.28683627 -0.38182837 -0.17049105 0.08014763 -0.02675717 0.040306102 0.060273148
-0.030771505 -0.028877918 -0.016154805 0.29025933 0.681694 0.9304743 0.80965877 0.8761676
-0.1826959 0.43413365 -0.089295894 -0.13210012 -0.19376664 -0.27731487 -0.1524492 -0.05648753
0.022126034 -0.015040777 -0.030415997 -0.018415045 0.5513598 0.57613635 0.104752846 0.18603124
0.019112159 -0.5761621 -0.4832703 -0.5304515 -0.6901532 -0.08645968 -0.24638717 0.030431591
-0.090282254 0.017646387 0.06812225 -0.10361597 -0.0045010545 0.109422 -0.30094436 -1.8979902
-2.0365775 -0.54745317 -0.1979525 -0.1681368 -0.11524464 -0.19828759 0.023851216 0.14604141
0.060986012 0.075724736 0.1313068 -0.047762565 0.05993239 0.11269995 0.21532778 -0.8434615
-0.6162063 -0.5619293 -0.78926754 -0.66697484 -0.5801819 -0.78498554 -0.39982155 -0.37449956
-0.1833299 0.025721267 -0.10614571 -0.053527094 0.23485856 -0.03406204 0.042696845 2.2565713
00000000: 7630 63bf 4eec 553f 1cf6 c1bf b937 86bf
00000010: a801 b1bf fb2d ebbe df98 8f3e e8c5 d3be
00000020: 164e bc3e 667a e3be 9d02 14be 15be d23d
00000030: 18ba 013d 31f2 80be a55e aebd d33e 053d
00000040: f4de 2a3d fbfe 823f 25a4 95be b5f5 ab3e
00000050: 85d6 f73e d159 8f3e 22b5 17bf 0814 40bd
00000060: 440c 31bf 411c a3bf 4097 843f c183 2bbf
00000070: 7e32 ffbb 5534 113c 2ac6 88be 3fb1 d03d
00000080: 015a 99bd 5c1d f93d 8e0d 12c0 6db3 b7be
00000090: 01eb f8bd b21e 0cbe e72c a3bd 6887 7f3e
000000a0: 7a31 2a3f c221 8b3d 0420 293f 6b20 6cbe
000000b0: c502 83be 73ae 81bd 241c babc e662 9abc
000000c0: 0088 9ebd 6aad af3b 9cdd 3f3c 79b2 fd3e
000000d0: 878d f5bd 35fc 2ebf ba92 f6be 5437 1ebf
000000e0: bc37 b7be 8e0c 75be 93d7 c1be 7a0d a33e
000000f0: 2c2b f73e e631 4cbe 5680 77bd 3cb3 72bc
00000100: 776d 1f3c 2f3d e13d 0bb5 a03d 27a8 44bd
00000110: 387c 37bf 0df7 ac3e 0860 8cbe d0fb bfbe
00000120: d40f 1cbe 7598 5c3e 73e0 9b3e 5722 78bd
00000130: 06b3 ad3e c941 d9be 7082 65bd 64f7 aabd
00000140: aaca 26be 4f60 4c3e 6406 b53d 82b1 8fbd
00000150: f898 29bd 8320 34c0 d0ea 39bf 0e28 24be
00000160: d546 66be b47a 6cbe 62c5 e73d 3c9f c83d
00000170: 3e4f 143e ef81 513e 1d15 89be 6420 133d
00000180: 6a51 8f3c fde3 d53d dda5 b0bd a374 20be
00000190: bb81 54bd ade1 6e3d c0f8 dbbe 2491 8bbf
000001a0: 569e c0bf d2ab 85bf 6943 7ebf 3107 993e
000001b0: b976 af3d 1395 043f 5e19 a8be a120 973f
000001c0: 84e1 f53d 8aef 533e 80c5 f93d 162e aebd
000001d0: cc0a f1bd 6c55 fb3d 5e8f 91bd 64f1 603e
000001e0: 3a59 1bbf 2db5 12bf 0fb8 37bf 477f e9be
000001f0: ca2c 66bf 2d23 e6be 1092 5bbf d1db 46bf
00000200: 82d9 8ebe 8d00 b1be 2b86 fcbb ae50 55bd
00000210: 9065 53be a0e2 023e 0373 ab3e 2506 21be
00000220: 1861 74be 30dc 0fbe 94ea 293d 1fee 1abe
00000230: 2989 f13d 657e 213d 5da4 f13e 8e91 27bf
00000240: bbbd b9bf 7ffd ad3e cb76 1cbd b23e 553d
00000250: 837a 573c b3d5 b23c 7a0d a5be 23c7 823e
00000260: 7081 183d c0e6 2c3f fa3d aabf 59a7 d6be
00000270: f071 9c3d 2ff8 b2be 5344 c6bc e3b5 e8be
00000280: 2273 85bd e8e8 48be 8545 10bf d56d 07bf
00000290: cc34 3cbd 77a6 9abd 704f 3cbc 24a6 203e
000002a0: fba2 96bd 683a 0bbb ff65 973f fe3d 99be
000002b0: 10c4 113f d1cc d93e 53d4 f1bd abb7 513d
000002c0: e96f 15bf 34dc 92be 027f c3be 3595 2ebe
000002d0: 7124 a43d da31 dbbc 0318 253d fae0 763d
000002e0: 8614 fcbc 6291 ecbc 1557 84bc df9c 943e
000002f0: 7f83 2e3f 9033 6e3f cc45 4f3f 854c 603f
00000300: a214 3bbe c446 de3e c4e0 b6bd 4145 07be
00000310: c36a 46be 37fc 8dbe a51b 1cbe 785f 67bd
00000320: a841 b53c 976d 76bc f82a f9bc 26db 96bc
00000330: ea25 0d3f ac7d 133f a988 d63d f97e 3e3e
00000340: 1a91 9c3c 5c7f 13bf 346f f7be abcb 07bf
00000350: e1ad 30bf c611 b1bd eb4c 7cbe ac4b f93c
00000360: e7e5 b8bd 288f 903c ae83 8b3d 9c34 d4bd
00000370: 957d 93bb a418 e03d 6115 9abe 58f1 f2bf
00000380: 4957 02c0 e425 0cbf 0fb4 4abe 0e2c 2cbe
00000390: 6205 ecbd e70b 4bbe a063 c33c e18b 153e
000003a0: 78cc 793d 9215 9b3d 4a75 063e aea2 43bd
000003b0: aa7b 753d 3bcf e63d e37e 5c3e 18ed 57bf
000003c0: b2bf 1dbf 99da 0fbf 700d 4abf ddbe 2abf
000003d0: cd86 14bf d0f4 48bf 69b5 ccbe 68be bfbe
000003e0: d5ba 3bbe 68b5 d23c ec62 d9bd 3a3f 5bbd
000003f0: c37e 703e a384 0bbd e3e2 2e3d aa6b 1040

fc1.bias f4 [128]
-0.62397784 -0.7999125 -0.96070594 1.1881728 1.2521685 -0.72674304 -0.017691055 -0.97029674
-0.8675008 0.7117782 1.0127273 -0.91284895 -1.0155181 -0.67920464 -1.1704841 0.1255017
-0.7447279 -0.75540125 -0.76226896 -0.76687026 -1.015631 -0.38240352 0.104445174 -0.9001982
0.45523268 0.4326054 1.5502658 -1.0039086 -0.6998453 1.7327502 -0.90717083 1.3499314
0.17744474 -0.76083994 1.4222083 -0.039350763 -0.9711481 -1.0702935 -0.68270624 -0.8257259
1.0101174 -0.39597479 -0.96294713 -0.8616503 0.31308433 -0.6835549 0.49304166 -0.9293848
-0.7943063 -1.2497648 1.6917515 -0.8252263 1.6433494 0.0907857 -0.47794348 -0.16184632
0.47734684 0.31465855 -0.76141256 -0.4965282 1.7856762 1.082625 1.545615 0.3576236
-0.83953136 -1.0156052 -1.1591561 -1.0822742 -1.2570808 -0.2511806 -1.0850325 1.0585704
-0.7197439 -0.71665436 -0.33532578 1.5485907 1.075229 -0.13939579 -0.47263288 1.5577333
-0.016666887 0.15659583 -0.80535626 -0.63207823 -0.3764172 -0.033554472 1.4543397 0.43917543
-0.09237207 -0.9633987 1.4364052 1.7111747 -0.9589429 -0.38909075 0.00778144 0.94803274
1.6403506 -1.0485678 -1.236327 1.1608065 0.7280495 -0.074430145 0.07042221 1.205585
0.029687203 -0.7146408 -0.52079654 0.73793596 0.66727513 -1.144869 -1.0093843 -0.04522387
-0.5147899 -1.090953 1.2387347 0.019762574 0.99496615 0.6616043 0.21601968 1.4438035
-0.93468153 -0.7420672 -0.09488654 -0.9601743 -1.3528051 -1.3031031 -0.14135171 1.5283663
00000000: 03bd 1fbf 11c7 4cbf d3f0 75bf 0c16 983f
00000010: 0f47 a03f d50b 3abf d5ec 90bc 5e65 78bf
00000020: 8814 5ebf 1937 363f 0ca1 813f 78b0 69bf
00000030: 7ffc 81bf 5be0 2dbf 6cd2 95bf 8583 003e
00000040: 7da6 3ebf fa61 41bf 0f24 43bf 9c51 44bf
00000050: 3200 82bf 65ca c3be 5ae7 d53d 6473 66bf
00000060: 4214 e93e 747e dd3e 1c6f c63f 1480 80bf
00000070: 1029 33bf c2ca dd3f 593c 68bf 8dca ac3f
00000080: 13b4 353e 68c6 42bf ec0a b63f 442e 21bd
00000090: 299d 78bf 61ff 88bf d6c5 2ebf c662 53bf
000000a0: 874b 813f 35bd cabe b483 76bf 1d95 5cbf
000000b0: 974c a03e 74fd 2ebf f56f fc3e 2aec 6dbf
000000c0: a857 4bbf 4bf8 9fbf 508b d83f 0842 53bf
000000d0: 4659 d23f daed b93d 02b5 f4be 0bbb 25be
000000e0: ce66 f43e ed1a a13e efeb 42bf f238 febe
000000f0: 0a91 e43f 7593 8a3f b6d6 c53f 711a b73e
00000100: 87eb 56bf 5aff 81bf 3a5f 94bf f687 8abf
00000110: 06e8 a0bf be9a 80be 58e2 8abf 3c7f 873f
00000120: 2341 38bf a976 37bf d2af abbe 3838 c63f
00000130: 1ba1 893f c5bd 0ebe f0fc f1be ce63 c73f
00000140: ff88 88bc a85a 203e d42b 4ebf e1cf 21bf
00000150: c1b9 c0be 6a70 09bd ce27 ba3f 9adb e03e
00000160: 912d bdbd 4ca1 76bf 20dc b73f c607 db3f
00000170: 487d 75bf e736 c7be 73fb fe3b 46b2 723f
00000180: 02f7 d13f 7837 86bf f73f 9ebf 4f95 943f
00000190: 7461 3a3f d56e 98bd 8539 903d 9c50 9a3f
000001a0: 9432 f33c b3f2 36bf ec52 05bf 5fe9 3c3f
000001b0: 8bd2 2a3f 118b 92bf 8133 81bf aa3c 39bd
000001c0: 45c9 03bf 59a4 8bbf dc8e 9e3f 1fe5 a13c
000001d0: 1ab6 7e3f e65e 293f 4334 5d3e 8ece b83f
000001e0: 4a47 6fbf 1ef8 3dbf e053 c2bd fccd 75bf
000001f0: b828 adbf 15cc a6bf 81be 10be 82a1 c33f

fc2.weight f4 [64, 128]
-0.23370925 -0.2229505 -0.16070697 -0.5166372 -0.2072154 0.08757237 0.2838938 0.1868701
0.1246797 -0.11925248 0.04767713 -0.042080496 0.20564373 -1.368789 -0.35222176 -0.1216892
-0.12414753 0.05573126 0.33219844 -0.12763917 -0.25488088 -0.40431014 0.07697101 -0.13385887
-0.45651644 -0.2550424 0.0012766402 -0.005511318 -0.24141398 0.14987884 0.08554436 -0.10591151
-0.15464371 0.046586122 0.094532475 -0.0011865547 0.04064571 -0.025911633 0.121475086 -0.10045159
-0.28177 0.16436486 0.082975805 0.014058725 0.14483978 0.08195858 -0.0010953683 -0.25430354
-0.054682173 0.18185517 0.31716734 0.22256245 0.20987713 -0.5167012 -0.09001063 -0.511309
-0.26284406 -0.19322857 0.02896454 -0.26181498 0.4093852 -0.06419431 -0.06502365 -0.38139546
-0.07985672 -0.07159264 0.21097715 -0.06674553 -0.21071246 -0.0116801765 -0.038058188 -2.0794015
-0.010805796 -0.1734747 0.2404287 0.19594775 0.1983633 0.35086066 0.07769347 0.18890956
-0.11275752 -0.242605 -0.35644618 -0.012383081 -0.1400014 -0.47972566 -0.063401654 -0.11416746
-0.8662924 -0.936515 -0.1304903 0.0013633703 -0.053842638 -0.00846002 -0.3636036 0.11080499
0.14359385 -0.4998059 -0.1931962 0.37268722 -0.11313881 0.2802339 0.10941737 -0.45916274
0.07336369 -0.64695764 -0.17439105 -0.30291387 0.12537064 -0.07286551 0.07002768 -0.3695298
-0.19114521 -0.14102094 -0.27284896 0.11453874 -0.14041321 -0.12113538 -0.056273017 0.15017156
0.012665251 0.12790589 -0.6247802 -0.1739614 0.15900779 -0.094930336 -0.21960069 -0.8708421
0.362815 0.18874243 0.2666688 -0.28346768 0.36702615 0.60702807 -0.16828752 0.21006796
-0.4985422 -0.2778953 -0.21054618 -0.5673681 -0.11996038 0.18054268 0.01029694 -0.15250933
0.37511155 -0.22947603 0.17169325 -0.120787576 0.60117453 0.093537144 0.16090684 -0.028820291
0.13161372 -0.023534736 0.2039614 -0.0037070257 -0.42188278 0.18324724 -0.25625613 -0.3868708
-0.28003857 -0.05146989 0.1437838 -0.015840782 -0.5130991 -0.06845214 0.43521532 0.5621376
-0.09696154 -1.7376926 0.070279896 -0.056616165 -0.3743759 -0.06444014 0.54546577 0.0689587
0.0998623 -0.15090796 -0.054708388 -0.6510571 -0.2976938 -0.21990308 -0.19338901 -0.597812
-0.06802545 -0.41264465 1.3090824 -0.14069636 -0.42956457 0.107760474 -0.34519315 -0.30145827
0.57505167 -0.727581 0.16168985 -1.5480436 -0.3750781 0.3774856 0.056214113 0.07624885
0.5104836 -0.18556008 -0.85402703 -0.1286576 0.32435843 -2.0557485 0.1717018 0.019590361
-0.9390942 -0.34906113 -0.5437129 -0.9439899 0.055695035 0.7263569 0.2234628 -0.0013620678
-0.413356 -0.29798692 -0.12828867 -0.058363672 -0.095047764 -0.30146334 -0.41254017 -0.28313327
0.019649806 -0.20017059 -0.35080245 0.49828532 -0.057017244 -0.16875373 -0.47548604 -0.4085628
0.15546156 0.6271681 0.05636911 -0.86949295 -0.73554957 -0.10420952 -0.40890753 0.09980896
-0.09569817 -0.25482512 -0.22929159 0.05119899 -0.061384358 -0.08406505 -0.028677091 0.19796085
-0.33262902 0.22165093 0.24662052 0.27543098 -0.010045811 0.071991205 -0.084674306 0.16962606
00000000: 7a51 6fbe 234d 64be 5e90 24be 5642 04bf
00000010: 4630 54be 2559 b33d 875a 913e e05a 3f3e
00000020: 1258 ff3d a53a f4bd 1849 433d 995c 2cbd
00000030: 4594 523e 7a34 afbf 6956 b4be 3038 f9bd
00000040: 0f41 febd 7646 643d ea15 aa3e d8b3 02be
00000050: bf7f 82be bd01 cfbe faa2 9d3d 4d12 09be
00000060: 86bc e9be eb94 82be f054 a73a 4998 b4bb
00000070: 3a35 77be d779 193e e231 af3d 22e8 d8bd
00000080: ec5a 1ebe 17d1 3e3d 3e9a c13d 2b86 9bba
00000090: 1e7c 263d a244 d4bc eec7 f83d 90b9 cdbd
000000a0: 2844 90be 434f 283e 38ef a93d 9156 663c
000000b0: e150 143e e6d9 a73d 7692 8fba 1334 82be
000000c0: 6afa 5fbd 3e38 3a3e c263 a23e 69e7 633e
000000d0: 08ea 563e 8846 04bf 7e57 b8bd 26e5 02bf
000000e0: 7f93 86be b6dd 45be 0b47 ed3c 9d0c 86be
000000f0: f09a d13e 4e78 83bd 1f2b 85bd 4446 c3be
00000100: ec8b a3bd 299f 92bd 650a 583e e1b1 88bd
00000110: 02c5 57be 365e 3fbc e7e2 1bbd ea14 05c0
00000120: cb0a 31bc 5aa3 31be f132 763e 87a6 483e
00000130: c01f 4b3e 02a4 b33e c11d 9f3d 8271 413e
00000140: 6aed e6bd 726d 78be 1d80 b6be 68e2 4abc
00000150: 875c 0fbe 9a9e f5be bad8 81bd a1d0 e9bd
00000160: 57c5 5dbf 72bf 6fbf 409f 05be 1eb3 b23a
00000170: 198a 5cbd e59b 0abc 402a babe baed e23d
00000180: 440a 133e 8fe6 ffbe 3ad5 45be dcd0 be3e
00000190: 52b5 e7bd d17a 8f3e 3716 e03d 6117 ebbe
000001a0: b43f 963d 049f 25bf 9193 32be 8717 9bbe
000001b0: 2961 003e 833a 95bd ac6a 8f3d 0333 bdbe
000001c0: 92bb 43be cb67 10be dcb2 8bbe 4993 ea3d
000001d0: 7bc8 0fbe d315 f8bd 897e 66bd 93c6 193e
000001e0: ea81 4f3c c3f9 023e 98f1 1fbf f022 32be
000001f0: f0d2 223e d66a c2bd 01df 60be 82ef 5ebf
00000200: e3c2 b93e b245 413e d088 883e ad22 91be
00000210: daea bb3e 3166 1b3f 9053 2cbe 0e1c 573e
00000220: ec40 ffbe 4b48 8ebe 6b99 57be 093f 11bf
00000230: caad f5bd 2ee0 383e 7fb4 283c 682b 1cbe
00000240: 9f0e c03e c4fb 6abe 5bd0 2f3e 7a5f f7bd
00000250: 93e6 193f 6790 bf3d c3c4 243e 8818 ecbc
00000260: bfc5 063e ebcb c0bc 42db 503e 92f1 72bb
00000270: 0501 d8be 2aa5 3b3e 0134 83be ee13 c6be
00000280: 3761 8fbe 17d2 52bd 0f3c 133e 87c4 81bc
00000290: 765a 03bf a330 8cbd 8bd4 de3e 40e8 0f3f
000002a0: c693 c6bd b66c debf e8ee 8f3d 5ae6 67bd
000002b0: 33ae bfbe 31f9 83bd a5a3 0b3f 383a 8d3d
000002c0: 9b84 cc3d 9e87 1abe e715 60bd aeab 26bf
000002d0: 526b 98be 462e 61be c507 46be 350a 19bf
000002e0: ed50 8bbd 2946 d3be 0390 a73f b512 10be
000002f0: e3ef dbbe 86b1 dc3d 28bd b0be bd58 9abe
00000300: 9636 133f c042 3abf 0692 253e 4b26 c6bf
00000310: 3d0a c0be cb45 c13e c540 663d 5b28 9c3d
00000320: 0eaf 023f 7603 3ebe 84a1 5abf d1be 03be
00000330: 4f12 a63e 6291 03c0 99d2 2f3e f77b a03c
00000340: 7a68 70bf 24b8 b2be c530 0bbf 52a9 71bf
00000350: 7a20 643d 87f2 393f 6fd3 643e 6987 b2ba
00000360: 66a3 d3be be91 98be 1b5e 03be bf0e 6fbd
00000370: 67a8 c2bd 6759 9abe 7738 d3be d8f6 90be
00000380: a1f8 a03c 85f9 4cbe 619c b3be 411f ff3e
00000390: ea8a 69bd c7cd 2cbe e872 f3be 252f d1be
000003a0: 5131 1f3e 178e 203f 4ce3 663d 1797 5ebf
000003b0: fa4c 3cbf cd6b d5bd 545c d1be a468 cc3d
000003c0: 67fd c3bd 7078 82be 6acb 6abe 08b6 513d
000003d0: 2a6e 7bbd 4c2a acbd 38ec eabc 40b6 4a3e
000003e0: 5a4e aabe 76f8 623e 178a 7c3e 4a05 8d3e
000003f0: 2f97 24bc 2070 933d b969 adbd 74b2 2d3e

fc2.bias f4 [64]
1.0457307 -0.54968596 -0.10067365 -0.48992574 -0.12938203 1.4982684 -0.69889045 1.5134699
1.1401439 -0.08361183 1.5231147 -0.40019765 1.1544007 0.3783677 0.12152011 -0.24780259
-0.79497313 0.8517661 0.9752082 0.62042916 -0.047915906 -0.13902432 -0.52084893 -0.2926287
0.07502734 -0.019278986 -0.63123643 1.6276441 1.6687567 0.110807404 -0.00086619484 -0.52794135
-0.069773205 0.4614631 0.77337533 0.9064229 -0.5858659 1.3447405 1.4052328 -0.65432507
-0.121448986 0.1453059 -0.46644962 -0.18742335 -0.74628353 1.6659603 -0.7754696 -0.31671056
-0.11507178 0.84534484 1.4122131 0.91791457 1.2519492 -0.099714935 1.5585341 1.0897443
1.5342628 -0.7419037 1.8236334 -0.044881582 0.06078203 1.7334011 0.57512814 0.9571993
00000000: 81da 853f 38b8 0cbf fd2d cebd 8cd7 fabe
00000010: b97c 04be 42c7 bf3f 7cea 32bf 62b9 c13f
00000020: 3cf0 913f ae3c abbd 6cf5 c23f b5e6 ccbe
00000030: 67c3 933f 69b9 c13e 89df f83d f6bf 7dbe
00000040: 5c83 4bbf 580d 5a3f 3fa7 793f 72d4 1e3f
00000050: 7843 44bd 645c 0ebe 5b56 05bf 6ed3 95be
00000060: efa7 993d f7ee 9dbc b698 21bf a456 d03f
00000070: d299 d53f feee e23d 5a11 63ba 2a27 07bf
00000080: 41e5 8ebd e444 ec3e edfb 453f 550b 683f
00000090: 4ffb 15bf 7520 ac3f abde b33f d981 27bf
000000a0: 3fba f8bd 12cb 143e 7cd2 eebe e8eb 3fbe
000000b0: 700c 3fbf 303e d53f 2d85 46bf e327 a2be
000000c0: c1aa ebbd 8568 583f 66c3 b43f 73fc 6a3f
000000d0: df3f a03f 5837 ccbd 0c7e c73f be7c 8b3f
000000e0: b962 c43f 67ed 3dbf d26c e93f c0d5 37bd
000000f0: 94f6 783d 16e0 dd3f 993b 133f 030b 753f

final.weight f4 [6, 64]
0.27294388 -0.2729438 0.04306837 -0.73803234 -0.5105855 0.34044117 -0.37775224 0.32138816
0.3748397 -0.055437386 0.30559573 -0.4397342 0.19128658 0.38901097 0.2168748 -0.18478921
-0.12594251 0.14672905 0.2519461 0.35293353 0.07941176 -0.92841506 -0.35722056 0.12406043
0.37771255 0.0717355 -0.24864183 0.40960404 0.35864025 0.25088662 -0.11462875 0.0749535
-0.0905187 0.16672209 -0.085665494 0.26641876 -0.32875362 0.2464239 0.35517636 -0.40935767
0.27417585 0.24383317 -0.23083255 0.19836137 -0.17999257 0.4395449 -0.6903897 0.03705996
0.06813003 0.33895656 0.34179714 0.16417575 0.21584389 0.0013995613 0.41194358 0.19913419
0.3472781 -0.13068952 0.4092658 -0.026185721 0.08073199 0.36868843 0.09604568 0.45323348
0.14733922 -0.13559233 0.114127085 -0.49436948 -0.101977654 0.30419663 0.45300883 0.22442906
0.40667364 0.11003564 0.34227565 -0.30502465 0.072617084 0.10724564 -0.09371358 0.11491961
-0.19344062 0.03162629 0.09931086 0.37157828 -0.05692452 0.24209948 -0.14408235 -0.21411432
-0.187054 -0.0019302693 -0.26280427 0.37171853 0.3448138 0.1966611 -0.020275328 -0.3008014
-0.09258469 0.5656254 0.20248666 0.2975759 -0.49836797 0.19741476 0.21820599 -0.21036096
-0.21312909 0.21214898 0.09816173 -0.13765678 -0.11119558 0.43227383 -0.44191974 -0.2242692
-0.019337889 0.50348926 0.2396306 0.30672926 0.25845504 -0.017896757 0.4643503 0.16548827
0.3154544 -0.11297511 0.46203142 -0.028633479 0.015828326 0.49682733 -0.23877591 0.4579981
0.124104306 -0.11670488 0.022200083 -0.40777948 -0.12798978 0.27945673 0.41341642 0.25280777
0.40760309 0.068133876 0.33984026 -0.4022335 0.11361867 0.07312517 -0.12059554 0.13585562
-0.19407438 0.072704 0.10474729 0.39501897 0.081611544 0.283134 -0.15107483 -0.3522358
-0.19149153 -0.0284102 -0.27950892 0.37858447 0.33348274 0.15282425 -0.087950386 -0.2935501
-0.12358471 0.3701652 0.23883195 0.31501293 -0.30697155 0.20628123 0.26850432 -0.08741233
-0.18815193 -0.027733937 0.11884979 -0.13957511 -0.098033726 0.36664376 -0.3788654 -0.2341515
-0.043431498 0.4893775 0.25076783 0.2779939 0.28685656 0.022537641 0.46341208 0.16048224
0.36444372 -0.15406968 0.45923886 -0.030360596 -0.035452127 0.50426733 -0.2634538 0.45695758
0.1675214 -0.19437501 0.038428634 -0.39784184 -0.0051299618 0.283019 0.2161032 0.19415495
0.44484308 0.08166283 0.34858063 -0.34696493 0.15925404 0.11222284 0.08233571 0.14839013
-0.17146203 0.06279938 0.052346796 0.44335365 0.0047766943 0.2946384 -0.1407437 -0.3430168
-0.18583873 0.0193383 -0.2902933 0.33667174 0.37084857 0.22218326 -0.12652642 -0.34636027
0.023246765 0.24640045 0.26540482 0.31192428 -0.34661463 0.24041003 0.25027353 -0.093002364
-0.19396155 -0.004934904 0.13256969 -0.18074465 -0.079127796 0.39375204 -0.34001002 -0.17338173
-0.055256315 0.49249598 0.25856143 0.24553801 0.27976042 -0.029846009 0.4592806 0.11299139
0.38402423 -0.14012474 0.409392 -0.08153884 -0.06092241 0.5134989 -0.19891848 0.45550725
00000000: 4dbf 8b3e 4abf 8bbe 7668 303d b0ef 3cbf
00000010: bbb5 02bf 4e4e ae3e be68 c1be fd8c a43e
00000020: fdea bf3e 5012 63bd 0b77 9c3e d724 e1be
00000030: a1e0 433e 722c c73e 6d14 5e3e 6239 3dbe
00000040: 13f7 00be 2440 163e 14ff 803e b4b3 b43e
00000050: a2a2 a23d 9cac 6dbf 9de5 b6be 6513 fe3d
00000060: 8a63 c13e 10ea 923d f79b 7ebe 9fb7 d13e
00000070: b29f b73e 3674 803e 7ac2 eabd 3881 993d
00000080: de61 b9bd 32b9 2a3e 6471 afbd 0a68 883e
00000090: 6552 a8be 8c56 7c3e add9 b53e 5497 d1be
000000a0: c760 8c3e 67af 793e 5e5f 6cbe 3e1f 4b3e
000000b0: f94f 38be 070c e13e 61bd 30bf 2fcc 173d
000000c0: c287 8b3d b78b ad3e 0900 af3e b01d 283e
000000d0: 2e06 5d3e 7c71 b73a 45ea d23e d5e9 4b3e
000000e0: 6fce b13e 79d3 05be 498b d13e 7083 d6bc
000000f0: d056 a53d bbc4 bc3e 99b3 c43d 380e e83e
00000100: 18e0 163e b7d8 0abe 76bb e93d ff1d fdbe
00000110: a9d9 d0bd a9bf 9b3e c6f0 e73e bbd0 653e
00000120: 8737 d03e 5e5a e13d c13e af3e 312c 9cbe
00000130: 44b8 943d 9aa3 db3d e8ec bfbd f95a eb3d
00000140: 4c15 46be 928a 013d 7e63 cb3d 823f be3e
00000150: af29 69bd ede8 773e 538a 13be c940 5bbe
00000160: 158b 3fbe 1701 fdba 488e 86be e451 be3e
00000170: 6f8b b03e 8761 493e 7218 a6bc a402 9abe
00000180: 0b9d bdbd d4cc 103f aa58 4f3e de5b 983e
00000190: 162a ffbe 1827 4a3e 6471 5f3e dd68 57be
000001a0: 833e 5abe 953d 593e 0409 c93d e6f5 0cbe
000001b0: 82ba e3bd ff52 dd3e 4e43 e2be d3a6 65be
000001c0: 7e6a 9ebc ace4 003f b961 753e 9e0b 9d3e
000001d0: 3854 843e 389c 92bc 53bf ed3e c275 293e
000001e0: 3d83 a13e 7f5f e7bd 628f ec3e c290 eabc
000001f0: 68aa 813c 2760 fe3e ac81 74be ba7e ea3e
00000200: 662a fe3d f802 efbd f3dc b53c 79c8 d0be
00000210: c10f 03be f414 8f3e 51ab d33e 0570 813e
00000220: 5ab1 d03e c689 8b3d 8bff ad3e 8df1 cdbe
00000230: e8b0 e83d a6c2 953d cbfa f6bd bc1d 0b3e
00000240: 6fbb 46be d6e5 943d bf85 d63d ed3f ca3e
00000250: f423 a73d f1f6 903e 5cb3 1abe 4058 b4be
00000260: 5b16 44be 82bc e8bc cb1b 8fbe d3d5 c13e
00000270: 40be aa3e f67d 1c3e 551f b4bd 334c 96be
00000280: fb19 fdbd 4b86 bd3e 5d90 743e 6049 a13e
00000290: 602b 9dbe 633b 533e 6679 893e 3c05 b3bd
000002a0: e6aa 40be 4832 e3bc 8567 f33d c7ec 0ebe
000002b0: e8c5 c8bd bbb8 bb3e a5fa c1be 69c5 6fbe
000002c0: 3ae5 31bd b08f fa3e a464 803e 3755 8e3e
000002d0: ddde 923e dca0 b83c 5944 ed3e 7555 243e
000002e0: 5e98 ba3e 71c4 1dbe 5b21 eb3e c9b6 f8bc
000002f0: 4036 11bd aa17 013f 6be3 86be 58f6 e93e
00000300: bb8a 2b3e 3e0a 47be 5867 1d3d edb1 cbbe
00000310: 3d19 a8bb dee7 903e 284a 5d3e 8ed0 463e
00000320: 79c2 e33e d83e a73d 2979 b23e 63a5 b1be
00000330: 7e13 233e 17d5 e53d a09f a83d 95f3 173e
00000340: be93 2fbe f69c 803d 9869 563d 40ff e23e
00000350: d185 9c3b d8da 963e 1e1f 10be e69f afbe
00000360: 824c 3ebe 5b6b 9e3c 53a1 94be 3d60 ac3e
00000370: dddf bd3e 0284 633e 2490 01be 2256 b1be
00000380: 0070 be3c 6650 7c3e 24e3 873e 8ab4 9f3e
00000390: 7977 b1be 0c2e 763e da23 803e 0678 bebd
000003a0: db9d 46be fab4 a1bb 59c0 073e 2015 39be
000003b0: c10d a2bd de99 c93e cb15 aebe fb8a 31be
000003c0: 7254 62bd 6f28 fc3e 2a62 843e 516e 7b3e
000003d0: c23c 8f3e 9e7f f4bc d426 eb3e 0868 e73d
000003e0: d39e c43e dc7c 0fbe d49b d13e d6fd a6bd
000003f0: c789 79bd aa74 033f 49b1 4bbe 3f38 e93e

final.bias f4 [6]
1.3112524 1.3435715 0.93138176 0.786297 0.47939768 0.3153598
00000000: 1ed7 a73f 27fa ab3f 096f 6e3f c34a 493f
00000010: 9d73 f53e d776 a13e
