D3QN_AAAI_Reward/checkpoint_d3qn_mount.pth (torch, 123881 bytes, 19 tensors)

fc1.weight f4 [128, 2]
0	0xbbad7922	-0.005293981
1	0x3ec2369c	0.3793229
2	0x3c4a2363	0.012337538
3	0xc00d6e02	-2.2098393
4	0xbe8b70d6	-0.27234524
5	0x3e422aab	0.18961589
6	0xbc658a57	-0.014010034
7	0x3f0f8740	0.5606575
8	0xbd8083de	-0.06275152
9	0x3e3f9997	0.18710934
10	0x3eca9765	0.3956863
11	0x3ee7f2fc	0.4530257
12	0x3af7304e	0.0018859
13	0xbfb148d6	-1.3850353
14	0x3ed8ab70	0.42318296
15	0x403917e4	2.8920832
16	0x3ecad5cf	0.39616248
17	0x40c3f839	6.1240506
18	0xbe837c24	-0.2568065
19	0xc0912b70	-4.5365524
20	0x3e837fa7	0.25683329
21	0x3f1650f7	0.5871729
22	0x3f1b7b68	0.6073518
23	0xc0378a93	-2.867833
24	0x3f2dfa71	0.6796027
25	0x3ffeae73	1.9896988
26	0xbcb5e3db	-0.022203377
27	0x414f924a	12.973215
28	0xbeb06297	-0.34450218
29	0xbe2f8341	-0.17139913
30	0xbe8d1f66	-0.27563018
31	0x3f1c669e	0.6109408
32	0xbeeaaa85	-0.4583322
33	0xbea6a886	-0.32550448
34	0xbdd2994b	-0.102831446
35	0xc0a7b3fd	-5.240721
36	0xbe9e5b7b	-0.3092917
37	0xc0936580	-4.60614
38	0x3ea18c5e	0.31552404
39	0x3eaf785f	0.34271523
40	0x3f3b66d4	0.7320378
41	0x4037946c	2.868434
42	0x3df5016e	0.11963163
43	0xbf29044d	-0.6602219
44	0x40120a2c	2.2818708
45	0xbda91f91	-0.08257974
46	0x3f5e5241	0.8684426
47	0x408b0eb6	4.345546
48	0xbdc66f84	-0.09689239
49	0xbda8c2f3	-0.082403086
50	0x3ee78bb3	0.4522377
51	0x3f33f512	0.7029582
52	0x3e8fafcb	0.28063807
53	0x3dc3a2a6	0.09552507
54	0x3f68d2f4	0.9094689
55	0x40afb3be	5.490691
56	0x3f339503	0.7014925
57	0x4028ca49	2.6373465
58	0x3fb7c67e	1.435745
59	0xc0c857a9	-6.2607007
60	0x3ea3d010	0.31994677
61	0x3e9198fd	0.28437033
62	0x3d2611d9	0.040544365
63	0xbffe85ef	-1.9884623
64	0x3eb682d7	0.35646698
65	0xbdf39c7d	-0.11895082
66	0x3cdd2bcf	0.026998429
67	0x3e27c5aa	0.16383997
68	0x3ee099ae	0.43867248
69	0x3f2dd04e	0.6789597
70	0xbc945b25	-0.018109867
71	0xc01e97e9	-2.4780219
72	0x3edf7a05	0.4364778
73	0x411cee42	9.808168
74	0x3eb6dc7f	0.357151
75	0x40b3356f	5.6002727
76	0x3e101a17	0.14072452
77	0xbf1d6949	-0.6148878
78	0x3d853828	0.065048516
79	0xbee27e4b	-0.4423698
80	0x3d140ed7	0.036146965
81	0x3da1569a	0.07877846
82	0x3f09a3cb	0.53765553
83	0xbf349264	-0.70535874
84	0x3e97fcf9	0.2968519
85	0x411a60fa	9.648676
86	0xbdee4f5c	-0.1163623
87	0xbea5b9c7	-0.323683
88	0x3e8b3965	0.27192226
89	0xbed66fd0	-0.4188218
90	0xbf174563	-0.5909025
91	0x40d65112	6.6973963
92	0x3f01962b	0.50619763
93	0x3e875ecb	0.2643951
94	0x3fc8a8c9	1.5676509
95	0xc089fb7f	-4.31195
96	0xbe0b0564	-0.13576275
97	0x410c2579	8.759149
98	0xbee9a170	-0.4563098
99	0xbec027e2	-0.37530428
100	0x3f7fb0e7	0.99879307
101	0x4095c1b2	4.6798944
102	0x3f22034f	0.632863
103	0x3db84840	0.089981556
104	0xbdc185c8	-0.09449345
105	0xbf956bb8	-1.1673498
106	0x3fa5f3c2	1.2965014
107	0xbfbba977	-1.4661092
108	0xbd1f95e4	-0.038961306
109	0x3dd96eea	0.10616858
110	0xbe6e079e	-0.23245093
111	0x3f2c8586	0.6739124
112	0xbd3ba4c8	-0.045811445
113	0xc09c2b09	-4.8802533
114	0x3ef81ae5	0.4845802
115	0xbf18a688	-0.59629107
116	0x3f100980	0.56264496
117	0xc06c1617	-3.6888483
118	0x3ebf0832	0.3731094
119	0x409acfbc	4.837858
120	0x3e8e12ff	0.27748868
121	0x3d2d7d4a	0.042355813
122	0xbdd5a4ce	-0.104318246
123	0x3e9346d0	0.28764963
124	0xbdf1fc0b	-0.118156515
125	0xc0600542	-3.500321
126	0x3f683480	0.9070511
127	0x401c9639	2.4466689
128	0x3d2f874a	0.04285363
129	0xbfac007a	-1.3437645
130	0xb9acfcf5	-0.00032994864
131	0xbcc20cb7	-0.023687704
132	0xbeebdb16	-0.46065587
133	0xbd14a302	-0.03628827
134	0x3f017be5	0.50579673
135	0x4073a24b	3.8067806
136	0x3f2836ab	0.65708417
137	0x40332985	2.7994092
138	0x3f2b713c	0.66969657
139	0x4031acef	2.77618
140	0x3e1ebecb	0.15502469
141	0x4119676b	9.587749
142	0x3e65980e	0.22421286
143	0x41014eb0	8.081711
144	0xbbb1cc93	-0.0054259985
145	0xbfcc1b22	-1.594578
146	0x3ef68397	0.4814727
147	0xbb9633c2	-0.0045838067
148	0xbeb3f333	-0.35146484
149	0xbf0ab79d	-0.5418642
150	0xbf66600c	-0.89990306
151	0xc09c73bf	-4.889129
152	0x3e15fdad	0.14647551
153	0x407d30e5	3.9561093
154	0x3fe14131	1.759802
155	0xbfa9ff8b	-1.328111
156	0x3ee1d54e	0.4410805
157	0xbf0da63b	-0.5533177
158	0x3f138cdb	0.57636803
159	0xbf691084	-0.91040826
160	0x3f314db6	0.692592
161	0x401c2119	2.4395201
162	0x3e94aaa0	0.29036427
163	0xc0197b37	-2.3981454
164	0x3f79869e	0.97471035
165	0x402bc772	2.6840482
166	0xbef248bd	-0.4732112
167	0x40e58ff3	7.173822
168	0xbe917275	-0.28407636
169	0xc0261dfe	-2.5955806
170	0x3f80fee1	1.0077783
171	0xbf921df8	-1.1415396
172	0x3f4f64cd	0.81013185
173	0x403f7455	2.9914753
174	0xbc8d420c	-0.017243408
175	0xbfac0f7c	-1.3442225
176	0xbda71bea	-0.08159621
177	0xbea19dd5	-0.3156573
178	0x3f3a10fe	0.7268218
179	0xbeb6b9d6	-0.35688657
180	0x3f6e3151	0.93044
181	0x4017cd1c	2.371894
182	0x3f2471ce	0.6423615
183	0x40f96d30	7.7945786
184	0x3eadf626	0.3397686
185	0x3e7fb6e2	0.24972108
186	0xbeb1fe51	-0.3476434
187	0x411f0490	9.938614
188	0xbf217252	-0.63065064
189	0xbfea4b88	-1.83043
190	0xbeaee008	-0.34155297
191	0x411a9a75	9.662709
192	0x3fba2a3f	1.4544142
193	0x407b3973	3.9253814
194	0x3d8b22da	0.06793757
195	0xc08b8815	-4.3603616
196	0xbd87f436	-0.066383764
197	0xbfb372ce	-1.4019411
198	0x3ed071c9	0.4071181
199	0xc02bfc93	-2.687291
200	0x3cf3af42	0.029746655
201	0x3ee960e3	0.4558173
202	0xbd8632ad	-0.065526344
203	0xc0797093	-3.897496
204	0xbed238d0	-0.4105897
205	0x3efd6728	0.49492764
206	0x3d1ca307	0.038241412
207	0xbf8dd80b	-1.1081556
208	0x3e82ea79	0.25569513
209	0x3db75fc2	0.08953811
210	0xbbac7b48	-0.0052637197
211	0xbe0f2301	-0.13978197
212	0x3db5b1d6	0.0887181
213	0xbe2556d6	-0.16146407
214	0x3e7fa888	0.24966633
215	0x412f07b4	10.939381
216	0x3d3aae04	0.04557611
217	0xbfcfed48	-1.6244287
218	0x3f590f48	0.8478894
219	0x3f1e1061	0.6174374
220	0xbe0b15f0	-0.13582587
221	0x41075a38	8.459526
222	0x3e82c823	0.25543317
223	0x3ca401b4	0.020020343
224	0xbef10905	-0.47077194
225	0xbfffe44e	-1.9991548
226	0xbd2123c0	-0.039340734
227	0xc0fa8036	-7.8281507
228	0xbe72f095	-0.23724587
229	0xbdd67414	-0.10471359
230	0xbf098685	-0.53720886
231	0x412871ef	10.527816
232	0x3db4c933	0.08827438
233	0x3f222341	0.63335043
234	0x3edd76ac	0.43254602
235	0xbee4e2ca	-0.44704276
236	0x3ea26036	0.31714028
237	0xbeffec78	-0.499851
238	0xbe9970eb	-0.29968962
239	0x3e54f7b3	0.20797615
240	0x3e9799d9	0.29609564
241	0x411f0a23	9.939975
242	0x3f12cf97	0.57348007
243	0x409f994a	4.987462
244	0x3fcd19f5	1.6023546
245	0xc017feda	-2.37493
246	0x3f33c325	0.7021964
247	0xbfb528f2	-1.415312
248	0x3f40692e	0.7516049
249	0x40012b54	2.0182695
250	0xbe7b6547	-0.24550353
251	0x3dbec150	0.09314215
252	0xbe9b526b	-0.30336317
253	0x410c8c44	8.784245
254	0x3db28437	0.08716624
255	0x408bc412	4.3676844

fc1.bias f4 [128]
0	0xbf336ac1	-0.7008477
1	0xbe2c3d69	-0.16820301
2	0xbeaddfc1	-0.33959773
3	0xbef19a5d	-0.47188082
4	0xbed0922c	-0.4073652
5	0x3eccc145	0.39991203
6	0xbe141452	-0.14460877
7	0x3ecabcad	0.39597073
8	0x3f3aafcf	0.7292451
9	0xbef3c526	-0.4761135
10	0xbe4a5792	-0.19759968
11	0x3ee16e89	0.44029644
12	0x3ecdf08a	0.4022258
13	0xbc13f5ba	-0.009030754
14	0xbeddff9b	-0.43359074
15	0xbeaa2faa	-0.3323949
16	0xbf2b25ef	-0.6685476
17	0xbd76ebd3	-0.060283493
18	0xbf257d9e	-0.646448
19	0xbf216478	-0.6304393
20	0x3f06e9cc	0.52700496
21	0xbeeb1caa	-0.45920306
22	0x3e67008f	0.22558807
23	0x3f3f7cb1	0.7479964
24	0xbe06218b	-0.13098733
25	0xbef39bf5	-0.47579923
26	0xbf125265	-0.57156974
27	0x3e32d6d8	0.17464769
28	0x3ec605e1	0.3867636
29	0x3f3a6beb	0.7282092
30	0xbe72bd79	-0.2370509
31	0xbe003622	-0.1252065
32	0xbe461543	-0.19344048
33	0xbd00cd5c	-0.031445846
34	0xbedc7f5f	-0.43065926
35	0xbe528a12	-0.20560482
36	0x3e92e346	0.2868902
37	0x3eded750	0.43523645
38	0xbe22d8b8	-0.15902984
39	0xbedf2be2	-0.43588167
40	0xbcb03937	-0.021511657
41	0xbf06c152	-0.52638733
42	0x3e78f320	0.24311495
43	0xbe73793b	-0.23776715
44	0xbeaeac0d	-0.3411564
45	0xbecfd458	-0.40591693
46	0xbebc1042	-0.36731154
47	0xbda166e1	-0.07880951
48	0x3e4c9ee0	0.19982481
49	0xbf1eccb8	-0.62031126
50	0x3f47eca5	0.78095466
51	0x3ea85845	0.32879844
52	0xbe403c47	-0.18772994
53	0x3f26e8a2	0.6519872
54	0xbf1465bd	-0.5796774
55	0xbe95940f	-0.29214522
56	0xbd89e310	-0.06732762
57	0xbe841981	-0.25800708
58	0x3ebf7876	0.37396592
59	0x3ecb8a9e	0.39754194
60	0xbebd0a00	-0.36921692
61	0xbe32a20a	-0.17444625
62	0xbc9cc277	-0.019135697
63	0x3eca7efb	0.39550003
64	0xbdbc437c	-0.09192559
65	0xbc0032cb	-0.00782461
66	0xbf0e4ed5	-0.5558904
67	0x3eca7a89	0.39546612
68	0x3ec885f5	0.391647
69	0x3f15b7c4	0.5848353
70	0x3f0973f3	0.5369255
71	0x3f117e37	0.56833214
72	0xbe2e7a9e	-0.17038962
73	0xbeb01fdb	-0.34399304
74	0xbf160235	-0.5859712
75	0xbeea382f	-0.4574599
76	0x3ee9b5a1	0.45646384
77	0x3f081cc8	0.53168917
78	0xbefa40db	-0.48877606
79	0x3eb30c2b	0.3497022
80	0x3ee53d25	0.44773212
81	0x3e52e29f	0.20594262
82	0xbdeb3c58	-0.11486119
83	0xbec98baf	-0.39364383
84	0xbf01172e	-0.50425994
85	0x3f0fa7d6	0.5611547
86	0x3f53ffca	0.8281218
87	0xbdf34eac	-0.1188024
88	0xbed9de05	-0.425522
89	0x3f5378df	0.8260631
90	0x3f152792	0.58263505
91	0xbcfc607f	-0.030807732
92	0xbee2ead2	-0.4431978
93	0xbf144681	-0.5792008
94	0xbf268f58	-0.65062475
95	0xbe473d43	-0.19456963
96	0x3ea6f99a	0.32612306
97	0xbc1dbbab	-0.009627263
98	0xbe375597	-0.17903744
99	0x3e991c09	0.29904202
100	0xbe760fb9	-0.24029435
101	0x3d3f04ad	0.04663532
102	0xbefcdf9d	-0.49389353
103	0xbd8e035f	-0.06934237
104	0xbef4f3d2	-0.4784227
105	0xbf329516	-0.6975874
106	0xbf115e5e	-0.5678462
107	0x3ec38e14	0.38194335
108	0xbe08dccf	-0.13365482
109	0x3f5d72f2	0.8650352
110	0x3ddda8e2	0.108232275
111	0xbf21a893	-0.6314785
112	0xbf2c2e9f	-0.6725864
113	0xbdca7082	-0.098847404
114	0xbeeb1e9e	-0.45921797
115	0xbe8bd726	-0.27312583
116	0xbf08da1e	-0.5345782
117	0xbeb0a3a2	-0.34499842
118	0xbf2ee198	-0.6831298
119	0xbecd8bbd	-0.40145674
120	0xbba49809	-0.005023007
121	0x3e92f33c	0.28701198
122	0x3f50e201	0.81594855
123	0x3f473b9b	0.77825326
124	0x3edce21d	0.4314126
125	0xbe9d6034	-0.3073746
126	0x3e3f8b04	0.18705374
127	0x3ec1138a	0.3771022

fc2.weight f4 [64, 128]
0	0x3cef89d3	0.029240524
1	0x3d637d4a	0.055539407
2	0x3d3bc6aa	0.045843758
3	0x3d610f8c	0.054946467
4	0xbcfd6be0	-0.030935228
5	0x3c402616	0.01172783
6	0xbcb95a86	-0.022626173
7	0xbd53e3cc	-0.051730916
8	0xbd9d959c	-0.07694551
9	0xbe46c4e6	-0.19411048
10	0xbd8b4a79	-0.06801314
11	0x3ccf7d1c	0.025328211
12	0x3d099fb4	0.03359957
13	0xbe4cbfd4	-0.19995052
14	0xbd501978	-0.05080554
15	0x3d8be92c	0.068315834
16	0x3d67850c	0.056523368
17	0xbce23511	-0.027613195
18	0xbd2aee65	-0.041731257
19	0x3da65d8d	0.08123312
20	0x3c10ee58	0.008845888
21	0xbd896b84	-0.0670996
22	0x3d578636	0.052618228
23	0xbe08dc5e	-0.13365313
24	0xbd89e9c6	-0.06734042
25	0x3d4b858d	0.04968791
26	0xbd4db4d6	-0.050221287
27	0xbcfd4b1f	-0.03091961
28	0x3da2b95f	0.07945513
29	0xbcdefac4	-0.027219184
30	0xbd800529	-0.06250984
31	0xbd834add	-0.064107634
32	0xbcc48c1b	-0.023992589
33	0xbc8bb203	-0.017052656
34	0x3c0a96dc	0.008458819
35	0x3d43b16a	0.047776617
36	0xbc4cb75a	-0.012494886
37	0xbd5f8983	-0.0545745
38	0x3b9472bf	0.0045302804
39	0x3d2d97c8	0.042381078
40	0x3c3050c4	0.0107614435
41	0xbda570c7	-0.08078151
42	0xbd31a81f	-0.043373223
43	0xbd868606	-0.06568532
44	0xbd1a7a07	-0.03771403
45	0xbe237b1c	-0.15964931
46	0xbd808c1c	-0.06276724
47	0xbae9df69	-0.0017843071
48	0xbdff609e	-0.124696
49	0x3bbdf6d3	0.005797246
50	0xbe716532	-0.23573759
51	0xbd8296cd	-0.06376419
52	0xbc75f706	-0.015012508
53	0xbdd071dc	-0.10177967
54	0x3d33dd53	0.043912243
55	0xbe69b82f	-0.22824167
56	0xbdf4b73e	-0.11949013
57	0xbdafe3ad	-0.085883476
58	0xbd4b56c2	-0.049643286
59	0x3d01a089	0.03164724
60	0xbdab54bc	-0.08365771
61	0x3d1240ba	0.03570626
62	0xbd8d42fa	-0.068975404
63	0xbbfc80c3	-0.0077057793
64	0xbcf34837	-0.02969752
65	0xbded189d	-0.1157696
66	0x3d961fe5	0.07330302
67	0x3d42eff6	0.047592126
68	0x3d743027	0.059616234
69	0x3c8abadd	0.016934806
70	0xbd55ee91	-0.052229468
71	0x3dc1be73	0.094601534
72	0xbce95b26	-0.028485846
73	0x3d2baf48	0.041915208
74	0xbd912586	-0.07087235
75	0xbcd0438b	-0.025422832
76	0xbdee3c1f	-0.11632561
77	0xbd5f8b6f	-0.054576334
78	0x3c9c34be	0.019068118
79	0xbdcda437	-0.10041087
80	0xba9f1b35	-0.0012138846
81	0x3c882716	0.0166202
82	0xbc8a2a30	-0.01686582
83	0xbdb89915	-0.09013573
84	0xbde48e6e	-0.11159979
85	0xbcdf63d0	-0.027269274
86	0x3c9fb632	0.019496057
87	0x3d5b93a2	0.05360759
88	0x3d502ec8	0.050825864
89	0xbce78d52	-0.028265629
90	0x3b3cc4aa	0.0028803744
91	0xbdd0d8f2	-0.10197629
92	0xbd9a9bdd	-0.0754926
93	0x3c13337b	0.008984442
94	0xbe2158fa	-0.15756598
95	0x3cb862d2	0.022508059
96	0xbdcebe79	-0.100949235
97	0xbd9c4c2e	-0.076317176
98	0xbddda1b9	-0.10821862
99	0x3c55a449	0.013039657
100	0xbc138f53	-0.009006339
101	0x3d1244a0	0.035709977
102	0x3d600e3f	0.054701086
103	0x3c58d83c	0.013235148
104	0x3b3a44a1	0.0028422254
105	0xbcdfde68	-0.027327731
106	0xbc9d6ff5	-0.019218424
107	0xbc8a676d	-0.01689502
108	0x3c3c5028	0.01149372
109	0xbda4532a	-0.08023675
110	0x3d355edf	0.04427993
111	0xbc1d753d	-0.009610471
112	0xbd796944	-0.060891405
113	0xbe2a8c90	-0.16655183
114	0x3da02b4b	0.078207575
115	0x3d51cf69	0.051223192
116	0xbda7acae	-0.08187233
117	0x3d7f5863	0.06234015
118	0x3d357063	0.044296633
119	0x3d564c21	0.052318696
120	0x3d451a1b	0.0481206
121	0xbd9f1521	-0.07767702
122	0x3bc63b90	0.006049581
123	0x3c9348e8	0.0179791
124	0xbd5b92d9	-0.05360684
125	0x3d15c05a	0.036560394
126	0x3cd6a3f2	0.026201222
127	0x3cc51b0e	0.024060752
128	0xbcc8e60a	-0.024523754
129	0x3c1b92b3	0.009495425
130	0x3cb64928	0.02225168
131	0x3d0069ae	0.031350784
132	0xbd30e1bf	-0.04318404
133	0x3c0214da	0.007939542
134	0x3d588bd5	0.05286773
135	0x3c1f9b25	0.009741579
136	0xbf70a2cb	-0.939984
137	0xbf1abb48	-0.6044202
138	0x3cfdc9f1	0.030980082
139	0x3e44675a	0.1918005
140	0x3dcb11c4	0.09915498
141	0xbfbd3012	-1.4780295
142	0x3d9a1d6f	0.07525145
143	0xbcc2d673	-0.023783898
144	0xb97d0e4b	-0.00024133285
145	0xbe624171	-0.22095276
146	0xbfe9b603	-1.825867
147	0x3db0cbd2	0.08632626
148	0x3ba09922	0.0049010674
149	0xbd92bf36	-0.07165377
150	0xc03ce9f4	-2.9517794
151	0xbf0fac7a	-0.56122553
152	0xbcf40a78	-0.029790148
153	0xbd6cf889	-0.05785421
154	0xbd01da6a	-0.031702437
155	0xbccf8bf3	-0.025335288
156	0xbe400da7	-0.18755208
157	0x3cad3826	0.021144938
158	0xbca60add	-0.020268852
159	0xbcf3c258	-0.029755756
160	0x3c46f497	0.012143276
161	0x3d94d83a	0.072678044
162	0xbd74c44f	-0.059757527
163	0xbdabbe0c	-0.08385858
164	0x3f4aa935	0.7916444
165	0x3db1a2ab	0.086736046
166	0xbdabbe97	-0.083859615
167	0xbdad8945	-0.08473448
168	0x3d36baaa	0.04461161
169	0xbd650ee8	-0.05592242
170	0xbfe303b1	-1.7735502
171	0xbbf9f81a	-0.007628453
172	0xbc98882e	-0.018619623
173	0x3f25aa18	0.6471267
174	0x3d660dd7	0.056165542
175	0xc03c6237	-2.9434946
176	0xbfeeebe4	-1.8665738
177	0xbd56d399	-0.05244789
178	0xbf168cf9	-0.5880886
179	0x3d16f259	0.036852214
180	0xbd533c20	-0.05157101
181	0xc032fada	-2.7965608
182	0xbca145f4	-0.019686677
183	0xbe568feb	-0.20953338
184	0x3d6040df	0.054749366
185	0x3d35f6a3	0.044424664
186	0x3ec67114	0.38758147
187	0xbe02b3f7	-0.12763964
188	0xbcdba6d5	-0.02681295
189	0xbdb138c3	-0.086534046
190	0x3c070f06	0.008243328
191	0xbfef6cb4	-1.8705049
192	0xbba2e185	-0.0049707317
193	0xbd92729e	-0.07150768
194	0x3d1468f2	0.036232896
195	0x3dc8ee25	0.098110475
196	0xbd4b2716	-0.049597822
197	0xbeba65dd	-0.3640584
198	0x3df2db0c	0.11858186
199	0x3e82657a	0.25468045
200	0x3cd983cc	0.026552103
201	0xbd36d32d	-0.044634987
202	0x3c925bee	0.017866101
203	0x3f13cc61	0.5773373
204	0xbe02097a	-0.12698928
205	0xbf1ab5dc	-0.60433745
206	0xbc58c3e2	-0.013230296
207	0xbe014b32	-0.12626341
208	0xbda59bce	-0.08086358
209	0xbe4dd53e	-0.20100877
210	0xbd3be767	-0.04587498
211	0x3d79cf6f	0.06098884
212	0xbe879c47	-0.26486418
213	0x3da7a073	0.081849
214	0x3ddc39dd	0.10753224
215	0x3e0370cd	0.12835999
216	0xbd98b488	-0.074563086
217	0xbe035b6a	-0.1282784
218	0xbed79397	-0.4210479
219	0x3e0639e1	0.13108017
220	0xbd1b8f8f	-0.037978705
221	0xc0309835	-2.75929
222	0xbfc3b952	-1.529093
223	0xbc350117	-0.011047623
224	0xc0811925	-4.0343194
225	0xbf06cc14	-0.5265515
226	0x3d93dac3	0.0721946
227	0xbd723cc4	-0.059139982
228	0x3d96e8f9	0.07368655
229	0x3cd6efa5	0.026237318
230	0x3d006ba6	0.03135266
231	0x3d9b79cb	0.075915895
232	0x3d369502	0.0445757
233	0x3c4d0790	0.01251401
234	0x3d9a0586	0.07520585
235	0xbe6f3386	-0.23359498
236	0x3b42add0	0.002970565
237	0x3bd3ef55	0.0064677396
238	0x3d97e259	0.07416219
239	0xbdb09dfa	-0.08623882
240	0x3eadf1fa	0.33973676
241	0xbfe7e8b9	-1.8117896
242	0x3d9eb591	0.07749475
243	0xbfd164dd	-1.6358906
244	0xbda500ee	-0.08056818
245	0xbbb6125b	-0.0055563874
246	0x3d635d6d	0.05550902
247	0x3cbc1d98	0.02296333
248	0xbf26eccf	-0.6520509
249	0xbe0d380e	-0.13790914
250	0xbe2c9fb2	-0.16857794
251	0xbd19a818	-0.037513822
252	0x3d3000b1	0.04296941
253	0xbd3aa155	-0.045564014
254	0x3d92e36a	0.07172282
255	0xbb92f11c	-0.004484309

fc2.bias f4 [64]
0	0xbd24e3c7	-0.040256288
1	0xbd86aa4e	-0.06575452
2	0xbca61a58	-0.020276234
3	0xbcd0a47d	-0.02546906
4	0xbd5a8a24	-0.053354397
5	0xbc7cbc58	-0.015425764
6	0xbc947c60	-0.018125713
7	0xbdc635db	-0.09678241
8	0xbdabbc71	-0.08385552
9	0xbcbeafda	-0.023277212
10	0xbdc794ef	-0.09745204
11	0xbd3da897	-0.046303358
12	0xbd2ac4ba	-0.04169152
13	0xbd4cbdbf	-0.049985643
14	0xbca16bf6	-0.0197048
15	0xbd70de9c	-0.058806047
16	0x3e79fd33	0.24412994
17	0xbd8e3619	-0.06943912
18	0xbd124254	-0.035707787
19	0xbcdd3114	-0.027000941
20	0xbd836842	-0.0641637
21	0xbd152549	-0.03641251
22	0xbd42c9d6	-0.047555767
23	0xbd43b087	-0.04777577
24	0xbd897deb	-0.0671347
25	0xbd4ffb7a	-0.050776936
26	0xbd0e1e42	-0.034696825
27	0xbd2e4a14	-0.042551115
28	0xbb94a015	-0.004535685
29	0x3d8d99b2	0.06914081
30	0x3dc17aaa	0.094472244
31	0xbdae82c6	-0.08521037
32	0xbc8c2a24	-0.017109938
33	0xbd971723	-0.0737746
34	0x3e6e3075	0.23260672
35	0x3d3b3b7e	0.045711033
36	0x3bbda3a0	0.005787328
37	0xbe481365	-0.19538648
38	0x3a2454e7	0.0006268755
39	0xbd51c98a	-0.051217593
40	0xbd3d6038	-0.04623434
41	0xbcd95567	-0.02652998
42	0xbcaeca37	-0.021336658
43	0x3ef85a01	0.48506168
44	0xbacec41f	-0.0015775001
45	0x3bcaedda	0.006192905
46	0x3f830cec	1.0238318
47	0xbd69683c	-0.05698417
48	0x3f1c94f9	0.61164814
49	0xbd86f847	-0.06590324
50	0x3d85ab26	0.065267846
51	0xbd83cade	-0.06435178
52	0xbca14e05	-0.019690523
53	0x3a812a37	0.00098545
54	0xbdadd00b	-0.08486947
55	0xbd73e058	-0.059540123
56	0xbd11757b	-0.03551243
57	0xbd5955bd	-0.053060282
58	0xbcf7a56e	-0.03023025
59	0xbc86779e	-0.01641446
60	0x3e752d6c	0.23943108
61	0xbd0b31a0	-0.033982873
62	0xbd7b6a14	-0.06138046
63	0xbce06f5e	-0.027396854

fc3.weight f4 [64, 64]
0	0xbcc875a8	-0.024470165
1	0x3c25e551	0.010125474
2	0x3d7cbd52	0.061703987
3	0xbd589bad	-0.05288284
4	0xbc7d2cab	-0.015452544
5	0xbd49eff4	-0.049301103
6	0xbd0ddfd8	-0.034637302
7	0xbd32d4a5	-0.043659825
8	0xbcbadb90	-0.022809774
9	0x3da5e390	0.08100045
10	0x3d3d4bc8	0.04621485
11	0xbdfd2d84	-0.12362197
12	0x3da1f4f2	0.07908048
13	0x3c37a920	0.011209756
14	0xbd8c693e	-0.06856011
15	0x3d82c67b	0.063855134
16	0xbd8f6668	-0.07001954
17	0xbc58b410	-0.013226524
18	0x3d8e1620	0.06937814
19	0x3cd99766	0.02656145
20	0x3da6a125	0.08136205
21	0xbc8fb0b0	-0.017540306
22	0xbc0afe0d	-0.008483422
23	0x3dae59a5	0.08513192
24	0x3cb24ae0	0.021764219
25	0x3d9df168	0.0771206
26	0x3d9dcc5d	0.07704995
27	0x3d608e38	0.05482313
28	0x3d70dcec	0.058804438
29	0xbd9ebb16	-0.077505276
30	0xbde0ffe6	-0.10986309
31	0xbdeb3d8d	-0.11486349
32	0x3dd87731	0.10569609
33	0xbd8e6618	-0.069530666
34	0xbe29ea2f	-0.1659324
35	0x3c82eac0	0.015981078
36	0xbd8f8370	-0.070074916
37	0xbba6536b	-0.005075862
38	0x3c6a16dd	0.014287678
39	0x3dc6593e	0.0968499
40	0xbde649c6	-0.1124454
41	0xbddea612	-0.10871519
42	0x3d7463ef	0.059665617
43	0xbdfdb011	-0.123870976
44	0xbbf72600	-0.0075423717
45	0x3d3a9600	0.045553207
46	0xbd64c7f9	-0.05585477
47	0xbda1b3d0	-0.07895625
48	0xbca64c83	-0.020300156
49	0xbde1bdbe	-0.110225186
50	0x3d0e52db	0.034746986
51	0x3ce3668e	0.027758863
52	0x3d504169	0.05084363
53	0x3dc6b1be	0.097018704
54	0x3d59f168	0.05320874
55	0xbca121bf	-0.019669412
56	0x3d905ec2	0.070493236
57	0xbda3354c	-0.0796915
58	0x3d1ff76b	0.039054316
59	0xbdc0f7af	-0.09422242
60	0x3ca8f734	0.020625688
61	0xbc091d80	-0.00836885
62	0x3d6d437c	0.057925686
63	0x3cdd0b53	0.026982939
64	0xbbacfd27	-0.0052792015
65	0xbe2d33d8	-0.16914308
66	0xbd59f6a1	-0.05321372
67	0xbf41451e	-0.7549609
68	0x3bcb1062	0.0061970213
69	0xbcd07a30	-0.025448889
70	0xbdc40dc6	-0.095729396
71	0x3bae8daf	0.0053269486
72	0x3cb01d9b	0.021498492
73	0xbdf0af4e	-0.11752187
74	0x3dbf244d	0.09333096
75	0x3d111c39	0.035427306
76	0x3dd62b3d	0.10457466
77	0xbd5c128c	-0.053728625
78	0xbf56105e	-0.83618724
79	0x3d9c41d6	0.07629745
80	0x3cb835c3	0.022486573
81	0xbd9535e2	-0.07285668
82	0xbf56e7a5	-0.8394721
83	0xbd253157	-0.040330257
84	0x3dadd8af	0.08488595
85	0xbc9e58d8	-0.019329473
86	0xbdb42684	-0.08796409
87	0xbdc893f5	-0.097938456
88	0xbd9280ea	-0.07153495
89	0x3db288d4	0.08717504
90	0xbe0a6826	-0.13516292
91	0x3dbf1942	0.093309894
92	0x3d3f4770	0.046698987
93	0xbc8fac4f	-0.017538218
94	0xbd00855c	-0.03137718
95	0x3d760fc5	0.060073633
96	0xbca89df6	-0.020583134
97	0xbda278db	-0.079332076
98	0xbf7c6ab4	-0.98600316
99	0xbd45f994	-0.04833372
100	0xbdebe1db	-0.11517688
101	0xbebeeb70	-0.37289
102	0xbde7bfe4	-0.11315897
103	0x3ca956c8	0.020671263
104	0xbc82d573	-0.015970921
105	0xbd830aa7	-0.06398516
106	0xbcbb8453	-0.022890246
107	0xc0280f8b	-2.6259487
108	0xbd33f512	-0.04393489
109	0xbc5c4680	-0.013444543
110	0xbfdffa47	-1.7498254
111	0xbcc1d8b6	-0.023662906
112	0xbfb255b6	-1.3932407
113	0xbdaac612	-0.0833856
114	0xbf181bb7	-0.5941729
115	0x3d71d369	0.059039507
116	0xbd7839c4	-0.060601965
117	0xbdd8b84d	-0.105820276
118	0xbce27de0	-0.027647913
119	0x3c8c0a11	0.017094644
120	0x3d7387d1	0.059455696
121	0x3d988958	0.07448071
122	0x3c956e4a	0.018241066
123	0xbdb46a0c	-0.08809289
124	0xbe52d4ca	-0.20588985
125	0x3d9b1368	0.07572061
126	0xbdd216f0	-0.10258281
127	0x3d60bf81	0.054870132
128	0x3d0187b0	0.031623542
129	0xbcd76e38	-0.026297674
130	0x3dfd9ae0	0.12383056
131	0xbd54aa18	-0.051920027
132	0xbd0cf988	-0.03441766
133	0xbdbe3dc0	-0.09289122
134	0x3dd78aaa	0.10524495
135	0xbdbb207a	-0.09137054
136	0x3de4f172	0.111788645
137	0xbdbc6116	-0.09198205
138	0x3d92bea8	0.07165271
139	0xbd7faabc	-0.062418684
140	0x3de0f8fc	0.1098499
141	0xbdab66de	-0.0836923
142	0xbda5c56a	-0.08094294
143	0xbd13b9b8	-0.036065787
144	0xbdcdd10e	-0.1004964
145	0x3df35546	0.11881499
146	0x3d3d4ce8	0.04621592
147	0xbd8b0b56	-0.067892715
148	0xbdc18c26	-0.09450559
149	0xbd293b54	-0.041316345
150	0x3c99cdf8	0.018774971
151	0xbd668a78	-0.056284398
152	0x3d94c2e6	0.072637364
153	0xbd7b5e7c	-0.061369404
154	0x3d188f24	0.037245885
155	0x3db85136	0.08999865
156	0xbdb58052	-0.08862366
157	0xbdc7e082	-0.09759618
158	0xbdf4d82e	-0.119552955
159	0x3cc0b198	0.023522183
160	0x3dc8fc76	0.09813778
161	0xbda352b8	-0.07974762
162	0xbc89ea80	-0.016835451
163	0x3d7424f1	0.059605543
164	0x3dc6a316	0.09699075
165	0x3d8c61da	0.06854601
166	0x3d23f920	0.040032506
167	0x3cb1b758	0.02169387
168	0x3c165ee0	0.009177893
169	0x3ddf7eba	0.10912843
170	0x3b923420	0.00446178
171	0xbaf011a7	-0.0018315808
172	0xbc157720	-0.00912264
173	0x3dcabfbc	0.09899852
174	0xbe122a79	-0.14274015
175	0xbd22d584	-0.039754406
176	0xbe1b3232	-0.15155867
177	0x3cf079f8	0.029355034
178	0xbcea4aa8	-0.028600052
179	0xbdd263d6	-0.102729484
180	0xbdc414fc	-0.09574315
181	0x3d120a68	0.035654455
182	0x3dc039c8	0.09386021
183	0x3dda13dc	0.10648319
184	0x3dafb012	0.085785046
185	0xbdceacfe	-0.100915894
186	0x3dd4cf70	0.10391128
187	0x3df40686	0.11915307
188	0xbcd29ae3	-0.025708621
189	0xbdf5c5fe	-0.12000655
190	0xbdb91720	-0.09037614
191	0xbde2adc4	-0.110682994
192	0x3b1c74eb	0.00238734
193	0x3ac6e93e	0.0015175713
194	0x3d337ee0	0.04382217
195	0x3d515100	0.05110264
196	0xbd27c083	-0.040955078
197	0x3d79d395	0.060992796
198	0xbd1247a0	-0.03571284
199	0xb9308968	-0.00016835856
200	0x3d30dd1c	0.043179616
201	0x3be5601b	0.006999982
202	0x3d5ca63d	0.053869475
203	0xbdb59e7a	-0.08868118
204	0x3dd8ae31	0.105800994
205	0xbdd25588	-0.1027022
206	0x3f1b2dbf	0.6061668
207	0x3dccb1d7	0.09994858
208	0xbe8129c1	-0.25227168
209	0x3d728da1	0.0592171
210	0x3fb4c03a	1.4121163
211	0xba9fe8cf	-0.001220012
212	0x3cfb74ca	0.030695338
213	0xbd380d95	-0.044934828
214	0xbdfdb7e2	-0.123885885
215	0xbd31f9e7	-0.043451216
216	0x3da96221	0.0827067
217	0xbd8f621a	-0.07001133
218	0xbe048273	-0.12940387
219	0x3df666f6	0.12031357
220	0x3d43e680	0.047827244
221	0xbea5d2fe	-0.32387537
222	0x3eaea814	0.34112608
223	0xbdcbde47	-0.099545054
224	0xbc489ab4	-0.012243915
225	0xbc87b6e2	-0.016566698
226	0x3f09366d	0.5359867
227	0xbf302bc8	-0.68816805
228	0x3b273cc8	0.0025518406
229	0x3e84d08f	0.25940368
230	0x3db916e6	0.09037571
231	0xbd4d8fbd	-0.050185908
232	0xbd803a3e	-0.06261109
233	0xbd7cfab0	-0.06176251
234	0xbc358da7	-0.011081136
235	0x3d2f1bd6	0.042751156
236	0x3dfe34d9	0.12412424
237	0x3d5b6d7a	0.0535712
238	0x3ec253d5	0.37954584
239	0xbd28fdae	-0.041257553
240	0x3dfb2ee2	0.122648016
241	0x3d3a4f9c	0.045486078
242	0x3f9354aa	1.1510212
243	0x3d8b61ee	0.06805788
244	0x3d38d774	0.045127347
245	0x3e035160	0.12824011
246	0x3c8225cc	0.015887164
247	0x3bee2a42	0.007268221
248	0xbbc22226	-0.005924481
249	0xbd98a1d9	-0.07452745
250	0xbd889971	-0.066698916
251	0x3d5fb69c	0.05461751
252	0x3f121482	0.5706254
253	0xbd9a51a1	-0.07535101
254	0x3d9761ff	0.07391738
255	0xbcf72047	-0.030166758

fc3.bias f4 [64]
0	0xbdeb2706	-0.114820525
1	0xbd0b160e	-0.03395658
2	0xbdaea387	-0.08527284
3	0x3d9ae5dc	0.075633734
4	0x3f2669ca	0.6500517
5	0xbb2a89b9	-0.002602203
6	0x3e9f7bd2	0.31149155
7	0x3f1adb7b	0.6049115
8	0xbdc03a9b	-0.09386178
9	0xbd7f9f0c	-0.06240754
10	0xbda35695	-0.079754986
11	0xbc907b0c	-0.017636798
12	0xbe05d2aa	-0.13068643
13	0xbd989a66	-0.07451324
14	0xbe03ce46	-0.12871656
15	0x3dfd67d1	0.12373317
16	0x3f1fab4b	0.6237075
17	0xbd28b202	-0.041185386
18	0xbdd5c2f1	-0.10437573
19	0xbda9ec4b	-0.082970224
20	0x3f2b1515	0.66829044
21	0xbe1b441d	-0.15162702
22	0xbdfd7d32	-0.12377395
23	0xbe1dea92	-0.15421513
24	0xbdb9e9f2	-0.09077825
25	0xbe1294d3	-0.14314584
26	0xbeb1a60e	-0.34697002
27	0xbdd014f8	-0.101602495
28	0xbda01f71	-0.07818497
29	0x3ebbaaf6	0.3665387
30	0xbdff1299	-0.12454719
31	0xbda67251	-0.08127273
32	0xbcde452d	-0.027132595
33	0xbdd1c761	-0.10243107
34	0xbe2e8f08	-0.1704675
35	0xbd05dff3	-0.032684278
36	0x3eee3f12	0.46532494
37	0x3f449a01	0.7679749
38	0xbdc85605	-0.09782032
39	0xbdada5f3	-0.08478918
40	0xbdb79e75	-0.0896577
41	0x3cbb246d	0.022844518
42	0xbd978e27	-0.0740016
43	0xbddf8f58	-0.109160125
44	0xbc826e1d	-0.015921647
45	0x3efca7f3	0.49346885
46	0x3f458ffb	0.7717282
47	0xbdec729e	-0.11545299
48	0x3f559c45	0.83441573
49	0x3e990822	0.29889017
50	0xbdde557b	-0.10856148
51	0xbe833e72	-0.2563358
52	0x3eb52b6c	0.3538469
53	0xbe03e22c	-0.12879246
54	0x3d4f5f22	0.050627835
55	0x3d246116	0.04013165
56	0xbdf23c7d	-0.118279435
57	0xbe51f614	-0.20504028
58	0xbd2ed482	-0.042683132
59	0xbe447e34	-0.19188768
60	0xbdaa71df	-0.083225004
61	0xbe0a5f15	-0.13512833
62	0xbe449d0a	-0.1920053
63	0xbe1bcb2e	-0.15214226

fc4.weight f4 [64, 64]
0	0xbc4bebd0	-0.012446359
1	0xbe9ca7fc	-0.30596912
2	0x3deed670	0.116619945
3	0xbe0fa9f3	-0.14029674
4	0xbcf8904f	-0.03034225
5	0x3c637cc0	0.013884723
6	0xbe2dc1f3	-0.16968517
7	0xbe15ac4a	-0.14616504
8	0xbd43fcc4	-0.047848478
9	0x3df4b910	0.1194936
10	0x3de7013c	0.11279532
11	0x3d7f5968	0.062341124
12	0x3dee69fa	0.11641307
13	0x3d9a503c	0.07534835
14	0xbe8df918	-0.27729106
15	0x3d88261d	0.066478945
16	0xbd107f32	-0.035277553
17	0x3ca9c000	0.020721436
18	0x3d38cdac	0.04511802
19	0x3c0f3900	0.008741617
20	0xbd85e02d	-0.06536899
21	0x3d6c8554	0.05774434
22	0x3d73b714	0.05950077
23	0x3d9b94d4	0.07596746
24	0x3db5a11c	0.0886862
25	0x3de7d996	0.11320798
26	0x3c3c95e5	0.011510347
27	0xbd22461c	-0.039617643
28	0x3d28a01c	0.041168317
29	0x3cb5e696	0.022204679
30	0xbdb616b2	-0.088910475
31	0xbec96c05	-0.39340225
32	0xbdc498a0	-0.095994234
33	0xbd8b56b2	-0.06803645
34	0x3daed011	0.08535779
35	0xba4681d0	-0.0007572444
36	0xbd4f0e86	-0.05055096
37	0xbe0813cb	-0.132888
38	0x3d127728	0.035758168
39	0x3cb74a30	0.022374243
40	0x3ad13380	0.0015960783
41	0xbda6caae	-0.08144127
42	0x3dfb2514	0.122629315
43	0x3c891a78	0.016736254
44	0xbdc42b62	-0.09578587
45	0x3d22ede4	0.03977765
46	0xbdae1bd2	-0.085014
47	0xbdb05014	-0.08609024
48	0xbdf5a61a	-0.11994572
49	0xbd52811f	-0.05139267
50	0xbd8788a6	-0.066178605
51	0xbdabd948	-0.083910525
52	0x3d049959	0.032372806
53	0xbbc052e0	-0.0058692545
54	0xbda209a4	-0.07911995
55	0x3bbb9ac0	0.0057252347
56	0xbdfa14a6	-0.122109696
57	0x3dcafc36	0.09911387
58	0xbde954a6	-0.113930985
59	0xbd93fb6e	-0.07225691
60	0xbccef738	-0.025264367
61	0xbdf37ede	-0.11889432
62	0xbddd218c	-0.10797414
63	0xbe4a8852	-0.19778565
64	0xbdc329f5	-0.09529487
65	0x3cd5020a	0.026001949
66	0x3d8e8d72	0.06960572
67	0xb9ad0772	-0.00033002679
68	0x3d5ae821	0.05344403
69	0xbe21eac5	-0.15812214
70	0x3c613f45	0.013747995
71	0xbdb40823	-0.087906145
72	0x3d62ad44	0.05534102
73	0x3c88c1d9	0.016693996
74	0xbd2d9940	-0.04238248
75	0x3c5b11f0	0.013370976
76	0x3d74dfd4	0.05978377
77	0x3e10d0c4	0.14142138
78	0x3e51fa69	0.2050568
79	0x3e1c45b4	0.15260965
80	0xbe2b55a7	-0.16731893
81	0x3dcbd738	0.09953159
82	0xbdbaf9e4	-0.09129694
83	0xbd701893	-0.058617186
84	0xbdb5d30f	-0.08878147
85	0x3d9e0720	0.07716203
86	0xbdfb6174	-0.12274447
87	0x3d6371d0	0.055528462
88	0x3df4dedc	0.119565696
89	0x3da56da8	0.08077556
90	0x3de23444	0.11045125
91	0xbd374d60	-0.044751525
92	0x3c59ece0	0.013301104
93	0xbcba114a	-0.022713322
94	0xbd9c3b34	-0.076284796
95	0xbd28f24d	-0.0412467
96	0xbd9bd5d9	-0.076091476
97	0x3dc19eac	0.094540924
98	0x3c758a82	0.014986636
99	0xbdd9ac8f	-0.10628616
100	0x3e9339a3	0.2875491
101	0xbcc4b20c	-0.02401068
102	0xbbd93120	-0.0066281706
103	0x3debaa5a	0.11507101
104	0xbe026337	-0.1273316
105	0xbd01d0fc	-0.031693444
106	0xbd24b5b7	-0.04021236
107	0x3cfb0c50	0.03064552
108	0x3c8b3941	0.016995074
109	0xbec4c51f	-0.3843164
110	0x3c89bac7	0.016812695
111	0xbd8fac2e	-0.070152625
112	0xbbe12b0d	-0.006871587
113	0xbe003e22	-0.12523702
114	0xbdcaab28	-0.09895927
115	0xbd72fe6a	-0.05932466
116	0xbe25fa4f	-0.16208766
117	0xbd6c92ae	-0.057757072
118	0xbe4c753f	-0.19966601
119	0xbdb02634	-0.08601037
120	0xbd7a2858	-0.06107363
121	0x3d0ada70	0.033899724
122	0xbd6105c8	-0.054937154
123	0x3da520e8	0.08062917
124	0xbc8ae85b	-0.016956499
125	0xbdadd4c2	-0.08487846
126	0xbd298a08	-0.041391402
127	0xbdb8c9d9	-0.090228744
128	0x3d27fd00	0.041012764
129	0x3ddfb116	0.10922448
130	0x3d250fdc	0.040298328
131	0xbceeb036	-0.029136758
132	0xbdc91300	-0.09818077
133	0x3c49e770	0.012323245
134	0x3d66edb0	0.05637902
135	0x3bb82440	0.0056195557
136	0xbdfaa10a	-0.12237747
137	0xbda137dc	-0.078719825
138	0xbdf5e9c0	-0.12007475
139	0x3caa0d30	0.020758241
140	0x3d235e7c	0.03988503
141	0x3d828b16	0.06374185
142	0x3c64dad1	0.0139681855
143	0xbdab6714	-0.0836927
144	0x3d1cf35c	0.038318023
145	0x3df8a9a4	0.121417314
146	0xbd5a2194	-0.05325468
147	0xbdff89be	-0.12477444
148	0xbd1103dc	-0.03540407
149	0xbd5c21ec	-0.053743288
150	0x3dbf1588	0.09330279
151	0x3dc2dbfc	0.09514615
152	0x3deeed06	0.116663024
153	0x3daec8da	0.08534403
154	0x3bfab960	0.007651493
155	0xbd8693e8	-0.0657118
156	0x3cb5ba48	0.022183552
157	0xbcc11ba8	-0.023572758
158	0xbdb26f3b	-0.08712622
159	0xbdd7e812	-0.10542311
160	0x3dda21fe	0.10651015
161	0xbdeaf8b6	-0.11473219
162	0xbd0bf46c	-0.034168646
163	0x3d0c49d0	0.03425008
164	0xbd9646d8	-0.07337731
165	0xbd834b0e	-0.064108
166	0xbdd6166e	-0.10453497
167	0x3ce8bd28	0.02841051
168	0x3de993ca	0.11405142
169	0x3d274be8	0.040843874
170	0xbc840f38	-0.016120538
171	0x3db6e45a	0.08930273
172	0x3dcf2606	0.10114674
173	0x3d9635ce	0.07334481
174	0xbd39d1c8	-0.04536608
175	0x3d3492cc	0.04408531
176	0x3cfc2bb0	0.03078255
177	0x3ce57ac8	0.028012648
178	0x3dbbbb04	0.0916653
179	0xbd52bed8	-0.051451534
180	0xbdf3218a	-0.118716314
181	0x3d52661c	0.05136691
182	0x3ce71620	0.028208792
183	0xbd7e1de8	-0.06204024
184	0x3da35888	0.0797587
185	0xbc585d80	-0.013205886
186	0x3de670c0	0.11251974
187	0xbdcd76d0	-0.10032427
188	0xbd5b61c4	-0.053560033
189	0x3d6abfe0	0.057311893
190	0xbd8cf79c	-0.06883165
191	0xbb581a80	-0.003297478
192	0xbd2c7403	-0.042102825
193	0x3d95487c	0.07289216
194	0xbde80054	-0.113281876
195	0xbe0fbe00	-0.14037323
196	0xbe10ea16	-0.14151797
197	0x3c8e6590	0.017382413
198	0xbd71022d	-0.058839966
199	0xbddcd585	-0.10782913
200	0xbdbcbb24	-0.09215382
201	0x3d8db0f1	0.069185145
202	0xbdaafd00	-0.08349037
203	0xbdbe2c0a	-0.092857435
204	0xbc942418	-0.018083617
205	0xbe04aca7	-0.12956487
206	0xbd23dd60	-0.04000604
207	0xbd15d876	-0.036583386
208	0x3d69011a	0.056885816
209	0xbb4b0163	-0.0030976168
210	0x3df2bc12	0.11852278
211	0xbcbc0720	-0.022952616
212	0xbb2bbcc8	-0.0026205052
213	0xbda3e70a	-0.080030516
214	0xbc813110	-0.015770465
215	0x3dc027c2	0.09382583
216	0x3dabc9a0	0.08388066
217	0xbc4c1f10	-0.012458578
218	0xbd97a27e	-0.0740404
219	0xbd29f8f8	-0.0414972
220	0xbde4f4ef	-0.1117953
221	0x3c175c3a	0.009238297
222	0x3dd31b76	0.10307972
223	0xbceac1c8	-0.028656855
224	0xbdb29700	-0.08720207
225	0x3dfe49c0	0.124164104
226	0xbd7e98c1	-0.062157396
227	0xbd1623da	-0.036655284
228	0xbe0c4b56	-0.13700613
229	0x3d4d428a	0.050112285
230	0x3cab0ea8	0.020881012
231	0xbdfe9b4e	-0.12431966
232	0x3dd71510	0.10502064
233	0x3d9be9b6	0.07612936
234	0x3d3b70c4	0.04576184
235	0x3dfd28fe	0.12361334
236	0x3d2b7c9d	0.041866887
237	0xbd94648e	-0.07245742
238	0xbd6e2322	-0.058138974
239	0x3d83ac0c	0.064293
240	0xbd9a54be	-0.075356945
241	0x3cf6c94a	0.030125279
242	0xbd8f0e36	-0.069851324
243	0x3dd16906	0.1022511
244	0xbd8f9e8f	-0.070126645
245	0x3da4ace4	0.08040789
246	0xbd84b32f	-0.06479489
247	0x3cf8b15b	0.030358007
248	0x3d9f54bb	0.07779833
249	0x3ca5d6e6	0.020244073
250	0xbc849e18	-0.016188666
251	0xbdab07c6	-0.08351092
252	0xbd8c10b6	-0.06839125
253	0x3d2d5488	0.042316943
254	0x3dd3a7a4	0.10334709
255	0xbda3b284	-0.079930335

fc4.bias f4 [64]
0	0xbdd9c2d6	-0.10632865
1	0xbe4b1f60	-0.19836187
2	0xbe4adb12	-0.19810131
3	0xbd6ab6d3	-0.05730326
4	0xbe23dca8	-0.16002142
5	0x3dc36933	0.095415495
6	0xbd2a16d6	-0.041525684
7	0xbd8e36a4	-0.069440156
8	0xbec17550	-0.37784815
9	0x3d151e85	0.03640606
10	0xbf090893	-0.5352871
11	0x3f8060a9	1.0029498
12	0xbe124e83	-0.14287762
13	0x3d9c378e	0.07627784
14	0x3b03548d	0.002003941
15	0xbe19d5c8	-0.15022957
16	0xbe54fce6	-0.20799598
17	0xbe088314	-0.13331252
18	0xbe08d841	-0.13363744
19	0xbe17b800	-0.14816284
20	0x3db11468	0.0864647
21	0x3c87559c	0.016520314
22	0xbe8d90df	-0.2764959
23	0x3e75435e	0.2395148
24	0x3dcd0498	0.10010642
25	0x3f422753	0.75841254
26	0xbe2713e4	-0.16316181
27	0x3f3b324d	0.7312363
28	0x3ea38c6e	0.31943077
29	0xbdec931d	-0.11551497
30	0xbdb8019e	-0.089846835
31	0x3ed4a78b	0.41534075
32	0xbd8d0c70	-0.06887138
33	0x3f6791b3	0.90456694
34	0xbd969d32	-0.073542014
35	0xbe83be9d	-0.25731364
36	0x3e96c88b	0.29449877
37	0xbe43e69e	-0.19130942
38	0xbcee4744	-0.029086716
39	0xbdc26da8	-0.094935715
40	0x3d4ebf5d	0.050475467
41	0x3ed9e544	0.42557728
42	0xbda5f589	-0.08103473
43	0xbeffe130	-0.49976492
44	0xbe5d9c0a	-0.21641555
45	0xbd94068e	-0.07227813
46	0x3d51f16a	0.05125562
47	0x3f4e747b	0.80646485
48	0xbe0a1222	-0.1348348
49	0xbdd0aeb6	-0.101895735
50	0xbf24047e	-0.64069355
51	0xbe6d6aa0	-0.23185205
52	0xbd55c148	-0.05218628
53	0xbdd06f98	-0.10177535
54	0xbe0f60bb	-0.14001743
55	0x3f6a6ef0	0.9157553
56	0xbd49a44c	-0.04922895
57	0xbe405a16	-0.18784365
58	0x3f6440a6	0.89161146
59	0xbe00a4d5	-0.12562878
60	0xbe71a810	-0.23599267
61	0xbe29d3a8	-0.16584647
62	0xbe623508	-0.22090542
63	0xbc9f0a27	-0.01941402

valuefc.weight f4 [64, 64]
0	0x3dc0f0b0	0.094209075
1	0x3dcddb34	0.10051575
2	0x3d33f210	0.04393202
3	0xbd095efc	-0.03353785
4	0x3cd828c8	0.026386634
5	0x3d1ea060	0.038727164
6	0xbdfdc48a	-0.123910025
7	0xbd83b0fe	-0.06430243
8	0xba0c5f50	-0.0005354779
9	0x3dcf3bcc	0.10118827
10	0x3d3210c1	0.04347301
11	0xbdca4d21	-0.098779924
12	0xbbb9fe20	-0.005676046
13	0x3da31050	0.07962096
14	0x3da77096	0.08175771
15	0xbd832000	-0.06402588
16	0x3dfdc918	0.12391871
17	0xbcaf47f8	-0.021396622
18	0xbd648740	-0.055793047
19	0xba374400	-0.0006991029
20	0x3d0d20fa	0.034455277
21	0xbd923004	-0.071380645
22	0xbce06908	-0.027393833
23	0xbd935706	-0.07194333
24	0xbb4d1640	-0.003129378
25	0x3db2cc96	0.08730428
26	0xbd7d6c54	-0.061870888
27	0xbd6614f8	-0.05617234
28	0x3d0e066c	0.034674093
29	0x3d710b50	0.05884868
30	0xbc1ce800	-0.0095767975
31	0xbdbd0e89	-0.09231288
32	0xbc01adc0	-0.00791496
33	0x3bcc3167	0.006231475
34	0x3de3ea00	0.11128616
35	0x3d66c388	0.056338817
36	0xbd3123a5	-0.043246884
37	0x3d29fd60	0.041501403
38	0x3d196ae0	0.03745544
39	0xbbc13d20	-0.0058971792
40	0xbded162a	-0.11576493
41	0xbd72199c	-0.059106454
42	0x3d3372b4	0.04381056
43	0x3d33c240	0.043886423
44	0xbd823848	-0.06358391
45	0xbd8d378a	-0.06895359
46	0x3d1e7218	0.038683027
47	0xbd5eb306	-0.05436995
48	0x3d9bec18	0.07613391
49	0x3d083c08	0.033260375
50	0xbbf58c39	-0.0074935225
51	0xbc681cf0	-0.0141670555
52	0xbd5ec678	-0.054388493
53	0x3d0180fc	0.03161715
54	0xbda07e10	-0.078365445
55	0xbdb2066f	-0.08692633
56	0xbdf98877	-0.12184232
57	0xb827b000	-3.9979815e-05
58	0xbdcb9b03	-0.099416755
59	0xbd3cd724	-0.04610361
60	0xbd259160	-0.040421844
61	0x3d61814c	0.055054948
62	0x3d8dd64c	0.069256395
63	0x3dad0bf0	0.084495425
64	0xbc631460	-0.013859838
65	0x3db36146	0.08758788
66	0xbd8090b8	-0.06277603
67	0x3c8751f8	0.016518578
68	0x3d07c15c	0.033143386
69	0xbe157072	-0.14593676
70	0x3d9f97e8	0.07792646
71	0x3cc8b014	0.024498023
72	0x3d7d1080	0.061783314
73	0x3db11492	0.086465016
74	0x3d1f3b23	0.038874757
75	0xbddc6348	-0.10761124
76	0x3db8592c	0.09001383
77	0xbd9f7e36	-0.07787745
78	0x3b3ffa95	0.0029293646
79	0xbde8e19e	-0.11371158
80	0xbc6aac60	-0.014323324
81	0xbd6b227c	-0.057405934
82	0xbd782e24	-0.060590878
83	0xbdbeb224	-0.093113214
84	0xbd2d4e75	-0.04231115
85	0xbe0ff49d	-0.14058156
86	0xbddffbbe	-0.10936688
87	0xbded34e6	-0.11582355
88	0x3d534054	0.05157502
89	0x3d7195c5	0.058980722
90	0xbc9c5ef0	-0.019088238
91	0x3d1ab051	0.037765805
92	0xbb5b5343	-0.0033466376
93	0xbd9c23be	-0.07624005
94	0xbc96e410	-0.018419296
95	0xbc1254fd	-0.008931396
96	0x3a3ab800	0.0007122755
97	0xbd1c5ba8	-0.038173348
98	0xbc99d878	-0.018779978
99	0x3db483b2	0.088141814
100	0xbe1cf257	-0.1532682
101	0x3c23feb0	0.010009453
102	0xbda38e96	-0.079861805
103	0x3d95bde0	0.073116064
104	0xbd2cd1b8	-0.04219219
105	0xbd970026	-0.07373075
106	0xbda97398	-0.08274001
107	0xbc3c6960	-0.011499733
108	0x3c13c640	0.009019434
109	0x3d9ac3ba	0.07556863
110	0xbd6f5818	-0.058433622
111	0xbdc67b7f	-0.09691524
112	0xbdf7d260	-0.12100673
113	0xbbab6c60	-0.005231425
114	0x3d9514ff	0.07279395
115	0xbdedb2e4	-0.11606386
116	0xbccdf368	-0.02514048
117	0x3dc7efb8	0.097625196
118	0x3de10adc	0.109883994
119	0xbde9a0d1	-0.114076264
120	0xbddf1dba	-0.10894342
121	0x3dfe0746	0.12403731
122	0xbdbbcc3f	-0.09169816
123	0x3d0c46fc	0.034247383
124	0xbdfe0006	-0.12402348
125	0x3d6aa024	0.05728163
126	0xba685b00	-0.0008863658
127	0xbcc21d18	-0.023695514
128	0xbd7ec034	-0.062195018
129	0x3d5ead08	0.054364234
130	0xbd4ca038	-0.049957484
131	0xbd635ec8	-0.055510312
132	0xbda1cef2	-0.079008
133	0x3d9001d9	0.070316024
134	0x3b60ba80	0.003429085
135	0xbd535486	-0.05159428
136	0x3cc9c650	0.024630696
137	0x3dad4352	0.08460106
138	0xbdd696e4	-0.10477999
139	0x3d4d1180	0.050065517
140	0x3d6a9550	0.0572713
141	0x3d8a08b8	0.06739944
142	0xbc82da80	-0.01597333
143	0xbd98c236	-0.07458918
144	0xbc068960	-0.008211464
145	0x3df7ae8c	0.12093839
146	0xbd97e228	-0.07416183
147	0xbdd4d068	-0.10391313
148	0xbcff4c60	-0.031164348
149	0x3c9d0569	0.019167619
150	0xbdcb7b22	-0.09935595
151	0xbd2c703b	-0.04209922
152	0x3cc4a8b0	0.024006218
153	0xbd086fa8	-0.03330961
154	0xbdd797d4	-0.10527006
155	0xbd37463c	-0.044744715
156	0xbd0fba78	-0.03508994
157	0x3d413a3c	0.047174677
158	0xbdff7606	-0.12473683
159	0xbbae7723	-0.005324261
160	0xbc779680	-0.015111566
161	0x3daea66c	0.08527836
162	0xbd856c9a	-0.06514855
163	0x3d903696	0.070416614
164	0xbd0d5489	-0.034504447
165	0x3d206ca4	0.039166108
166	0xbdf27006	-0.11837773
167	0xbc8a81b0	-0.016907543
168	0xbde14ff5	-0.11001579
169	0x3d8d87e0	0.06910682
170	0xbde33bb6	-0.11095373
171	0x3dbed3a4	0.09317711
172	0xbddb1456	-0.10697238
173	0x3da4eab8	0.080525815
174	0xbd35abe4	-0.04435338
175	0xbe0de300	-0.13856125
176	0x3c039a00	0.008032322
177	0xbdda4d06	-0.10659222
178	0x3d239a00	0.039941788
179	0x3df00344	0.11719373
180	0xbc4368e0	-0.01192686
181	0xbd95022a	-0.072758034
182	0x3dc00aca	0.09377058
183	0xbc97736e	-0.018487658
184	0x3bf8cfc0	0.007593125
185	0x3d81f13a	0.063448384
186	0xbdf42874	-0.11921778
187	0xbd75e6f0	-0.060034692
188	0x3d267024	0.04063429
189	0x3bd710e0	0.006563291
190	0xbd48aab8	-0.048990935
191	0xbdbb4528	-0.0914405
192	0x3dcdbee1	0.10046173
193	0x3e06409d	0.13110586
194	0xbd21f711	-0.03954226
195	0x3dd33676	0.10313122
196	0xbd6f8dee	-0.058484964
197	0xbdac0dec	-0.08401093
198	0xbe45bc65	-0.19310148
199	0xbec9b3ee	-0.39395088
200	0xbee3d0c8	-0.44495225
201	0x3d93e95f	0.072222464
202	0xbe7b4e01	-0.24541475
203	0x3ecebb30	0.40377188
204	0x3d82f952	0.0639521
205	0x3ec0f454	0.37686408
206	0x3e6760a9	0.22595467
207	0xbd2d08bc	-0.042244658
208	0x3db876c9	0.090070315
209	0xbe3939dd	-0.1808848
210	0x3daa9207	0.08328634
211	0xbd99d566	-0.07511406
212	0xbe94ee5b	-0.290881
213	0xbf030be1	-0.5119
214	0xbeedf90f	-0.4647908
215	0xbee6847c	-0.45022953
216	0x3e886a06	0.2664339
217	0x3da6c405	0.081428565
218	0xbe918ab1	-0.28426126
219	0x3d6b3df9	0.05743215
220	0x3ee2a313	0.4426504
221	0xbec29e7c	-0.3801154
222	0xbbcf743c	-0.006330995
223	0x3f0ae65c	0.5425775
224	0xbdff1007	-0.12454229
225	0x3e393651	0.18087126
226	0xbf3f3846	-0.7469524
227	0xbe839c94	-0.25705397
228	0x3f13e1f4	0.5776665
229	0xbd140fed	-0.036148
230	0xbda9247e	-0.082589135
231	0xbc8ee086	-0.017441045
232	0xbe03ad82	-0.12859157
233	0x3e9845f4	0.2974087
234	0x3d972e76	0.073819086
235	0xbe6098ad	-0.21933241
236	0x3e100411	0.14064051
237	0xbcd0566a	-0.02543183
238	0xbe31adaa	-0.17351404
239	0x3e60ac37	0.21940695
240	0x3cbc3c0b	0.02297785
241	0xbd045c64	-0.032314673
242	0xbeca48a0	-0.39508533
243	0xbd95106e	-0.07278524
244	0x3cf20dc9	0.029547589
245	0x3d9793fc	0.07401273
246	0xbd80ffbd	-0.06298778
247	0x3e384487	0.17994891
248	0xbda1c104	-0.07898143
249	0xbdf106c4	-0.117688686
250	0x3e464bcf	0.19364856
251	0x388b5861	6.644498e-05
252	0xbe7565ea	-0.23964658
253	0x395519b2	0.00020322835
254	0x3c9f7806	0.019466411
255	0xbdc25ec6	-0.09490733

valuefc.bias f4 [64]
0	0xbe22f9da	-0.15915623
1	0xbe0b2e93	-0.13591985
2	0xbded6bee	-0.115928516
3	0x3fbcaa99	1.4739562
4	0xbe1ddaae	-0.15415451
5	0x3f621522	0.88313496
6	0x3d399172	0.045304723
7	0x3fbbbec1	1.4667588
8	0x3d577056	0.052597366
9	0xbe1a1250	-0.15046048
10	0x3fc51d70	1.5399609
11	0xbe5aa617	-0.21352421
12	0x3fa144dc	1.2599139
13	0x3f12069a	0.57041323
14	0x3e69ead1	0.22843482
15	0xbdcef40c	-0.10105142
16	0x3d3aeb0e	0.045634322
17	0xbc91b721	-0.017787518
18	0xbcb82548	-0.022478715
19	0xbdb0685b	-0.08613654
20	0x3fcb835a	1.589946
21	0xbe1e809e	-0.15478751
22	0xbdb9b250	-0.090672135
23	0x3e738ca7	0.23784123
24	0x3cef58ff	0.029217241
25	0x3fc9efb6	1.5776279
26	0x3fb84e45	1.4398886
27	0x3e407163	0.18793254
28	0x3f8c530c	1.0962844
29	0x3fc0f18a	1.5073712
30	0xbd9cefe3	-0.07662942
31	0xbd2c1958	-0.042016357
32	0xbe11d27d	-0.14240451
33	0x3e12b792	0.14327839
34	0x3e54a410	0.2076571
35	0x3fcc664f	1.5968722
36	0x3fc42a68	1.5325441
37	0xbd9e0c1d	-0.07717154
38	0xbc4e6b31	-0.012598799
39	0x3e3eec22	0.18644765
40	0xbe3b0572	-0.18263796
41	0xbde10fd1	-0.10989345
42	0x3e99c1eb	0.3003076
43	0x3f656e25	0.8962119
44	0x3e8e4e0f	0.2779393
45	0xbde1d7da	-0.110274985
46	0x3d9bbad6	0.076039955
47	0xbd9d3812	-0.0767671
48	0xbe2ebc85	-0.17064102
49	0xbbeeac76	-0.0072837425
50	0x3fa2b535	1.271155
51	0xbe1b4865	-0.15164335
52	0xbdf67830	-0.12034643
53	0x3fa3a856	1.2785747
54	0xbe18ba8d	-0.14914913
55	0xbde38884	-0.11110023
56	0x3eafc5ef	0.343307
57	0xbe2930e7	-0.16522561
58	0xbdb85af3	-0.09001722
59	0xbd7bf46e	-0.061512403
60	0x3c85b8f3	0.016323542
61	0xbdbc0fa4	-0.09182671
62	0x3fc04819	1.5022002
63	0x3f1b874f	0.6075334
