D2QN_AAAI_LOSS/checkpoint_d2qn_10_1000_cheetah_20.pth (torch, 45655 bytes, 6 tensors)

fc1.weight f4 [128, 17]
000000 4b 6f 86 bf 33 84 3b 40 e3 e1 02 bf ad 5f 26 bf
       -1.0502714 2.9299438 -0.51125926 -0.6498974
000010 cf 5f 6b be 26 da a7 be c0 c7 6d 3f 8b 6b 05 3f
       -0.22985767 -0.32783622 0.9288292 0.5211722
000020 ee 07 9c 3e 70 52 26 bf f2 a4 00 3f 4a e7 f9 3c
       0.304748 -0.6496954 0.50251687 0.030505795
000030 4a 4c 22 3d a4 8e b7 bd 9f 04 88 bd 5b ad b6 3d
       0.039623536 -0.089627534 -0.066415064 0.08919784
000040 b5 4d e5 3c ed db 1a c0 6a 86 51 c0 c6 38 18 bf
       0.027991155 -2.4196732 -3.273829 -0.5946163
000050 b2 6d d0 be 74 ad 78 bf 75 ee fe be cb 2c 1b 3e
       -0.4070869 -0.9713967 -0.49791303 0.15153806
000060 cc f0 97 be 0f c7 84 3f ab c6 27 bf 92 44 98 bf
       -0.296759 1.0373248 -0.6553752 -1.1895926
000070 9d b6 8a be 67 c7 63 be 89 39 18 3d 4c f1 d9 3d
       -0.27092448 -0.22244035 0.037164245 0.10641727
000080 77 b6 67 bd 25 be 49 bd 56 79 6c c0 7d 4f 35 3f
       -0.056570496 -0.0492536 -3.6949058 0.70824414
000090 03 c5 28 bf e2 63 5a 3e 5a 38 86 be 08 0c 31 bf
       -0.65925616 0.21327165 -0.26214868 -0.69158983
0000a0 d4 76 1a 3f 75 79 06 bf 37 b0 85 bc 3f 9f a3 be
       0.6033757 -0.5252908 -0.016319377 -0.31957433
0000b0 71 20 64 bf 87 46 1a be fd 5c 9d 3c 72 8c 1b be
       -0.89112 -0.15065967 0.01920938 -0.15190294
0000c0 9e 0c 42 3d 8e ec 67 3d 3b 3b dd bd 7a 30 78 3f
       0.047375314 0.05662208 -0.10802313 0.9694897
0000d0 a8 06 c8 bf d6 88 cc bf b7 be 2f c0 28 39 97 bf
       -1.5627031 -1.5979259 -2.7460153 -1.1814318
0000e0 fe e4 94 3d 77 cb 30 bf 14 29 5e bf 0a e2 73 bf
       0.07270239 -0.6906046 -0.8678143 -0.95266783
0000f0 f3 bd dd bd ac 1d fa 3d a3 3e 92 3e 37 fe be 3d
       -0.108272456 0.12212691 0.28563413 0.093258314
000100 bc d4 a4 3e 13 e9 fd bc 90 e6 83 bd b5 61 35 bc
       0.32193553 -0.030994928 -0.06440461 -0.011070658
000110 ae 78 d0 3e f6 c5 72 bf 16 ca c4 bf 51 39 d8 bf
       0.4071707 -0.94833314 -1.5374172 -1.6892492
000120 38 da 12 c0 f9 42 b5 bf b2 dd a0 bf 63 75 b3 bf
       -2.294569 -1.4161063 -1.2567656 -1.4020199
000130 4f ab e4 3e 56 7a 84 3b 61 8c 55 3f 19 02 c7 bd
       0.44661948 0.004042904 0.83417326 -0.09717197
000140 9e 9c 3a 3e 9d 2a d9 3d 30 c9 17 3e 50 01 a6 3d
       0.18223807 0.10603831 0.1482284 0.08105719
000150 86 15 03 be 97 fc 5f c0 1b 62 37 bf e3 db d0 3e
       -0.1280118 -3.4997919 -0.7163407 0.4079276
000160 fb 1a 9a bf 1f 12 f4 be 55 15 a0 bf ee ac 2c c0
       -1.2039484 -0.47670075 -1.250651 -2.6980548
000170 cd 2c 96 be 94 b7 4c 3f 48 35 88 3d 6f f4 e9 3d
       -0.29331055 0.7996762 0.066507876 0.11423575
000180 0a 21 cf 3d cf 34 bf 3d 13 be 9a be cb 72 1a 3b
       0.101137236 0.09336244 -0.3022314 0.0023566957
000190 80 8f 83 bd 02 f4 20 3e 1a c6 e0 bf 19 f3 33 c0
       -0.06423855 0.15718082 -1.7560456 -2.8117125
0001a0 3d 3c e1 bf 33 3c 0b c0 b5 b8 bf bf df 68 b3 3e
       -1.7596508 -2.1755493 -1.4978243 0.35040948
0001b0 a5 e4 12 3f e5 9f 57 be e3 65 02 be 0a 5e c5 3e
       0.57380134 -0.21057089 -0.12734179 0.3854831
0001c0 22 9b df 3e a1 64 2d 3e 77 ca 23 3e 0f 5e 2e be
       0.43673044 0.16932918 0.15995203 -0.17028068
0001d0 76 26 1b 3e e9 41 99 3d 74 08 ed 3b ce 31 c9 3e
       0.1515139 0.074832745 0.0072336737 0.3929581
0001e0 5a a2 6a 3e d0 ba 74 bf 54 92 96 bc 6a 68 f8 3e
       0.22913495 -0.95597553 -0.018380322 0.48517162
0001f0 06 5c d5 bf 84 fb 0c bf ca 15 95 bf a8 cd 07 c0
       -1.6668708 -0.5507128 -1.1647274 -2.1219273
000200 b8 e8 87 3f 2e 19 a2 bf d5 d5 d0 bb 6e bc bf bd
       1.0617895 -1.2663934 -0.006373147 -0.09362112
000210 65 71 ec 3d 76 e9 09 bf 40 fe 5a 3d 47 3f 20 3e
       0.11545066 -0.5387186 0.053465128 0.15649138
000220 a2 06 3b 40 90 14 84 3f 92 6b 1a 3f 56 18 c8 3e
       2.9222798 1.0318775 0.6032039 0.39081067
000230 98 99 b5 3e a8 33 14 bf 1f 3c 8f 3f bc f6 96 3e
       0.35468745 -0.5789132 1.1190223 0.29485118
000240 25 2a 9d bf 0c 46 c3 be b4 b2 0b 3f 5d 15 72 bb
       -1.2278486 -0.3813938 0.54569554 -0.0036939003
000250 bc c1 cc 3d e7 16 14 be c6 f5 d3 bd f0 08 d8 3d
       0.099978894 -0.14461862 -0.10349612 0.1054858
000260 44 8e ba 3e 5e 00 96 3f 81 fd 0f bf fe 37 19 bf
       0.36436665 1.1718862 -0.5624619 -0.5985106
000270 a7 e8 8d bf 50 f3 0b c0 6a 62 4f bf 3a aa 00 bf
       -1.1086625 -2.1867256 -0.8100954 -0.50259745
000280 77 05 88 bf 16 35 a6 3d a3 30 b4 3e 99 f0 3e 3e
       -1.0626668 0.08115594 0.35193357 0.18646468
000290 0c d3 6f 3e af 69 ff bd 35 02 4d be c5 03 33 3e
       0.23420352 -0.124713294 -0.20020373 0.17481907
0002a0 56 65 f2 3d cd 91 28 be ea d3 b2 40 1c 92 3e c0
       0.118357345 -0.16461869 5.5883684 -2.9776678
0002b0 c8 78 92 be ef f5 17 3e 77 1c f3 be 71 02 d2 bf
       -0.28607774 0.1483991 -0.47482654 -1.6406995
0002c0 92 72 51 bf fb 42 25 bf 8c d4 f3 3e 60 d4 6c 3e
       -0.81815445 -0.6455533 0.47623098 0.2312789
0002d0 47 6d ab be 1b 15 84 bd cd 13 e3 bc 9f 6f d6 3c
       -0.3348181 -0.06449338 -0.027719403 0.026176272
0002e0 bb 9c ad bd ab 61 0f be 6c 5f 85 bd 67 c9 a5 c0
       -0.084771596 -0.14002101 -0.06512341 -5.1808352
0002f0 04 61 25 c0 60 ab 3a 3d 17 72 a6 bc 9f fe a1 bd
       -2.5840464 0.045573592 -0.020318074 -0.07909893
000300 40 4b 20 bf 4b a7 78 bf 80 3c cb be d5 ed 26 bf
       -0.6261482 -0.9713027 -0.39694595 -0.6520665
000310 75 2f 8f 3e 70 47 42 bf 4b 85 3d be a2 d4 08 be
       0.27965894 -0.75890255 -0.18507878 -0.13362363
000320 e1 6d ff bc 19 f3 f9 3d 17 57 c0 bb 03 f1 63 3d
       -0.031180324 0.1220457 -0.005869757 0.05564977
000330 69 3f cd 3e ba 41 86 3f c5 5f b1 3e 72 2f 81 3f
       0.4008744 1.0488808 0.3464338 1.0092604
000340 ea 07 4e 3d 72 97 0e c0 38 a3 c5 bf 18 1b 4f bf
       0.050300516 -2.2279935 -1.5440435 -0.80900717
000350 87 ae af bb 77 87 95 bf af 01 9b bf ca db 07 bf
       -0.0053613815 -1.1681966 -1.2109889 -0.53069746
000360 6b 95 f6 bd 15 00 de bd 08 63 d4 3d ef 63 58 3d
       -0.12040218 -0.108398594 0.10370451 0.05282968
000370 e9 e1 21 3e 02 f4 8e 3f 44 a1 8b 3f b4 5a 22 bf
       0.15808834 1.1168215 1.0908589 -0.6341965
000380 04 bd f0 3d 94 01 ab 3e c6 90 82 be 51 6b c4 3e
       0.11754802 0.33399642 -0.25501078 0.38363126
000390 d4 7e 84 3f f8 a0 16 be 58 d9 da 3f 60 dc 77 3f
       1.0351205 -0.14709842 1.7097578 0.9682064
0003a0 99 14 a4 3e c9 99 63 3e f6 89 81 bd 9c c6 2b bd
       0.32046965 0.22226633 -0.06325142 -0.041937456
0003b0 eb ce a8 bc 57 bb 93 3c df 36 78 c0 f8 13 ef 3f
       -0.020606479 0.018033667 -3.878349 1.8677969
0003c0 d8 f7 5d 3f 17 b6 b4 3e 8d 26 f8 3d b7 da 8e bf
       0.86706305 0.35295174 0.12116728 -1.1160496
0003d0 2a 02 19 bf b1 6a 77 be 8d d8 5e be 29 c5 5f be
       -0.5976893 -0.24161793 -0.21762295 -0.21852554
0003e0 cc ef 42 3e b4 0f 6a 3d 0b 04 64 bb e5 c0 b7 3d
       0.19036788 0.057143882 -0.003479245 0.089723386
0003f0 75 b9 9a be 44 15 17 be 52 95 6f 3d d0 81 21 3f
       -0.30219617 -0.14754206 0.058492012 0.63088703

fc1.bias f4 [128]
000000 00 0f 06 c0 53 90 15 bf da 0e bb bf 99 8c 8e bf
       -2.0946655 -0.58423346 -1.4613907 -1.1136657
000010 c0 a8 38 bf 11 0a 47 3e 4e 7a d2 3e a6 21 9c bf
       -0.7213249 0.19437434 0.41108936 -1.2197769
000020 8a 9f b4 bf cf ed 33 bc 25 7e 5f 3f 2a 25 4f bf
       -1.4111187 -0.010981991 0.87301856 -0.8091608
000030 be fb 05 c0 fa 05 84 bf 5e 15 dc bf d3 07 39 3f
       -2.0934901 -1.0314324 -1.7194021 0.72277564
000040 93 80 a4 bf 96 79 06 c0 66 f8 fb be 89 89 1a 3e
       -1.2851738 -2.101171 -0.4921295 0.15091528
000050 98 2a 0f bf ff 41 72 be 99 79 86 bf a6 0c 19 bf
       -0.5592437 -0.23657988 -1.0505859 -0.59784925
000060 a6 c7 ae bf 7f a2 2f bf 32 27 37 40 e0 7d b4 bf
       -1.3654678 -0.68607324 2.8617673 -1.4100914
000070 09 c6 06 bf b2 d9 14 40 ab 52 ed bf 09 c0 e1 3f
       -0.5264593 2.325787 -1.8540853 1.763673
000080 0c 87 1c c0 b5 e7 1d c0 d3 bf 09 3f c9 ac a0 bf
       -2.4457426 -2.4672673 0.53808326 -1.255273
000090 f3 6f d3 bf 87 99 ec bf e2 c9 a7 bf 0d ee d0 bf
       -1.6518539 -1.8484353 -1.3108485 -1.6322647
0000a0 1f 52 a0 3e d6 1c b7 be 76 ae 01 c0 8e b6 c7 bf
       0.31312653 -0.35764188 -2.0262733 -1.5602586
0000b0 eb 00 c7 3e 80 8a b7 be f7 22 ff 3f e1 0e de bf
       0.38867888 -0.35847855 1.9932545 -1.7348291
0000c0 64 c5 d3 bf d9 7e 86 bf 7e 2a f7 3f d3 07 a1 bf
       -1.6544614 -1.0507461 1.9309843 -1.2580513
0000d0 6a 23 19 40 f3 4d 27 3f e9 a0 69 3d 14 7d 9d bf
       2.3927865 0.65353316 0.05703822 -1.2303796
0000e0 0b 4c ce bf 19 9b cf bf 96 05 8b bf 40 14 2d bf
       -1.6116956 -1.6219207 -1.086108 -0.67609024
0000f0 2b 9a 36 40 46 ad 56 3f c1 ac 8c 3f 68 47 ba 3f
       2.8531597 0.83858144 1.099022 1.4553041
000100 0e e1 03 c0 18 35 91 bf 6c 71 e7 bf b9 a9 db bf
       -2.0606112 -1.1344328 -1.8081489 -1.716117
000110 83 2d 0e c0 8a c0 bd bf 9a b2 e3 bf bc 8e 20 3f
       -2.2215278 -1.4824383 -1.778888 0.62717795
000120 42 bb 8c 3e 16 ae 9f bf ce 56 8d bf 28 c4 35 40
       0.27486616 -1.2475002 -1.1042116 2.8400974
000130 25 c1 15 3f ab e1 6a bd ca b0 87 bf 1c 90 27 40
       0.5849784 -0.05734412 -1.0600827 2.6181707
000140 6b d7 35 bf 31 3a 00 bd c5 30 20 bf 6f e9 01 bf
       -0.71031827 -0.031305496 -0.62574416 -0.50746816
000150 1e 8b dd bf 24 f1 03 c0 93 f0 2a 40 88 5e 7a bf
       -1.730808 -2.061593 2.6709335 -0.97800493
000160 68 6c c7 3d 90 36 85 bf d2 1c ac 3e 00 4a 67 3f
       0.09737474 -1.0407276 0.33615738 0.9034729
000170 6e 73 8e 3f df da 75 bf 6c 70 22 40 a4 c9 4e 3f
       1.1128976 -0.96037096 2.5381117 0.8077643
000180 50 e0 39 3e d0 7e 0c c0 af 46 22 c0 75 08 45 3f
       0.18151975 -2.19524 -2.5355642 0.7696603
000190 0f e5 a9 3f d0 21 a0 bf 44 80 93 3f fc db f0 3f
       1.3273028 -1.2510319 1.1523519 1.8817134
0001a0 9b 2d 7d 3f 20 b9 cb bf af 38 be bf c0 25 f9 bf
       0.98897713 -1.5915871 -1.4861048 -1.9464645
0001b0 b6 6c 15 bf 4a 5e f2 bf 48 98 bf bf 7b a2 e2 be
       -0.58369005 -1.8935025 -1.4968348 -0.44264588
0001c0 34 27 ef bf f7 46 de bf ab 94 f6 3f d8 f9 e0 bf
       -1.8683839 -1.7365407 1.926412 -1.7576246
0001d0 a5 cb a5 3e 4d d6 df 3f 58 9d 1c 40 79 63 1b 3f
       0.3238193 1.7487274 2.4471035 0.6069866
0001e0 b7 0a df bf 9b 6d 85 3c b3 bb 62 ba fb 46 2d c0
       -1.7425145 0.016287616 -0.0008649185 -2.7074573
0001f0 fa bc 16 c0 e5 cf 07 c0 44 57 bc be e7 38 01 40
       -2.3552842 -2.1220639 -0.36785328 2.019098

fc2.weight f4 [64, 128]
000000 1a 4a f4 3f 17 19 ab be 9b 42 08 bf b7 18 13 bf
       1.9085114 -0.3341758 -0.5322663 -0.57459587
000010 81 47 a6 bf 6f f2 9b bf 7d 0d 37 3f 2f f3 12 bf
       -1.2990571 -1.218336 0.71504956 -0.5740232
000020 b1 aa cf 3d af f5 27 bf 9f 67 1b 40 84 76 9f 3e
       0.10139979 -0.6560926 2.4281995 0.31145108
000030 8c 01 74 3f 75 7d 05 3f 27 3a 8c bf 4a 4e 91 3e
       0.9531486 0.5214456 -1.0955247 0.28380042
000040 6d 08 9f 3e 7b 47 84 3f 85 77 2f 3f fd 1d 95 3f
       0.31061116 1.0334314 0.6854175 1.1649777
000050 19 98 c8 be 8b d1 57 3f 46 a1 c7 3e 41 df ac 3e
       -0.3917854 0.8430411 0.3899023 0.3376408
000060 27 ec 2e 3f a7 c7 d5 3e 41 51 8b bd 5c 1b ac bf
       0.6832909 0.41753885 -0.06802607 -1.344585
000070 a0 96 cc be 9c 39 a5 be 52 8f 39 3f 43 bc 6d be
       -0.39958668 -0.32270515 0.72484314 -0.23216347
000080 e1 d7 46 c0 67 c0 71 3e 3c 76 78 be 15 ac 5c c0
       -3.1069262 0.23608552 -0.24263853 -3.448003
000090 c2 2f 9a bf 22 0f 24 bf 4c 29 1d bf a5 71 fc 3e
       -1.2045825 -0.6408559 -0.6139114 0.49305454
0000a0 f7 0a 25 3f 05 de f0 3d f3 e6 a6 3e 20 ad 78 be
       0.64469856 0.11761097 0.32598075 -0.24284792
0000b0 e0 f0 16 bf 2f a1 26 bf 80 45 8b bf 85 ec 23 3f
       -0.58961296 -0.65089697 -1.0880585 0.64032775
0000c0 4f 2a d2 bf 06 ba ae 3d c4 e8 f6 3c 37 1b 16 3f
       -1.6419162 0.08531575 0.030140288 0.58635277
0000d0 0b f7 7c bd 57 4c b0 be e3 00 34 3f 24 21 3c 3f
       -0.061759036 -0.34433243 0.70313853 0.7348807
0000e0 d0 7f 92 3e c6 98 9e 3e ec 93 04 be 73 d1 ec bf
       0.28613138 0.30975932 -0.12947053 -1.8501419
0000f0 33 31 a0 3e fa 92 35 3f a1 e6 be bc b0 0b 3f be
       0.31287536 0.70927393 -0.023303332 -0.18656802
000100 52 fe 92 bf 9d 84 1d be 21 4e 6f bf 42 3a ac bf
       -1.1483862 -0.15382619 -0.9347859 -1.3455279
000110 fd 7a 65 c0 61 cd 35 be 6d 46 13 bf 58 3f 17 3f
       -3.5856316 -0.17754127 -0.57529336 0.5908103
000120 c3 c2 df be c9 98 19 3f c6 41 57 3e bb 3c 3b bd
       -0.4370328 0.59998757 0.21021184 -0.045712214
000130 32 ea e5 3b b3 87 97 bf 9d f6 33 be 33 0d d2 bd
       0.0070164436 -1.1838287 -0.17574544 -0.10256424
000140 22 f6 52 bc e4 04 93 3d 97 e1 78 be a0 95 a4 bd
       -0.012876065 0.07178667 -0.24304806 -0.08036351
000150 c0 e9 c4 3e 5e 9f 07 c0 04 48 87 3e 35 4e 24 be
       0.38459587 -2.119102 0.2642213 -0.16045459
000160 1c 5d af 3e bd 69 dd bf db 14 79 3e 67 3c b2 be
       0.34250724 -1.7297894 0.24324362 -0.34811708
000170 b8 a4 67 3f e7 5f 35 bf ef d9 2d 3e ef 5b b6 bd
       0.90485716 -0.7084946 0.16977666 -0.08904254
000180 f6 15 2c bf 9c 40 1e c0 f1 f2 f4 3f 0b 53 87 3e
       -0.6722101 -2.4726934 1.913664 0.26430544
000190 b3 64 3e be 49 11 2b 3e 1a bd 38 3f d2 0e ca be
       -0.18593101 0.16705813 0.72163546 -0.39464432
0001a0 22 b5 8b 3f 14 d3 af be 2e c5 a5 bd d3 dc 76 3f
       1.0914652 -0.34340727 -0.0809425 0.964307
0001b0 bd 20 53 3f ad a5 9c be 42 de 97 c0 92 e9 7c be
       0.8247183 -0.3059515 -4.745881 -0.24698475
0001c0 9f 37 00 3f d6 21 8d bf 1a d6 a6 bf 7d ab 67 3d
       0.5008487 -1.1025951 -1.3034089 0.05656003
0001d0 57 fa 84 3e ba a4 03 3f a0 a0 37 3e cb 75 01 3f
       0.25972244 0.5142323 0.17932367 0.5057036
0001e0 b6 1d 1f 3f d2 0c 81 be 35 91 20 c0 52 5b b9 c0
       0.6215471 -0.25205094 -2.5088627 -5.7923975
0001f0 cd 02 0e 3f 4c 01 f5 bc 10 1d e4 be 3a c3 59 3f
       0.55473024 -0.029907845 -0.44553423 0.8506352
000200 f3 a5 29 3f af ab 2e 3e 10 dd 96 3d c6 5f 3e 3d
       0.66268843 0.1705768 0.07366383 0.046478055
000210 25 47 eb be bd ac 3a c0 91 3d 1e 3f f6 13 4c 3e
       -0.45952716 -2.916793 0.6181269 0.1992949
000220 4d 26 8d be 39 c1 59 bf 36 63 f4 3d 34 a8 6e 3f
       -0.27568284 -0.8506046 0.119329855 0.9322541
000230 c6 03 8e 3f c9 b8 35 3f 5d 56 44 3f 1b f4 c4 bd
       1.1094902 0.70985085 0.7669428 -0.09616872
000240 3a 45 06 3f b5 08 5c 3d 7a ef 9b be 40 ff 05 40
       0.5244938 0.05371924 -0.30456144 2.0937042
000250 54 4b 16 be e3 ea e0 3f ce 98 20 3e 7f 28 6d 3f
       -0.14677173 1.7571682 0.1568329 0.9263992
000260 a0 45 92 be 83 43 45 bf a6 eb 6d 3e 4c e7 51 3f
       -0.28568745 -0.7705614 0.23234424 0.81993556
000270 86 1f 08 bf e6 39 85 3d 38 8d 12 bf 63 c2 b2 bf
       -0.531731 0.06505184 -0.5724673 -1.3965572
000280 39 96 d6 3f a1 c7 0e 3e 09 6b 65 bf 85 7c a1 bf
       1.6764594 0.1394334 -0.8961645 -1.2616125
000290 31 24 8f bd 2f 3b e0 be cb 1a ad 3c 51 6a 95 3f
       -0.06989325 -0.43795153 0.02113094 1.167307
0002a0 9c 9c 87 be 48 1c 39 be 1f 78 c9 be 92 57 b7 bf
       -0.2648667 -0.18077195 -0.39349458 -1.4323599
0002b0 3b ee 0c bf 82 26 c1 be 4b 3b f3 be cb c1 75 bd
       -0.5505101 -0.37724692 -0.47506174 -0.05999927
0002c0 d2 e1 8d 3f d8 87 2c 3d df 51 38 c0 0f 6c 30 c0
       1.108454 0.04212174 -2.879997 -2.7565954
0002d0 d8 1a 96 3c d9 75 64 bf 2e 0a 5c bf 22 d1 d9 3d
       0.018323347 -0.8924232 -0.8595303 0.10635592
0002e0 14 f4 f0 3d b2 20 4f bf fa 73 1d c0 69 c1 0f 3d
       0.11765304 -0.80909264 -2.4602036 0.03509656
0002f0 30 1f 9a 3d 2f 98 53 c0 35 f7 06 3f 30 1b 28 bf
       0.0752548 -3.3061635 0.5272096 -0.65666485
000300 67 43 26 bd 3f ca 20 c0 9c 3c 63 bf 14 4b 2e 3e
       -0.040591624 -2.5123441 -0.8876436 0.17020828
000310 00 d0 58 bd f5 60 ed bd fd e9 b2 3f 39 0f e9 3d
       -0.05293274 -0.11590759 1.3977658 0.113798566
000320 a9 33 fc 3e 8c 93 4d 3f 3b 64 fa be 44 38 ca be
       0.49258164 0.80303264 -0.48904595 -0.39496052
000330 5b 93 d5 bf 37 e9 50 bf c7 f0 24 3f a7 9f a4 be
       -1.6685594 -0.8160586 0.644299 -0.32153055
000340 47 c8 0c be c7 b6 e7 bd 3a 6d 8a 3e 2d e5 7c 3f
       -0.13748275 -0.11314159 0.27036458 0.98787194
000350 0f 6d 35 be a0 5b 90 3f 97 d6 7c 3e 0d 2b 97 3f
       -0.17717384 1.1277962 0.24691235 1.1810013
000360 b9 36 67 3f 32 0e 78 bf f9 76 25 3f 78 4b 30 bd
       0.90317875 -0.9689666 0.6463466 -0.043040723
000370 0d 40 dd bf 95 7c ae 3e de 87 e8 3d 52 ed 8d be
       -1.7285172 0.34079424 0.113540396 -0.27720124
000380 89 c1 2d 3f 9e 1d 86 3f a9 54 1f 3f b9 4d 95 be
       0.67873436 1.0477788 0.62238556 -0.2916086
000390 7a c6 e1 bb ab 94 8a 3e 65 2d 60 3f a7 11 d6 3e
       -0.0068901153 0.2706655 0.87569267 0.41810343
0003a0 e7 8c df bf db 4d 04 40 9f d0 a1 3f be 5c 0d 3f
       -1.7464875 2.067252 1.2641791 0.5521964
0003b0 67 61 77 be 35 31 07 3f f0 34 2b 3e 55 eb 04 c0
       -0.2415825 0.5280946 0.16719413 -2.0768635
0003c0 04 86 62 3f 53 b5 4d bf b8 68 e5 bc 62 5f 8c be
       0.8848574 -0.80354804 -0.028004035 -0.2741652
0003d0 89 fd ee 3e ce 60 b6 bf a0 95 b6 3c 43 45 0c 40
       0.46677807 -1.4248292 0.022288144 2.1917274
0003e0 97 57 19 3c 13 9c 1c bf be 16 dc 3f 8b ea 82 3f
       0.009359262 -0.6117565 1.719444 1.0227827
0003f0 d5 c6 af bc 61 37 17 bd f5 34 bf bf 79 83 dc be
       -0.021457115 -0.036918048 -1.4938036 -0.43069056

fc2.bias f4 [64]
000000 36 3f 17 3e c1 75 59 be de 21 37 40 81 e6 8b bf
       0.14770207 -0.21236326 2.861442 -1.0929719
000010 34 61 02 bf 8c 7a 38 40 4e 9f 9f bf 98 14 34 40
       -0.5092957 2.8824797 -1.2470491 2.813757
000020 01 d4 3f 3f ae 3c ab bd 84 5f 2e 40 13 de 03 3f
       0.7493287 -0.08361183 2.7245798 0.51510733
000030 68 0b ac 3f c4 be 9f bf dc 3e d7 3d ce 05 8e bf
       1.3440981 -1.2480092 0.10510036 -1.1095521
000040 fd f6 94 3f 0a d8 d5 bd 02 e1 97 bc 0d a5 d5 3f
       1.1637875 -0.10441597 -0.01853991 1.6690995
000050 4c 3b 93 bd c5 82 bc 3c db 2a d9 bf 42 bf ad bf
       -0.07189044 0.023011575 -1.6966203 -1.3573992
000060 d1 42 af bf c2 1c 13 40 9f 17 b7 3d cb bd 3d 40
       -1.3692266 2.2986302 0.08940052 2.964709
000070 d0 63 49 40 01 12 0e 40 da 5c 69 bf ad 9a 7d bf
       3.146717 2.2198489 -0.91157305 -0.9906414
000080 c2 24 93 bd ed c4 2c 40 f4 c0 34 40 7e 5c 44 40
       -0.07184745 2.6995194 2.824277 3.0681453
000090 f1 a9 e7 be 99 a4 f8 3f ec b5 66 3f 01 f2 46 bf
       -0.45246843 1.9425231 0.9012134 -0.7771302
0000a0 66 0d 45 3e dd b9 bb bc 1a fb 40 40 00 60 98 bd
       0.19243392 -0.022915775 3.015326 -0.074401855
0000b0 7c 44 41 bf 0c 5d 50 40 89 c8 c5 bf bb 46 48 3e
       -0.75495124 3.2556791 -1.5451823 0.19558232
0000c0 20 3e 56 be e7 ca ea 3f ee c3 21 40 32 ad 5c 3f
       -0.20922136 1.8343171 2.5275836 0.86201775
0000d0 da e0 05 40 a0 9b d7 bd 59 5e 96 3f 99 1a 71 be
       2.0918489 -0.1052773 1.1747543 -0.23545302
0000e0 c6 3b 0f 40 30 39 8c bf 04 d3 54 40 d0 92 04 bf
       2.2380233 -1.0954952 3.3253794 -0.5178652
0000f0 60 b8 3d 3d af 8a 13 40 c2 93 0d 40 b4 5c a1 3c
       0.04631841 2.3053396 2.2121434 0.019697525

final.weight f4 [6, 64]
000000 bb 86 40 3e 81 d5 ef 3d 15 dc 8e 3e ce 12 5b bd
       0.18801396 0.117106445 0.27902284 -0.05348473
000010 ac f1 2c be 3d c4 e9 3e c9 6a 91 be 5f b0 b3 3e
       -0.16889066 0.4565753 -0.28401783 0.35095498
000020 ba 4d 02 be 50 12 63 bd be 7d a0 3e 9b 01 ab 3c
       -0.12724963 -0.055437386 0.31345934 0.020874789
000030 8a ea 54 bd e1 d2 3e bd 0e 57 39 3e de c1 3c be
       -0.051981486 -0.04658783 0.18099615 -0.1843333
000040 96 b4 c9 3d 94 75 b5 3d 32 94 75 bd d8 9c 01 3e
       0.09848897 0.08860317 -0.059955783 0.12657487
000050 9d a5 a5 3d a0 9b d0 be 5b 1e c7 be 26 50 b2 be
       0.08088229 -0.40743732 -0.38890347 -0.34826773
000060 01 8f 03 be ad 4a 47 3e 33 0f 73 be 3d 74 ee 3e
       -0.1284752 0.1946208 -0.23736267 0.46573058
000070 f1 39 fe 3e 25 eb 33 3e e5 cf ae be 33 06 9e be
       0.4965358 0.1757017 -0.34142986 -0.30864105
000080 1b 6e 8a bd 54 69 95 3d b7 bf 4d 3e 18 1f e9 3e
       -0.06759282 0.0729548 0.20092665 0.45531535
000090 78 a5 69 be c8 ea 4f 3e 43 6c 2b 3e 51 92 e7 bd
       -0.22817028 0.20304406 0.16740517 -0.113072045
0000a0 67 d1 70 3e b9 cb 6d bd eb 90 e2 3e 73 aa 70 bd
       0.2351738 -0.058055613 0.4425119 -0.058756303
0000b0 37 32 3b be 1c 2d 2c 3f 6a b0 13 be 61 c9 df 3e
       -0.18280874 0.6725633 -0.14422765 0.43708327
0000c0 a3 f4 cb 3d 77 b2 4b 3e c6 6d fa 3d 9d 93 3e 3e
       0.0995877 0.19892298 0.12227969 0.18610997
0000d0 ce 09 7e 3c 41 3c ad bc c2 2a 0e 3e ed 29 0b be
       0.015505267 -0.021146895 0.13883498 -0.13590212
0000e0 ef a4 28 3e 29 07 85 3d b1 f7 23 3f 0e f1 ff bd
       0.16469167 0.06495506 0.6404982 -0.124971494
0000f0 d0 56 a5 3d 70 94 d7 3d 35 6e 35 3e fc 71 d0 3d
       0.08073199 0.10526359 0.17717822 0.10177991
000100 58 fa b8 bd 1e 69 8e bd e9 6f d1 3e cf 40 5b be
       -0.09032124 -0.06953643 0.40905693 -0.21411441
000110 82 4e 3e 3d b3 e7 b3 3e e2 bb 4c bd 4d 7a 40 3e
       0.04646159 0.3513771 -0.049983867 0.18796654
000120 67 6e c2 3d 5e 5a e1 3d 23 5b b5 3e 67 1c c6 3e
       0.09493714 0.11003564 0.35421094 0.38693544
000130 a5 68 0f 3e 01 c9 1c be de ec 78 be 71 4e 9a 3d
       0.14004762 -0.15311052 -0.24309108 0.07534493
000140 93 6b 83 be 86 50 76 3b 03 cc d8 3d 6f ff 9d 3e
       -0.2566801 0.0037584617 0.10585787 0.30858943
000150 a6 80 b7 3c 03 86 9e 3e 29 a4 7a be 30 7b 69 be
       0.022400212 0.30961618 -0.24476685 -0.22800899
000160 fe 88 31 be 08 e7 95 3d e9 94 20 3d 11 9d d5 3e
       -0.17337415 0.07319456 0.03920451 0.41721395
000170 28 c8 eb 3e 25 f0 8e 3e 60 9f 57 3e fc 45 59 be
       0.46051145 0.2791759 0.2105689 -0.21218103
000180 ab 6c 6a bd 29 48 b0 3c ef a4 b4 3e 7f b9 0d 3f
       -0.05723254 0.021518784 0.35282084 0.5536117
000190 b2 01 8a bd 6d a2 44 3e ba f5 0a be 8f 90 9b bd
       -0.067386046 0.19202586 -0.135703 -0.07595932
0001a0 b7 64 86 bd fa 68 28 3d 50 b8 fa 3e e7 ba ee 3d
       -0.065621786 0.04111574 0.48968744 0.116567425
0001b0 18 fe 13 be 90 e2 16 3f bf fc 18 be 78 bc 90 3e
       -0.14452398 0.58939457 -0.14940165 0.2826879
0001c0 cb aa 8b bd 2c e9 f3 3d 32 45 e4 3d 29 6a b6 3d
       -0.068196855 0.119097084 0.111460105 0.08906967
0001d0 42 e1 98 3c 95 7f 7d 3c 49 97 71 3d a7 28 a2 be
       0.018662099 0.015472312 0.058982167 -0.3167164
0001e0 5a 8e ee 3d 5b 45 07 be 7a 59 36 3f 4e 18 8d be
       0.11648245 -0.13210051 0.7123028 -0.27557606
0001f0 7a 5a f5 3a 54 2e 01 3e e5 73 6c 3d d6 3c c7 3d
       0.0018718981 0.12615329 0.057727713 0.097284004
000200 40 75 8b bd d2 df c6 bd 4c da ed 3e 0e 48 6c be
       -0.06809473 -0.09710659 0.4645561 -0.23074362
000210 25 38 7c bd dd 04 b2 3e e8 79 3d bd f2 55 53 3e
       -0.06157698 0.34769335 -0.046258837 0.20638254
000220 b6 f4 bf 3d c6 89 8b 3d 88 a9 a6 3e ba 46 ce 3e
       0.09372847 0.068133876 0.32551217 0.40288335
000230 b3 77 0e 3e 32 c4 3f be 8b e1 78 be 54 46 87 3d
       0.13912849 -0.18727186 -0.24304788 0.06605211
000240 dd e1 49 be 59 32 a0 3d 9f 60 80 bd bb 2c 96 3e
       -0.19715066 0.07822103 -0.06268429 0.29331002
000250 bb 12 68 3d 52 f4 6d 3e ba 1f 7f be 27 d8 23 be
       0.056658488 0.23237732 -0.24914446 -0.16000424
000260 03 68 4a be 51 25 94 3d 95 5f af 3d c1 d6 ed 3e
       -0.1976624 0.0723368 0.08563153 0.46452907
000270 cc 5a f2 3e b3 3f 9d 3e a0 d9 3b 3e 6e 2a 42 be
       0.47334898 0.3071266 0.18344736 -0.18961498
000280 77 4b ea bd f6 f7 13 bd c9 02 b4 3e 0f f9 10 3f
       -0.11440175 -0.036125146 0.35158375 0.56630033
000290 96 46 c1 bd 45 2b 4c 3e 40 b2 0f be 58 02 7f bd
       -0.09437291 0.19938381 -0.1403284 -0.062258095
0002a0 22 bd 23 bb 5e 81 77 3d b0 de 02 3f 2c 67 e1 3c
       -0.0024984558 0.06042611 0.51121044 0.027515016
0002b0 0b 93 03 be 56 d7 0a 3f 16 86 0a be 4b 95 92 3e
       -0.12849061 0.54234827 -0.13527712 0.28629526
0002c0 dd b7 0b be 69 48 c6 3d b3 6f 07 3e ef 67 57 3c
       -0.13644357 0.0968178 0.13226204 0.013147338
0002d0 43 eb 89 bd e8 69 6b 3b 0f 31 b5 3c 1a 04 93 be
       -0.06734326 0.003592128 0.02211812 -0.28714067
0002e0 1e c3 01 3e cb 9b e6 bd 6e 7a 38 3f 4d 74 08 be
       0.12672088 -0.11260184 0.7206181 -0.13325615
0002f0 40 36 11 bd d4 2f ed 3d fb 5b 4b 3d e7 d1 cc bb
       -0.035452127 0.11581388 0.049648266 -0.0062506082
000300 4b b0 e1 bd 97 27 25 be e0 49 f7 3e df f7 41 be
       -0.11019953 -0.16128384 0.4829855 -0.18942212
000310 6d 1e d3 bc 1b 83 b9 3e 90 0e 4a bd 7e 34 4e 3e
       -0.025771344 0.36232838 -0.049330294 0.20137212
000320 58 06 93 3d d8 3e a7 3d 80 64 a7 3e d7 f7 be 3e
       0.07178944 0.08166283 0.32693863 0.37298462
000330 3e c0 15 3e 9b 0a 25 be b3 9f 82 be de 5d 4d 3d
       0.14624116 -0.16117327 -0.25512466 0.050138347
000340 36 d4 14 be 40 f9 a5 bd c2 21 c6 3d 53 37 9a 3e
       -0.14534077 -0.08104181 0.096744075 0.30120334
000350 43 5a 56 bd 64 da 8c 3e e1 40 38 be 5a 21 38 be
       -0.052332174 0.2751037 -0.179935 -0.17981473
000360 df 7f 3d be 61 4b c5 3d f0 0a 70 3d c7 3b d2 3e
       -0.1850581 0.09633518 0.05860418 0.41061231
000370 7f ef f8 3e 49 29 98 3e 2c 60 32 3e a8 a0 54 be
       0.4862022 0.29718998 0.17419499 -0.2076441
000380 45 d4 21 bd 09 48 d8 3d 3f 9b b6 3e 08 61 0e 3f
       -0.039509077 0.105606146 0.35665318 0.5561681
000390 ad 5f da bd 31 da 3b 3e 35 b7 ae bd 44 7b 97 3d
       -0.1066278 0.18344952 -0.08531038 0.07396558
0003a0 f3 79 88 bd b0 bf c4 3c c7 52 ff 3e 20 17 06 be
       -0.06663885 0.024017185 0.49867842 -0.13094759
0003b0 1b 44 a1 bd 03 88 0d 3f 9f 4e 43 bd 3b 02 64 3e
       -0.07874318 0.5528566 -0.0476824 0.22266476
0003c0 fb 65 09 bd 2d 37 e2 3d f1 1f 3c 3e f6 76 d3 3d
       -0.03354452 0.1104568 0.1837156 0.103254244
0003d0 e7 34 65 3d 08 fa 99 bc 77 dc 0d 3d 6d 4e e7 be
       0.055958655 -0.018795982 0.03463408 -0.45177022
0003e0 2a 58 7b 3d 4f 3c 21 be 82 fa 39 3f 71 bf 74 be
       0.061363377 -0.15745662 0.7264787 -0.23901154
0003f0 43 82 7c bd ce 2c 08 3e 11 ed 2c 39 c3 f7 bc bd
       -0.061647665 0.13298342 0.00016491512 -0.09226944

final.bias f4 [6]
000000 9d 85 2a 40 e4 5f 26 40 22 4c ca 3f 3e e2 b5 3f
       2.664405 2.5996027 1.5804484 1.4209669
000010 1f c9 8b 3f fc ad 4c 3f
       1.0920752 0.7995298
