D2QN_AAAI_LOSS/checkpoint_d2qn_5_1000_cheetah_20.pth (torch, 45655 bytes, 6 tensors)

fc1.weight f4 [128, 17]
00000000: ebaa 5ac0 259e 1d40 5371 33bf fed2 053f
00000010: c0d0 c13e a94c a9be 1f95 663f 3a56 e8bc
00000020: 0f64 d7bd ba9f cc3d 124e bdbe 95d9 19bd
00000030: 6a94 4abd f215 78bc 95e5 87bc fe0b 8abd
00000040: 325a 0abd 5819 ccbf 8c67 b1bf 1a19 3c3f
00000050: 56f3 4bbf b4fc 8cbe 38f2 f7be e779 0b3f
00000060: 011e efbe 2ba0 623f f3b9 09bf 17ca afbf
00000070: 3858 90be 1204 0fbe 4ba0 30be 797f 843e
00000080: c01f 90bc f062 3abe 0170 86c0 4e02 9fbf
00000090: bc7f 83bf 6daa c2bf 6a67 f2bf e2d2 e03e
000000a0: 6d24 583f 2856 05bf 4b49 833f 28ba 33bf
000000b0: 4f9a fabe c7e8 b0bd dab2 53bb 6af2 32be
000000c0: 0455 dabc d88a 91bc 9baf 3d3d 8676 6e3f
000000d0: 7550 8bbf b1b5 01c0 c4af 5cc0 0916 bebf
000000e0: be04 d53e 4c13 b9bd 2e60 b8be 5c13 70bf
000000f0: 872f 9c3e 23d6 ce3d 5036 8f3e 893b 8e3d
00000100: 07da 4d3e d03c e03d adb4 7d3c 4abb 8cbd
00000110: 7ccc 293f d105 9cbf 9f40 cdbf 567c b0bf
00000120: 451f c0bf 5a80 90bf bdf5 63bf 4741 0fbf
00000130: ff25 e5bd c2a4 4bbf f86a 9a3e a5a5 94be
00000140: 4f53 ccbd 48e8 a83e 0cc6 39bd 6cff 2b3e
00000150: bef6 00be 78af 8ac0 cca2 bdc0 f49a acbf
00000160: 46ab 16c0 3664 a6bf 3328 1fbf f875 b03e
00000170: fd65 46bf 3b86 3ebe 87aa b7bd a73a 9c3c
00000180: cc56 5e3d a8a1 11bd 8a8c a43c 1e3c 42bb
00000190: a4f9 d9bc 8c82 5c3c 702a 09c0 57e2 05c0
000001a0: 430d 18c0 35f9 19c0 efe5 29c0 1eab 1e3f
000001b0: 9001 cbbd 6bbc 013d 8ad9 d1bc 8395 8cbd
000001c0: bd74 b63e 7b14 9f3e 4a02 ae3d 9dd1 79be
000001d0: 96ab 8bbc f296 17bd 4dcf 06bd 5728 c7bd
000001e0: c7d6 a6be 2ec6 4ebf f815 9dbf f13d 94bf
000001f0: 27d2 c4bf 2ba5 9fbf a3fa 8ebf ce5d eabf
00000200: 1904 4cbf a84a 43bf 3799 61be e41a 50be
00000210: 56d0 92bd 905d 8e3d 9896 183f bc81 46bd
00000220: 3a2a b63f f939 0fbe 1cad f33e 3e5b 8b3e
00000230: b4f1 b53d 03aa 14bf 8434 003f 729b 84bf
00000240: 5881 12bf 1eaf 8b3e 21af a43e 9af6 ac3d
00000250: e85c 813e 3192 7dbe 0721 33ba a461 a33d
00000260: 1317 183e 193b 7bbf 3a03 4e3f 8b5d ecbf
00000270: 1fbf 57bf 8856 d0bf 77f6 f5bf 6057 42bf
00000280: 3b02 62bf 9e95 3cbf 7606 a3bd beab 70be
00000290: 5318 1f3e bfdc 97bd e6ba 27be 6f59 083e
000002a0: f010 e83c 89b3 d43c ab1c ab40 d805 c03e
000002b0: 7f6e 3c3e 60a1 9abe 8d30 03bf a88a fb3d
000002c0: 23b7 57bf bb2f bbbe 7cde 21bf e463 adbe
000002d0: 589e 63be 076e fa3d 9ba6 883d 6b06 bebe
000002e0: b887 9b3e 2dfd c93d f497 f6bd bdbb 9dc0
000002f0: ed2f 4fbf a491 9b3f 42b0 893f 69f3 193f
00000300: 5b78 94bf 319c 2ac0 9f3c acbe 52e7 153f
00000310: df35 0fbe 1e1a 053e 7d49 d53c 81f0 cabb
00000320: 93fb 873b d41d 4c3d f479 4fbd fd2c d1bc
00000330: cba8 eb3f cadb 463f 0a77 1bbf d7ab 583d
00000340: 7431 85be 5a0b dfbf d77b 06c0 6d46 2ec0
00000350: 5966 cbbf 9d9e dabf 29be 5ebe f6f9 d03b
00000360: eb1f 43be a167 083d cfee de3d ee3c 5d3d
00000370: 5e6d 75bd 4f4e c040 1ef5 d23f 90e0 143f
00000380: 2f84 723f bbae 863f ef4d 41bf 09b9 4b3d
00000390: 353a 333e 8974 f0bd 14b5 cd3f c05b 2f3f
000003a0: 3f10 4c3e bf8e ca3d cac2 073d 2239 a73c
000003b0: 787a c4bc 4930 083c 0d1e 9bc0 ba21 9b3f
000003c0: fb3a ad3e 4752 9a3e 7c75 463e 3dbe 52bf
000003d0: 3ce7 333f a06d 0cbf 29b4 aabe be04 14bf
000003e0: c0ca 133e b56a c73b ddb4 5c3d 95c9 c7bb
000003f0: b977 98bc c938 a5bd b1c1 073c e1a3 933f
-3.416682 2.4627774 -0.70094794 0.52275074 0.37854576 -0.330663 0.9007129 -0.028361429
-0.105171315 0.09991403 -0.36973625 -0.037561018 -0.049457945 -0.015141951 -0.016588965 -0.067405686
-0.033777423 -1.5945234 -1.3859725 0.734758 -0.79668176 -0.27536547 -0.48426986 0.54482883
-0.4670258 0.88525647 -0.5379936 -1.3733548 -0.28192306 -0.13966396 -0.17248647 0.25878504
-0.017593265 -0.18201804 -4.2011724 -1.2422578 -1.0273356 -1.520826 -1.893781 0.4391089
0.8443058 -0.5208459 1.0256742 -0.70205927 -0.48945853 -0.08638149 -0.0032302649 -0.17475286
-0.026651867 -0.017766401 0.04631005 0.931496 -1.0883929 -2.0267146 -3.448228 -1.4850475
0.4160518 -0.09036884 -0.3601088 -0.9377954 0.3050501 0.10099437 0.27971125 0.06944949
0.20102702 0.10949099 0.015484971 -0.0687166 0.66327643 -1.2189275 -1.6035346 -1.3787944
-1.5009543 -1.128917 -0.8904684 -0.5595898 -0.11188888 -0.79548275 0.30159736 -0.29032627
-0.09976827 0.32989717 -0.045354888 0.16796654 -0.12594125 -4.3339195 -5.9261227 -1.3484788
-2.3542037 -1.2999332 -0.62170714 0.34465003 -0.7749937 -0.18605892 -0.089680724 0.019070936
0.054281995 -0.035554558 0.020086545 -0.0029637883 -0.026608296 0.013458859 -2.1432152 -2.0919397
-2.3758094 -2.4058354 -2.654659 0.61979854 -0.099124074 0.03167383 -0.025616426 -0.068644546
0.3563594 0.31070313 0.0849653 -0.24396367 -0.017049592 -0.037009187 -0.03291254 -0.09724491
-0.32585737 -0.8077115 -1.2272329 -1.1581403 -1.5376633 -1.247228 -1.1170238 -1.8309877
-0.7969375 -0.7628579 -0.22031103 -0.20322758 -0.07168643 0.069514394 0.5960479 -0.048463568
1.4231637 -0.13986959 0.4759301 0.2721805 0.08883992 -0.5807192 0.5008013 -1.0359938
-0.5722861 0.2728204 0.32164863 0.08445473 0.25266194 -0.24762799 -0.00068332296 0.07977608
0.14852552 -0.9813705 0.80473673 -1.8466047 -0.84276 -1.6276407 -1.921584 -0.75914574
-0.88284653 -0.736658 -0.07960217 -0.23503014 0.15536623 -0.07415151 -0.1637989 0.13315366
0.028328389 0.025964515 5.3472495 0.37504458 0.18401526 -0.30201244 -0.5124596 0.12282306
-0.8426382 -0.36559853 -0.6323011 -0.33865273 -0.22228372 0.12228017 0.066724025 -0.37114272
0.30376983 0.098627426 -0.120407015 -4.9291673 -0.80932504 1.2153821 1.0756915 0.6013704
-1.159923 -2.6657832 -0.3364 0.5855609 -0.13985394 0.12998244 0.026036019 -0.006193221
0.004149863 0.049833134 -0.050653413 -0.025534147 1.8410887 0.7767912 -0.60728514 0.052898254
-0.26014292 -1.7425339 -2.1013086 -2.7230484 -1.5890609 -1.7079655 -0.21752228 0.006377454
-0.19055144 0.033301953 0.10885393 0.054013185 -0.059918754 6.009559 1.6481054 0.58155155
0.94732946 1.0522074 -0.7550954 0.04973701 0.17502673 -0.11740977 1.6070886 0.68499374
0.19928072 0.09890508 0.03314475 0.020412985 -0.023984179 0.008312293 -4.8474183 1.2119668
0.3383406 0.30140898 0.19380754 -0.8232153 0.7027471 -0.54854774 -0.33340576 -0.57819736
0.14432812 0.0060857185 0.053883422 -0.0060970285 -0.018611776 -0.080674715 0.008285926 1.1534387

fc1.bias f4 [128]
00000000: 7a11 10c0 b810 d4bf 1a23 c5bf 15f8 26bf
00000010: a9a4 b4bd 5dea 7abe d2e0 e03e a057 87bf
00000020: 7527 ecbf 9e24 443e 3a3e d53e 2487 10bf
00000030: 6d44 94bf 5cd3 d2bd 1184 01c0 b3de 913f
00000040: 41e9 33bf b9c9 bdbf ec0f 2bbf 08a1 15bf
00000050: f3d6 c3bf 7fc2 38bc 59a8 07bf 4254 b4bf
00000060: d546 9dbf 8a83 54bf f6a2 3540 8659 75bf
00000070: 6d69 7fbe c97d 1940 8ad0 f7bf a24e 0340
00000080: d1f3 22c0 5391 0dc0 123a 4e3f bf7a bfbf
00000090: f678 a0bf 9815 34bf 1540 86bf b9e1 87bf
000000a0: 51a6 1f3f 5e04 2cbf fd77 0ac0 42cd c6bf
000000b0: b95c 3e3f d056 a7bf 887b fb3f b8c9 e5bf
000000c0: bd45 adbf cacf acbf 0444 f73f fe9e bdbf
000000d0: b0df 1240 d727 063f e1df debf 731d d3bf
000000e0: 8be9 c9bf 9b67 24c0 d8e9 fabf 3236 d8bf
000000f0: 7cbe 3740 3470 cf3e 72d2 923f 3dae f13f
00000100: f956 3c3e 112a 63bf 287e 89bf 6304 03c0
00000110: e69c ecbf 6ebb b3bf bee9 e2bf b202 153f
00000120: 6398 2fbd 2972 75bf 8037 32bf 77c2 3440
00000130: a301 b43e 1358 43be 0167 59bf 0391 2640
00000140: 1f82 a53d cd44 03be ddbd 173f dc14 d2be
00000150: 2ee2 94bf b213 15bf 5654 2940 84e6 84bf
00000160: 36c4 283e 95da 00c0 7b57 373f 2667 d43f
00000170: 125c 873f 3aa4 b2bf 74b3 2540 900e d23e
00000180: f8f2 193e 699d bebf 9905 0bc0 41de 2a3e
00000190: 983c db3f ced9 cbbf 975c ac3f 968c 0340
000001a0: 4aa7 aa3e 8515 c0bf 55e8 e5be c9ef ccbf
000001b0: efca a1be 26f6 dfbf 0858 e4bf 2327 14bf
000001c0: cca5 a5bf 2e07 b8bf 8052 d73f 6ca5 01c0
000001d0: fd5f 963e 57f4 1640 6ff9 1e40 85c8 263f
000001e0: 7f9c 94bf ac40 90be 8a77 5dbf 162e 30c0
000001f0: f98b f3bf c270 00c0 efe5 cbbf adef f93f
-2.2510667 -1.6567602 -1.5401337 -0.65222293 -0.08820469 -0.24503465 0.43921524 -1.0573616
-1.8449541 0.19154593 0.41649038 -0.5645621 -1.1583382 -0.1029422 -2.0236857 1.1396087
-0.7027779 -1.4827186 -0.6682117 -0.5844884 -1.5299972 -0.01127684 -0.52991253 -1.4088213
-1.2287241 -0.8301321 2.8380713 -0.95839727 -0.2494256 2.3983023 -1.9360516 2.0516744
-2.5461314 -2.211995 0.8055736 -1.4959334 -1.2536914 -0.7034545 -1.0488306 -1.061576
0.62363154 -0.67194164 -2.1635735 -1.553139 0.74360234 -1.3073368 1.9647074 -1.7952185
-1.3536907 -1.3500912 1.9317632 -1.4814146 2.2949028 0.5240454 -1.7412072 -1.6493362
-1.5774397 -2.5688236 -1.9602613 -1.6891539 2.8710012 0.40515292 1.1470473 1.8881298
0.18392552 -0.88736063 -1.0741625 -2.0471427 -1.8485382 -1.4041574 -1.7727582 0.5820724
-0.042869937 -0.9587732 -0.69615936 2.8243692 0.351575 -0.19076566 -0.84922796 2.6026008
0.08081459 -0.12819214 0.59274083 -0.4103154 -1.1631525 -0.5823318 2.6457725 -1.0382848
0.16481099 -2.0133412 0.7161786 1.6593978 1.0574973 -1.3956368 2.589078 0.41026735
0.15034091 -1.4891788 -2.1722167 0.16686346 1.7127867 -1.5925844 1.3465756 2.0554557
0.33330756 -1.5006567 -0.44903818 -1.6010677 -0.3160014 -1.7496994 -1.7839365 -0.5787222
-1.2941222 -1.4377191 1.6822052 -2.0257215 0.29370108 2.3586633 2.4839742 0.6514972
-1.1610259 -0.2817434 -0.8651053 -2.7528129 -1.9027091 -2.0068822 -1.5929545 1.9526268

fc2.weight f4 [64, 128]
00000000: ae81 8bbf d57a b03e ed67 623f a9bf 61be
00000010: 82f5 b6bd 567c 6ac0 e8e0 b63f 3add fabe
00000020: cfaa 18bf c8b6 39bf a292 12bf 04ee 7ebf
00000030: 2841 443e a344 9e3f 2946 c73b 1b17 a73d
00000040: f48e 9a3e 822a aabf 41d7 ddbf 5eb5 57bd
00000050: d4f5 e5bf 14ca 483f e9c0 afbf 2bdd 91bd
00000060: 81f3 6bbe cbe9 7dbe 7a99 7c3e 86c1 01bf
00000070: f2e5 e1be 3677 a23e c39b 56ba dffc b63d
00000080: 8df6 0dc1 8759 36bf ded0 1d3f b9d5 c33e
00000090: 4d36 813f a402 f0bf 1d5f ba3f ae44 703f
000000a0: 4715 d3bf 69a3 92bf d523 b9be 60a4 3b3f
000000b0: 3b50 44be 5250 eebd 5543 9abb 34ea 7cbc
000000c0: b912 a6bf 89f0 fe3d 98e5 6c3e 42ab 1d3f
000000d0: fa7d 29be 388f 973c 8010 c63d f7bf dfbf
000000e0: 2374 74bf 8469 e7bf 3379 c2be e19a 03bf
000000f0: 2ff4 a13d 2272 a03e 0f3d 4c3f d424 103e
00000100: 3db7 5d3d 91f5 00bf 2f48 913e 3a74 b0bf
00000110: 66ed 1d3e b94c 9c3f beaa b0bd 7eb4 a23e
00000120: c635 2ebf 6ec3 09bf 7633 a33e d6f3 72be
00000130: d5b0 e1be 309a e43e e48e 803e 25e1 3a3e
00000140: 7a9a 90bf c058 f23e 3067 9e3f 22b3 babd
00000150: c8a4 533f 08d3 d0be b2c4 44be 4d29 243f
00000160: 55db 0a3f 7e48 b63d afa8 6dbd 3477 e2be
00000170: 9423 2cbf 5ed0 abbe efe6 e53d eff8 393f
00000180: ccff 46bd 4317 3abe 198f a1c0 b526 efbe
00000190: e117 853d dbc3 9abe 31f1 78be edc8 893e
000001a0: ef4b bf3b e0f4 39bf 69c4 92bd 1441 093e
000001b0: 1645 8fbf dd00 123f c936 54bd 5596 a4bf
000001c0: f702 cb3d 179f 44bd 8c54 72bf 9dc5 aa3e
000001d0: 62a5 90bf 4b86 0abe b325 dc3e d736 80bf
000001e0: cea7 393e 4892 babf a547 093f 7754 20c1
000001f0: 97e5 273f 51d5 8fbf b95d 9fc0 a671 0ebd
00000200: fd14 32bf c728 e93e 1fc2 003f bb63 3d3e
00000210: c932 b13e eef4 a8be a2cc ecba a35e 52be
00000220: 6cb2 22bf b794 f23e 4aab 9a3f d1cf 123f
00000230: 4133 233f 332d a1bf 1801 9abe 3e87 573f
00000240: 3d1d 743e 28eb 553f 1b2b 1b3d 7950 33be
00000250: 08f7 c4be c502 003e 3765 8c3f db60 6b3f
00000260: 350e a33d d7b8 4f3e ba69 b43e 0291 37be
00000270: 3d87 d8bf 80eb eb3e c578 bbbd fa5d 23bf
00000280: 632e e8bf 82ad 64be e78b 64bf a9cf 873d
00000290: eea6 21c0 ec8b dd3d c07c 23bf 0e1b 3bbf
000002a0: fcfd bfbe 2aea 37bf 241d 8cbf 24f7 4f3e
000002b0: 382e 02c0 bee0 253f 8a98 f8bc 67e6 95be
000002c0: 4122 a5bb 01d3 96be 4aa6 47c0 f47b 9fbf
000002d0: 635a 7ebe a37a 08bf 8746 4d3f 6158 c43f
000002e0: 7d30 34bf cd1e 14bf f734 683e 31ff 5f3b
000002f0: 1b2c 4dbb a163 213f 3c75 02be e4e4 36bc
00000300: 464b 213d bfe2 e03d d042 383e 4e2a 30bf
00000310: 95fb 403e f5d1 953e 7605 c13f b06b d0be
00000320: 433b 2140 a151 1dbf 0af8 22bd 4a2e 88be
00000330: 9d4e a63d a7c9 21be 9a8b 173e ae14 df3d
00000340: 5ea9 6a3f 5b6a 7ebe 6847 883f abef 8d3f
00000350: d48e c1bd 8bcc f03d 16a5 5a3e 7ea0 0cbf
00000360: 9386 edbd db2c 82be e765 263f 276a 82be
00000370: c654 a0bf a68c 3cbe 3222 da3d 1133 56be
00000380: e2c0 c2be e000 c03d 5fbb 893f 8783 48bf
00000390: 7406 ae3e 1d00 1740 49dc c43e dd4c b93e
000003a0: 5d1c 6cbe efd2 b23f 43c8 ecbe bbf0 46c0
000003b0: fdec 52be c688 c73f 7166 0c3e a80d 583e
000003c0: 2421 1b3f a184 8bbe d022 50bf 824e 0bbe
000003d0: 99e1 9ebf 859b 0b3f 5c26 1c3e c9ce 5ebf
000003e0: 9e57 ddbe da63 57bf 5970 5a3e aba6 96bf
000003f0: d51a 4d3d 0d1b 003e 71ad 7c3f c0c6 993d
-1.089895 0.34468713 0.8843983 -0.22045769 -0.08933546 -3.6638389 1.4287386 -0.48996907
-0.59635633 -0.7254453 -0.57254994 -0.99581933 0.1916548 1.2364696 0.006081362 0.08158704
0.3018719 -1.3294222 -1.7331315 -0.0526632 -1.7965646 0.78433347 -1.3730747 -0.071222626
-0.23042108 -0.24796216 0.24667922 -0.5068592 -0.44120747 0.31731576 -0.00081866625 0.0893495
-8.872693 -0.7123036 0.6164683 0.38248995 1.0094696 -1.8750806 1.4560276 0.93854797
-1.6490868 -1.1456119 -0.3616015 0.7329769 -0.1917123 -0.11636414 -0.0047077336 -0.015436698
-1.2974464 0.12448222 0.23134458 0.61589444 -0.16551962 0.01850091 0.09671116 -1.7480458
-0.9548971 -1.8079076 -0.37983093 -0.514082 0.079079024 0.31337076 0.7978067 0.14076549
0.054129828 -0.50374705 0.28375384 -1.378547 0.15422592 1.2210914 -0.086263165 0.3177833
-0.680508 -0.5381383 0.318752 -0.23725829 -0.44080225 0.44648886 0.25109017 0.18249948
-1.1297143 0.47333336 1.237524 -0.09116198 0.8267331 -0.40786004 -0.19215658 0.6412552
0.54240924 0.089005455 -0.058022197 -0.4423157 -0.6724179 -0.3355741 0.11225688 0.7264547
-0.04858379 -0.18172936 -5.048718 -0.4670922 0.06498695 -0.3022755 -0.24310757 0.26911107
0.0058379094 -0.72639275 -0.071663685 0.13403732 -1.1192958 0.5703257 -0.05181006 -1.2858378
0.09912675 -0.048003282 -0.9466026 0.33353892 -1.1300471 -0.13527791 0.42997512 -1.0016736
0.18130419 -1.4575891 0.53624946 -10.020621 0.655847 -1.1236974 -4.9801908 -0.034776352
-0.69563276 0.45538923 0.50296205 0.18495075 0.34609058 -0.32999367 -0.0018066356 -0.20543914
-0.635535 0.47379085 1.2083523 0.5734835 0.6375008 -1.2591919 -0.3007896 0.8419074
0.23839279 0.83561945 0.037882905 -0.17511167 -0.3846972 0.12501056 1.0968388 0.91944665
0.07961694 0.20285355 0.35236913 -0.1792641 -1.6916271 0.4607811 -0.09153894 -0.6381527
-1.8139156 -0.22331813 -0.89275974 0.06631405 -2.5258136 0.108177036 -0.6386223 -0.7308816
-0.37498462 -0.7184168 -1.0946393 0.2030912 -2.034071 0.64796054 -0.030346174 -0.29277346
-0.005039484 -0.29457858 -3.1195245 -1.2459702 -0.24839167 -0.5331213 0.8018574 1.5339471
-0.7038649 -0.578595 0.22676454 0.0034179206 -0.0031306806 0.63042647 -0.12740034 -0.01116297
0.039378427 0.109807484 0.17994237 -0.6881455 0.18845971 0.29261747 1.5079792 -0.4070716
2.519242 -0.6145268 -0.03978733 -0.26597816 0.08120463 -0.1579958 0.14799348 0.10892616
0.91664684 -0.24845259 1.0646791 1.1088766 -0.094510704 0.117577635 0.21352038 -0.5493239
-0.115979336 -0.25424847 0.6499924 -0.25471613 -1.2525871 -0.18413028 0.106510535 -0.20917918
-0.38037783 0.09375167 1.0760306 -0.78325695 0.33989298 2.359382 0.38449314 0.36191455
-0.23057695 1.3970622 -0.46246538 -3.108443 -0.20598216 1.5588615 0.13710953 0.2109896
0.60597444 -0.27249625 -0.8130312 -0.13604167 -1.2412597 0.5453418 0.15249008 -0.8703428
-0.4323091 -0.84136736 0.2133192 -1.1769613 0.050074417 0.12510319 0.9870215 0.07508612

fc2.bias f4 [64]
00000000: d5e1 0bbf 4ad7 84bf f970 3c40 04ef 80bf
00000010: 21c9 2bbf e216 3840 61ff 72bf edbd 3340
00000020: 8b9a 043e ae3c abbd 71ba 2c40 0c3a 363f
00000030: 128b 623f b72e b5bf cef4 fc3e 67f5 86bf
00000040: a374 703f ad25 e4bd 1c60 f9bc f67a db3f
00000050: 4c3b 93bd f807 ca3d 355d aebf b03d 9fbf
00000060: f028 e6be feda c43f a243 abbd f0dd 3c40
00000070: 3267 4840 7a41 1440 09a4 8abf bb08 79bf
00000080: c224 93bd f5e1 2e40 d066 3440 8bdd 2f40
00000090: 6f30 adbe 49d5 d63f 1fa7 6e3e bb8e b7bf
000000a0: e26d bd3e ddb9 bbbc fb4b 4140 0060 98bd
000000b0: 026d 05bf 1129 4f40 8265 6bbf 961b 30bd
000000c0: 9d37 53be 4e80 0040 2982 1040 04f8 1d3f
000000d0: 9f0e cb3f 0dcc ccbd c1ef 693f c16e babd
000000e0: b34c c93f 1696 b9bf 9938 5440 181e 7bbf
000000f0: 4369 6d3d 663e 1640 0e7c 0e40 545f 693b
-0.5464147 -1.0378201 2.9443953 -1.0072942 -0.67103773 2.8763967 -0.9492093 2.8084671
0.12949578 -0.08361183 2.6988795 0.7118232 0.88493454 -1.4154881 0.4940552 -1.0543641
0.93927974 -0.111399986 -0.030441336 1.71469 -0.07189044 0.09864801 -1.3622195 -1.24407
-0.44953108 1.5379331 -0.08362509 2.951046 3.1312985 2.3164964 -1.083131 -0.97278947
-0.07184745 2.7325413 2.8187752 2.747897 -0.33826014 1.678384 0.23305939 -1.4340433
0.36997896 -0.022915775 3.0202625 -0.074401855 -0.5211946 3.2368815 -0.91951764 -0.042995058
-0.20626684 2.007831 2.2579443 0.61706567 1.5863837 -0.09999857 0.9138146 -0.09103156
1.5726532 -1.4498928 3.3159544 -0.98092794 0.057961714 2.3475585 2.2263217 0.0035609799

final.weight f4 [6, 64]
00000000: 9a49 92bd 5380 11be 5d23 f93e efc3 0bbe
00000010: 5943 6cbe 00f2 ee3e 794b 69be 7eb6 d53e
00000020: f7f7 17be 5012 63bd 16b9 ba3e 95f2 ba3e
00000030: 7e83 9abd c0fc 02be ef67 cf3e f3d7 42be
00000040: 147f 033e 6121 d53d d827 98bd 6702 533e
00000050: 9da5 a53d c851 9dbe a61d a5be 30a5 a3be
00000060: a38d 213d fb08 25be ff9d a2be b24d e63e
00000070: 556e f43e 710a 773e 24fa 99be 15d1 99be
00000080: 1b6e 8abd 95d3 633d d4c9 503e 3cc8 523e
00000090: 48f2 b5bd a710 563e 4367 5a3e 44cb a7bd
000000a0: 3c35 743e b9cb 6dbd 1391 e23e 73aa 70bd
000000b0: 1f95 38be a032 293f 7b95 6dbe bed4 d53e
000000c0: 7c95 d23d c990 b93d 6daf 7d3c dbcc b33d
000000d0: 6821 10be b02d b8bc ba0a 103e 8482 8fbe
000000e0: fbdd a43b 63c3 523c a775 223f ad43 3d3d
000000f0: 3b0e a33d 4149 4e3e 85b7 363e c034 d53b
00000100: 9b3f 15be f416 d5bd a24a e93e 8b07 8abe
00000110: fc3d 643e a78e b13e 0001 b73d 8bec 1b3e
00000120: d59e f93c 5e5a e13d 5481 953e 7028 843e
00000130: 19b7 0d3e efa3 45be be73 21be d11d 45bc
00000140: fd12 c6bd d463 fe3c 33be 003e feaf 793e
00000150: a680 b73c 9ad2 973e 1063 a2bd 775c 6cbe
00000160: 8910 23be a998 573e ea6c ca3c 2ed1 d13e
00000170: 49f9 e93e c2b8 c83e 19e8 c6bd 36e7 08be
00000180: ab6c 6abd 974d e4bb 7a0a df3e 3389 b23d
00000190: 36d6 55bf a944 493e d1e1 fbbd bee5 ebbd
000001a0: 4f92 a4b9 fa68 283d 23ae 073f e7ba ee3d
000001b0: 3e36 70be c1b4 153f b5d6 abbc 7903 4cbe
000001c0: f2dc 8abd 7548 813d 6681 20bd a64b ebbd
000001d0: 737e db3d 205b 85bc 08c2 0f3d 9900 a63d
000001e0: 9ca8 4f3c 8a42 7bbe ac5e 3d3f 277e 6cbe
000001f0: 68aa 813c 432a ab3d 4bb8 923d 9017 e93d
00000200: fa82 19be e8c9 09be 019b 023f 1a11 97be
00000210: d8a7 7f3e 94ed a53e d879 b63d 2ea1 2d3e
00000220: c759 613d c689 8b3d 8bf5 933e 53f0 8c3e
00000230: a423 1e3e 9d8b 4abe 39f7 22be 946d e6bd
00000240: 39a8 a1bd 4676 803d 9f60 80bd ebea 823e
00000250: bb12 683d 19d5 893e b3ec c1bd bab0 1cbe
00000260: 5db4 d5bd 603f 3c3e d3a2 f93c 5a40 f63e
00000270: 4e2d ff3e cb67 d13e 7b5e 87bd 577c 09be
00000280: 774b eabd 14ee 813d 3546 c33e 5fca e73d
00000290: e98d 593c abce 433e f956 06be 9702 e7bd
000002a0: e3c5 e1bc 5e81 773d a8bb 093f 2c67 e13c
000002b0: 6ae1 3fbe 773d 093f 3c55 573d 1b7b 2abe
000002c0: 54a3 0bbe 6ee7 843d 86f9 643a 1591 4bbe
000002d0: 4b5d fa3d be5c 353b 2035 5fbc e71b 383e
000002e0: a4a3 d53c 9383 6abe f859 3c3f b70d 69be
000002f0: 4036 11bd 494a 7b3d 1782 8f3d 1b26 933c
00000300: 8bfa e4bd ed96 06be 8090 fa3e adf9 56be
00000310: b007 8c3e 75f1 b13e 3124 f23d 11cd 3d3e
00000320: e5aa 7d3d d83e a73d b4a0 843e 50ac 763e
00000330: ef60 0f3e 7610 4cbe c3a1 39be a27b 04bf
00000340: aaea e8bd 40f9 a5bd 489a e63d 052b 803e
00000350: 435a 56bd 4448 953e 9ca3 d1bd 9b98 85be
00000360: d65a 8ebe 59d3 573e 2fa4 cbbb b96a e93e
00000370: b94b 013f e36e cb3e 5032 84bc 5cfc 01be
00000380: 45d4 21bd 8c30 18be 6054 d93e 6b91 bd3d
00000390: 8b2f 2bbe ebff 333e 1a5e c4bd 7777 21be
000003a0: 6398 bf3b b0bf c43c 7f5e 083f 2017 06be
000003b0: 6adc 86be c156 0b3f 085d 17bd 70b8 3ebe
000003c0: 4be6 07bd c54a 553d cd44 0c3e 97d5 18be
000003d0: 9317 073e 08fa 99bc f49e dd3d 90ec 76be
000003e0: eec0 cc3d c08b 6cbe 13cf 373f 7d5a 6bbe
000003f0: 4382 7cbd 4262 b03d 923e 013e d0b9 d7bd
-0.07142945 -0.14209108 0.48659793 -0.13648961 -0.23072566 0.46669006 -0.22782697 0.41740793
-0.14840685 -0.055437386 0.36469334 0.365132 -0.075446114 -0.12791729 0.40508983 -0.1902769
0.12841445 0.10406757 -0.074294746 0.20606385 0.08088229 -0.30726457 -0.32249182 -0.31961966
0.039441716 -0.16116707 -0.31761166 0.44981152 0.47740427 0.24125077 -0.30073655 -0.3004233
-0.06759282 0.055621702 0.20389491 0.20584196 -0.08884102 0.2090479 0.21328454 -0.08193067
0.23848432 -0.058055613 0.44251308 -0.058756303 -0.18025635 0.6609287 -0.23201554 0.41763872
0.10282418 0.09060819 0.015483719 0.087793075 -0.14075243 -0.022482723 0.14066592 -0.28029263
0.005031345 0.012863967 0.63460773 0.04620712 0.079616986 0.20145132 0.17843445 0.0065065324
-0.14575045 -0.104047686 0.45564753 -0.2695888 0.2228927 0.34679148 0.089357376 0.15226953
0.030471245 0.11003564 0.29200232 0.258121 0.13839377 -0.19300817 -0.15766808 -0.012031035
-0.096715905 0.031053461 0.12572555 0.24383542 0.022400212 0.29652864 -0.07929051 -0.23082148
-0.15924276 0.21054329 0.024710137 0.40979904 0.45698002 0.3920346 -0.09712238 -0.1336945
-0.05723254 -0.0069672572 0.4356268 0.08717575 -0.83529985 0.19655098 -0.122989304 -0.11518429
-0.00031389526 0.04111574 0.53000087 0.116567425 -0.23458192 0.58478934 -0.020976404 -0.199232
-0.06780423 0.06312648 -0.039185904 -0.11489038 0.10717478 -0.016278803 0.035097152 0.08105583
0.012674477 -0.24537101 0.7397258 -0.23094998 0.015828326 0.0835767 0.07164057 0.11381447
-0.1499137 -0.13455927 0.5101777 -0.29505235 0.24966371 0.3240782 0.089099586 0.16956016
0.05501726 0.068133876 0.28898272 0.27527103 0.15443283 -0.1977982 -0.1591462 -0.11251369
-0.07893414 0.06272559 -0.06268429 0.25569853 0.056658488 0.26920393 -0.09468975 -0.15301791
-0.10434792 0.1838355 0.030473148 0.4809597 0.49839252 0.408995 -0.066098176 -0.13426338
-0.11440175 0.06344238 0.381395 0.11317896 0.013278463 0.19121806 -0.13119115 -0.11279791
-0.02756018 0.06042611 0.53801966 0.027515016 -0.18738332 0.5360941 0.05257152 -0.16648524
-0.13636523 0.06489454 0.00087346917 -0.19879563 0.122248255 0.0027673687 -0.013623506 0.17979394
0.026079006 -0.22901754 0.7357478 -0.22759138 -0.035452127 0.06135014 0.070072345 0.017962506
-0.111806 -0.13143511 0.4893837 -0.20993681 0.27349615 0.3475453 0.11823309 0.18535258
0.061930556 0.08166283 0.25903857 0.2408917 0.14001821 -0.19928154 -0.18128113 -0.5175115
-0.113728836 -0.08104181 0.112598956 0.2503282 -0.052332174 0.29156697 -0.10236284 -0.2609299
-0.27803677 0.21076716 -0.0062146406 0.45589235 0.5050617 0.39733037 -0.016137272 -0.12693924
-0.039509077 -0.14862269 0.42447186 0.09256252 -0.16717355 0.17578094 -0.09588261 -0.15768228
0.0058470233 0.024017185 0.5326919 -0.13094759 -0.26340038 0.5442925 -0.036953956 -0.18625045
-0.03317861 0.05207326 0.1369812 -0.14925228 0.13192587 -0.018795982 0.108213335 -0.24113679
0.09997736 -0.23100185 0.71800345 -0.22983737 -0.061647665 0.08612491 0.12621525 -0.10533488

final.bias f4 [6]
00000000: 3eed 2740 47ce 2640 2632 ce3f a927 b33f
00000010: c475 8b3f 8561 4b3f
2.623855 2.6063402 1.6109054 1.3996478 1.0895314 0.7944568
