D2QN_AAAI_LOSS/checkpoint_d2qn_lunar.pth (torch, 40535 bytes, 6 tensors)

fc1.weight f4 [128, 8]
000000 6a 74 91 bf 74 f7 81 bf d9 18 f7 3e 37 e9 bb be
       -1.1363652 -1.0153642 0.48261145 -0.36701366
000010 78 3e 6d bf dc 8d a4 3f 2b 61 49 3d 6f 0e 98 bf
       -0.92673445 1.2855792 0.049164932 -1.1879405
000020 1a 26 5a 3f 30 76 0e 3f ba a9 13 be d4 a4 be be
       0.8521439 0.5564909 -0.14420214 -0.3723513
000030 fd f8 12 3f cc 25 45 bf d8 42 cf bf 6b c8 10 3f
       0.57411176 -0.770108 -1.6192274 0.56555814
000040 19 48 af 3e e9 e2 3b bd 46 94 27 3e f3 93 0b 3f
       0.34234694 -0.045870695 0.16365156 0.5452263
000050 62 3d 5f bf bb 62 c4 3e be ea bb bd fd 7b 48 bf
       -0.8720304 0.38356575 -0.09175633 -0.7831419
000060 a3 46 52 3f 44 a4 8c 3f c8 cd 12 be fe 2e 57 be
       0.82139033 1.098763 -0.14336312 -0.2101402
000070 38 88 f9 bd b2 6f 83 bf 17 3b ea 3e 87 de f7 bc
       -0.12184185 -1.0268462 0.45748207 -0.030257476
000080 26 b1 f7 bf ea a3 14 3f c5 5a 86 3e af e3 a2 3f
       -1.9350936 0.58062613 0.26241127 1.2725734
000090 ac 72 8f 3e e9 d6 b7 3e c5 8a 61 bf 0a c1 36 bf
       0.28017175 0.3590615 -0.8810237 -0.71388304
0000a0 7d 2e 9a 3c 9e 05 05 3f 31 c8 28 c0 3d 2e a7 bf
       0.018820995 0.51961696 -2.6372187 -1.3060986
0000b0 0d d9 c8 bc e6 ad e2 3d 3b 55 83 3d 22 1d 03 3e
       -0.02451756 0.11068325 0.06412741 0.12804082
0000c0 77 4a 54 bf 28 a3 38 3d b3 64 29 3f 7a eb b0 bd
       -0.82926124 0.045077473 0.6616928 -0.086386636
0000d0 2f f1 0b 40 2b 55 8c 3f 6d f0 ce bf f2 28 26 c0
       2.1865957 1.0963491 -1.6167122 -2.596249
0000e0 ff a2 8b 3e f7 78 2a 3e 7e 0e ef 3d 60 04 22 bf
       0.27272794 0.16647707 0.11672686 -0.63287926
0000f0 30 9b a5 3f 18 bf 00 3f b3 1e cb 3e 9c 3d 24 3e
       1.2937984 0.50291586 0.3967186 0.16039127
000100 09 c9 04 40 15 05 25 bf 61 dd 95 3f c1 79 04 bf
       2.0747702 -0.6446088 1.1708184 -0.5174828
000110 f2 b3 5d bf f6 43 b9 bd 17 6b 03 bf 24 c6 1c bf
       -0.866027 -0.09046166 -0.5133528 -0.6123984
000120 ab 1b 71 3f 6c 79 09 3f 09 83 b6 be bd 0b 6a 3f
       0.9418284 0.537009 -0.35646847 0.9142416
000130 df 15 88 3f e1 d5 34 bf 6c bd 7a bf 83 2e 01 c0
       1.0631675 -0.70638853 -0.97945285 -2.0184639
000140 fe e4 a6 bf 9d b0 2b 3f 83 17 3f 3f 47 2d 74 bc
       -1.3038633 0.67066365 0.7464525 -0.014903373
000150 b6 0e ef 3e b8 60 b2 be 7c 18 27 bf 50 9c 2b 3e
       0.4669091 -0.34839416 -0.65271735 0.16758847
000160 7a ae d2 be 49 03 c2 be 13 b0 af 3e 7c f0 ed 3f
       -0.4114874 -0.3789313 0.3431402 1.8589015
000170 b5 37 4b 3f a2 fa 69 3f c8 91 c2 bf 08 a5 3d bf
       0.7938188 0.9139806 -1.5200739 -0.7407994
000180 c4 61 81 3d 04 ce f2 3f 07 9f d0 be 60 15 10 bd
       0.063174754 1.8969121 -0.40746328 -0.035176635
000190 19 3f 22 3f 9a 06 e7 3f be 9c 5b bf 6a 83 d9 3c
       0.6337753 1.804889 -0.85786045 0.02655192
0001a0 ed bc c7 be 02 b6 35 be 89 f0 8f bd be ee 67 be
       -0.39011326 -0.17745212 -0.070283 -0.22649667
0001b0 71 66 01 c0 10 9d 93 bf f1 19 a5 be 83 c7 9c bf
       -2.0218775 -1.1532307 -0.32246354 -1.2248386
0001c0 32 2a 05 3e 74 fd 2f 3d d3 b3 15 bf aa 23 1a c0
       0.13004377 0.04296632 -0.58477515 -2.4084268
0001d0 b1 d4 94 bd ca 1f cb 3c cc f3 8e 3d c0 33 3b bd
       -0.0726713 0.024795432 0.06980094 -0.04570365
0001e0 53 2b b3 3d fe 77 09 bd aa c4 cb bd 8e aa e5 3d
       0.08748498 -0.0335617 -0.0994962 0.11214171
0001f0 ae 81 89 3f c6 be ae bf 40 c4 eb be c2 64 7e be
       1.07427 -1.365197 -0.46048164 -0.24843124
000200 f0 bc 59 bf 1e 93 dc c0 d3 f1 1f be 6f 66 14 c0
       -0.8505392 -6.8929586 -0.15619592 -2.318752
000210 c2 00 88 3e a7 48 c1 3b 60 05 7c be c3 9b 9b be
       0.26563078 0.0058985534 -0.24611425 -0.30392274
000220 06 63 5f bd 00 6b 20 bf 36 c6 6b bf d6 11 80 bf
       -0.054537795 -0.6266327 -0.9209932 -1.0005443
000230 cf 0a a8 3c ae 88 08 3f 45 4c 25 3f 70 56 12 bf
       0.020512966 0.53333557 0.64569503 -0.57163143
000240 d8 a9 52 3f bd 8c 95 3e 6a a2 29 bf 0f b2 38 bf
       0.8229041 0.29208937 -0.6626345 -0.72146696
000250 d2 b4 7f 3e fb d2 63 bf 96 ef 18 c0 74 b0 73 3e
       0.24971321 -0.88993806 -2.3896232 0.2379778
000260 72 3e 4c bf a1 b5 61 3e 71 b8 88 3e 2c e3 b0 bf
       -0.79782784 0.22041942 0.26703218 -1.3819327
000270 fc fb 2a 3f b2 35 d6 be 7c cd da be 93 e9 9d 3c
       0.6679075 -0.4183784 -0.42734897 0.019276416
000280 c5 57 b4 3f 0b 5d d7 be a9 f6 06 be c8 9e 8a bf
       1.4089285 -0.42063174 -0.13180031 -1.0829706
000290 16 64 9b be 06 25 07 bf 0e de 5a bf 7b 64 d9 be
       -0.30349797 -0.5279087 -0.8549508 -0.42459473
0002a0 81 f8 a0 3e 7d 19 c9 be a4 af 6c be 3a 37 d9 3e
       0.31439593 -0.3927726 -0.23113877 0.42424947
0002b0 db d1 81 be 29 83 05 40 04 6e 30 3e 4e 3b 2c be
       -0.2535542 2.0861304 0.17229468 -0.16819498
0002c0 7a 00 34 3f ed a0 16 bf 8a f5 4a 3f 03 d7 d6 bf
       0.7031323 -0.58839303 0.7928091 -1.6784366
0002d0 a9 29 fc be 85 8e 7a 3d 4a 60 f4 be 9f 0c 07 bd
       -0.49250534 0.061171073 -0.47729713 -0.03297102
0002e0 d5 9e b7 3f c9 eb f2 bd c7 bc 04 c0 69 e5 97 bf
       1.4345347 -0.11861379 -2.074022 -1.1866885
0002f0 1e 90 42 bf 95 d3 5c bf 26 6c 86 3e 97 b3 1b c0
       -0.76001155 -0.8626035 0.26254386 -2.4328363
000300 37 df 1a 3f 5e 2a 21 be 7c 3d 63 bf 6a b9 31 3f
       0.6049685 -0.15738818 -0.8876569 0.69423544
000310 e1 94 d1 3f 5e 3c 59 3f df b7 0d 3f 01 15 44 be
       1.6373559 0.8485774 0.5535869 -0.19148637
000320 1e 1a 22 3f 12 b7 b3 3e 33 75 09 bf 6c b1 b2 be
       0.633211 0.3510061 -0.53694457 -0.34900987
000330 ba ea a4 3f e6 76 27 3e a7 db 1c bf 05 d6 12 3f
       1.2884133 0.1635395 -0.6127266 0.5735782
000340 7f 2e ed be 07 5d 56 3f a7 85 90 3f a0 d1 f5 3e
       -0.46324536 0.837357 1.1290787 0.48011494
000350 5e b9 af be 5e fd 8a 3f c1 20 de be 7f ac 8a be
       -0.3432111 1.0858572 -0.43384364 -0.2708473
000360 85 d3 ad 3e dd 75 da bf 95 55 95 bf d4 22 59 c0
       0.3395044 -1.7067219 -1.1666743 -3.3927507
000370 eb fe d1 3e 44 aa f3 bc 37 15 2d bf e3 4f 36 bf
       0.410148 -0.029744275 -0.67610496 -0.7121565
000380 ca 68 83 3f f4 17 5c bf c3 e2 a8 be 43 ef ee be
       1.0266354 -0.8597405 -0.32985505 -0.46666917
000390 47 5b a1 bf 9e e1 71 3e c6 5c a7 bf 8e 48 c0 3d
       -1.2605981 0.23621222 -1.3075187 0.09388839
0003a0 28 d7 fa bf a0 3a 5f 3e 55 5a cd 3f a4 b6 3b bc
       -1.959691 0.21799707 1.6043192 -0.011457119
0003b0 cb 92 4d be 08 15 50 3d 8b 29 6a bf cd be 18 3f
       -0.20075528 0.050801307 -0.9146964 0.5966614
0003c0 87 89 b5 3f 4d 63 44 3f 4e 66 7b bf 1b cf 85 3f
       1.4182595 0.7671402 -0.9820298 1.0453829
0003d0 1b 26 e3 3f f6 28 8a 3f 94 6d 88 3e 82 0c 93 bf
       1.7746004 1.079375 0.266461 -1.1488192
0003e0 ba e1 01 3f fc f0 03 bf 07 fb 75 3d eb 91 75 3e
       0.50735056 -0.5153959 0.06005385 0.23981445
0003f0 2c 86 bf bf 75 cd 63 3f 21 f5 81 be a9 13 89 bf
       -1.4962821 0.8898538 -0.2538233 -1.0709125

fc1.bias f4 [128]
000000 52 b8 2f be 07 cd 3c bf 23 a4 8c bf 42 9b bc bf
       -0.17160156 -0.73750347 -1.098759 -1.4734881
000010 4b cd c8 bf 2d 39 ef bd 9c c3 06 be 6c e6 47 3e
       -1.568765 -0.11680827 -0.13160557 0.19521493
000020 7a 05 9d be e1 82 e7 3e 82 5b 2c 3f f0 f7 0b bf
       -0.3066824 0.4521704 0.6732713 -0.546752
000030 f2 05 4c be 1a d4 8c be 41 1f 66 bd 80 42 1a 3f
       -0.19924143 -0.2750557 -0.05618215 0.6025772
000040 aa 24 ed be e3 d9 aa 3e 57 03 af 3e 78 f2 7a be
       -0.46317035 0.3336936 0.34182236 -0.24506557
000050 8b a5 5e 3f a3 2f 59 bf 51 5f 5c 3f 68 05 87 3f
       0.8697135 -0.8483831 0.8608294 1.0548525
000060 d5 a6 bb bf 1b 8c 6b bf 78 78 e2 bf 21 b1 94 be
       -1.4660288 -0.9201066 -1.7693014 -0.2904139
000070 ef d7 4d 3f 2a a3 46 bf ad bd dc bf 43 87 89 3e
       0.80407614 -0.7759272 -1.7245384 0.2686101
000080 49 4f d5 3d 20 ee cd 3f 76 a6 23 3e 94 4e b5 bd
       0.10415513 1.6088295 0.15981469 -0.08852878
000090 b8 c1 04 3f 3e 78 71 3f 21 74 1a bf 5a 29 7a 3f
       0.5185809 0.943241 -0.6033345 0.9771935
0000a0 7b df 41 bf dc eb 8f bf ee b6 82 3e 76 70 e0 bd
       -0.7573163 -1.1243854 0.2553019 -0.1095895
0000b0 63 0c ee 3d 64 4d d1 be bf 41 ef 3e 64 b9 b0 3c
       0.11623456 -0.40879357 0.46729848 0.021572776
0000c0 ea 27 8b 3f 2a d3 9d bf d1 e7 c4 3f 64 99 09 3d
       1.0871556 -1.2330067 1.5383245 0.03359355
0000d0 8c e8 86 be ff ae b0 bf 60 1f d9 3e af 97 3a 3f
       -0.26349294 -1.3803405 0.4240675 0.728877
0000e0 ed 19 3b bf a9 d6 e0 be 6a 9a d7 be 89 c3 89 3c
       -0.73086435 -0.43913773 -0.42109996 0.016816871
0000f0 59 ce a8 3d 25 8f 77 3f 3f 0a d1 be 9a 9a b3 3e
       0.08242483 0.96702796 -0.4082813 0.3507889
000100 fa c7 6b 3e d3 86 4d be 45 e7 99 bf 19 79 95 3f
       0.23025504 -0.20070963 -1.2023703 1.1677581
000110 0a 75 8e 3f 76 4a 74 3f 29 bc 81 bf 37 29 17 3f
       1.1129467 0.9542612 -1.0135547 0.59047264
000120 db 06 cc 3e 04 63 e9 be 99 f2 db 3e 27 b4 2a 3e
       0.3984898 -0.45583355 0.42958525 0.16670285
000130 0e 13 d9 bf 41 ac 92 3f f8 d4 d2 3f 4d ed 78 3f
       -1.695894 1.1458818 1.6471243 0.9723709
000140 96 5d bc bf 8f 76 54 3e b4 6a d7 be 47 a3 cf be
       -1.471606 0.20748352 -0.42073596 -0.40554258
000150 95 f9 6f 3f d0 04 67 3f 42 1e 48 3f 07 8d f9 3e
       0.93740207 0.9024172 0.7817117 0.48740408
000160 eb d2 07 bf 93 30 57 be c1 a6 c4 be a8 9f 4f 3f
       -0.5305621 -0.21014623 -0.38408473 0.8110299
000170 27 8c b7 3f df 2a a9 be c5 fb dc bd 02 db 6a 3d
       1.4339646 -0.3304052 -0.10790209 0.05733777
000180 bf 90 bc bf d7 d6 6a bf 7d 50 c0 bf c7 91 77 3d
       -1.4731673 -0.9173407 -1.5024563 0.06044176
000190 fd 32 e0 bf a8 dd 7c 3f 1d ce 3f 3d 07 43 a0 3d
       -1.751556 0.9877572 0.046827424 0.078252845
0001a0 18 cc 26 3f d1 9a f2 3f fe 37 e4 3e 5f 64 a2 3e
       0.6515517 1.8953496 0.4457397 0.31717202
0001b0 a6 b6 13 3e 0f 43 72 3f f5 6c 13 3f d9 c3 78 3f
       0.14425144 0.94633573 0.5758813 0.9717384
0001c0 ca 3c 80 bd eb b2 3f 3f 79 09 43 bf 96 cf c6 bd
       -0.062615946 0.7488238 -0.7618633 -0.097075626
0001d0 d6 44 85 be ac ea a9 3f 97 02 8a bf b8 df cf 3e
       -0.2602908 1.3274741 -1.078204 0.4060037
0001e0 fa 8f fc 3e 28 a7 0a 3f 2b 7b ce be ec f9 58 bf
       0.49328595 0.5416131 -0.40328345 -0.8475635
0001f0 76 a8 18 bf 50 e0 60 3f 02 55 6b 3f 10 5b 8a 3d
       -0.5963205 0.87842274 0.91926587 0.0675565

fc2.weight f4 [64, 128]
000000 e7 e8 be bd f0 fd 73 bc 81 7f 4b 3d 24 86 c3 bd
       -0.09321766 -0.014892086 0.049682144 -0.0954707
000010 75 e9 6f bd 86 34 6c 3d 3e cd fe bc b7 ea 88 3c
       -0.05857225 0.057667278 -0.031103726 0.016713483
000020 5d 0a c9 bd b7 66 34 bd de 38 85 bd 80 77 7b 3d
       -0.0981643 -0.04404327 -0.06504987 0.06139326
000030 38 f2 c0 3c 86 ef aa bd 7b c2 14 3b 46 34 8d bc
       0.023552999 -0.08346467 0.0022698927 -0.01723684
000040 d0 dd 55 bd 2b c1 8e bd 69 7a 3a bd 21 85 40 3d
       -0.05221349 -0.069704376 -0.045526896 0.04700196
000050 f7 b4 a7 bd 26 d2 a9 bd 53 26 3f bd bb 7d a2 bc
       -0.08188813 -0.08292036 -0.04666741 -0.019835344
000060 0f ef 32 3c bc 6f 88 bc 6f 86 31 bd ef e6 95 bd
       0.010921254 -0.016654842 -0.043341096 -0.07319438
000070 56 9b 10 bd 7f 44 6c bd 74 f0 61 3d 11 21 cb bd
       -0.03530439 -0.05768251 0.055160955 -0.09918416
000080 e6 ae 98 bd 2d 2b ae bd 09 05 0e bd 97 58 64 3d
       -0.07455234 -0.08504329 -0.03467277 0.05574855
000090 a9 ab 9e 3d 6a 31 cd bd d8 f9 7a bb c2 e5 f3 3c
       0.07747585 -0.100191906 -0.003829589 0.029772643
0000a0 77 af 9a 3c 1f 5f 56 3d 78 2a cd bc 4c 40 73 bd
       0.018882496 0.05233681 -0.025044665 -0.05938749
0000b0 cd b7 39 3d 9f ef 31 bd 96 42 f2 3c 83 52 38 bd
       0.0453413 -0.04344141 0.029572766 -0.045000564
0000c0 ab 6b af 3c 7d e5 87 3d 43 4d 77 3d 0f a6 bf bd
       0.021413645 0.06635568 0.060376417 -0.09357845
0000d0 6f 05 99 bd 86 b6 66 bd 61 a5 a0 bd 13 c9 92 3d
       -0.074717395 -0.05632641 -0.078440435 0.07167258
0000e0 95 84 ab bc da 1f 99 bd f1 99 73 bd cf b5 8a bd
       -0.020937243 -0.07476778 -0.05947298 -0.067729585
0000f0 fc 7e 85 3c 39 02 cb bd 6a a6 d1 bd 1c 71 b2 bd
       0.016295902 -0.09912533 -0.10236819 -0.0871298
000100 84 c3 b3 3c 24 fe b0 3c c7 9c 91 bd 95 fa 0f 3c
       0.021943815 0.021605559 -0.07109981 0.008787771
000110 d2 76 55 3d a4 fd fe bb 3f 61 02 bd 51 03 1f bc
       0.05211527 -0.007781701 -0.031831022 -0.009705381
000120 82 a9 d2 bc d3 79 00 3d 80 40 9f bd b7 68 ea 3c
       -0.025715593 0.03136618 -0.07775974 0.028614385
000130 b6 aa 00 3d 9d 59 5b bd eb ad 55 3d 7b 16 83 3d
       0.031412803 -0.05355226 0.052167814 0.06400772
000140 1c 83 44 bd 35 ad 28 bd d7 35 e4 3c 72 d0 8d bd
       -0.0479766 -0.041180808 0.027857704 -0.069245234
000150 50 a5 99 3c b4 75 f5 3b 96 6a 2e 3d 10 3c 9d bd
       0.018755585 0.007490838 0.042582117 -0.07677472
000160 18 4e b1 bd 42 05 91 3c 19 89 80 3c 97 7c a8 bd
       -0.08657473 0.017702702 0.015690373 -0.082268886
000170 01 b8 8c bd d5 e3 c6 bd b8 af 81 bd 2b cf 65 bd
       -0.068710335 -0.09711424 -0.06332344 -0.056105774
000180 25 a7 5e 3d 97 c6 1b bd 05 29 03 3d 90 22 7a 3d
       0.05435862 -0.038031187 0.03202154 0.061068118
000190 a8 c8 a6 3c b5 13 ce bd 6d 69 e6 3c b6 36 80 3c
       0.020359352 -0.100623526 0.028126443 0.015651088
0001a0 9a 90 55 3d 73 e5 d3 bd 39 40 1c 3d cd af 58 3d
       0.052139856 -0.10346498 0.038147185 0.05290203
0001b0 b7 a0 d2 bd 82 5c 31 bc 30 4b 7f 3d 44 91 9e bd
       -0.1028456 -0.010825278 0.062327564 -0.07742551
0001c0 22 ad 16 3c 47 5f 99 3c f1 e3 f0 38 54 c3 92 3d
       0.0091965515 0.01872219 0.00011486549 0.07166162
0001d0 83 a2 54 3d cf cc 5f 3d b6 c1 c5 bc 28 11 6d 3d
       0.051912796 0.05463868 -0.02414022 0.05787769
0001e0 19 7b d1 bd fc 36 79 bd 0b f0 0f bd 3e c4 3d bd
       -0.10228557 -0.060843453 -0.035141032 -0.04632973
0001f0 89 4b 70 3d c3 f3 e9 3c e0 cd 0f 3d 1b 32 33 3d
       0.058665786 0.028558617 0.035108447 0.043748956
000200 89 a8 92 be ab 41 1c 40 8d 68 ea be 94 e0 2e 3f
       -0.28644207 2.441508 -0.4578289 0.6831143
000210 81 05 ef bf 8d 24 99 be e0 18 38 bf f2 d5 23 3f
       -1.8673555 -0.299107 -0.71912956 0.6399833
000220 e4 e3 d8 bf 6a 5b 44 3f 96 68 e2 be 27 e3 94 3e
       -1.6944547 0.76701987 -0.44220418 0.29079553
000230 40 1a 57 c0 8d 71 3b bf 1c ae 87 3c 48 17 16 3f
       -3.3609772 -0.7322014 0.016562514 0.58629274
000240 69 cb 00 3f de 16 10 c0 7f 1f ea 3f 9f d5 80 3d
       0.5031038 -2.2513957 1.8290862 0.06290745
000250 27 bb f2 bd 19 e0 56 be c7 e1 b8 3e 7d dd c9 3d
       -0.11852103 -0.20983924 0.36109754 0.09856699
000260 0f db 81 bf bd c4 8e 3f 06 d0 99 bd 85 b6 ce be
       -1.0144976 1.115379 -0.075103804 -0.40373626
000270 f2 20 d0 be da 89 07 3f 24 9a 23 40 13 4e 4a bf
       -0.40650135 0.5294472 2.556283 -0.7902538
000280 3e 5f bb bf b3 da 08 c0 02 fb 37 bf f1 33 de bf
       -1.4638441 -2.1383483 -0.7186738 -1.7359601
000290 39 91 35 3f ac 5e e3 be 70 d7 8e 3f 4a 95 00 bf
       0.7092472 -0.44408166 1.1159496 -0.502278
0002a0 ef 5e eb bf 8c 8b ca bf 65 9b f6 be eb 9f 9b be
       -1.8388346 -1.5823836 -0.48165432 -0.30395445
0002b0 1c 99 00 3d 18 60 a1 bf e1 4e 2e c0 5d e8 c0 3f
       0.031396016 -1.260745 -2.7235644 1.5070912
0002c0 a6 eb cc bf 8f 04 1e bf 93 51 26 bf e5 2d 72 bf
       -1.6009414 -0.61725706 -0.6496822 -0.9460128
0002d0 2f b2 08 c0 ce 2e 8f 3f 0f 1c ea bf 0c 73 53 3e
       -2.1358755 1.1186159 -1.8289813 0.20649356
0002e0 0d 1e 3e 3e 40 76 97 bf 06 da cc 3f 29 52 36 3f
       0.18566151 -1.1832962 1.6004035 0.71219116
0002f0 37 3e ba bf c1 ee 06 bf 0f d4 d5 3e 70 65 20 bf
       -1.4550236 -0.5270806 0.4176335 -0.6265478
000300 8d 19 b8 3a 5f d3 b8 3f e2 5b 18 3f ba be 33 bf
       0.0014045701 1.4439505 0.595152 -0.702129
000310 3e bf b7 3d 70 5d 26 3d cb 1e 5d bf 38 09 55 3e
       0.089720234 0.040616453 -0.8637511 0.20804298
000320 59 d8 a5 3f af f1 04 c0 ce 2e 65 bf 77 2c 32 3f
       1.2956649 -2.0772512 -0.89524543 0.695991
000330 b7 18 98 bf 6f 68 65 c0 b4 be 25 3e 06 7a 93 be
       -1.1882542 -3.5844991 0.16186029 -0.28804034
000340 73 e3 d4 3e 16 04 b1 bf 07 de 8d 3f fe 62 be be
       0.4157978 -1.3829372 1.1083382 -0.371849
000350 ae 41 e0 bf 1a 8c 3c c0 c4 53 d3 be d2 1c 88 3f
       -1.7520044 -2.9460511 -0.41274846 1.0633795
000360 83 36 70 bf ed fc 23 3f a2 3a e8 bd c3 c9 70 c0
       -0.9383318 0.6405781 -0.11339308 -3.7623146
000370 52 5b dd 3e cc d7 93 be 92 70 3a bf fd 4b 1b 3e
       0.43233734 -0.28875577 -0.7282802 0.15165706
000380 47 93 cf be ad 39 b8 3c 90 bd 49 c0 1a 5d 64 bf
       -0.4054205 0.02248844 -3.152195 -0.8920456
000390 af 0a 11 40 90 fd 7f 3d 8b 68 8c c0 f5 75 04 3f
       2.266277 0.062497675 -4.3877616 0.5174249
0003a0 21 b3 8c 3d 0d 04 2a 3f f4 11 af bd 2f 37 9f 3d
       0.068701036 0.6641243 -0.08548346 0.07774197
0003b0 95 ea 8b 3c fa 9f 8d bf 1e 11 1a bf 3b 3b 88 bf
       0.01707963 -1.1064446 -0.6018237 -1.0643076
0003c0 d2 74 b5 bf dd 56 53 3f 29 a8 ab 3f 2c d4 06 c0
       -1.4176276 0.8255442 1.3410693 -2.1067
0003d0 04 8e c6 3f 01 a1 bf bf 42 93 be bf fc 29 18 c0
       1.551209 -1.497101 -1.488869 -2.3775625
0003e0 d0 73 78 3e 67 99 66 c0 82 b4 fc bf 53 7c 00 c0
       0.24262929 -3.603113 -1.9742587 -2.0075881
0003f0 ac e2 21 3f 31 5f d2 be 77 e7 52 be 7d 8f df 3f
       0.632365 -0.4108825 -0.2059611 1.7465664

fc2.bias f4 [64]
000000 6a ef 35 3d fe d3 75 be 77 3a fb be 8f f1 9e be
       0.044417776 -0.2400665 -0.49068043 -0.3104367
000010 91 c6 1f 3d 92 25 9a be 9f 3e 19 3d ff 34 87 3f
       0.039007727 -0.3010679 0.037413236 1.0563048
000020 00 a5 c6 be af c3 05 3f f1 b4 92 3e b9 94 bc be
       -0.3879776 0.52251714 0.28653672 -0.36832216
000030 0b f6 2b 3f 6b f2 51 3e 4d bf 42 3e 47 be 33 3f
       0.67172307 0.20502631 0.19018288 0.70212215
000040 8f 39 46 bc 8e 6a 49 be d4 01 68 3d a1 d0 62 3f
       -0.012098684 -0.19669554 0.05664237 0.8859959
000050 3a ce ac 3e 66 b5 b8 3b 7e 82 9f bc 70 04 a3 bd
       0.33751088 0.0056368588 -0.019471403 -0.07959831
000060 d2 49 27 3d f9 52 85 3d 1d 3b 0d be 52 da cb 3f
       0.040841885 0.065099664 -0.13792081 1.5926001
000070 5f dc ad 3e a9 b8 27 3e bc a1 58 3e 76 10 a0 be
       0.33957192 0.16379036 0.21155447 -0.3126256
000080 ba 4b 1d 3f 52 2c 58 be 77 15 10 3d 3a 10 5c bd
       0.61443675 -0.21110657 0.03517672 -0.053726412
000090 cc 6b fc bd f1 cb ba 3e bf d8 1a bd a1 2e 81 bd
       -0.12325248 0.3648372 -0.03780436 -0.06307722
0000a0 60 52 4f be ea 61 a2 bd cd 58 13 be f8 17 59 bf
       -0.20246267 -0.07928832 -0.14389344 -0.848022
0000b0 69 d2 93 bd 69 ba 8f be 5b 04 d9 bd a7 72 59 bd
       -0.07217867 -0.28071907 -0.10596534 -0.053087857
0000c0 ca d0 b7 3d 30 6d 5f 3c 7b dc c7 3f 9c 92 06 3f
       0.0897537 0.013636872 1.561416 0.5256746
0000d0 03 b2 30 3f 26 d8 d9 be 3c 43 d6 3e b8 4c 83 3f
       0.69021624 -0.4254772 0.4184817 1.0257788
0000e0 e3 0a d0 3e 4a 7d 7e 3e 47 51 64 3f b7 7f 03 bf
       0.40633306 0.24852481 0.8918652 -0.5136675
0000f0 aa ba b9 be d9 3e 9e be 24 4b 42 bf e7 09 3d bc
       -0.36275226 -0.30907324 -0.75895905 -0.011538005

final.weight f4 [4, 64]
000000 d0 bb be 3d 53 99 48 c0 34 6e 38 c0 6c 62 35 c0
       0.09313166 -3.1343582 -2.8817263 -2.8341322
000010 28 ba 1f c0 e7 fd 86 bf f4 61 bd bf a7 68 c1 bf
       -2.495737 -1.0546235 -1.4795518 -1.5110062
000020 16 8f 23 bf ee e8 4b 3f a6 36 19 3f cc b5 10 c0
       -0.63890207 0.796523 0.5984901 -2.261096
000030 13 57 1d 3f cd 15 8e 3e 5e 8d 8e 3d fb dd ba 3f
       0.6146099 0.27751008 0.069605574 1.4598993
000040 04 17 21 c0 7c 05 c7 be 7e 6b 2a 3d d1 ee 56 bf
       -2.5170298 -0.38871372 0.04160642 -0.83958155
000050 48 5f 1e c0 5d 36 0d bf 33 b8 c8 3d 10 1a 4e bd
       -2.4745655 -0.55161077 0.09800758 -0.050317824
000060 77 bc a9 3f 64 c6 97 bf 8b f0 14 40 72 67 c7 bf
       1.326064 -1.1857419 2.3271816 -1.5578444
000070 d9 b6 1b 40 c0 69 45 bf 15 04 d4 3f 05 18 f9 3f
       2.4330351 -0.77114487 1.6563746 1.9460455
000080 bf bb 43 bf b6 cd b5 be b5 a5 ed 3f 9f 83 d2 3d
       -0.7645835 -0.35508507 1.8566195 0.10279011
000090 64 db bd bd ce 15 09 c0 9d ef a7 3e 1f 35 ff 3b
       -0.09270361 -2.1419559 0.32799998 0.007788315
0000a0 16 9a c8 3d 46 2a e4 3e 2c a9 80 3d e5 85 94 bf
       0.097950146 0.44563502 0.06282267 -1.1603361
0000b0 74 bb d9 bd e3 e5 96 3f 93 e2 f8 3f f8 05 b2 3c
       -0.10631457 1.1788906 1.9444145 0.021731362
0000c0 59 4e b7 3f 60 f3 0a bd 65 ab 0d 40 cb bd f0 bf
       1.4320785 -0.033923507 2.213586 -1.880792
0000d0 4f 95 a2 bf 44 2b a4 bf ec b1 65 bf e4 65 37 bf
       -1.2701815 -1.2825704 -0.8972461 -0.7163985
0000e0 86 36 98 bf 59 c5 f0 3f 2e 93 d2 be f4 31 d4 3f
       -1.1891639 1.8810226 -0.41127914 1.6577744
0000f0 71 75 f2 bf bc 90 27 3f a3 0d 2d 40 32 c3 0a 3d
       -1.894209 0.6545522 2.7039573 0.03387756
000100 8d 39 0c 3d bb 82 58 c0 9f 80 f0 bf 86 fb 82 bf
       0.034234572 -3.3829792 -1.8789252 -1.0233009
000110 b2 ef 18 c0 a1 28 cd bf 43 d3 e2 bf d0 32 bb bf
       -2.3896298 -1.6028024 -1.7720722 -1.4624882
000120 2c 69 36 bf f7 bd 44 3f a6 a2 84 3f 9f de 26 c0
       -0.7125423 0.76852363 1.0362136 -2.6073377
000130 b3 db 0c 3f 53 ee 8a bf 84 c1 57 bf 6e c5 b5 3f
       0.55022734 -1.0853981 -0.84279656 1.4200876
000140 dc 91 06 c0 76 9a 7f 3d f1 c7 eb bc df 45 03 bf
       -2.1026525 0.062403165 -0.028781863 -0.5127849
000150 41 ca 0f c0 3a 59 3e bf f8 e5 53 3d 0b e1 4e bc
       -2.2467196 -0.743549 0.051732987 -0.012626897
000160 18 cd db 3f 00 34 b0 bf 97 d5 10 40 ea 2d cc bf
       1.7171965 -1.3765869 2.2630365 -1.5951512
000170 db 20 01 40 6a df 29 bf 9b 1b db 3f f1 8a 07 40
       2.0176303 -0.6635653 1.71178 2.1178553
000180 7b 6d 00 bf f5 84 98 bf 62 02 2f 40 7d 95 ce 3d
       -0.50167054 -1.1915575 2.7345204 0.100871064
000190 1e 76 77 3d d4 30 92 bf e2 d5 e8 3e d8 0c 39 3d
       0.06041538 -1.1421151 0.4547568 0.045178264
0001a0 60 ef 08 bf 91 c4 29 be 31 ba 63 3f cf 64 a0 bf
       -0.5349026 -0.1657889 0.8895598 -1.2530764
0001b0 11 e6 25 bd eb a4 84 3f 0d 01 0d 40 3a e1 15 bd
       -0.04050261 1.0362829 2.2031891 -0.036591746
0001c0 49 ed b0 3f 7e df f6 bb ce 80 0e 40 1d 68 91 bf
       1.3822414 -0.0075339666 2.2266116 -1.1359898
0001d0 80 ac a7 bf b9 52 7f bf 9c be d4 bf 72 0e 60 bf
       -1.3099518 -0.997356 -1.6620669 -0.8752204
0001e0 5f 72 7d bf 56 f7 10 40 4c 67 4f bf 27 2d 00 40
       -0.9900264 2.2650962 -0.81016994 2.0027559
0001f0 49 73 05 c0 fd 6e 6b be 0d 06 09 40 a4 96 1c bd
       -2.0851614 -0.22991557 2.1409943 -0.0382296
000200 7a 96 bc 3c 1b b2 3a c0 dc e2 07 c0 85 80 d2 bf
       0.023020972 -2.9171207 -2.1232214 -1.6445471
000210 e0 63 93 bf 58 df 2f bf fe 17 c6 bf 3e f6 c6 bf
       -1.1514854 -0.6870017 -1.5476072 -1.5543897
000220 99 17 af bf 12 64 ab 3f f5 67 b0 be be 98 3f c0
       -1.3679076 1.3389914 -0.34454313 -2.9936976
000230 b9 3c 84 3f 69 6a 43 be b8 8a b0 bf 7d 68 91 3f
       1.0331031 -0.19083561 -1.3792334 1.1360012
000240 4b bd e4 bf e6 76 fd 3e 70 fa 32 bc fb 69 31 bf
       -1.7870268 0.49504775 -0.010923967 -0.6930234
000250 ec ff 01 c0 d8 dd fd bf df 5a 4d bc 75 39 b6 3d
       -2.0312452 -1.9833326 -0.012533872 0.08897678
000260 75 66 1f 40 98 7b f7 bb 19 ad 14 40 28 5e c1 bf
       2.4906285 -0.0075525753 2.323065 -1.5106859
000270 25 3c d3 3f f0 5f 72 bf 5e bb c1 3f fa a2 33 40
       1.650273 -0.9467764 1.5135305 2.8068223
000280 eb c2 78 bf 27 c5 63 bf 12 f3 3c 40 9e 74 df 3d
       -0.9717242 -0.88972706 2.9523358 0.10910915
000290 3b 7a 80 3b 86 50 84 bf a8 94 96 bf 08 4c 01 3d
       0.003920821 -1.0337074 -1.1764116 0.03156665
0002a0 c0 67 3e bf c1 ea 6e bf e1 c9 95 3f f2 bf aa bf
       -0.7437706 -0.93326956 1.1702234 -1.3339827
0002b0 c5 ce a7 bd b1 3b a1 3f 12 d6 c5 3f a5 31 c3 3c
       -0.08193735 1.2596341 1.5455954 0.023827383
0002c0 fe 7a cb 3f c0 90 4f 3b df ca 1b 40 da 75 9d bf
       1.5896909 0.003167197 2.4342573 -1.230159
0002d0 ab a4 93 bf 23 19 87 bf 5d 9c ee be 42 01 33 bf
       -1.1534628 -1.0554546 -0.4660367 -0.69923794
0002e0 36 e0 9d bf 16 0e d1 3f 3f 17 20 bf 8f 1b e7 3f
       -1.2334049 1.6332424 -0.6253547 1.8055285
0002f0 cc 4a 04 c0 df 25 1b bf 32 d2 1c 40 a3 11 be 3d
       -2.0670652 -0.6060466 2.4503293 0.09280708
000300 f7 14 d0 3d 92 ea 9b c0 b6 a1 f9 bf af 92 55 c0
       0.10160249 -4.872384 -1.9502475 -3.3370779
000310 df cc dc bf ea 4f 87 bd 81 0f cf bf 4c 0f b0 bf
       -1.7250022 -0.06607039 -1.6176606 -1.3754668
000320 4f bc 02 bf 6b 33 39 3f bb 9b 36 3f f2 ef 42 c0
       -0.51068586 0.7234408 0.71331376 -3.045895
000330 c8 60 4c 3f 2c fe 9c 3f 4b 77 e8 be aa 8b a5 3f
       0.79835176 1.2265067 -0.45403513 1.2933247
000340 0b fa 22 c0 a0 e9 4c bc 91 1e 36 bd fb fc 3e bf
       -2.5465114 -0.012506872 -0.044462744 -0.7460477
000350 55 7e 08 c0 f4 b2 c3 bf 50 43 90 bc 8d 7a cd bd
       -2.1327107 -1.5288987 -0.017610222 -0.1003314
000360 2e 6c 18 40 79 97 81 bf a7 45 18 40 2a 99 c1 bf
       2.3816028 -1.0124351 2.3792512 -1.5124867
000370 27 26 e6 3f 3d 5a 3e bf 82 28 c4 3f 89 98 0b 40
       1.7980393 -0.7435644 1.5324862 2.181185
000380 77 03 7c bf 16 98 87 be 77 24 0a 40 fb 52 a1 3b
       -0.98442787 -0.2648322 2.1584756 0.004923222
000390 aa 15 a3 3d 4f 66 5f bf e4 78 41 3f c0 af 2f bd
       0.079631165 -0.87265486 0.7557509 -0.042892218
0003a0 05 0e 5a bf c8 c4 11 bf 44 fc 8e bf 8d a1 e1 bf
       -0.8517764 -0.5694089 -1.1170735 -1.7627426
0003b0 be 11 c2 3c d6 3f cc 3f b1 1a e3 3f 20 a4 d8 3b
       0.0236901 1.5956981 1.774252 0.006611362
0003c0 6a 6c c2 3f a2 c4 dc bd ec 43 07 40 76 ba 27 c0
       1.5189335 -0.10779692 2.1135206 -2.6207557
0003d0 80 4c 9a bf 64 dd 5f bf ef 88 ae bf be 59 66 bf
       -1.2054596 -0.8744719 -1.3635539 -0.89980686
0003e0 98 0f 49 bf 35 71 bb 3f 74 1e d2 be c1 05 c7 3f
       -0.7853942 1.4643923 -0.4103886 1.5548631
0003f0 54 7d ca bf 99 1f 0d 3e 65 39 23 40 07 a5 5b bc
       -1.5819497 0.13781585 2.550378 -0.013406045

final.bias f4 [4]
000000 f0 37 f1 3e 27 d0 cc 3e 67 6d ce 3e 32 f0 d7 3e
       0.4711299 0.40002558 0.40317842 0.42175442
