D2QN_AAAI_LOSS/checkpoint_d2qn_5_1000_cheetah_10.pth (torch, 45655 bytes, 6 tensors)

fc1.weight f4 [128, 17]
3.876612 2.170918 0.30284572 -0.87882954 -0.13647072 -0.26165053 -0.12842892 -0.84510005
-0.1778561 0.4897993 0.26621807 0.13495834 -0.028435607 -0.103664115 0.3382921 0.31084913
0.11712665 0.29177052 0.08818864 0.6713681 0.43613666 0.3696115 -0.9183087 0.27049002
-0.8128657 -1.1020365 0.1417898 -0.82604337 -0.24122736 0.21276532 -0.30561012 0.34481373
-0.029527955 -0.19905683 -3.5876942 -3.1391644 -1.2694834 -0.37737837 -0.5355148 0.0736258
0.9517837 -0.11688323 -1.3839089 0.4577781 -0.8879128 -0.057418976 0.021395195 -0.06075566
0.058807272 0.038288586 -0.055969585 2.4358993 -0.2078256 -0.89926934 0.7221595 -0.056169096
-1.5815481 -0.21095826 0.21845905 0.5401557 1.1536251 -0.522244 -0.15999462 0.002284071
0.15738517 0.14575964 0.03470349 0.0022526202 -2.1902218 0.19556148 1.1495429 0.6617403
-0.16710837 -0.7445115 -0.83291143 -1.6243027 -0.47478607 -0.17347951 -0.08662637 -0.31213272
-0.13833839 0.5379524 -0.015217098 0.07815726 -0.090333976 -2.9712703 -0.7697467 -0.31402662
-1.1913642 -0.8742712 0.20819019 1.284362 -0.570598 -1.2062925 -0.6457356 0.62686825
0.019863522 0.122134924 -0.15669858 0.10706857 0.2198138 -0.1467983 3.5167866 0.7484465
-0.79478836 -0.62477005 -0.9841795 -0.2954576 -0.22703727 -0.022702454 0.03197064 1.5595264
0.46595064 0.25871256 0.03204753 0.053084508 -0.106546395 0.064942695 -0.017882956 2.0470264
2.4726279 1.1510144 0.45928577 0.5341975 -1.7714087 -0.8767596 0.0103342105 -0.15625994
-1.4106199 -0.5109242 -0.26237515 -0.0024582415 -0.11895529 -0.11443863 0.09737867 0.12066335
-0.55415857 0.95672935 2.051253 0.9835999 0.87996393 -0.8522164 -1.2997403 -0.6174982
-0.36683083 -0.013020308 0.41678953 0.17220913 0.19288462 -0.17281413 0.02551877 0.043893177
-0.044042863 2.6527321 -0.6926591 -0.2943243 -0.4047774 -0.49387988 -0.43323523 0.0951329
-0.05528982 -0.6274844 0.3518365 0.13479342 0.06712899 -0.103880964 0.18962498 0.14298934
-0.2712941 0.07803929 4.6761637 -1.4034331 -0.22062714 -0.57428014 -0.36879167 1.0803075
0.48248774 0.1743147 -0.42532164 0.19363198 -0.03570339 0.06009252 0.048573036 0.03451051
-0.06459884 -0.028823907 -0.04219808 -3.9394758 -3.8916461 0.19916672 -0.38533726 -0.20822428
0.37611935 -0.60944915 0.45341435 0.06846678 -0.32622615 -0.5157182 -0.14948255 -0.06587812
-0.0060540205 0.040214367 -0.021330435 -0.00031288448 1.5209864 -1.3419529 -0.65156776 -0.97778815
-0.94285953 -1.1231683 -1.2467015 -1.6613377 -2.4828362 -0.59781986 -0.31415433 0.12625651
-0.2768646 -0.1877494 -0.12569171 0.46705127 0.27678168 2.9255443 0.6162573 2.060117
0.8373426 0.81404865 -1.000801 -0.68882555 -0.10158844 -0.38222516 -0.6669729 -0.793005
-0.299999 0.31956372 -0.17353596 -0.033787366 0.11802738 -0.26663715 -1.3444264 2.430508
0.14102015 0.87541974 0.10279852 -0.21523239 1.0995624 -0.058683876 -0.40563935 -0.63517255
-0.41305575 -0.08080395 -0.067230426 -0.016187876 -0.0037927981 -0.07123315 0.0026300873 2.55608
00000000: 691a 7840 52f0 0a40 980e 9b3e f9fa 60bf
00000010: fbbe 0bbe 0ff7 85be df82 03be 7a58 58bf
00000020: e91f 36be f9c6 fa3e bc4d 883e 8532 0a3e
00000030: caf1 e8bc da4d d4bd 9f34 ad3e 9e27 9f3e
00000040: 19e0 ef3d f262 953e 3f9c b43d c8de 2b3f
00000050: 4e4d df3e b83d bd3e 4716 6bbf ab7d 8a3e
00000060: f717 50bf 880f 8dbf 5831 113e 9477 53bf
00000070: 4e04 77be 27df 593e ee78 9cbe 6d8b b03e
00000080: 9ce4 f1bc 8ed5 4bbe c89c 65c0 12e8 48c0
00000090: 6f7e a2bf bd37 c1be 7f17 09bf 20c9 963d
000000a0: 19a8 733f 7a60 efbd ed23 b1bf e461 ea3e
000000b0: 414e 63bf 2930 6bbd fa44 af3c edda 78bd
000000c0: e5df 703d 7ed4 1c3d 5d40 65bd c6e5 1b40
000000d0: 3cd0 54be 8436 66bf 72df 383f 9111 66bd
000000e0: 2b70 cabf 7105 58be bbb3 5f3e a547 0a3f
000000f0: fda9 933f c8b1 05bf a1d5 23be 5ab0 153b
00000100: 9429 213e 0442 153e 3f25 0e3d b2a0 133b
00000110: 982c 0cc0 4541 483e 3924 933f d067 293f
00000120: 751e 2bbe 4e98 3ebf af39 55bf 27e9 cfbf
00000130: 2917 f3be 9da4 31be 2b69 b1bd dccf 9fbe
00000140: 94a8 0dbe 40b7 093f 2351 79bc ea10 a03d
00000150: 0501 b9bd 4b29 3ec0 1f0e 45bf 19c8 a0be
00000160: 9f7e 98bf 3dd0 5fbf cf2f 553e f965 a43f
00000170: b612 12bf cb67 9abf ee4e 25bf 707a 203f
00000180: d3b8 a23c e021 fa3d 9875 20be c446 db3d
00000190: de16 613e 4b52 16be 0813 6140 319a 3f3f
000001a0: 4077 4bbf eef0 1fbf 30f3 7bbf 3846 97be
000001b0: 757c 68be 7ffa b9bc a5f3 023d 909e c73f
000001c0: 1591 ee3e f975 843e 4544 033d 246f 593d
000001d0: ff34 dabd ad00 853d 477f 92bc 7b02 0340
000001e0: 893f 1e40 7154 933f 8127 eb3e 2bc1 083f
000001f0: 85bd e2bf 5173 60bf d250 293c 9b02 20be
00000200: 318f b4bf eecb 02bf 0956 86be 731a 21bb
00000210: d59e f3bd cd5e eabd 786e c73d 591e f73d
00000220: 56dd 0dbf 37ec 743f bb47 0340 34cd 7b3f
00000230: 5145 613f db2a 5abf e45d a6bf 5d14 1ebf
00000240: 40d1 bbbe 2153 55bc 7065 d53e 9757 303e
00000250: 8c83 453e 30f6 30be bd0c d13c 55c9 333d
00000260: 4a66 34bd 5dc6 2940 1b52 31bf adb1 96be
00000270: fc3e cfbe d3dd fcbe 02d1 ddbe 0ad5 c23d
00000280: 9477 62bd d1a2 20bf ea23 b43e 4907 0a3e
00000290: ed7a 893d 8bbf d4bd 0d2d 423e cc6b 123e
000002a0: 0fe7 8abe 10d3 9f3d 22a3 9540 b2a3 b3bf
000002b0: 15ec 61be 0604 13bf 43d2 bcbe 8447 8a3f
000002c0: a208 f73e 8d7f 323e c2c3 d9be 7647 463e
000002d0: b83d 12bd 9323 763d 85f4 463d e45a 0d3d
000002e0: 664c 84bd 1d20 ecbc e5d7 2cbd 5f20 7cc0
000002f0: bb10 79c0 5cf2 4b3e ed4a c5be bf38 55be
00000300: b792 c03e dc04 1cbf ed25 e83e 5038 8c3d
00000310: 1d07 a7be 1c06 04bf f411 19be 1ceb 86bd
00000320: ce60 c6bb d2b7 243d 2abd aebc a50a a4b9
00000330: afaf c23f 1dc5 abbf 25cd 26bf 5350 7abf
00000340: 3e5f 71bf fbc3 8fbf ea93 9fbf b7a6 d4bf
00000350: cae6 1ec0 b90a 19bf d6d8 a0be 6349 013e
00000360: 32c1 8dbe 6141 40be 54b5 00be 5821 ef3e
00000370: 54b6 8d3e 1e3c 3b40 0ac3 1d3f f5d8 0340
00000380: 165c 563f 7e65 503f 3f1a 80bf df56 30bf
00000390: 9a0d d0bd 04b3 c3be bcbe 2abf 6002 4bbf
000003a0: 7899 99be db9d a33e 69b3 31be 9f64 0abd
000003b0: 57b8 f13d aa84 88be 2a16 acbf 718d 1b40
000003c0: 9667 103e 821b 603f 0888 d23d e165 5cbe
000003d0: 76be 8c3f 815e 70bd f6af cfbe ab9a 22bf
000003e0: 0b7c d3be 8b7c a5bd 1bb0 89bd 709c 84bc
000003f0: 9890 78bb b0e2 91bd 8b5d 2c3b d196 2340

fc1.bias f4 [128]
0.15901184 -1.4033259 -0.7758548 1.1775303 -0.6787057 -1.7686403 0.05992427 -1.4246124
-1.6635695 1.1572584 1.6076583 -0.21954317 -1.8424739 -1.8732408 -2.033113 0.53074473
-1.2844412 -1.323687 -1.1024462 0.635309 -0.79380244 0.6606771 -0.627235 -0.4465195
-0.74143493 -1.3122022 2.9281416 -0.8546041 -1.7791954 2.095088 -1.6824615 -0.39207894
-1.6120032 -0.6503504 -0.15171546 -1.2519267 -1.4455504 -1.9460119 -1.5167363 -1.286697
2.1897407 -1.3275502 -0.8516304 -0.32216284 -0.99997896 -0.55443287 1.6197683 -0.794168
-1.6088811 -0.8854623 0.41816592 -0.6386247 2.4764261 0.38955367 -1.4868609 -1.2786726
-1.2012564 -0.7850163 -1.7305468 -0.4286539 2.9389324 0.43548757 0.42478338 -1.4827384
-1.6537942 -1.6272166 -0.937857 -2.1842906 0.1177112 1.182412 -0.38349548 1.0278238
0.5536014 -1.4552786 -0.8115756 2.6485043 0.2817657 -0.0049649123 -1.5833427 2.7525632
-0.9076015 0.6720826 -0.88717115 0.0948377 -0.8295726 -0.43325692 1.6730956 -0.6125153
2.0732863 -1.2339911 -0.25373143 -1.6651912 1.8195345 -1.2412504 2.620185 1.138034
-1.0826819 -1.9331026 -2.760668 0.76269215 0.8170953 -0.93657374 -0.7514609 1.7735803
0.5793431 -1.0610512 -0.7758008 0.01903632 0.8248432 -2.317197 -1.8146276 0.5509903
-0.89274186 -2.1325734 1.4587103 -1.1440117 0.43876252 1.9523687 -0.029791504 -2.1671486
-1.6368319 0.5568363 0.35248077 -1.3890554 -1.8448684 -1.5152657 -0.38803625 2.1199758
00000000: 00d4 223e 2fa0 b3bf 6c9e 46bf 50b9 963f
00000010: a8bf 2dbf ce62 e2bf 2773 753d b359 b6bf
00000020: d8ef d4bf 0b21 943f bfc7 cd3f edcf 60be
00000030: 2fd6 ebbf 5bc6 efbf 861e 02c0 e3de 073f
00000040: 9268 a4bf 936e a9bf f51c 8dbf 9ca3 223f
00000050: a336 4bbf 2222 293f 7992 20bf 349e e4be
00000060: aece 3dbf 3ef6 a7bf ac66 3b40 56c7 5abf
00000070: adbc e3bf ec15 0640 e65a d7bf 92be c8be
00000080: 1f56 cebf 5d7d 26bf 4c5b 1bbe 223f a0bf
00000090: cc07 b9bf eb16 f9bf 6a24 c2bf 7db2 a4bf
000000a0: b624 0c40 2aed a9bf 7304 5abf 87f2 a4be
000000b0: 9ffe 7fbf 50ef 0dbf 9154 cf3f 984e 4bbf
000000c0: d1ef cdbf a8ad 62bf d819 d63e e97c 23bf
000000d0: c47d 1e40 9473 c73e 7551 bebf 8bab a3bf
000000e0: c5c2 99bf d4f6 48bf 8f82 ddbf 8678 dbbe
000000f0: 7817 3c40 3af8 de3e 357d d93e 5fca bdbf
00000100: 87af d3bf a248 d0bf 6517 70bf 6bcb 0bc0
00000110: 9212 f13d 4759 973f 8559 c4be bb8f 833f
00000120: d2b8 0d3f 9246 babf 6bc3 4fbf 1881 2940
00000130: 9843 903e b4b0 a2bb f9aa cabf ff29 3040
00000140: 9258 68bf 9b0d 2c3f a61d 63bf 453a c23d
00000150: df5e 54bf dad3 ddbe ff27 d63f cdcd 1cbf
00000160: b9b0 0440 6cf3 9dbf 16e9 81be fc24 d5bf
00000170: 82e6 e83f 4be1 9ebf 1cb1 2740 19ab 913f
00000180: 5295 8abf e86f f7bf c9ae 30c0 cb3f 433f
00000190: 282d 513f 4cc3 6fbf be5f 40bf ae04 e33f
000001a0: d44f 143f 87d0 87bf e29a 46bf 0ef2 9b3c
000001b0: ed28 533f f54c 14c0 b845 e8bf b30d 0d3f
000001c0: bb8a 64bf 157c 08c0 05b7 ba3f fa6e 92bf
000001d0: 7ba5 e03e 38e7 f93f 500d f4bc 90b2 0ac0
000001e0: b583 d1bf d38c 0e3f 5c78 b43e 91cc b1bf
000001f0: a624 ecbf 3af4 c1bf b0ac c6be afad 0740

fc2.weight f4 [64, 128]
-1.1727185 0.9303528 2.0626423 -1.4320856 -0.20852296 -0.8353924 0.918254 -1.1262234
0.0372213 -0.29589525 -0.6412033 -2.5718267 -0.71024334 0.3653483 0.53064 -1.5626836
1.230999 -2.875206 0.08149378 0.9389535 1.307691 -0.6849658 -0.2157809 0.41552815
0.022289494 -0.7912169 -0.024988743 0.20288117 -1.410873 -0.25458583 0.41740888 -0.20051847
-0.02325649 0.14808765 -0.2583936 -0.4154736 -4.102664 -0.9167101 1.4482024 0.74827826
-0.1816233 0.17055888 0.5744968 0.24070412 -0.6354751 -1.5505072 0.0596027 -2.9986804
-0.12453232 -0.20151958 0.33571628 1.3464493 0.11739519 0.94444937 -0.71809965 0.61997944
0.45652577 -0.89960086 0.107703924 -0.20238069 -0.15448014 0.048007775 0.06500497 -0.6221368
-0.3121454 0.9124236 -0.6710233 -3.119935 -0.47819996 0.16909294 -0.73825645 -2.6545565
-0.42574564 0.020638803 0.091112025 -0.092866465 0.7528303 0.21779978 -0.44262713 -0.15149866
-2.7968445 -0.33861977 -0.5086998 -0.027354144 -0.2650813 -4.613272 -0.043080352 -0.17816843
0.07976162 -0.45099637 0.17242593 -0.85895777 0.45694432 -0.027114416 -0.21396834 -0.29444835
-1.2634653 -0.29256785 -0.43951014 0.56392825 -0.36069772 -0.03423623 -1.6034908 0.5397504
0.12746282 0.17413259 -0.3900689 -0.032936487 0.21123508 -0.029167045 0.21837464 0.5083763
-0.21909803 -0.48886457 0.47404134 1.0884559 -0.8835267 0.21056817 -0.79828566 -1.1750988
0.62157357 -0.2993983 0.7532844 0.2858377 -1.272194 -1.0013528 0.20252852 0.32521623
0.041641314 0.36311048 1.3434335 -0.23911662 0.1163385 -1.0244277 0.6977686 1.8128731
-0.65163755 -0.025122475 -0.37005463 -0.23789701 -0.442057 -0.35778984 -0.080290206 0.097274326
-0.54266995 -1.6075253 0.22435029 0.068322316 0.949918 -0.33081222 0.8918795 0.9143232
0.51167387 -4.5128455 0.026346516 0.030165449 -3.2104506 0.11478883 1.2947478 0.85439605
-0.7577735 -0.77560097 0.027614232 0.14862937 0.7223458 0.5235534 -0.018317189 -0.16021182
-0.016939783 0.30494392 0.47754142 -0.74199003 0.09294104 0.055103283 -0.19681872 -0.27511513
-2.2054656 0.69158006 -2.057404 -2.9840426 0.4061298 -0.044592388 -0.23130335 -1.0587697
0.8817635 0.0014498413 -1.148872 0.792911 0.06574235 -0.03629296 -0.4646788 1.0352827
0.610716 -0.14324923 -0.48925322 -0.033869956 0.12208911 0.4733855 0.16893363 -0.40810254
0.16306669 -4.518893 -0.43623072 0.0667242 -1.0457578 0.30061257 0.17835632 -0.37545803
-0.2121563 -0.04266737 -0.26676902 -0.127603 0.4518271 -1.4838111 0.14123723 -0.033606738
0.56800824 0.54495454 0.091527835 -0.31626454 0.29673257 0.9316937 0.59622633 -0.49483767
0.6838412 -1.0974746 -3.9153943 0.35007107 -3.5335717 -0.5915589 -0.9959601 0.4038764
-1.5556896 -0.6067674 -0.09667105 0.10770834 -1.2175604 -1.5212798 0.025899393 -0.34839046
0.10077374 0.16336137 -0.44231611 0.76722807 0.20038353 0.59693885 0.4979368 0.5826687
-0.18672079 -0.13601257 -0.03657898 0.24207054 -1.2650213 -0.58976376 0.15046102 0.2472934
00000000: a41b 96bf 9a2b 6e3f 5502 0440 954e b7bf
00000010: 0b87 55be 47dc 55bf b212 6b3f 1728 90bf
00000020: 5d75 183d 957f 97be e625 24bf cf98 24c0
00000030: 82d2 35bf ef0e bb3e 06d8 073f 0406 c8bf
00000040: 6091 9d3f 6003 38c0 36e6 a63d 425f 703f
00000050: 6b62 a73f eb59 2fbf abf5 5cbe 1bc0 d43e
00000060: 7598 b63c 318d 4abf 31b5 ccbc 15c0 4f3e
00000070: 7d97 b4bf 1359 82be 9eb6 d53e b754 4dbe
00000080: 6584 bebc 4aa4 173e 2a4c 84be f5b8 d4be
00000090: 0649 83c0 83ad 6abf b25e b93f 2a8f 3f3f
000000a0: 75fb 39be fda6 2e3e 3912 133f 247b 763e
000000b0: 7fae 22bf 0577 c6bf f621 743d 61ea 3fc0
000000c0: cd0a ffbd 265b 4ebe 01e3 ab3e 7358 ac3f
000000d0: e46c f03d 6fc7 713f 61d5 37bf f9b6 1e3f
000000e0: bfbd e93e 3e4c 66bf e093 dc3d e23c 4fbe
000000f0: 0b30 1ebe cda3 443d 5321 853d 5b44 1fbf
00000100: 86d1 9fbe 9894 693f 2fc8 2bbf 04ad 47c0
00000110: a0d6 f4be b326 2d3e 60fe 3cbf 41e4 29c0
00000120: 55fb d9be b512 a93c f198 ba3d c630 bebd
00000130: 7db9 403f e806 5f3e 06a0 e2be 7722 1bbe
00000140: 80ff 32c0 925f adbe 263a 02bf cc15 e0bc
00000150: bcb8 87be ed9f 93c0 0675 30bd c971 36be
00000160: 0f5a a33d ffe8 e6be 6c90 303e a8e4 5bbf
00000170: 9bf4 e93e 0d1f debc 841a 5bbe efc1 96be
00000180: 3bb9 a1bf 74cb 95be 7907 e1be 9a5d 103f
00000190: 5fad b8be 4a3b 0cbd 303f cdbf 152d 0a3f
000001a0: 9d85 023e d04f 323e 1cb7 c7be 69e8 06bd
000001b0: 024e 583e baef eebc 9a9d 5f3e f324 023f
000001c0: 3c5b 60be 754c fabe 8cb5 f23e 8652 8b3f
000001d0: ce2e 62bf 2f9f 573e 735c 4cbf a369 96bf
000001e0: 721f 1f3f bc4a 99be 3fd7 403f 5259 923e
000001f0: 41d7 a2bf 542c 80bf a363 4f3e be82 a63e
00000200: 1590 2a3d 9ee9 b93e a1f5 ab3f fdda 74be
00000210: e142 ee3d 7220 83bf f7a0 323f 3a0c e83f
00000220: b8d1 26bf a6cd cdbc cd77 bdbe 469b 73be
00000230: 4c55 e2be 3b30 b7be 316f a4bd c337 c73d
00000240: 6bec 0abf 64c3 cdbf 15bc 653e 92ec 8b3d
00000250: d32d 733f 3860 a9be 3752 643f 1611 6a3f
00000260: 0ffd 023f 3b69 90c0 a6d4 d73c 881d f73c
00000270: 0678 4dc0 6816 eb3d 4cba a53f b3b9 5a3f
00000280: 72fd 41bf c98d 46bf 3e37 e23c 4c32 183e
00000290: a8eb 383f 9807 063f ee0d 96bc 910e 24be
000002a0: 4dc5 8abc 9c21 9c3e 4f80 f43e 0ff3 3dbf
000002b0: df57 be3d fbb3 613d d98a 49be e4db 8cbe
000002c0: 5926 0dc0 640b 313f 82ac 03c0 8efa 3ec0
000002d0: 3ff0 cf3e 82a6 36bd c9da 6cbe c485 87bf
000002e0: 41bb 613f 9a08 be3a 3d0e 93bf 37fc 4a3f
000002f0: eda3 863d eda7 14bd 61ea edbe 2584 843f
00000300: e257 1c3f edaf 12be 667f fabe 39bb 0abd
00000310: db09 fa3d 965f f23e f0fc 2c3e d1f2 d0be
00000320: f4fa 263e c59a 90c0 a259 dfbe b3a6 883d
00000330: 64db 85bf e4e9 993e 0aa3 363e 093c c0be
00000340: 803f 59be fbc3 2ebd f395 88be 5caa 02be
00000350: e255 e73e 86ed bdbf 7ea0 103e 38a7 09bd
00000360: fd68 113f 2482 0b3f f272 bb3d 6ded a1be
00000370: 55ed 973e 7a83 6e3f 4aa2 183f 5d5b fdbe
00000380: 3810 2f3f 0c7a 8cbf d295 7ac0 843c b33e
00000390: 0a26 62c0 6770 17bf 3ef7 7ebf e3c8 ce3e
000003a0: d620 c7bf 1c55 1bbf 79fb c5bd 3196 dc3d
000003b0: 05d9 9bbf 4cb9 c2bf f72a d43c 3c60 b2be
000003c0: 7662 ce3d 3448 273e 4277 e2be 0f69 443f
000003d0: 5731 4d3e fcd0 183f 92f1 fe3e c729 153f
000003e0: bc33 3fbe e146 0bbe d7d3 15bd 57e1 773e
000003f0: 38ec a1bf c2fa 16bf 7412 1a3e 7b3a 7d3e

fc2.bias f4 [64]
0.7905184 -0.7594319 0.8815091 -0.8982762 -0.41923583 2.8287916 -0.57832414 2.7526138
-0.21128199 -0.08361183 3.0042458 -0.5561023 1.811486 0.5543359 1.0634693 0.15137178
-1.4710661 1.5703444 3.1685166 1.266462 0.7587346 0.112632625 -0.9669695 -0.80310094
-1.8389813 1.3927816 -1.4406278 3.007299 3.109442 2.353725 -0.40973032 -1.1681004
-0.08941048 2.5337496 3.0032418 2.6755617 -0.5935632 2.1431506 -0.4185389 -0.5090742
-1.1908959 -1.3100266 1.5196738 -0.3539745 -0.95079905 3.2013998 -1.8595169 -1.0558611
0.7681605 -0.046810538 1.7050592 -0.8853212 2.5077558 -0.21095897 0.71081185 1.60756
0.3934816 -0.75924975 3.1008973 -0.039191663 0.0535112 3.1448462 1.7021506 -0.008078563
00000000: 6a5f 4a3f 216a 42bf 95aa 613f 6ef5 65bf
00000010: 14a6 d6be ec0a 3540 0d0d 14bf d32a 3040
00000020: 4e5a 58be ae3c abbd 9045 4040 b85c 0ebf
00000030: c6de e73f f5e8 0d3f c31f 883f 3401 1b3e
00000040: e54b bcbf 0c01 c93f fac8 4a40 6d1b a23f
00000050: 6e3c 423f efab e63d 508b 77bf 0698 4dbf
00000060: bd63 ebbf ab46 b23f 7e66 b8bf 9677 4040
00000070: 1901 4740 6ea3 1640 2cc8 d1be 5084 95bf
00000080: d71c b7bd f428 2240 1d35 4040 673c 2b40
00000090: c2f3 17bf 6129 0940 bb4a d6be b052 02bf
000000a0: 476f 98bf f4ae a7bf ac84 c23f 253c b5be
000000b0: 9167 73bf bce3 4c40 a604 eebf 7526 87bf
000000c0: 2ba6 443f 68bc 3fbd 613f da3f 69a4 62bf
000000d0: 127f 2040 a105 58be c4f7 353f 87c4 cd3f
000000e0: 6c76 c93e 315e 42bf 1a75 4640 7087 20bd
000000f0: 8f2e 5b3d 2945 4940 12e0 d93f f35b 04bc

final.weight f4 [6, 64]
0.13498287 -0.16205354 -0.14904521 -0.19338085 -0.28996956 0.39884847 -0.07853058 0.28518146
-0.365717 -0.055437386 0.44664347 -0.2651141 0.09588986 0.12769063 0.13690886 -0.16030918
-0.13140284 0.110436216 0.58433574 0.059996124 0.16450556 -0.14033085 -0.18887886 -0.15166748
-0.15844592 0.2312128 -0.16426207 0.4693048 0.47219986 0.26798823 0.13609213 -0.13152705
-0.09637181 0.032189425 0.28390947 0.19050325 -0.42497206 0.27781424 0.15436451 -0.2172236
-0.17430454 -0.27355632 0.099239275 -0.44736356 -0.3098912 0.6799595 -0.39550388 -0.007437047
0.1546378 0.15656412 0.010987699 -0.41013607 0.15177134 -0.2254193 0.1457932 0.23269784
0.29387972 -0.16863184 0.5317096 -0.028229073 0.072675906 0.4886093 0.19955468 0.169883
0.04195038 -0.23407093 0.050466213 0.058657657 -0.119684055 0.32962078 -0.30350477 0.085695006
0.6028653 0.11003564 0.4773207 0.038242955 0.19118713 -0.12038168 -0.03083664 0.104340576
-0.09891974 -0.18203427 0.58296216 0.11175845 -0.032788012 0.117572635 -0.12636295 -0.049105924
-0.12033351 0.0790711 -0.26024663 0.42297933 0.48681074 0.3435659 -0.09911932 -0.21500078
-0.11962651 -0.09964048 0.46913594 0.39365193 -0.39086768 0.14940841 -0.3324468 -0.0776992
-0.01838142 -0.12473972 0.25091985 -0.023792174 0.27707988 0.54848075 -0.20064528 -0.2216747
-0.17780605 -0.120619155 -0.3602815 -0.15448602 0.20526749 0.045994494 0.09155805 0.19220236
0.1725586 -0.2887284 0.55787545 -0.01400306 0.015828326 0.5189237 0.1173695 0.044589706
0.07603635 -0.2098755 0.039695945 0.13393387 -0.101621926 0.31308252 -0.41861475 0.100365095
0.54056084 0.068133876 0.48241585 0.063064076 0.16338304 -0.09819484 0.03461251 0.10122904
-0.100500934 -0.11905181 0.5775285 0.15475355 -0.07581066 0.103827134 -0.09928 -0.068907574
-0.10387451 0.09681729 -0.26013938 0.45920742 0.47065556 0.34909052 -0.10374645 -0.24560934
-0.113161445 -0.13290794 0.50338215 0.3683588 -0.17646281 0.15277189 -0.31881192 -0.019199314
-0.030418305 -0.11587023 0.23770174 -0.064562276 0.2901484 0.54287624 -0.22262202 -0.19681975
-0.1474001 -0.12758675 -0.2732509 -0.15827452 0.17402622 0.05201372 -0.01129336 0.1948273
0.16113862 -0.44293892 0.54681545 -0.047741324 -0.035452127 0.53625065 0.08302477 0.048454985
0.048743896 -0.265482 0.06308722 0.11613168 -0.034699492 0.30871075 -0.27443802 0.13891686
0.72917897 0.08166283 0.49483058 -0.085148945 0.17735475 -0.0660163 0.03519206 0.110018454
-0.07515773 -0.18097678 0.6074952 0.12725557 -0.07878934 0.18490772 -0.09832063 -0.041192144
-0.09609016 0.07206194 -0.20704079 0.41875544 0.47636127 0.3687468 -0.13993327 -0.27194318
-0.0028584092 -0.08562125 0.49267578 0.4181863 -0.013810428 0.16504289 -0.36429787 0.10430191
0.0018438816 -0.07406383 0.24874851 -0.0019860524 0.25289148 0.52179724 -0.120793164 -0.13438074
-0.056955826 -0.09759488 -0.36324984 -0.22002608 0.16086121 0.06707776 0.057963677 0.16787025
0.11158434 -0.25792235 0.54400843 -0.086201355 -0.060661405 0.51907396 0.16280171 -0.02570154
00000000: f338 0a3e 5df1 25be 4f9f 18be a105 46be
00000010: e476 94be de35 cc3e a4d4 a0bd 4e03 923e
00000020: 423f bbbe 5012 63bd 74ae e43e 09bd 87be
00000030: e761 c43d 55c1 023e d631 0c3e 1728 24be
00000040: 778e 06be 622c e23d 0797 153f 7fbe 753d
00000050: 2574 283e e4b2 0fbe 7669 41be b84e 1bbe
00000060: a63f 22be 0cc3 6c3e 5134 28be b848 f03e
00000070: 2ec4 f13e c135 893e bc5b 0b3e 07af 06be
00000080: 955e c5bd 0fd9 033d 955c 913e 4913 433e
00000090: f095 d9be ab3d 8e3e bb11 1e3e dd6f 5ebe
000000a0: e47c 32be 930f 8cbe f63d cb3d d60c e5be
000000b0: 0faa 9ebe d311 2e3f 7c7f cabe 79b2 f3bb
000000c0: 5f59 1e3e 5852 203e c005 343c 5bfd d1be
000000d0: f269 1b3e 51d4 66be d04a 153e 5848 6e3e
000000e0: 6777 963e d3ad 2cbe 1f1e 083f a840 e7bc
000000f0: 1bd7 943d 002b fa3e 1058 4c3e cff5 2d3e
00000100: 29d4 2b3d 4ab0 6fbe a9b5 4e3d 0343 703d
00000110: ea1c f5bd 0ec4 a83e fa64 9bbe dd80 af3d
00000120: 6155 1a3f 5e5a e13d 6163 f43e a5a4 1c3d
00000130: 8fc6 433e ac8a f6bd 1f9d fcbc 83b0 d53d
00000140: 6f96 cabd 3167 3abe 023d 153f 9de1 e43d
00000150: b94c 06bd ecc9 f03d 4a65 01be 4b23 49bd
00000160: 6a71 f6bd 07f0 a13d 0c3f 85be bf90 d83e
00000170: 423f f93e dfe7 af3e 12ff cabd 2a29 5cbe
00000180: befe f4bd 4f10 ccbd 9632 f03e bf8c c93e
00000190: cf1f c8be 85fe 183e 7836 aabe c220 9fbd
000001a0: a294 96bc 8a77 ffbd 9178 803e cee7 c2bc
000001b0: 6add 8d3e 3c69 0c3f f575 4dbe b1fe 62be
000001c0: ca12 36be 2d07 f7bd d176 b8be 9531 1ebe
000001d0: a431 523e b964 3c3d c982 bb3d b2d0 443e
000001e0: 34b3 303e 35d4 93be edd0 0e3f 176d 65bc
000001f0: 68aa 813c 2fd8 043f 6c5f f03d b2a3 363d
00000200: f2b8 9b3d 9ae9 56be 3798 223d f625 093e
00000210: 281f d0bd 5a4c a03e ac54 d6be 378c cd3d
00000220: 3262 0a3f c689 8b3d 36ff f63e bd27 813d
00000230: e24d 273e 601a c9bd d9c5 0d3d 2c51 cf3d
00000240: 6fd3 cdbd 6fd1 f3bd e8d8 133f b777 1e3e
00000250: 9f42 9bbd 52a3 d43d 5053 cbbd 6a1f 8dbd
00000260: 29bc d4bd 2548 c63d fd30 85be 3c1d eb3e
00000270: c4f9 f03e febb b23e 0579 d4bd 0481 7bbe
00000280: 30c1 e7bd 0519 08be a7dd 003f 8699 bc3e
00000290: abb2 34be 3c70 1c3e 513b a3be e147 9dbc
000002a0: cf2f f9bc 5f4d edbd 1668 733e 3a39 84bd
000002b0: 558e 943e f0f9 0a3f 07f7 63be 1e8b 49be
000002c0: 0df0 16be 1aa6 02be 8be7 8bbe b712 22be
000002d0: ee33 323e 570c 553d c907 39bc cf80 473e
000002e0: 8601 253e e4c8 e2be 19fc 0b3f 688c 43bd
000002f0: 4036 11bd b947 093f e408 aa3d bc78 463d
00000300: aea7 473d 42ed 87be df33 813d 72d6 ed3d
00000310: 0e21 0ebd 560f 9e3e 2483 8cbe 3940 0e3e
00000320: 79ab 3a3f d83e a73d 6f5a fd3e 9262 aebd
00000330: 7c9c 353e 8e33 87bd 8d25 103d 5b51 e13d
00000340: 4cec 99bd fa51 39be ce84 1b3f 494f 023e
00000350: 4e5c a1bd 7358 3d3e 545c c9bd 18b9 28bd
00000360: ebca c4bd 3695 933d 8002 54be 1d67 d63e
00000370: a0e5 f33e 61cc bc3e ab4a 0fbe 233c 8bbe
00000380: 2654 3bbb 325a afbd 0040 fc3e 841c d63e
00000390: 2245 62bc 0101 293e 4085 babe 3d9c d53d
000003a0: 66ae f13a c7ae 97bd eeb7 7e3e 6e28 02bb
000003b0: fe7a 813e 8194 053f 6862 f7bd 1b9b 09be
000003c0: 834a 69bd d3df c7bd e2fb b9be 844e 61be
000003d0: cdb8 243e 1160 893d 526b 6d3d 2ee6 2b3e
000003e0: 5586 e43d 660e 84be 2344 0b3f 568a b0bd
000003f0: 1878 78bd 08e2 043f 7eb5 263e 098c d2bc

final.bias f4 [6]
2.509017 2.5907452 1.6577696 1.4427493 1.1795337 0.863577
00000000: bc93 2040 c5ce 2540 cb31 d43f 02ac b83f
00000010: f6fa 963f 6213 5d3f
